embd_16_nHead_4_nlayer_2_Batch_50.pth (torch, 23295 bytes, 11 tensors)

conv_layers.0.att_src f4 [1, 4, 16]
0.058978084 -0.33499798 0.75678194 0.2073914 0.19051328 -0.2882648 0.48400834 0.3308216
-0.35716063 0.5694939 0.07823153 0.5774332 -0.31493932 0.03579038 0.15870193 0.19437277
0.47016284 0.18539716 0.34503543 -0.23696207 -0.29592612 0.38185394 0.31974867 -0.01296366
0.52954686 -0.102596395 -0.37878 0.4052993 0.29026887 -0.42804992 -0.037657775 0.6361835
-6.590643e-05 0.067263365 -0.2942366 0.10623804 0.25996178 -0.51963305 -0.10693546 0.56599504
-0.2402544 -0.15249623 -0.55927664 0.019559273 -0.3847578 -0.74920166 -0.31240308 -0.14039557
-0.556965 0.2702128 -0.163081 -0.079725325 -0.24935982 -0.2640482 0.4578968 -0.031460058
-0.11150364 -0.26241034 0.198465 -0.43241948 -0.5817061 -0.12611365 0.45111972 0.5317289
00000000: 0193 713d db84 abbe 76bc 413f 695e 543e
00000010: ea15 433e 7297 93be f1cf f73e 7361 a93e
00000020: c2dd b6be 5aca 113f da37 a03d aad2 133f
00000030: ba3f a1be ef98 123d c282 223e a809 473e
00000040: 2fb9 f03e c1d8 3d3e 7ca8 b03e 2fa6 72be
00000050: a183 97be 5c82 c33e 19b6 a33e 8865 54bc
00000060: 6290 073f 0f1e d2bd 74ef c1be 6483 cf3e
00000070: 1f9e 943e 5c29 dbbe 0a3f 1abd ecdc 223f
00000080: 3f37 8ab8 60c1 893d 2ea6 96be 5493 d93d
00000090: b619 853e ac06 05bf fa00 dbbd 0de5 103f
000000a0: 4005 76be f927 1cbe c12c 0fbf c53a a03c
000000b0: f9fe c4be aecb 3fbf 4cf3 9fbe dbc3 0fbe
000000c0: 4295 0ebf 5559 8a3e b5fe 26be 0847 a3bd
000000d0: 2e58 7fbe 5331 87be 7371 ea3e 43dc 00bd
000000e0: 055c e4bd a65a 86be 693a 4b3e 1666 ddbe
000000f0: b1ea 14bf f023 01be 2af9 e63e 631f 083f

conv_layers.0.att_dst f4 [1, 4, 16]
0.15186167 0.12239061 0.23838809 -0.17121841 0.10063648 -0.029730558 0.3533946 0.14407194
-0.094327524 -0.631257 -0.39749238 0.29115695 -0.05504125 -0.028692182 0.24383758 -0.20641732
-0.19299436 0.36789858 0.2019005 -0.09148106 0.10761231 -0.13970126 -0.27344462 0.37755716
-0.3546072 -0.43887356 0.09476197 -0.06184576 -0.22632062 -0.44462997 -0.256597 -0.2486531
0.09614335 0.1995364 -0.43001923 0.42929128 -0.20437871 0.46053377 -0.42817095 0.4385881
0.36153334 0.47234887 0.0651815 0.459378 -0.4270543 -0.5906334 0.34697917 -0.37269023
-0.16748902 -0.24451363 0.34288865 -0.109150924 -0.08870779 0.51936406 0.045350593 -0.24562095
-0.22109926 -0.32755122 0.2531374 0.17952445 0.054063275 0.07044612 -0.41090143 -0.05607917
00000000: a081 1b3e eea7 fa3d 021c 743e e153 2fbe
00000010: 801a ce3d 808d f3bc 23f0 b43e 9887 133e
00000020: ca2e c1bd 0f9a 21bf 1f84 cbbe 8612 953e
00000030: ef72 61bd de0b ebbc 8fb0 793e 105f 53be
00000040: 50a0 45be 345d bc3e 01bf 4e3e 6c5a bbbd
00000050: d863 dc3d d90d 0fbe ef00 8cbe 2c4f c13e
00000060: 138f b5be 09b4 e0be 9012 c23d fb51 7dbd
00000070: 98c0 67be 8aa6 e3be af60 83be eb9e 7ebe
00000080: cee6 c43d 4553 4c3e 7b2b dcbe 11cc db3e
00000090: a748 51be 15cb eb3e 3939 dbbe 9f8e e03e
000000a0: e61a b93e b6d7 f13e e17d 853d 9833 eb3e
000000b0: dca6 dabe c033 17bf 41a7 b13e 41d1 bebe
000000c0: 3e82 2bbe c861 7abe 1a8f af3e 858a dfbd
000000d0: 6eac b5bd 0bf5 043f 8bc1 393d 0f84 7bbe
000000e0: d867 62be cbb4 a7be 3a9b 813e 42d5 373e
000000f0: 7471 5d3d 0e46 903d ac61 d2be 46b3 65bd

conv_layers.0.bias f4 [64]
-0.02005473 -0.16943184 0.16753434 -0.10808769 0.1211918 -0.11378755 0.3113945 -0.18120027
-0.023214316 0.13776305 -0.11906479 0.12674898 0.13206506 -0.13808362 -0.23422293 0.14785321
-0.012889697 -0.18514425 0.14315754 0.13567115 -0.110588126 0.13750426 -0.15925461 0.08111463
0.08947904 -0.14798988 0.073852666 -0.1491084 0.10568045 -0.12205448 -0.1038906 0.11436891
-0.119681165 0.11524803 -0.012004674 -0.1661566 -0.16137618 -0.20801546 0.14702104 0.10177239
-0.13771664 0.11264502 -0.1373981 0.12173808 -0.16277513 -0.039751112 0.018634891 0.10094662
-0.16281769 0.13549891 -0.16560312 0.12183749 -0.14009608 0.12741837 0.05480807 -0.13414139
-0.15475093 0.07484412 0.11464954 -0.09298867 -0.12936668 0.11299362 0.12489132 0.12896326
00000000: d149 a4bc 8a7f 2dbe 1f8e 2b3e 145d ddbd
00000010: 6833 f83d 7209 e9bd 1a6f 9f3e 908c 39be
00000020: f32b bebc c211 0d3e 3ed8 f3bd 7cca 013e
00000030: 103c 073e cb65 0dbe 23d8 6fbe d566 173e
00000040: 4f2f 53bc 7496 3dbe e497 123e 61ed 0a3e
00000050: 077c e2bd ebcd 0c3e a413 23be 6d1f a63d
00000060: c940 b73d a98a 17be 1140 973d dfaf 18be
00000070: fe6e d83d b3f7 f9bd 98c4 d4bd 3f3a ea3d
00000080: 661b f5bd 2907 ec3d 41af 44bc f524 2abe
00000090: cc3f 25be 0102 55be af8c 163e 0b6e d03d
000000a0: 9705 0dbe 6fb2 e63d 16b2 0cbe d151 f93d
000000b0: 86ae 26be 10d2 22bd 33a8 983c 1abd ce3d
000000c0: aeb9 26be 3ac0 0a3e dd93 29be ef85 f93d
000000d0: 5975 0fbe f679 023e 6d7e 603d 5c5c 09be
000000e0: 0777 1ebe e047 993d 61cd ea3d d870 bebd
000000f0: b378 04be 3369 e73d 05c7 ff3d f20e 043e

conv_layers.0.lin_src.weight f4 [64, 4]
-0.08152404 0.14682496 0.23932749 -0.025063671 -0.18537804 -0.41619587 -0.1454871 -0.016418349
0.16735141 0.25758272 0.15099892 0.037629787 0.13799465 -0.21864308 -0.3445781 -0.1732681
-0.06229075 0.020985484 0.30640012 0.25224802 -0.14004888 -0.22648045 -0.22289434 -0.23051763
0.4813396 0.49526107 0.26508734 -0.19028513 -0.1683142 -0.47682932 -0.22912145 -0.11771201
-0.1496327 -0.2905957 -0.4189696 -0.016832555 0.28124505 0.40638056 0.255503 -0.32960925
0.0767696 -0.085557364 -0.3438422 -0.15707734 0.036366403 0.28533787 0.32088768 0.07154288
-0.13436821 0.37987626 0.32622293 0.22017051 -0.45418513 -0.23141587 -0.25132632 -0.19166762
-0.29146847 -0.5238081 -0.28017735 -0.05366907 0.3395985 0.025940629 0.43966958 -0.031957347
-0.16912767 0.18391594 0.3528069 -0.36396176 0.083379954 0.2230373 -0.2789416 0.0010622742
-0.026085658 -0.06452977 0.20700355 0.15091981 0.26414087 -0.11149037 0.17852038 -0.17813173
-0.1634212 -0.36304978 -0.18927711 0.011652803 0.30939972 0.10784916 0.22340822 -0.28461
-0.29617938 -0.4380543 -0.18239331 -0.043821037 0.21514502 0.34953654 0.3197339 -0.17814353
0.1651609 0.08438728 0.22545189 -0.3833663 0.071541145 -0.12074675 -0.24690247 -0.08579497
-0.03898589 -0.24288166 0.15100524 -0.11403306 0.05616358 0.05165505 -0.302811 0.007047465
0.0076805283 0.37590295 0.4151882 -0.25221652 -0.15380035 -0.3683133 -0.18528984 -0.005807237
-0.009813236 -0.38301265 -0.31221345 0.062363673 -0.016014893 0.3477925 0.1375232 0.1246061
-0.4521466 0.09702939 -0.23246789 -0.12064886 -0.018010853 0.26863217 0.30662838 0.20290795
-0.31264156 -0.043380644 -0.25323284 0.054701228 -0.3793035 -0.06925544 -0.2951233 -0.29666892
-0.04016669 -0.29082626 -0.35338825 -0.13235223 -0.3844298 -0.26811197 -0.21940944 0.21726802
0.1878869 0.4546884 0.20178974 -0.16654532 0.07788326 0.17781715 0.3929644 0.096652456
-0.042950463 -0.015391835 -0.22067258 -0.06477258 0.22229101 0.39580685 0.30065897 0.28721
-0.084790625 -0.13504067 -0.22285455 -0.06432536 0.006561731 0.014873754 0.42840198 0.332361
-0.40274596 -0.15168208 -0.22563061 -0.08844826 -0.24137044 -0.33456513 -0.14084864 0.19916087
-0.21779954 -0.07777721 0.15110512 0.16482332 0.17326818 0.10362436 0.33272862 0.18649961
-0.21151912 -0.29240823 -0.1781454 -0.16187677 -0.12274671 0.42223617 0.38150615 -0.24553266
-0.2551371 -0.10195219 -0.19011027 0.109263845 -0.17363094 0.2168824 0.40725842 0.10264872
0.10819101 -0.11678494 -0.3949907 0.2140545 0.106524825 0.4316095 0.41732356 0.008309782
-0.17229517 -0.01641726 0.21622114 -0.044781677 -0.056237523 0.14327618 -0.36880988 -0.26069903
-0.13485125 -0.015692541 -0.41342753 -0.095013954 -0.16489956 -0.15346703 0.10802442 -0.20736147
0.07074454 0.003345991 0.38618055 0.08156028 -0.01663852 -0.048712496 -0.25399452 0.2798143
0.13782658 -0.047211744 -0.37175375 0.2969672 0.1350554 0.2585612 0.29581276 -0.11547641
-0.13780366 -0.12574252 0.3641227 0.19306897 0.12753274 0.38378385 0.35992536 -0.14210133
00000000: 13f6 a6bd 4859 163e 4412 753e 5452 cdbc
00000010: bed3 3dbe a017 d5be 92fa 14be c67f 86bc
00000020: 2b5e 2b3e e2e1 833e 769f 1a3e b121 1a3d
00000030: 784e 0d3e f9e3 5fbe 8a6c b0be 316d 31be
00000040: 9624 7fbd c0e9 ab3c 7ae0 9c3e a726 813e
00000050: f968 0fbe 7eea 67be 6a3e 64be d00c 6cbe
00000060: 2572 f63e dc92 fd3e 87b9 873e 1bda 42be
00000070: 8f5a 2cbe f922 f4be d09e 6abe ff12 f1bd
00000080: 5139 19be f6c8 94be 2f83 d6be 6de4 89bc
00000090: 5aff 8f3e 1d11 d03e 4ad1 823e 8bc2 a8be
000000a0: 6139 9d3d b338 afbd 160c b0be e2d8 20be
000000b0: f0f4 143d ce17 923e 644b a43e 1385 923d
000000c0: d297 09be 247f c23e b106 a73e 6174 613e
000000d0: f48a e8be 48f8 6cbe d8ad 80be 8444 44be
000000e0: 5b3b 95be 4a18 06bf 6873 8fbe 19d4 5bbd
000000f0: dbdf ad3e 7181 d43c 5f1c e13e b5e5 02bd
00000100: ce2f 2dbe 7654 3c3e 1ba3 b43e 3259 babe
00000110: 1cc3 aa3d e463 643e 6fd1 8ebe 023c 8b3a
00000120: 97b1 d5bc 2f28 84bd bdf8 533e b98a 1a3e
00000130: 793d 873e 1055 e4bd 0cce 363e 2a68 36be
00000140: e357 27be a9e1 b9be dcd1 41be 66eb 3e3c
00000150: a469 9e3e 05e0 dc3d 20c5 643e 67b8 91be
00000160: d3a4 97be a748 e0be 50c5 3abe b07d 33bd
00000170: fa4e 5c3e 74f6 b23e 29b4 a33e 426b 36be
00000180: f01f 293e 3dd3 ac3d dcdc 663e 9648 c4be
00000190: 2a84 923d 124a f7bd 00d4 7cbe 46b5 afbd
000001a0: abaf 1fbd f8b5 78be 1ea1 1a3e 2a8a e9bd
000001b0: c80b 663d 3f94 533d 0b0a 9bbe 6cee e63b
000001c0: f1ac fb3b 5a76 c03e 8c93 d43e 8622 81be
000001d0: d77d 1dbe 9093 bcbe 9fbc 3dbe a24a bebb
000001e0: b2c7 20bc 3c1a c4be 71da 9fbe 0d71 7f3d
000001f0: aa31 83bc dc11 b23e e2d2 0c3e 7c31 ff3d
00000200: c27f e7be 58b7 c63d 100c 6ebe c016 f7bd
00000210: 7f8b 93bc 288a 893e 65fe 9c3e 1ac7 4f3e
00000220: 8e12 a0be e7af 31bd bca7 81be 650e 603d
00000230: 1134 c2be ccd5 8dbd 671a 97be fde4 97be
00000240: d485 24bd 2ee7 94be 4eef b4be 5887 07be
00000250: fcd3 c4be f945 89be deac 60be 827b 5e3e
00000260: 6c65 403e ebcc e83e f8a1 4e3e db8a 2abe
00000270: 4281 9f3d b315 363e a132 c93e b9f1 c53d
00000280: d3ec 2fbd 092e 7cbc fef7 61be 7da7 84bd
00000290: 41a0 633e 32a7 ca3e f9ef 993e 300d 933e
000002a0: b5a6 adbd 1a48 0abe fc33 64be 04bd 83bd
000002b0: ca03 d73b 0cb1 733c 8157 db3e 392b aa3e
000002c0: b834 cebe 8c52 1bbe b60b 67be 5d24 b5bd
000002d0: d029 77be 1f4c abbe a03a 10be d4f0 4b3e
000002e0: d806 5fbe a849 9fbd 4dbb 1a3e 72c7 283e
000002f0: 376d 313e 0239 d43d 685b aa3e c1f9 3e3e
00000300: 7898 58be 88b6 95be bf6b 36be 06c3 25be
00000310: a162 fbbd 572f d83e c654 c33e ea6c 7bbe
00000320: 54a1 82be 4fcc d0bd 44ac 42be b9c5 df3d
00000330: 4fcc 31be 6b16 5e3e 2d84 d03e 7e39 d23d
00000340: 4093 dd3d f12c efbd 393c cabe 1a31 5b3e
00000350: b029 da3d ecfb dc3e 6fab d53e c025 083c
00000360: 256e 30be 7d7d 86bc 1369 5d3e fe6c 37bd
00000370: 5159 66bd feb6 123e a6d4 bcbe 587a 85be
00000380: 7216 0abe a58d 80bc c6ac d3be ad96 c2bd
00000390: 6edb 28be 7626 1dbe e83b dd3d 9156 54be
000003a0: 83e2 903d 6a48 5b3b 75b9 c53e 1309 a73d
000003b0: 814d 88bc c186 47bd 920b 82be d243 8f3e
000003c0: 6922 0d3e 1a61 41bd 8256 bebe 160c 983e
000003d0: f64b 0a3e 2262 843e c574 973e e57e ecbd
000003e0: 671c 0dbe a6c2 00be 4a6e ba3e dfb3 453e
000003f0: f197 023e 517f c43e 2348 b83e 0383 11be

conv_layers.0.lin_dst.weight f4 [64, 4]
-0.08152404 0.14682496 0.23932749 -0.025063671 -0.18537804 -0.41619587 -0.1454871 -0.016418349
0.16735141 0.25758272 0.15099892 0.037629787 0.13799465 -0.21864308 -0.3445781 -0.1732681
-0.06229075 0.020985484 0.30640012 0.25224802 -0.14004888 -0.22648045 -0.22289434 -0.23051763
0.4813396 0.49526107 0.26508734 -0.19028513 -0.1683142 -0.47682932 -0.22912145 -0.11771201
-0.1496327 -0.2905957 -0.4189696 -0.016832555 0.28124505 0.40638056 0.255503 -0.32960925
0.0767696 -0.085557364 -0.3438422 -0.15707734 0.036366403 0.28533787 0.32088768 0.07154288
-0.13436821 0.37987626 0.32622293 0.22017051 -0.45418513 -0.23141587 -0.25132632 -0.19166762
-0.29146847 -0.5238081 -0.28017735 -0.05366907 0.3395985 0.025940629 0.43966958 -0.031957347
-0.16912767 0.18391594 0.3528069 -0.36396176 0.083379954 0.2230373 -0.2789416 0.0010622742
-0.026085658 -0.06452977 0.20700355 0.15091981 0.26414087 -0.11149037 0.17852038 -0.17813173
-0.1634212 -0.36304978 -0.18927711 0.011652803 0.30939972 0.10784916 0.22340822 -0.28461
-0.29617938 -0.4380543 -0.18239331 -0.043821037 0.21514502 0.34953654 0.3197339 -0.17814353
0.1651609 0.08438728 0.22545189 -0.3833663 0.071541145 -0.12074675 -0.24690247 -0.08579497
-0.03898589 -0.24288166 0.15100524 -0.11403306 0.05616358 0.05165505 -0.302811 0.007047465
0.0076805283 0.37590295 0.4151882 -0.25221652 -0.15380035 -0.3683133 -0.18528984 -0.005807237
-0.009813236 -0.38301265 -0.31221345 0.062363673 -0.016014893 0.3477925 0.1375232 0.1246061
-0.4521466 0.09702939 -0.23246789 -0.12064886 -0.018010853 0.26863217 0.30662838 0.20290795
-0.31264156 -0.043380644 -0.25323284 0.054701228 -0.3793035 -0.06925544 -0.2951233 -0.29666892
-0.04016669 -0.29082626 -0.35338825 -0.13235223 -0.3844298 -0.26811197 -0.21940944 0.21726802
0.1878869 0.4546884 0.20178974 -0.16654532 0.07788326 0.17781715 0.3929644 0.096652456
-0.042950463 -0.015391835 -0.22067258 -0.06477258 0.22229101 0.39580685 0.30065897 0.28721
-0.084790625 -0.13504067 -0.22285455 -0.06432536 0.006561731 0.014873754 0.42840198 0.332361
-0.40274596 -0.15168208 -0.22563061 -0.08844826 -0.24137044 -0.33456513 -0.14084864 0.19916087
-0.21779954 -0.07777721 0.15110512 0.16482332 0.17326818 0.10362436 0.33272862 0.18649961
-0.21151912 -0.29240823 -0.1781454 -0.16187677 -0.12274671 0.42223617 0.38150615 -0.24553266
-0.2551371 -0.10195219 -0.19011027 0.109263845 -0.17363094 0.2168824 0.40725842 0.10264872
0.10819101 -0.11678494 -0.3949907 0.2140545 0.106524825 0.4316095 0.41732356 0.008309782
-0.17229517 -0.01641726 0.21622114 -0.044781677 -0.056237523 0.14327618 -0.36880988 -0.26069903
-0.13485125 -0.015692541 -0.41342753 -0.095013954 -0.16489956 -0.15346703 0.10802442 -0.20736147
0.07074454 0.003345991 0.38618055 0.08156028 -0.01663852 -0.048712496 -0.25399452 0.2798143
0.13782658 -0.047211744 -0.37175375 0.2969672 0.1350554 0.2585612 0.29581276 -0.11547641
-0.13780366 -0.12574252 0.3641227 0.19306897 0.12753274 0.38378385 0.35992536 -0.14210133
00000000: 13f6 a6bd 4859 163e 4412 753e 5452 cdbc
00000010: bed3 3dbe a017 d5be 92fa 14be c67f 86bc
00000020: 2b5e 2b3e e2e1 833e 769f 1a3e b121 1a3d
00000030: 784e 0d3e f9e3 5fbe 8a6c b0be 316d 31be
00000040: 9624 7fbd c0e9 ab3c 7ae0 9c3e a726 813e
00000050: f968 0fbe 7eea 67be 6a3e 64be d00c 6cbe
00000060: 2572 f63e dc92 fd3e 87b9 873e 1bda 42be
00000070: 8f5a 2cbe f922 f4be d09e 6abe ff12 f1bd
00000080: 5139 19be f6c8 94be 2f83 d6be 6de4 89bc
00000090: 5aff 8f3e 1d11 d03e 4ad1 823e 8bc2 a8be
000000a0: 6139 9d3d b338 afbd 160c b0be e2d8 20be
000000b0: f0f4 143d ce17 923e 644b a43e 1385 923d
000000c0: d297 09be 247f c23e b106 a73e 6174 613e
000000d0: f48a e8be 48f8 6cbe d8ad 80be 8444 44be
000000e0: 5b3b 95be 4a18 06bf 6873 8fbe 19d4 5bbd
000000f0: dbdf ad3e 7181 d43c 5f1c e13e b5e5 02bd
00000100: ce2f 2dbe 7654 3c3e 1ba3 b43e 3259 babe
00000110: 1cc3 aa3d e463 643e 6fd1 8ebe 023c 8b3a
00000120: 97b1 d5bc 2f28 84bd bdf8 533e b98a 1a3e
00000130: 793d 873e 1055 e4bd 0cce 363e 2a68 36be
00000140: e357 27be a9e1 b9be dcd1 41be 66eb 3e3c
00000150: a469 9e3e 05e0 dc3d 20c5 643e 67b8 91be
00000160: d3a4 97be a748 e0be 50c5 3abe b07d 33bd
00000170: fa4e 5c3e 74f6 b23e 29b4 a33e 426b 36be
00000180: f01f 293e 3dd3 ac3d dcdc 663e 9648 c4be
00000190: 2a84 923d 124a f7bd 00d4 7cbe 46b5 afbd
000001a0: abaf 1fbd f8b5 78be 1ea1 1a3e 2a8a e9bd
000001b0: c80b 663d 3f94 533d 0b0a 9bbe 6cee e63b
000001c0: f1ac fb3b 5a76 c03e 8c93 d43e 8622 81be
000001d0: d77d 1dbe 9093 bcbe 9fbc 3dbe a24a bebb
000001e0: b2c7 20bc 3c1a c4be 71da 9fbe 0d71 7f3d
000001f0: aa31 83bc dc11 b23e e2d2 0c3e 7c31 ff3d
00000200: c27f e7be 58b7 c63d 100c 6ebe c016 f7bd
00000210: 7f8b 93bc 288a 893e 65fe 9c3e 1ac7 4f3e
00000220: 8e12 a0be e7af 31bd bca7 81be 650e 603d
00000230: 1134 c2be ccd5 8dbd 671a 97be fde4 97be
00000240: d485 24bd 2ee7 94be 4eef b4be 5887 07be
00000250: fcd3 c4be f945 89be deac 60be 827b 5e3e
00000260: 6c65 403e ebcc e83e f8a1 4e3e db8a 2abe
00000270: 4281 9f3d b315 363e a132 c93e b9f1 c53d
00000280: d3ec 2fbd 092e 7cbc fef7 61be 7da7 84bd
00000290: 41a0 633e 32a7 ca3e f9ef 993e 300d 933e
000002a0: b5a6 adbd 1a48 0abe fc33 64be 04bd 83bd
000002b0: ca03 d73b 0cb1 733c 8157 db3e 392b aa3e
000002c0: b834 cebe 8c52 1bbe b60b 67be 5d24 b5bd
000002d0: d029 77be 1f4c abbe a03a 10be d4f0 4b3e
000002e0: d806 5fbe a849 9fbd 4dbb 1a3e 72c7 283e
000002f0: 376d 313e 0239 d43d 685b aa3e c1f9 3e3e
00000300: 7898 58be 88b6 95be bf6b 36be 06c3 25be
00000310: a162 fbbd 572f d83e c654 c33e ea6c 7bbe
00000320: 54a1 82be 4fcc d0bd 44ac 42be b9c5 df3d
00000330: 4fcc 31be 6b16 5e3e 2d84 d03e 7e39 d23d
00000340: 4093 dd3d f12c efbd 393c cabe 1a31 5b3e
00000350: b029 da3d ecfb dc3e 6fab d53e c025 083c
00000360: 256e 30be 7d7d 86bc 1369 5d3e fe6c 37bd
00000370: 5159 66bd feb6 123e a6d4 bcbe 587a 85be
00000380: 7216 0abe a58d 80bc c6ac d3be ad96 c2bd
00000390: 6edb 28be 7626 1dbe e83b dd3d 9156 54be
000003a0: 83e2 903d 6a48 5b3b 75b9 c53e 1309 a73d
000003b0: 814d 88bc c186 47bd 920b 82be d243 8f3e
000003c0: 6922 0d3e 1a61 41bd 8256 bebe 160c 983e
000003d0: f64b 0a3e 2262 843e c574 973e e57e ecbd
000003e0: 671c 0dbe a6c2 00be 4a6e ba3e dfb3 453e
000003f0: f197 023e 517f c43e 2348 b83e 0383 11be

conv_layers.1.att_src f4 [1, 4, 16]
-0.2149689 0.2341065 -0.5305295 -0.0007708876 -0.022938598 0.08293279 0.28428346 0.13811515
0.41839704 -0.17072354 0.4827998 0.03217404 -0.036549523 0.109583326 -0.56347144 -0.11781929
0.4137458 0.30761927 -0.29988518 0.6448372 0.088692755 0.496891 -0.21061586 -0.27181992
0.6268827 -0.52652776 -0.39183304 -0.49705786 0.385005 0.52430373 -0.6388514 0.3951904
-0.13454679 0.45891476 0.27123103 0.6610294 0.31719896 0.25714442 0.07630815 0.08228576
-0.40372956 -0.097344466 -0.26011035 -0.24075434 0.16461383 0.050797123 -0.3910557 0.1416993
0.13008992 0.5056256 -0.24377032 -0.23480107 0.18588287 0.35753953 0.42878413 0.106642626
0.5138945 0.30652598 0.05770349 0.47612157 -0.3551523 -0.22661234 0.44118807 -0.53667593
00000000: cf20 5cbe 9db9 6f3e c8d0 07bf 6415 4aba
00000010: bae9 bbbc abd8 a93d 9a8d 913e 0f6e 0d3e
00000020: 2338 d63e 27d2 2ebe 8931 f73e edc8 033d
00000030: f4b4 15bd 396d e03d aa3f 10bf 3d4b f1bd
00000040: 7dd6 d33e 4680 9d3e 8d8a 99be 0d14 253f
00000050: 8ca4 b53d 7f68 fe3e afab 57be fb2b 8bbe
00000060: 627b 203f 86ca 06bf 579e c8be 5e7e febe
00000070: 601f c53e c538 063f c48b 23bf 6556 ca3e
00000080: a2c6 09be e0f6 ea3e cbde 8a3e 3939 293f
00000090: e767 a23e 6fa8 833e 7347 9c3d 7085 a83d
000000a0: a4b5 cebe 895c c7bd 2f2d 85be 4e88 76be
000000b0: 8790 283e a510 503d 7438 c8be 9f19 113e
000000c0: 4b36 053e ae70 013f ed9e 79be b16f 70be
000000d0: 1458 3e3e 6c0f b73e 9889 db3e 7367 da3d
000000e0: 978e 033f f9f0 9c3e 7f5a 6c3d 35c6 f33e
000000f0: 86d6 b5be 110d 68be 67e3 e13e 9863 09bf

conv_layers.1.att_dst f4 [1, 4, 16]
0.10591213 0.26580083 -0.52233624 -0.47706446 0.5272513 -0.14367384 0.025271047 0.2699619
-0.495102 -0.49903235 0.23995106 -0.1612475 0.5278698 -0.44002634 0.27493015 0.3651268
0.323742 0.22755703 0.40896118 -0.3341235 0.17412768 0.16407987 -0.37585953 0.46949768
-0.10611176 -0.2548408 0.103831075 0.43896595 -0.025708962 0.31199494 0.19049333 0.43552294
0.1573384 -0.28807172 0.30179527 0.06299205 0.055989794 -0.37845767 -0.4005916 -0.5577436
0.5468706 -0.4970107 0.50758946 0.4027683 -0.23862354 -0.5052861 -0.2957912 -0.20403905
0.17434144 -0.2726468 0.313657 0.15935643 -0.4528598 -0.071134776 0.29347324 -0.03428857
0.24626994 0.2441749 0.150558 -0.10617215 -0.0022742131 0.44822896 0.1556989 0.17065649
00000000: 75e8 d83d 0c17 883e d4b7 05bf cb41 f4be
00000010: f1f9 063f 3c1f 13be 3a05 cf3c 7238 8a3e
00000020: 027e fdbe 2b81 ffbe bbb5 753e 111e 25be
00000030: 7a22 073f 224b e1be a5c3 8c3e e6f1 ba3e
00000040: 83c1 a53e b604 693e 5c63 d13e 3c12 abbe
00000050: 874e 323e 8e04 283e a970 c0be 0062 f03e
00000060: 1f51 d9bd 7e7a 82be 63a5 d43d 25c0 e03e
00000070: 9a9b d2bc cdbd 9f3e af10 433e ddfc de3e
00000080: 511d 213e 237e 93be e984 9a3e fa01 813d
00000090: 8e55 653d 34c5 c1be 581a cdbe 49c8 0ebf
000000a0: b6ff 0b3f 3078 febe 62f1 013f a637 ce3e
000000b0: bb59 74be 6e5a 01bf f271 97be 9def 50be
000000c0: 9086 323e 5d98 8bbe a697 a03e 552e 233e
000000d0: 3ddd e7be 1caf 91bd 2042 963e 2c72 0cbd
000000e0: 302e 7c3e fc08 7a3e e02b 1a3e c970 d9bd
000000f0: f70a 15bb 447e e53e 886f 1f3e 93c0 2e3e

conv_layers.1.bias f4 [64]
0.08778708 0.08020063 -0.084391676 0.09628958 0.06934087 0.094633736 0.089384675 -0.08970498
0.08438753 -0.06610179 0.07553117 -0.0771717 0.096422285 0.07701352 -0.07509485 0.07681068
0.11059543 0.06465469 -0.07155118 0.08982595 0.07641312 0.097073466 0.07955126 -0.07445778
0.08932654 -0.07768724 0.06838182 -0.08518185 0.09906245 0.06301333 -0.09402536 0.061970923
0.08875061 0.073763095 -0.08927092 0.0732928 0.0593267 0.087528996 0.07122062 -0.06569372
0.07517861 -0.08995411 0.07680799 -0.099674135 0.09234779 0.06788289 -0.09230709 0.075703144
0.089068994 0.06477091 -0.099315986 0.102650076 0.07688173 0.10096014 0.085115224 -0.07932473
0.104475364 -0.068891294 0.07669961 -0.08124736 0.06836672 0.061193157 -0.09573475 0.08128977
00000000: b6c9 b33d 3a40 a43d 8bd5 acbd 7933 c53d
00000010: 9602 8e3d 55cf c13d 500f b73d 3fb7 b7bd
00000020: 5fd3 ac3d 6060 87bd 16b0 9a3d 320c 9ebd
00000030: 0c79 c53d 44b9 9d3d 54cb 99bd eb4e 9d3d
00000040: db7f e23d ae69 843d 6d89 92bd abf6 b73d
00000050: 7b7e 9c3d 74ce c63d c5eb a23d 527d 98bd
00000060: d5f0 b63d 7d1a 9fbd c50b 8c3d d273 aebd
00000070: 41e1 ca3d 220d 813d 5e90 c0bd 39d5 7d3d
00000080: e1c2 b53d 1b11 973d acd3 b6bd 891a 963d
00000090: 8e00 733d 6742 b33d 1edc 913d 6e8a 86bd
000000a0: 3ef7 993d dc39 b8bd 824d 9d3d f421 ccbd
000000b0: d720 bd3d 2f06 8b3d 800b bdbd 400a 9b3d
000000c0: ce69 b63d 9ca6 843d 2e66 cbbd 343a d23d
000000d0: 2b74 9d3d 31c4 ce3d e450 ae3d 0175 a2bd
000000e0: 2ef7 d53d e116 8dbd af14 9d3d 0465 a6bd
000000f0: da03 8c3d ada5 7a3d 9510 c4bd 407b a63d

conv_layers.1.lin_src.weight f4 [64, 64]
0.012192317 -0.35245028 0.27715054 -0.19577287 0.22001252 0.09824679 0.30297744 -0.06443014
-2.8601795e-05 0.14699855 -0.19337657 0.1243709 -0.07342798 -0.13012718 -0.41984716 0.1611543
0.15827852 0.091038786 0.16550578 -0.003379988 -0.2532543 0.3213523 -0.016467482 0.3052085
0.12891035 -0.14506742 0.053449456 -0.27004644 0.1884507 -0.13918076 0.006721895 0.21798752
-0.26465338 0.09828903 -0.17369199 -0.1718551 0.039674927 -0.45842248 0.058433373 -0.02806475
-0.1771796 -0.091724284 0.05623515 0.14199248 -0.20648962 0.011578586 0.14347778 0.2584545
-0.26034477 0.1328358 -0.23710686 0.24800934 -0.09491104 -0.123314284 0.0633246 -0.071587786
-0.012920859 -0.04304449 -0.038551126 0.039139755 -0.16947408 0.22398783 0.19374646 0.2244399
0.2200069 -0.22907521 0.13200353 -0.09414271 -0.07202376 -0.21057579 0.18877621 -0.32608142
-0.18391247 0.29377547 -0.19386072 0.093265295 0.28293067 0.0012827433 -0.20421417 0.27046472
-0.0048059397 -0.0342469 0.15789677 0.18655346 -0.19525068 0.30336872 0.014931001 0.28941536
-0.094741985 -0.010014174 0.08201182 0.060835432 0.2612796 0.09832861 0.006635958 -0.08955295
-0.31904182 0.197287 -0.22775209 -0.29408675 -0.22106878 -0.39194927 -0.045008905 0.0516555
0.015171798 0.027093207 -0.06274882 0.09183133 -0.30570024 -0.3105959 0.2804157 -0.051521532
-0.023447549 -0.11473175 -0.2602543 -0.08312127 -0.27484676 -0.085813865 -0.10196143 -0.14311045
-0.00583305 -0.024009997 0.0025428638 0.03473949 -0.03535616 0.09721481 -0.11723088 -0.091820896
-0.07743386 0.13036266 -0.04923437 -0.037471604 -0.088411376 -0.029799303 -0.22727787 -0.0031103303
-0.012803748 -0.2569947 -0.05308079 -0.26252416 -0.20136416 0.1314532 0.18708822 -0.09697005
-0.28732556 0.0037898878 0.014853524 0.033048827 -0.033003267 -0.11844899 0.30264363 -0.18584526
-0.30881128 0.15520157 -0.060148295 0.24103127 -0.25860327 0.1706865 -0.039005127 -0.14812218
0.25810897 0.0595258 0.046019956 0.20257418 -0.022270717 0.100287996 -0.2871775 -0.16864589
-0.07817005 -0.22010015 0.30015936 -0.29654485 0.030053841 0.3089029 -0.24123594 -0.112085216
-0.039330002 -0.11031922 0.11213147 -0.11487131 0.21555768 -0.14263663 -0.115360975 0.15680903
-0.10759326 0.056364868 -0.031253953 0.16372107 0.16710865 -0.07124923 0.113365985 -0.2441725
0.2201356 -0.36588955 0.189996 0.013953057 0.25543615 -0.05400818 0.19011448 -0.033612438
-0.22159132 0.036431264 -0.30854368 0.07674525 0.013888802 -0.14139597 -0.13005447 -0.02521041
-0.006440472 0.06868531 0.22547968 0.030589039 -0.05586593 0.046803996 -0.2420446 0.28021818
-0.043762185 -0.14103834 0.25223115 0.028602216 0.3025998 0.077156045 -0.19659866 0.30692944
-0.08228191 0.16997072 -0.09364063 -0.018036718 -0.17187628 -0.03483231 0.16356331 0.08779648
-0.33610246 0.18846536 -0.2449393 -0.10125609 -0.16251571 -0.17164442 -0.10065943 0.29584932
-0.26204 -0.07546601 -0.18292272 0.036365837 -0.09566631 -0.06667756 0.013973674 -0.055638377
-0.06608828 -0.058781896 0.20794661 -0.14836863 -0.06587934 0.27385327 -0.10212078 0.061336804
00000000: 49c2 473c 5d74 b4be ade6 8d3e af78 48be
00000010: f64a 613e 9d35 c93d dc1f 9b3e f3f3 83bd
00000020: e3ed efb7 ca86 163e 8204 46be 2cb6 fe3d
00000030: 6961 96bd 0f40 05be 35f6 d6be a205 253e
00000040: c413 223e 8b72 ba3d 597a 293e ca82 5dbb
00000050: 8caa 81be 4a88 a43e d0e6 86bc 4a44 9c3e
00000060: 1301 043e 8e8c 14be d1ed 5a3d 8743 8abe
00000070: 38f9 403e 6785 0ebe 5843 dc3b 1f38 5f3e
00000080: a680 87be c24b c93d 50dc 31be c9fa 2fbe
00000090: 2d82 223d 5ab6 eabe d557 6f3d 0ce8 e5bc
000000a0: 926e 35be f1d9 bbbd d456 663d 7a66 113e
000000b0: 0472 53be 1cb4 3d3c d7eb 123e 2654 843e
000000c0: e94b 85be 1c06 083e 24cc 72be 29f6 7d3e
000000d0: b860 c2bd 338c fcbd 54b0 813d 9e9c 92bd
000000e0: 03b2 53bc 6b4f 30bd c9e7 1dbd 0251 203d
000000f0: 9d8a 2dbe 115d 653e 7965 463e 93d3 653e
00000100: 7d49 613e b192 6abe ef2b 073e e5cd c0bd
00000110: 3181 93bd 2ea1 57be 8d4e 413e 25f4 a6be
00000120: 8d53 3cbe bd69 963e 6d83 46be e001 bf3d
00000130: 4adc 903e b921 a83a 851d 51be 5a7a 8a3e
00000140: 257b 9dbb 7a46 0cbd b1af 213e df07 3f3e
00000150: cbef 47be 2553 9b3e 28a1 743c 402e 943e
00000160: 1608 c2bd 7d12 24bc d0f5 a73d 932e 793d
00000170: 71c6 853e 8360 c93d 7372 d93b 8967 b7bd
00000180: 7359 a3be 9a05 4a3e d837 69be 8a92 96be
00000190: db5f 62be 93ad c8be 425b 38bd b894 533d
000001a0: 2293 783c 93f2 dd3c 7482 80bd 1012 bc3d
000001b0: be84 9cbe 6d06 9fbe a692 8f3e 3e08 53bd
000001c0: 1315 c0bc 7bf8 eabd 0d40 85be 7c3b aabd
000001d0: b7b8 8cbe 2ebf afbd 27d1 d0bd 8c8b 12be
000001e0: 2b23 bfbb 9db0 c4bc 2da6 263b ff4a 0e3d
000001f0: 9fd1 10bd 8f18 c73d be16 f0bd 980c bcbd
00000200: a595 9ebd ca7d 053e fba9 49bd d37b 19bd
00000210: 0611 b5bd ab1d f4bc 88bb 68be afd6 4bbb
00000220: d0c6 51bc cf94 83be 3e6b 59bd 9169 86be
00000230: 6832 4ebe ab9b 063e 0e94 3f3e 3c98 c6bd
00000240: 561c 93be c45f 783b 325c 733c 355e 073d
00000250: 6f2e 07bd 6295 f2bd 1bf4 9a3e 384e 3ebe
00000260: 831c 9ebe 29ed 1e3e 0f5e 76bd e7d0 763e
00000270: a667 84be 71c8 2e3e d7c3 1fbd 57ad 17be
00000280: dc26 843e 53d1 733d 6c7f 3c3d 9b6f 4f3e
00000290: 1471 b6bc cb63 cd3d ee08 93be 82b1 2cbe
000002a0: 9f17 a0bd ef61 61be 7dae 993e bad4 97be
000002b0: 7933 f63c 8528 9e3e 8e06 77be ef8c e5bd
000002c0: 7f18 21bd 0bef e1bd 2fa5 e53d a641 ebbd
000002d0: 27bb 5c3e 560f 12be 6042 ecbd 8c92 203e
000002e0: db59 dcbd d9de 663d 2504 00bd 7fa6 273e
000002f0: 881e 2b3e 1eeb 91bd 6d2c e83d 5b08 7abe
00000300: 3a6b 613e e055 bbbe 508e 423e 5d9b 643c
00000310: 87c8 823e ae37 5dbd 5fad 423e 32ad 09bd
00000320: d6e8 62be f338 153d 70f9 9dbe 9d2c 9d3d
00000330: dc8d 633c 1bca 10be 002d 05be 1086 cebc
00000340: 980a d3bb e2aa 8c3d 25e4 663e dd95 fa3c
00000350: acd3 64bd 8cb5 3f3d 8ada 77be c278 8f3e
00000360: fa3f 33bd 5b6c 10be 7124 813e 324f ea3c
00000370: 5cee 9a3e fd03 9e3d 2951 49be db25 9d3e
00000380: 6b83 a8bd ce0c 2e3e a9c6 bfbd bdc1 93bc
00000390: 5600 30be 53ac 0ebd 247d 273e a4ce b33d
000003a0: 9f15 acbe 10fd 403e 5ed1 7abe 5a5f cfbd
000003b0: 856a 26be 8ec3 2fbe 8826 cebd 9079 973e
000003c0: 1b2a 86be ec8d 9abd 1850 3bbe 58f4 143d
000003d0: b3ec c3bd 3f8e 88bd d6f1 643c 11e5 63bd
000003e0: 4b59 87bd 49c5 70bd f5ef 543e f2ed 17be
000003f0: bfeb 86bd 7f36 8c3e b324 d1bd 4d3c 7b3d

conv_layers.1.lin_dst.weight f4 [64, 64]
0.012192317 -0.35245028 0.27715054 -0.19577287 0.22001252 0.09824679 0.30297744 -0.06443014
-2.8601795e-05 0.14699855 -0.19337657 0.1243709 -0.07342798 -0.13012718 -0.41984716 0.1611543
0.15827852 0.091038786 0.16550578 -0.003379988 -0.2532543 0.3213523 -0.016467482 0.3052085
0.12891035 -0.14506742 0.053449456 -0.27004644 0.1884507 -0.13918076 0.006721895 0.21798752
-0.26465338 0.09828903 -0.17369199 -0.1718551 0.039674927 -0.45842248 0.058433373 -0.02806475
-0.1771796 -0.091724284 0.05623515 0.14199248 -0.20648962 0.011578586 0.14347778 0.2584545
-0.26034477 0.1328358 -0.23710686 0.24800934 -0.09491104 -0.123314284 0.0633246 -0.071587786
-0.012920859 -0.04304449 -0.038551126 0.039139755 -0.16947408 0.22398783 0.19374646 0.2244399
0.2200069 -0.22907521 0.13200353 -0.09414271 -0.07202376 -0.21057579 0.18877621 -0.32608142
-0.18391247 0.29377547 -0.19386072 0.093265295 0.28293067 0.0012827433 -0.20421417 0.27046472
-0.0048059397 -0.0342469 0.15789677 0.18655346 -0.19525068 0.30336872 0.014931001 0.28941536
-0.094741985 -0.010014174 0.08201182 0.060835432 0.2612796 0.09832861 0.006635958 -0.08955295
-0.31904182 0.197287 -0.22775209 -0.29408675 -0.22106878 -0.39194927 -0.045008905 0.0516555
0.015171798 0.027093207 -0.06274882 0.09183133 -0.30570024 -0.3105959 0.2804157 -0.051521532
-0.023447549 -0.11473175 -0.2602543 -0.08312127 -0.27484676 -0.085813865 -0.10196143 -0.14311045
-0.00583305 -0.024009997 0.0025428638 0.03473949 -0.03535616 0.09721481 -0.11723088 -0.091820896
-0.07743386 0.13036266 -0.04923437 -0.037471604 -0.088411376 -0.029799303 -0.22727787 -0.0031103303
-0.012803748 -0.2569947 -0.05308079 -0.26252416 -0.20136416 0.1314532 0.18708822 -0.09697005
-0.28732556 0.0037898878 0.014853524 0.033048827 -0.033003267 -0.11844899 0.30264363 -0.18584526
-0.30881128 0.15520157 -0.060148295 0.24103127 -0.25860327 0.1706865 -0.039005127 -0.14812218
0.25810897 0.0595258 0.046019956 0.20257418 -0.022270717 0.100287996 -0.2871775 -0.16864589
-0.07817005 -0.22010015 0.30015936 -0.29654485 0.030053841 0.3089029 -0.24123594 -0.112085216
-0.039330002 -0.11031922 0.11213147 -0.11487131 0.21555768 -0.14263663 -0.115360975 0.15680903
-0.10759326 0.056364868 -0.031253953 0.16372107 0.16710865 -0.07124923 0.113365985 -0.2441725
0.2201356 -0.36588955 0.189996 0.013953057 0.25543615 -0.05400818 0.19011448 -0.033612438
-0.22159132 0.036431264 -0.30854368 0.07674525 0.013888802 -0.14139597 -0.13005447 -0.02521041
-0.006440472 0.06868531 0.22547968 0.030589039 -0.05586593 0.046803996 -0.2420446 0.28021818
-0.043762185 -0.14103834 0.25223115 0.028602216 0.3025998 0.077156045 -0.19659866 0.30692944
-0.08228191 0.16997072 -0.09364063 -0.018036718 -0.17187628 -0.03483231 0.16356331 0.08779648
-0.33610246 0.18846536 -0.2449393 -0.10125609 -0.16251571 -0.17164442 -0.10065943 0.29584932
-0.26204 -0.07546601 -0.18292272 0.036365837 -0.09566631 -0.06667756 0.013973674 -0.055638377
-0.06608828 -0.058781896 0.20794661 -0.14836863 -0.06587934 0.27385327 -0.10212078 0.061336804
00000000: 49c2 473c 5d74 b4be ade6 8d3e af78 48be
00000010: f64a 613e 9d35 c93d dc1f 9b3e f3f3 83bd
00000020: e3ed efb7 ca86 163e 8204 46be 2cb6 fe3d
00000030: 6961 96bd 0f40 05be 35f6 d6be a205 253e
00000040: c413 223e 8b72 ba3d 597a 293e ca82 5dbb
00000050: 8caa 81be 4a88 a43e d0e6 86bc 4a44 9c3e
00000060: 1301 043e 8e8c 14be d1ed 5a3d 8743 8abe
00000070: 38f9 403e 6785 0ebe 5843 dc3b 1f38 5f3e
00000080: a680 87be c24b c93d 50dc 31be c9fa 2fbe
00000090: 2d82 223d 5ab6 eabe d557 6f3d 0ce8 e5bc
000000a0: 926e 35be f1d9 bbbd d456 663d 7a66 113e
000000b0: 0472 53be 1cb4 3d3c d7eb 123e 2654 843e
000000c0: e94b 85be 1c06 083e 24cc 72be 29f6 7d3e
000000d0: b860 c2bd 338c fcbd 54b0 813d 9e9c 92bd
000000e0: 03b2 53bc 6b4f 30bd c9e7 1dbd 0251 203d
000000f0: 9d8a 2dbe 115d 653e 7965 463e 93d3 653e
00000100: 7d49 613e b192 6abe ef2b 073e e5cd c0bd
00000110: 3181 93bd 2ea1 57be 8d4e 413e 25f4 a6be
00000120: 8d53 3cbe bd69 963e 6d83 46be e001 bf3d
00000130: 4adc 903e b921 a83a 851d 51be 5a7a 8a3e
00000140: 257b 9dbb 7a46 0cbd b1af 213e df07 3f3e
00000150: cbef 47be 2553 9b3e 28a1 743c 402e 943e
00000160: 1608 c2bd 7d12 24bc d0f5 a73d 932e 793d
00000170: 71c6 853e 8360 c93d 7372 d93b 8967 b7bd
00000180: 7359 a3be 9a05 4a3e d837 69be 8a92 96be
00000190: db5f 62be 93ad c8be 425b 38bd b894 533d
000001a0: 2293 783c 93f2 dd3c 7482 80bd 1012 bc3d
000001b0: be84 9cbe 6d06 9fbe a692 8f3e 3e08 53bd
000001c0: 1315 c0bc 7bf8 eabd 0d40 85be 7c3b aabd
000001d0: b7b8 8cbe 2ebf afbd 27d1 d0bd 8c8b 12be
000001e0: 2b23 bfbb 9db0 c4bc 2da6 263b ff4a 0e3d
000001f0: 9fd1 10bd 8f18 c73d be16 f0bd 980c bcbd
00000200: a595 9ebd ca7d 053e fba9 49bd d37b 19bd
00000210: 0611 b5bd ab1d f4bc 88bb 68be afd6 4bbb
00000220: d0c6 51bc cf94 83be 3e6b 59bd 9169 86be
00000230: 6832 4ebe ab9b 063e 0e94 3f3e 3c98 c6bd
00000240: 561c 93be c45f 783b 325c 733c 355e 073d
00000250: 6f2e 07bd 6295 f2bd 1bf4 9a3e 384e 3ebe
00000260: 831c 9ebe 29ed 1e3e 0f5e 76bd e7d0 763e
00000270: a667 84be 71c8 2e3e d7c3 1fbd 57ad 17be
00000280: dc26 843e 53d1 733d 6c7f 3c3d 9b6f 4f3e
00000290: 1471 b6bc cb63 cd3d ee08 93be 82b1 2cbe
000002a0: 9f17 a0bd ef61 61be 7dae 993e bad4 97be
000002b0: 7933 f63c 8528 9e3e 8e06 77be ef8c e5bd
000002c0: 7f18 21bd 0bef e1bd 2fa5 e53d a641 ebbd
000002d0: 27bb 5c3e 560f 12be 6042 ecbd 8c92 203e
000002e0: db59 dcbd d9de 663d 2504 00bd 7fa6 273e
000002f0: 881e 2b3e 1eeb 91bd 6d2c e83d 5b08 7abe
00000300: 3a6b 613e e055 bbbe 508e 423e 5d9b 643c
00000310: 87c8 823e ae37 5dbd 5fad 423e 32ad 09bd
00000320: d6e8 62be f338 153d 70f9 9dbe 9d2c 9d3d
00000330: dc8d 633c 1bca 10be 002d 05be 1086 cebc
00000340: 980a d3bb e2aa 8c3d 25e4 663e dd95 fa3c
00000350: acd3 64bd 8cb5 3f3d 8ada 77be c278 8f3e
00000360: fa3f 33bd 5b6c 10be 7124 813e 324f ea3c
00000370: 5cee 9a3e fd03 9e3d 2951 49be db25 9d3e
00000380: 6b83 a8bd ce0c 2e3e a9c6 bfbd bdc1 93bc
00000390: 5600 30be 53ac 0ebd 247d 273e a4ce b33d
000003a0: 9f15 acbe 10fd 403e 5ed1 7abe 5a5f cfbd
000003b0: 856a 26be 8ec3 2fbe 8826 cebd 9079 973e
000003c0: 1b2a 86be ec8d 9abd 1850 3bbe 58f4 143d
000003d0: b3ec c3bd 3f8e 88bd d6f1 643c 11e5 63bd
000003e0: 4b59 87bd 49c5 70bd f5ef 543e f2ed 17be
000003f0: bfeb 86bd 7f36 8c3e b324 d1bd 4d3c 7b3d

out.weight f4 [1, 48]
0.9384901 0.86016095 -0.7200269 0.8985257 0.6778747 0.71700835 0.921942 -0.94211024
0.73394257 -0.9192206 0.7448701 -0.83527356 0.82407594 0.90735364 -0.6663777 0.7094796
0.79169214 0.9383353 -0.88864356 0.68275803 0.82632214 0.9132908 0.845621 -0.9066138
0.69184333 -0.7545303 0.8882364 -0.716736 0.8509124 0.81298614 -0.8342913 0.8221347
0.14944513 0.20991999 -0.20408924 0.21210703 0.23364449 0.18567462 0.22333947 -0.29751846
0.2573502 -0.24049553 0.23315577 -0.2050431 0.22105046 0.29763186 -0.1943116 0.26917717
00000000: e340 703f 8233 5c3f af53 38bf c805 663f
00000010: 3289 2d3f dc8d 373f 6404 6c3f 232e 71bf
00000020: a9e3 3b3f 0b52 6bbf cfaf 3e3f 7dd4 55bf
00000030: a4f6 523f 5448 683f bb97 2abf 74a0 353f
00000040: 56ac 4a3f be36 703f 257e 63bf 3bc9 2e3f
00000050: d989 533f 6dcd 693f 9e7a 583f d817 68bf
00000060: a51c 313f e628 41bf 7663 633f 037c 37bf
00000070: 65d5 593f dc1f 503f 1d94 55bf 6b77 523f
00000080: 2508 193e 44f5 563e c5fc 50be 9632 593e
00000090: 8040 6f3e 7d21 3e3e 1ab3 643e 5754 98be
000000a0: 68c3 833e 7644 76be 63c0 6e3e d2f6 51be
000000b0: 0d5b 623e 3463 983e 9ff9 46be 97d1 893e
