embd_32_nHead_4_nlayer_3_Batch_500.pth (torch, 143659 bytes, 16 tensors)

conv_layers.0.att_src f4 [1, 4, 32]
0	0x3e41909d	0.18902822
1	0xbe96e049	-0.2946799
2	0x3eb8ce5e	0.36094946
3	0xbe87cc83	-0.26523218
4	0x3f49b19d	0.7878664
5	0xbec69c54	-0.38791144
6	0xbed6c2d2	-0.4194551
7	0xbe0b7cf9	-0.13621892
8	0x3edf7a04	0.43647778
9	0x3ec9de1a	0.39427263
10	0xbebcf78e	-0.3690762
11	0xbedf01e4	-0.4355613
12	0xbf556c0b	-0.83367985
13	0x3e2f5a92	0.17124394
14	0xbe916a58	-0.28401446
15	0x3eaed682	0.3414803
16	0x3ebfbbc7	0.3744795
17	0xbd7361fd	-0.05941962
18	0xbec54122	-0.38526255
19	0x3e07041d	0.13185163
20	0xbe77064f	-0.241235
21	0xbead87ce	-0.33892673
22	0x3d9db241	0.07700015
23	0x3edcfe86	0.43162936
24	0x3e18bca0	0.14915705
25	0x3ecd06b4	0.40044177
26	0xbd29b934	-0.04143639
27	0xbefe88e5	-0.49713817
28	0x3de0629f	0.109563105
29	0x3ee3452a	0.44388705
30	0x3d930df5	0.071803965
31	0x3eb7e6d3	0.35918292
32	0xbebc54b2	-0.36783367
33	0xba9ae2e2	-0.0011816884
34	0xbea3dee6	-0.32005996
35	0xbe389a62	-0.18027642
36	0xbd3190d2	-0.043351002
37	0x3d6d6176	0.057954274
38	0x3cd7af13	0.0263286
39	0x3e425292	0.1897681
40	0xbd9d9bd7	-0.0769574
41	0x3ea7765f	0.32707497
42	0x3e0d7c7a	0.13817015
43	0x3e3ee242	0.18640998
44	0xbe6e05c0	-0.23244381
45	0x3e6c2ac5	0.2306319
46	0xbeb993e0	-0.36245632
47	0xb9e5991a	-0.00043792353
48	0xbd026dd4	-0.03184302
49	0x3dae07d3	0.08497586
50	0xbe9acc86	-0.30234164
51	0x3e68f321	0.22748996
52	0x3daba44a	0.08380945
53	0x3d81e40b	0.06342324
54	0x3e2fc4da	0.17164937
55	0xbefc6fd5	-0.4930407
56	0xbdbeb96d	-0.09312711
57	0xbd95682e	-0.07295261
58	0x3b18c4c8	0.002331065
59	0xbd086544	-0.0332997
60	0x3e8a9346	0.27065486
61	0x3e07c18d	0.13257428
62	0xbec67c9b	-0.3876694
63	0xbe6c9607	-0.23104106
64	0xbd5ab9bd	-0.05339979
65	0xbdae8be8	-0.08522779
66	0x3e647ad1	0.22312476
67	0xbf0d62cb	-0.5522887
68	0x3f78aead	0.97141534
69	0x3e00a4c1	0.12562849
70	0x3f123583	0.571129
71	0x3ec5d303	0.38637552
72	0x3eb99080	0.36243057
73	0x3ed977af	0.42474124
74	0x3e19d937	0.15024267
75	0x3e24be44	0.16088206
76	0x3f0b8e4f	0.5451402
77	0x3e562e6d	0.20916148
78	0x3d25673c	0.040381655
79	0xbef4e85a	-0.4783352
80	0xbde164da	-0.11005564
81	0xbdf71a76	-0.12065594
82	0xbe52980f	-0.20565818
83	0xbcc25fc6	-0.023727309
84	0xbf8628a8	-1.0481157
85	0x3e868592	0.2627378
86	0x3dd21647	0.10258155
87	0xbeb73022	-0.3577891
88	0x3e09412a	0.13403764
89	0xbec1dc60	-0.37863445
90	0xbedef9a3	-0.43549833
91	0xbddc2f43	-0.10751202
92	0x3f20fcb1	0.62885576
93	0xbe13265c	-0.14370102
94	0x3e00b8fb	0.12570564
95	0x3d3de7c4	0.046363607
96	0xbd71ac98	-0.05900249
97	0xbe50b7be	-0.20382592
98	0xbe236386	-0.15955934
99	0xbc41d42c	-0.011830371
100	0x3c85690e	0.016285446
101	0xbdab7e3d	-0.083736874
102	0xbe488612	-0.19582394
103	0xbd81ffa7	-0.0634759
104	0x3e21962c	0.15779942
105	0x3db9870f	0.090589635
106	0xbcc9e38a	-0.024644632
107	0x3cce20aa	0.02516206
108	0x3c788c4a	0.015170166
109	0xbeb14a3e	-0.34626955
110	0xbd7e3087	-0.062057998
111	0x3e400adc	0.18754143
112	0xbea1f566	-0.31632537
113	0x3aa221b7	0.0012369667
114	0xbdacbb70	-0.08434188
115	0x3e0d20f6	0.13782105
116	0xbe58f4ba	-0.21187106
117	0xbeaed2f2	-0.34145314
118	0x3eb070dd	0.34461108
119	0x3f033255	0.51248676
120	0x3e19fba8	0.15037405
121	0xbcbbb4ed	-0.02291342
122	0xbe7d1798	-0.24716032
123	0x3e0a0a75	0.13480552
124	0x3d287a84	0.041132465
125	0x3cb5627d	0.02214169
126	0x3dc7b49d	0.09751246
127	0x3c3b60ad	0.0114366235

conv_layers.0.att_dst f4 [1, 4, 32]
0	0x3dc7ffa1	0.09765554
1	0x3caa2c62	0.020773116
2	0xbe8a6039	-0.27026537
3	0x3de37555	0.11106364
4	0x3e0ff9f6	0.14060196
5	0x3f129729	0.572619
6	0x3c8631bd	0.016381139
7	0x3ee39c0b	0.4445499
8	0xbec657db	-0.38738903
9	0xbed6b788	-0.41936898
10	0x3cf332d7	0.029687328
11	0x3e8759c7	0.26435682
12	0x3d643ea4	0.0557238
13	0xbe1e68d2	-0.15469673
14	0xbd8d406f	-0.06897055
15	0x3d016a3b	0.03159545
16	0xbe12cf81	-0.14336969
17	0x3e714dbc	0.2356481
18	0xbe3d0b7a	-0.18461409
19	0xbe8cbe58	-0.2748897
20	0x3ea9ed99	0.33189085
21	0xbe4ad0b6	-0.1980618
22	0xbe71c343	-0.23609643
23	0xbe39ba8e	-0.18137571
24	0xbe8ba2a4	-0.27272522
25	0xbde8c22b	-0.113651596
26	0x3eb0785c	0.34466827
27	0x3eca30d1	0.3949037
28	0x3ddf0c66	0.10891037
29	0x3b4de6cd	0.0031418086
30	0xbf035b55	-0.51311237
31	0x3e2df49e	0.16987845
32	0xc0286b03	-2.6315315
33	0xbdbd1732	-0.0923294
34	0xbe36c2e9	-0.1784779
35	0xbe7044ab	-0.23463695
36	0x4034ca2f	2.8248403
37	0xbe450758	-0.19241083
38	0xbe562931	-0.20914151
39	0x3e0680a2	0.13135007
40	0x3f1e2f45	0.6179088
41	0xc00955e8	-2.1458683
42	0xbe09a262	-0.1344085
43	0xbf30d2ad	-0.69071466
44	0xbf741ee8	-0.9535966
45	0x3f8ddde0	1.1083336
46	0xc1159f7a	-9.351435
47	0xbac4a4b3	-0.0015002697
48	0x3fb5c630	1.4201107
49	0x3dddc50b	0.108285986
50	0x3ec52b3d	0.3850955
51	0xbed04072	-0.40674168
52	0x3e971cd1	0.29514173
53	0x3f113945	0.5672801
54	0x3f11ee43	0.57004184
55	0x3e8fdb3f	0.2809696
56	0x3ef02913	0.46906337
57	0xbf81ddae	-1.0145776
58	0xbd867458	-0.065651596
59	0xbff53eb0	-1.9159756
60	0xbe42acfc	-0.19011301
61	0xbf30825a	-0.689489
62	0xbde9a86f	-0.11409079
63	0xbef3878a	-0.47564346
64	0x3d7955e4	0.060872927
65	0xbf222d34	-0.63350224
66	0xbe90baa2	-0.2826739
67	0xbe2b7bc6	-0.16746435
68	0x3def4823	0.11683681
69	0x3e235a02	0.15952304
70	0xbe89a004	-0.26879895
71	0x3b09727c	0.002097278
72	0x3e944ae6	0.28963393
73	0xbe0c7d82	-0.13719752
74	0xbebe7ea8	-0.37206006
75	0xbd6582bd	-0.056032885
76	0xbe0586dd	-0.13039728
77	0xbcb967e8	-0.022632554
78	0xbd8489ee	-0.064716205
79	0x3e9f5ce4	0.31125557
80	0xbdea2d43	-0.11434414
81	0xbd707c99	-0.058712576
82	0x3e338a61	0.17533256
83	0xbeb5da72	-0.35518223
84	0xbee5c940	-0.44880104
85	0xbea8b23e	-0.32948488
86	0xbe16479c	-0.14675754
87	0x3e69048c	0.22755641
88	0xbe71fa9c	-0.23630756
89	0x3eef68a6	0.46759528
90	0x3c7097a6	0.014684593
91	0xbe8e4c37	-0.27792522
92	0xbe10756b	-0.14107291
93	0x3dfb3b8d	0.12267218
94	0x3e2e1800	0.17001343
95	0xbf072389	-0.527886
96	0x3c014b4f	0.00789149
97	0x3dcbc106	0.09948926
98	0x3cc9bbfe	0.024625774
99	0x3bb9dc5f	0.0056720222
100	0x3dac8011	0.08422864
101	0xbd301655	-0.042990047
102	0x3e335804	0.17514044
103	0xbd23d6df	-0.03999984
104	0x3db6cab7	0.089253835
105	0x3d86a892	0.06575121
106	0x3e03902f	0.1284797
107	0x3e2b1dea	0.1671063
108	0xbcb10d4c	-0.021612786
109	0x3e7af5dd	0.24507852
110	0xbd9c9636	-0.07645838
111	0xbda475e1	-0.08030296
112	0x3e6b2ce0	0.22966337
113	0xba06962f	-0.00051340734
114	0x3e38e3ee	0.18055698
115	0xbd2e6ce0	-0.0425843
116	0x3d9dd4fd	0.0770664
117	0xbd6d27eb	-0.057899397
118	0xbe58bf01	-0.21166612
119	0xbd209970	-0.03920883
120	0xbe84cc90	-0.2593732
121	0x3e88dc86	0.26730746
122	0xbea4e7e7	-0.32208177
123	0x3da3610d	0.07977495
124	0x3e357242	0.17719367
125	0x3d9f6922	0.07783724
126	0x3eb7965f	0.35856912
127	0x3dc33702	0.09531976

conv_layers.0.bias f4 [128]
0	0xbd1846b4	-0.037176803
1	0x3dfc482e	0.12318455
2	0xbebdd43d	-0.37075987
3	0x3cc75280	0.024331331
4	0xbdb39662	-0.087689176
5	0xbe0a3784	-0.1349774
6	0x3b945f25	0.0045279437
7	0x3e329636	0.17440113
8	0xbf3331ed	-0.69998056
9	0xbedf6908	-0.4363482
10	0x3e81153d	0.25211516
11	0x3f1e1cea	0.6176287
12	0x3da10946	0.07863097
13	0xbc3de747	-0.011590785
14	0x3d7a34f4	0.061085656
15	0xbec663aa	-0.38747913
16	0xbef12c59	-0.47104147
17	0xbd3069dc	-0.043069705
18	0x3e0c929f	0.13727807
19	0xbd92da88	-0.07170588
20	0x3d68005d	0.05664097
21	0x3e026d01	0.12736894
22	0x3d9c8d86	0.07644181
23	0xbebc8dba	-0.3682688
24	0xbec52a73	-0.3850895
25	0x3ea30fd7	0.31848022
26	0x3da1c831	0.078995116
27	0x3d326a59	0.043558452
28	0x3bef6cd3	0.007306674
29	0x3e536f41	0.20647909
30	0xba447b98	-0.00074952235
31	0x3de44d94	0.11147609
32	0x3d8761b0	0.06610429
33	0xba6e1b75	-0.0009083071
34	0x3c628269	0.0138250375
35	0xbec80f0d	-0.39073983
36	0xbd77c26e	-0.060488157
37	0xbf156627	-0.58359
38	0x3dec752d	0.11545787
39	0xbf01efa7	-0.50756305
40	0xbe6bd4a6	-0.23030338
41	0x3e0168c4	0.12637621
42	0x3ed38e38	0.41319442
43	0xbb486316	-0.0030576638
44	0x3e178d5e	0.14800021
45	0x3c24ba14	0.01005413
46	0x3e49f895	0.19723733
47	0xba00a90e	-0.00049080036
48	0xbe25fecd	-0.1621048
49	0xbe86c1d1	-0.26319745
50	0xbc06dad8	-0.008230887
51	0x3f3eb910	0.7450113
52	0x3dfc6331	0.12323607
53	0xbd53ce76	-0.05171057
54	0xbf294764	-0.6612456
55	0x3c734c6b	0.014849762
56	0xbeb5bd5f	-0.3549604
57	0x3eb054aa	0.34439594
58	0x3993643e	0.0002811271
59	0xbd117ee1	-0.03552139
60	0xbc8803c0	-0.01660335
61	0x3f41ff79	0.75780445
62	0x3ea108d2	0.31452042
63	0xbee714c9	-0.45133045
64	0x3ec8957c	0.39176548
65	0x3d7d975c	0.061911926
66	0x3deb44ad	0.11487708
67	0x3f39dc57	0.72601837
68	0xb9d12ec9	-0.00039898444
69	0x3cbee204	0.023301132
70	0xbed965f1	-0.42460588
71	0xbea779e6	-0.3271019
72	0xbf096e2c	-0.53683734
73	0x3d081257	0.033220615
74	0x3e8232f3	0.25429496
75	0x3ddb3455	0.10703341
76	0xbc038eb5	-0.0080296295
77	0x3e57d086	0.21075639
78	0xbeb3646c	-0.35037553
79	0x3e03866e	0.1284425
80	0x3f002a68	0.50064707
81	0x3cab75d2	0.020930205
82	0xbdba89eb	-0.09108337
83	0xbeee7e2f	-0.46580645
84	0xbda6a572	-0.08137025
85	0xbe81f8f4	-0.2538525
86	0xbdd9446b	-0.10608753
87	0x3e012370	0.12611175
88	0x3f46a00b	0.77587956
89	0xbd25a271	-0.04043812
90	0x3ed15dbe	0.40891832
91	0x3e5663dd	0.20936532
92	0xbf1de4b1	-0.6167708
93	0xbde65085	-0.11245827
94	0x3eb56149	0.35425785
95	0x3dafcdbb	0.08584162
96	0xbd9ac296	-0.075566456
97	0x3d5b3ac9	0.05352286
98	0xbdcf5d50	-0.1012522
99	0xbe05b2ed	-0.13056536
100	0xbef456b2	-0.47722393
101	0x3ea319e3	0.31855687
102	0xbdeecacc	-0.11659774
103	0xbf07ceb2	-0.53049767
104	0xbc06efb4	-0.008235861
105	0xbe289a0b	-0.16465013
106	0x3e697cde	0.2280154
107	0xbeb95810	-0.362
108	0xbe171a88	-0.14756215
109	0xbf546877	-0.829719
110	0xbea50fdc	-0.32238662
111	0x3eb83fd4	0.35986197
112	0xbe36b228	-0.17841399
113	0x39510780	0.00019934587
114	0x3eabd11d	0.33557978
115	0x3ed28918	0.4112022
116	0xbe8799a7	-0.26484415
117	0xbef4b6fe	-0.47795862
118	0x3eaa69fb	0.33283982
119	0xbc8e0cc9	-0.01734008
120	0xbd7d0e6d	-0.061781336
121	0x3ebafb70	0.36519957
122	0xbd08f66b	-0.033438127
123	0xbf3914b9	-0.72297245
124	0xbe6f9221	-0.23395588
125	0x3e2540ae	0.16137955
126	0xbe553dc1	-0.20824338
127	0xbe544530	-0.20729518

conv_layers.0.lin_src.weight f4 [128, 4]
0	0x3f3f98df	0.7484264
1	0xbf03a851	-0.51428705
2	0xbebd2366	-0.3694107
3	0x3ebfc5c4	0.3745557
4	0x3d58f0e1	0.052964095
5	0x3f19aee2	0.60032475
6	0xbd271acd	-0.040797044
7	0xbe0ecfa1	-0.13946392
8	0x3df17ecc	0.11791763
9	0x3f958d24	1.1683698
10	0x3d342392	0.043979235
11	0x3f0eb8b2	0.5575057
12	0x3fbbe673	1.4679703
13	0x3f682127	0.90675586
14	0x3e81c6b9	0.25346926
15	0xbef4b663	-0.477954
16	0x3ee2fcb7	0.4433343
17	0xbf53fc19	-0.82806545
18	0x3db4d9b5	0.08830587
19	0x3f2a04c0	0.664135
20	0x3d3e0d83	0.046399605
21	0xbf807a5a	-1.0037339
22	0x3dcc42be	0.099736676
23	0xbee303b1	-0.44338754
24	0x3b76b55b	0.0037644717
25	0x3f26e556	0.6519369
26	0x3dd20855	0.102554955
27	0xbf315019	-0.69262844
28	0xbe5fcaf4	-0.21854764
29	0xbf5fe26d	-0.87454873
30	0x3bb737ad	0.005591354
31	0xbe34976b	-0.17635886
32	0x3e7119c7	0.2354499
33	0xbed12aaf	-0.40852877
34	0x3e1c443d	0.15260406
35	0x3f44f726	0.7693962
36	0x3e8b00e6	0.27149123
37	0x3f814087	1.0097817
38	0x3d9d3c74	0.07677546
39	0x3f28cadc	0.6593454
40	0x404071ce	3.006946
41	0xbf4221a0	-0.7583256
42	0xbc8eb6f3	-0.017421221
43	0xbe878b65	-0.26473537
44	0xbeba9028	-0.36438107
45	0xbf83031f	-1.0235327
46	0xbda9a0bf	-0.08282613
47	0xbf346caa	-0.7047831
48	0x3dcdf16c	0.10055813
49	0x3f16d3dc	0.5891702
50	0xbd8a6969	-0.06758387
51	0xbf183ca3	-0.59467524
52	0x3e8e22dd	0.27760974
53	0x3f68f4d6	0.9099859
54	0xbd04fd8f	-0.032468375
55	0x3c43d6ee	0.011953099
56	0xc0013492	-2.0188336
57	0x3f55add9	0.83468395
58	0xbd1efa11	-0.0388127
59	0xbd9f6e4e	-0.07784711
60	0x3f6a640f	0.9155893
61	0xbf0e8080	-0.55664825
62	0x3dbd3643	0.09238865
63	0x3edfaefe	0.43688196
64	0xc0191512	-2.391911
65	0xbf044bd4	-0.51678205
66	0x3dbe3c0c	0.09288797
67	0x3f03cf3c	0.5148809
68	0x400722af	2.111492
69	0x3faf2026	1.3681686
70	0x3f3ef642	0.7459451
71	0xbee23db5	-0.44187704
72	0xbf149373	-0.5803749
73	0x3e4af7db	0.19821112
74	0x3ca4e517	0.02012877
75	0xbef3bba6	-0.47604102
76	0xbf4abacb	-0.79191273
77	0x3ef20ae6	0.4727394
78	0xbbe7a1f3	-0.0070688664
79	0x3d95d664	0.073162824
80	0xbd41d017	-0.04731759
81	0xbf611f54	-0.8793843
82	0x3cda76e8	0.026668027
83	0xbd93bcca	-0.07213743
84	0x3fdac966	1.7092712
85	0xbf6e5fde	-0.9311503
86	0xbe1a65a3	-0.15077834
87	0xbeabc897	-0.33551475
88	0xbe26a753	-0.16274767
89	0x3f9fa910	1.2473469
90	0xbdcbddf0	-0.099544406
91	0x3da1cced	0.079004146
92	0xbfb0952b	-1.3795522
93	0xbee03804	-0.43792737
94	0x3dbc9680	0.09208393
95	0x3ede6fcb	0.43444666
96	0xc0595fc7	-3.3964708
97	0x3ecf8108	0.4052813
98	0x3d4090e9	0.047013197
99	0x3ecea22d	0.40358105
100	0xbf7fb8ee	-0.99891555
101	0xbfa3c5cc	-1.2794738
102	0xbd70d54a	-0.05879716
103	0x3ec45dae	0.38352722
104	0xbf74dcc2	-0.9564935
105	0x3f733053	0.9499561
106	0xbdc411d3	-0.09573712
107	0xbe5459e2	-0.20737413
108	0xbf6b4e10	-0.9191599
109	0x3f5b2352	0.8560077
110	0xbd6cf61c	-0.057851896
111	0xbea74a9c	-0.3267411
112	0xbfc89975	-1.5671831
113	0x3f83e0b6	1.0302951
114	0xbd550691	-0.052008215
115	0xbd951da0	-0.07281041
116	0x3db9e976	0.09077732
117	0x3f99ac20	1.2005653
118	0xbddd4a7f	-0.108052246
119	0x3e8ae7f4	0.2713009
120	0xbf927655	-1.1442362
121	0xbfbbbddd	-1.4667317
122	0xbebcc5ca	-0.3686965
123	0x3f1b161d	0.6058062
124	0xbe7c0171	-0.24609925
125	0x3f61e2c4	0.8823664
126	0xbdc994ab	-0.09842809
127	0x3e6a6ccc	0.22893065
128	0xbe07e41f	-0.13270615
129	0x3f51c895	0.8194669
130	0xbd9ffbff	-0.07811736
131	0x3f8e6229	1.1123706
132	0x386a6f44	5.589357e-05
133	0x3ae2e683	0.001731113
134	0xb9c227cf	-0.00037032223
135	0x3a86849d	0.001026291
136	0x3e44d26e	0.19220898
137	0xbf97893a	-1.1838753
138	0x3d115be9	0.035488043
139	0x3f2b9376	0.6702188
140	0x3ef4be68	0.47801518
141	0x3f3a2ad0	0.72721577
142	0x3d0d0c3f	0.034435507
143	0x3f0ed04c	0.55786586
144	0xb92f5df4	-0.00016724301
145	0xbf87f868	-1.0622683
146	0x3d8d3877	0.068955354
147	0x3ea7d2e5	0.32778087
148	0xbed9bda8	-0.4252751
149	0x3fae0a44	1.3596883
150	0x3d5401c2	0.05175949
151	0x3ef5746b	0.47940382
152	0x3e96355f	0.29337594
153	0xbeee662e	-0.46562332
154	0xbba365aa	-0.0049864845
155	0x3e347e7c	0.17626375
156	0xbe08fce1	-0.13377716
157	0x3f7b823b	0.9824559
158	0x3d7ae950	0.06125766
159	0xbf412d0b	-0.75459355
160	0xbcc24f6f	-0.023719518
161	0xbc819388	-0.015817419
162	0x3d14cdb6	0.036328994
163	0x3eb5083e	0.3535785
164	0x3e9a06af	0.30083224
165	0x3f917d09	1.1366283
166	0xbda06c34	-0.07833138
167	0x3d8932e5	0.066991605
168	0x3fe02731	1.751196
169	0xbf8fe554	-1.124186
170	0xbcd63c35	-0.026151756
171	0xbedb33a4	-0.42812836
172	0x3f416c87	0.75556225
173	0xbb0b267a	-0.002123265
174	0xbe8f9ea0	-0.2805071
175	0x3d937833	0.072006606
176	0xbe937f66	-0.28808135
177	0xbdc49670	-0.09599006
178	0xbd96628f	-0.07343017
179	0x4060ebab	3.514384
180	0x3eff22ca	0.4983123
181	0xbf6673ee	-0.90020645
182	0x3ce737b1	0.028224798
183	0x3e9d65a6	0.30741614
184	0xbe55e6cd	-0.20888825
185	0x3f943f00	1.1581726
186	0xbdae297a	-0.08504005
187	0xbd49c7f8	-0.04926297
188	0x3a89bc42	0.0010508376
189	0x398f8009	0.0002737048
190	0xba54a594	-0.0008111831
191	0xb9c4c5e9	-0.00037531488
192	0x3e2d1e2c	0.16906041
193	0xbf4174b2	-0.7556869
194	0x3d55a8ba	0.052162863
195	0x3ebf7ef8	0.37401557
196	0x3ebf966b	0.37419447
197	0x3f5af377	0.8552775
198	0x3c7f6c5b	0.015589799
199	0xbe146c2e	-0.14494392
200	0xbe44ecc3	-0.19230942
201	0xbf9accaf	-1.2093714
202	0x3d0e101b	0.034683328
203	0x3f2d2f98	0.6765075
204	0xbff54aff	-1.9163512
205	0xbf3842c8	-0.719769
206	0xbdc1c908	-0.09462172
207	0xbf6040d2	-0.8759891
208	0xbf33a67a	-0.701759
209	0xbf1722cb	-0.59037465
210	0x3c237456	0.009976467
211	0xbf5ef252	-0.870885
212	0xbe5a883d	-0.21341033
213	0xbfa185f0	-1.2619
214	0x3d8efd83	0.06981947
215	0xbf29e88d	-0.6637047
216	0xbeffd0d0	-0.49964
217	0x3eedce70	0.46446562
218	0x3e0f681c	0.14004558
219	0x3e310be3	0.1728969
220	0x3eafa8b6	0.34308404
221	0xbfa073b5	-1.2535311
222	0x3ceeb685	0.029139766
223	0xbdcbeb0c	-0.09956941
224	0xbf893b08	-1.072114
225	0x3eea3b88	0.45748544
226	0x3db0c7e8	0.08631879
227	0xbf44115b	-0.7658898
228	0xbd5c65ce	-0.053808026
229	0xbfc4f3ae	-1.5386865
230	0xbe6a073f	-0.22854327
231	0x3fa96bc2	1.323601
232	0xb987621c	-0.00025822304
233	0x39dd89f2	0.00042255182
234	0xb997559e	-0.00028864754
235	0xba579a06	-0.00082245504
236	0xbf17d3ff	-0.59307855
237	0x3f1d677b	0.61486024
238	0xbceb27e1	-0.02870554
239	0x3f91b47d	1.1383206
240	0x3f1b41ff	0.6064758
241	0x3f9bf3fc	1.2183833
242	0xbce8163a	-0.028330911
243	0xbe5289c4	-0.20560366
244	0xbf224b3a	-0.63396037
245	0xbf89b241	-1.0757524
246	0xbd9c8079	-0.07641692
247	0xbf50baeb	-0.81535214
248	0x3eec0e44	0.46104634
249	0xbf77b3b5	-0.96758586
250	0xbdf41509	-0.11918075
251	0x3dec210e	0.11529742
252	0xbe8f08e3	-0.27936468
253	0x3f95db21	1.1707498
254	0x3d71dee2	0.05905045
255	0x3f8db75c	1.1071582

conv_layers.0.lin_dst.weight f4 [128, 4]
0	0x3f3f98df	0.7484264
1	0xbf03a851	-0.51428705
2	0xbebd2366	-0.3694107
3	0x3ebfc5c4	0.3745557
4	0x3d58f0e1	0.052964095
5	0x3f19aee2	0.60032475
6	0xbd271acd	-0.040797044
7	0xbe0ecfa1	-0.13946392
8	0x3df17ecc	0.11791763
9	0x3f958d24	1.1683698
10	0x3d342392	0.043979235
11	0x3f0eb8b2	0.5575057
12	0x3fbbe673	1.4679703
13	0x3f682127	0.90675586
14	0x3e81c6b9	0.25346926
15	0xbef4b663	-0.477954
16	0x3ee2fcb7	0.4433343
17	0xbf53fc19	-0.82806545
18	0x3db4d9b5	0.08830587
19	0x3f2a04c0	0.664135
20	0x3d3e0d83	0.046399605
21	0xbf807a5a	-1.0037339
22	0x3dcc42be	0.099736676
23	0xbee303b1	-0.44338754
24	0x3b76b55b	0.0037644717
25	0x3f26e556	0.6519369
26	0x3dd20855	0.102554955
27	0xbf315019	-0.69262844
28	0xbe5fcaf4	-0.21854764
29	0xbf5fe26d	-0.87454873
30	0x3bb737ad	0.005591354
31	0xbe34976b	-0.17635886
32	0x3e7119c7	0.2354499
33	0xbed12aaf	-0.40852877
34	0x3e1c443d	0.15260406
35	0x3f44f726	0.7693962
36	0x3e8b00e6	0.27149123
37	0x3f814087	1.0097817
38	0x3d9d3c74	0.07677546
39	0x3f28cadc	0.6593454
40	0x404071ce	3.006946
41	0xbf4221a0	-0.7583256
42	0xbc8eb6f3	-0.017421221
43	0xbe878b65	-0.26473537
44	0xbeba9028	-0.36438107
45	0xbf83031f	-1.0235327
46	0xbda9a0bf	-0.08282613
47	0xbf346caa	-0.7047831
48	0x3dcdf16c	0.10055813
49	0x3f16d3dc	0.5891702
50	0xbd8a6969	-0.06758387
51	0xbf183ca3	-0.59467524
52	0x3e8e22dd	0.27760974
53	0x3f68f4d6	0.9099859
54	0xbd04fd8f	-0.032468375
55	0x3c43d6ee	0.011953099
56	0xc0013492	-2.0188336
57	0x3f55add9	0.83468395
58	0xbd1efa11	-0.0388127
59	0xbd9f6e4e	-0.07784711
60	0x3f6a640f	0.9155893
61	0xbf0e8080	-0.55664825
62	0x3dbd3643	0.09238865
63	0x3edfaefe	0.43688196
64	0xc0191512	-2.391911
65	0xbf044bd4	-0.51678205
66	0x3dbe3c0c	0.09288797
67	0x3f03cf3c	0.5148809
68	0x400722af	2.111492
69	0x3faf2026	1.3681686
70	0x3f3ef642	0.7459451
71	0xbee23db5	-0.44187704
72	0xbf149373	-0.5803749
73	0x3e4af7db	0.19821112
74	0x3ca4e517	0.02012877
75	0xbef3bba6	-0.47604102
76	0xbf4abacb	-0.79191273
77	0x3ef20ae6	0.4727394
78	0xbbe7a1f3	-0.0070688664
79	0x3d95d664	0.073162824
80	0xbd41d017	-0.04731759
81	0xbf611f54	-0.8793843
82	0x3cda76e8	0.026668027
83	0xbd93bcca	-0.07213743
84	0x3fdac966	1.7092712
85	0xbf6e5fde	-0.9311503
86	0xbe1a65a3	-0.15077834
87	0xbeabc897	-0.33551475
88	0xbe26a753	-0.16274767
89	0x3f9fa910	1.2473469
90	0xbdcbddf0	-0.099544406
91	0x3da1cced	0.079004146
92	0xbfb0952b	-1.3795522
93	0xbee03804	-0.43792737
94	0x3dbc9680	0.09208393
95	0x3ede6fcb	0.43444666
96	0xc0595fc7	-3.3964708
97	0x3ecf8108	0.4052813
98	0x3d4090e9	0.047013197
99	0x3ecea22d	0.40358105
100	0xbf7fb8ee	-0.99891555
101	0xbfa3c5cc	-1.2794738
102	0xbd70d54a	-0.05879716
103	0x3ec45dae	0.38352722
104	0xbf74dcc2	-0.9564935
105	0x3f733053	0.9499561
106	0xbdc411d3	-0.09573712
107	0xbe5459e2	-0.20737413
108	0xbf6b4e10	-0.9191599
109	0x3f5b2352	0.8560077
110	0xbd6cf61c	-0.057851896
111	0xbea74a9c	-0.3267411
112	0xbfc89975	-1.5671831
113	0x3f83e0b6	1.0302951
114	0xbd550691	-0.052008215
115	0xbd951da0	-0.07281041
116	0x3db9e976	0.09077732
117	0x3f99ac20	1.2005653
118	0xbddd4a7f	-0.108052246
119	0x3e8ae7f4	0.2713009
120	0xbf927655	-1.1442362
121	0xbfbbbddd	-1.4667317
122	0xbebcc5ca	-0.3686965
123	0x3f1b161d	0.6058062
124	0xbe7c0171	-0.24609925
125	0x3f61e2c4	0.8823664
126	0xbdc994ab	-0.09842809
127	0x3e6a6ccc	0.22893065
128	0xbe07e41f	-0.13270615
129	0x3f51c895	0.8194669
130	0xbd9ffbff	-0.07811736
131	0x3f8e6229	1.1123706
132	0x386a6f44	5.589357e-05
133	0x3ae2e683	0.001731113
134	0xb9c227cf	-0.00037032223
135	0x3a86849d	0.001026291
136	0x3e44d26e	0.19220898
137	0xbf97893a	-1.1838753
138	0x3d115be9	0.035488043
139	0x3f2b9376	0.6702188
140	0x3ef4be68	0.47801518
141	0x3f3a2ad0	0.72721577
142	0x3d0d0c3f	0.034435507
143	0x3f0ed04c	0.55786586
144	0xb92f5df4	-0.00016724301
145	0xbf87f868	-1.0622683
146	0x3d8d3877	0.068955354
147	0x3ea7d2e5	0.32778087
148	0xbed9bda8	-0.4252751
149	0x3fae0a44	1.3596883
150	0x3d5401c2	0.05175949
151	0x3ef5746b	0.47940382
152	0x3e96355f	0.29337594
153	0xbeee662e	-0.46562332
154	0xbba365aa	-0.0049864845
155	0x3e347e7c	0.17626375
156	0xbe08fce1	-0.13377716
157	0x3f7b823b	0.9824559
158	0x3d7ae950	0.06125766
159	0xbf412d0b	-0.75459355
160	0xbcc24f6f	-0.023719518
161	0xbc819388	-0.015817419
162	0x3d14cdb6	0.036328994
163	0x3eb5083e	0.3535785
164	0x3e9a06af	0.30083224
165	0x3f917d09	1.1366283
166	0xbda06c34	-0.07833138
167	0x3d8932e5	0.066991605
168	0x3fe02731	1.751196
169	0xbf8fe554	-1.124186
170	0xbcd63c35	-0.026151756
171	0xbedb33a4	-0.42812836
172	0x3f416c87	0.75556225
173	0xbb0b267a	-0.002123265
174	0xbe8f9ea0	-0.2805071
175	0x3d937833	0.072006606
176	0xbe937f66	-0.28808135
177	0xbdc49670	-0.09599006
178	0xbd96628f	-0.07343017
179	0x4060ebab	3.514384
180	0x3eff22ca	0.4983123
181	0xbf6673ee	-0.90020645
182	0x3ce737b1	0.028224798
183	0x3e9d65a6	0.30741614
184	0xbe55e6cd	-0.20888825
185	0x3f943f00	1.1581726
186	0xbdae297a	-0.08504005
187	0xbd49c7f8	-0.04926297
188	0x3a89bc42	0.0010508376
189	0x398f8009	0.0002737048
190	0xba54a594	-0.0008111831
191	0xb9c4c5e9	-0.00037531488
192	0x3e2d1e2c	0.16906041
193	0xbf4174b2	-0.7556869
194	0x3d55a8ba	0.052162863
195	0x3ebf7ef8	0.37401557
196	0x3ebf966b	0.37419447
197	0x3f5af377	0.8552775
198	0x3c7f6c5b	0.015589799
199	0xbe146c2e	-0.14494392
200	0xbe44ecc3	-0.19230942
201	0xbf9accaf	-1.2093714
202	0x3d0e101b	0.034683328
203	0x3f2d2f98	0.6765075
204	0xbff54aff	-1.9163512
205	0xbf3842c8	-0.719769
206	0xbdc1c908	-0.09462172
207	0xbf6040d2	-0.8759891
208	0xbf33a67a	-0.701759
209	0xbf1722cb	-0.59037465
210	0x3c237456	0.009976467
211	0xbf5ef252	-0.870885
212	0xbe5a883d	-0.21341033
213	0xbfa185f0	-1.2619
214	0x3d8efd83	0.06981947
215	0xbf29e88d	-0.6637047
216	0xbeffd0d0	-0.49964
217	0x3eedce70	0.46446562
218	0x3e0f681c	0.14004558
219	0x3e310be3	0.1728969
220	0x3eafa8b6	0.34308404
221	0xbfa073b5	-1.2535311
222	0x3ceeb685	0.029139766
223	0xbdcbeb0c	-0.09956941
224	0xbf893b08	-1.072114
225	0x3eea3b88	0.45748544
226	0x3db0c7e8	0.08631879
227	0xbf44115b	-0.7658898
228	0xbd5c65ce	-0.053808026
229	0xbfc4f3ae	-1.5386865
230	0xbe6a073f	-0.22854327
231	0x3fa96bc2	1.323601
232	0xb987621c	-0.00025822304
233	0x39dd89f2	0.00042255182
234	0xb997559e	-0.00028864754
235	0xba579a06	-0.00082245504
236	0xbf17d3ff	-0.59307855
237	0x3f1d677b	0.61486024
238	0xbceb27e1	-0.02870554
239	0x3f91b47d	1.1383206
240	0x3f1b41ff	0.6064758
241	0x3f9bf3fc	1.2183833
242	0xbce8163a	-0.028330911
243	0xbe5289c4	-0.20560366
244	0xbf224b3a	-0.63396037
245	0xbf89b241	-1.0757524
246	0xbd9c8079	-0.07641692
247	0xbf50baeb	-0.81535214
248	0x3eec0e44	0.46104634
249	0xbf77b3b5	-0.96758586
250	0xbdf41509	-0.11918075
251	0x3dec210e	0.11529742
252	0xbe8f08e3	-0.27936468
253	0x3f95db21	1.1707498
254	0x3d71dee2	0.05905045
255	0x3f8db75c	1.1071582

conv_layers.1.att_src f4 [1, 4, 32]
0	0xbe4745f7	-0.19460283
1	0xbe6d8eeb	-0.2319905
2	0x3ec4642f	0.38357684
3	0xbe7ef08e	-0.24896452
4	0xbac17d6b	-0.0014762109
5	0xbe69155f	-0.22762059
6	0xbe40a750	-0.18813825
7	0xbe1ceb96	-0.15324244
8	0x3e32ad12	0.17448834
9	0xbcf28b0b	-0.029607316
10	0x3e2ee42c	0.17079228
11	0x3ca6897d	0.020329231
12	0xbddbfb5c	-0.10741302
13	0xbd8a1a4d	-0.06743298
14	0x3eb89214	0.3604895
15	0xbd8fcbe6	-0.070213124
16	0xbea69350	-0.32534266
17	0xbebd4249	-0.36964634
18	0x3da4fdc7	0.08056217
19	0x3e5bc513	0.21461897
20	0x3ec8aa53	0.39192447
21	0xbea81932	-0.32831722
22	0x3e0ce117	0.1375774
23	0xbee527a1	-0.44756797
24	0x3e404d63	0.1877952
25	0x3e87dffd	0.26538077
26	0x3e05f629	0.13082184
27	0x3ef24c05	0.47323623
28	0xbe401e78	-0.18761623
29	0x3d1a9a92	0.037745066
30	0x3e10b555	0.14131673
31	0xbdfeead9	-0.124471374
32	0xbaaf8a12	-0.0013392589
33	0xbd3be5f6	-0.045873605
34	0x3e28cc84	0.16484267
35	0xbe8190e9	-0.2530587
36	0xbeabbd38	-0.335428
37	0xbe7dce69	-0.2478577
38	0x3eb76a0e	0.358231
39	0xbe90014a	-0.28125983
40	0xbe059f4a	-0.13049045
41	0x3be8d9e8	0.0071060546
42	0x3ecbe235	0.3982102
43	0x3d80c790	0.062880635
44	0xbe1deec2	-0.1542311
45	0xbe74e641	-0.2391596
46	0x3e38249c	0.17982715
47	0x3e15b97b	0.14621536
48	0xbdba1d37	-0.090876035
49	0xbe1f677d	-0.15566821
50	0x3dd427f0	0.1035918
51	0xbd4613cf	-0.048358735
52	0x3d51fe3c	0.051267847
53	0xbe395afa	-0.18101111
54	0xbea32d6c	-0.31870592
55	0x3ddfd174	0.10928622
56	0x3d2496b8	0.0401828
57	0xbd1d95c2	-0.0384729
58	0x3e77f2d2	0.24213722
59	0xbc367528	-0.011136331
60	0xbcfaee90	-0.030631334
61	0x3d05fa02	0.03270913
62	0xbf18e701	-0.59727484
63	0xbeb7c41e	-0.35891813
64	0x3e412d1d	0.18864866
65	0x3e8fa434	0.28054965
66	0xbd878df8	-0.06618875
67	0x3e228a56	0.15873083
68	0x3e3ef20b	0.1864702
69	0x3d5cdb1b	0.053919893
70	0xbd7a1c6f	-0.061062273
71	0x3e935437	0.28775188
72	0xbe73e502	-0.23817828
73	0x3eb58378	0.35451865
74	0x3e33e54f	0.17567943
75	0xbe25d5bb	-0.16194813
76	0xbe19cfca	-0.15020671
77	0xbd6e3dc0	-0.05816436
78	0xbd6e6327	-0.058200028
79	0x3e00e93b	0.1258897
80	0x3eca7c9e	0.395482
81	0xbef1f934	-0.4726044
82	0xbd9d773a	-0.07688756
83	0x3e97032f	0.29494616
84	0xbe386d89	-0.18010534
85	0xbce6b35f	-0.028161703
86	0xbda144fc	-0.07874486
87	0xbf557335	-0.83378917
88	0x3d568d67	0.052380946
89	0x3ba2068c	0.004944628
90	0x3e89d9a2	0.26923853
91	0xbd52e68b	-0.051489394
92	0x3cacb5be	0.021082755
93	0x3e4f633c	0.20252699
94	0x3ecac09a	0.39600068
95	0xbf223db0	-0.6337538
96	0x3dad403d	0.08459518
97	0xbe351a94	-0.1768592
98	0x3ce261b4	0.02763448
99	0x3d8967e2	0.06709267
100	0xbddf66ce	-0.1090828
101	0x3c0be054	0.008537371
102	0x3ca5e57e	0.020251032
103	0xbf1fc9df	-0.62417406
104	0xbe642b36	-0.22282109
105	0x3f07a8b9	0.52991825
106	0x3e426da2	0.18987134
107	0xbd53abb7	-0.051677432
108	0x3c8d3504	0.017237194
109	0x3da26aed	0.07930551
110	0xbf729e4c	-0.9477279
111	0xbf7c4713	-0.9854595
112	0x3f2627cf	0.64904493
113	0xbf18ffef	-0.59765524
114	0x3c99abfd	0.018758768
115	0x3d9a742c	0.07541689
116	0x3dcdab2f	0.10042416
117	0xbb30127d	-0.0026866489
118	0xbe2f5f98	-0.1712631
119	0xbe45faa7	-0.19333898
120	0xbc6ccf04	-0.014453653
121	0x3eed9190	0.46400118
122	0x3e314651	0.1731198
123	0x3cd8b4fb	0.026453486
124	0x3ebadb1c	0.36495292
125	0x3e89b06d	0.26892415
126	0x3e554739	0.2082795
127	0xbdc6bf6e	-0.09704481

conv_layers.1.att_dst f4 [1, 4, 32]
0	0x3e4f4f92	0.20245197
1	0x3cb63791	0.022243293
2	0x3d5debed	0.054180074
3	0xbe7e3375	-0.24824317
4	0xbefd6a2d	-0.49495068
5	0x3ed18a7e	0.40925974
6	0xbe598269	-0.21241154
7	0xbe3ccd84	-0.18437773
8	0xbea0b203	-0.31385812
9	0x3d9ba881	0.07600499
10	0x3e42820b	0.1899492
11	0x3c382218	0.011238597
12	0x3dc85779	0.09782309
13	0xbe9bfb5b	-0.30465207
14	0xbf139626	-0.57650983
15	0x3eb0a8ca	0.34503776
16	0x3e32d64b	0.17464559
17	0xbf0b5e5d	-0.5444086
18	0x3b767916	0.0037608794
19	0x3eb70b0a	0.3575061
20	0x3de83dbe	0.113399014
21	0xbebb7330	-0.3661132
22	0xbe26922e	-0.162667
23	0x3e6616c8	0.22469628
24	0x3e5a830a	0.2133905
25	0xbea6cdfb	-0.32579026
26	0xbd0dd79f	-0.03462946
27	0xbd394ee5	-0.045241255
28	0x3d4c609b	0.049896818
29	0x3cc51f68	0.024062827
30	0xbd691c86	-0.056911968
31	0xbd656f09	-0.056014095
32	0x3f428393	0.75982016
33	0x3fafcad6	1.3733776
34	0xbe71ff68	-0.23632586
35	0x3f9abe23	1.2089275
36	0x3ee8bad3	0.45455036
37	0x3f14fdf7	0.5820002
38	0xbfacad9d	-1.3490483
39	0x3eab6b6c	0.33480394
40	0x3f3d9603	0.74057025
41	0xbf94601f	-1.1591834
42	0xbdee8cf8	-0.116479814
43	0x3ec381a3	0.38184842
44	0xbeab6ba8	-0.33480573
45	0x3e1e882b	0.15481631
46	0x3e95ae1f	0.29234406
47	0xbe69e7ec	-0.22842377
48	0x3d5fefb4	0.054671958
49	0xbe0fe9bb	-0.14054005
50	0x3e4ebe43	0.20189767
51	0xbee4b44a	-0.446688
52	0x3f156691	0.5835963
53	0xbf2ce016	-0.6752943
54	0x3f1727cd	0.59045106
55	0xbe86c7cf	-0.26324317
56	0xbf0a7c04	-0.5409548
57	0x3e2de977	0.16983591
58	0xbf1563ea	-0.5835558
59	0x3f67a233	0.9048187
60	0xbf81654b	-1.0109037
61	0x3bd74aaf	0.0065701823
62	0x3f25c2b5	0.64750224
63	0x3f025761	0.5091458
64	0x3d8dbff7	0.0692138
65	0x3ec21661	0.379077
66	0x3de2a7b5	0.11067144
67	0xbee0de5d	-0.4391965
68	0xbee07df0	-0.43846083
69	0x3e91d375	0.2848164
70	0xbe7b7fe7	-0.2456051
71	0x3e8959cf	0.2682633
72	0x3eb64036	0.35595864
73	0x3e203537	0.156453
74	0x3e02f667	0.12789308
75	0x3d9e7d1c	0.077387065
76	0xbdf96f1e	-0.12179397
77	0xbd67d5d6	-0.056600414
78	0xbe6b44bc	-0.22975439
79	0x3d8b07e8	0.06788617
80	0xbe8fa1b0	-0.28053045
81	0x3bf1b04a	0.0073757516
82	0xbda73641	-0.08164645
83	0xbeb70d7e	-0.3575248
84	0x3e7de7b7	0.24795423
85	0x3dc991ed	0.09842286
86	0x3ec79cd4	0.38986838
87	0xbf002b75	-0.5006631
88	0xbc3d257f	-0.011544584
89	0x3e2a562c	0.16634434
90	0xbdb33c27	-0.087517075
91	0xbed9712b	-0.42469153
92	0x3e6500e6	0.22363624
93	0xbe05ffe0	-0.1308589
94	0xbe778388	-0.24171269
95	0x3e220581	0.15822412
96	0x3da2ddb2	0.07952441
97	0x3dcb6155	0.09930674
98	0x3e167836	0.14694294
99	0x3ef747ce	0.4829697
100	0xbfb12839	-1.38404
101	0x3f4326ec	0.76231265
102	0xbd7702b4	-0.060305312
103	0x3f8cd40f	1.1002215
104	0x3fad2a64	1.3528562
105	0xbd94d5f0	-0.07267368
106	0x3f479c10	0.7797251
107	0xbeb33187	-0.34998724
108	0x3dc9cd61	0.09853626
109	0x3ee82c21	0.45346168
110	0xbe39fcae	-0.18162796
111	0x3f87bdea	1.0604832
112	0xbeae30b5	-0.34021536
113	0x3eaf6b22	0.34261423
114	0xbf726def	-0.94698995
115	0xbd9f15c1	-0.07767821
116	0x3ef80ec7	0.48448774
117	0x3f48a16f	0.7837133
118	0x3ed8a153	0.4231058
119	0xbda37138	-0.07980579
120	0xbe91d7a0	-0.2848482
121	0xbe91b63e	-0.28459352
122	0xbea767db	-0.32696423
123	0xbf15980e	-0.5843514
124	0x3eb1da35	0.3473679
125	0x3e349460	0.17634726
126	0x3f887f80	1.066391
127	0xbc2177ad	-0.009855193

conv_layers.1.bias f4 [128]
0	0xbcbddf9b	-0.023177912
1	0xbc840270	-0.016114444
2	0x3d935d86	0.071955726
3	0x3e9fed26	0.31235617
4	0x3e00d864	0.12582546
5	0xbec09560	-0.37613964
6	0xbde2c15b	-0.11072036
7	0xbe0ddcb8	-0.13853729
8	0xbe94d194	-0.29066145
9	0x3e207ffc	0.15673822
10	0xbdb883ce	-0.09009515
11	0x3e08a154	0.13342792
12	0x3d234628	0.039861828
13	0x3df4a129	0.11944801
14	0x3f19dafa	0.60099757
15	0xbe8738ac	-0.26410425
16	0xbdeeccfd	-0.11660192
17	0xbe11efae	-0.14251587
18	0xbd8c131c	-0.06839582
19	0xbdca9d2a	-0.09893258
20	0x3d3c44f7	0.045964208
21	0x3f246a69	0.6422487
22	0xbdf90b6c	-0.12160382
23	0xbc8af1d6	-0.01696102
24	0x3e9af648	0.30266023
25	0x3da4ec28	0.08052856
26	0xbd11c501	-0.03558827
27	0x3e53cf31	0.20684506
28	0xbe23d1b7	-0.15997969
29	0x3c317a20	0.0108323395
30	0x3f2248c1	0.63392264
31	0x3ddbaced	0.10726342
32	0x401b7eba	2.4296098
33	0xbe141f1d	-0.14464994
34	0xbe80a319	-0.25124434
35	0x3fee2f89	1.8608257
36	0x3e5f9ae4	0.2183643
37	0xbe08e734	-0.13369447
38	0xbddf5d42	-0.109064594
39	0x3d06ad99	0.0328804
40	0xbe1deaae	-0.15421554
41	0xbf97c883	-1.1858066
42	0x3e51ae82	0.20476726
43	0x3e152fa2	0.14568952
44	0x3c4eeb97	0.012629411
45	0x3df50a4e	0.11964856
46	0x3e25048e	0.16115019
47	0x3dcfd1d3	0.10147443
48	0xbe77438d	-0.24146862
49	0x3c86eb9a	0.016469765
50	0x3eb04a43	0.34431657
51	0xbc6e47cd	-0.014543486
52	0xbe3f65ad	-0.1869113
53	0xbeb1eb8d	-0.34750023
54	0x3e13c0bf	0.14428996
55	0xbe34cc93	-0.17656164
56	0xbf084c72	-0.53241646
57	0xbd2f791c	-0.04284011
58	0x3c8572c1	0.01629007
59	0x3eab27d5	0.33428827
60	0x3d85b38d	0.06528387
61	0x3e4f86a1	0.202662
62	0xbd2f37fa	-0.042777993
63	0xbd5d1514	-0.05397518
64	0x3c98bae2	0.0186438
65	0xbc8d6717	-0.017261071
66	0x3da3dfcf	0.080016725
67	0x40193727	2.3939912
68	0xbe89c454	-0.269076
69	0xbc20cce0	-0.009814471
70	0xbeaea522	-0.3411036
71	0x3de80693	0.11329379
72	0xbe04cad1	-0.12967993
73	0xbccf442e	-0.025301065
74	0x3e3d1aa5	0.18467195
75	0xbf330a97	-0.69938034
76	0xbec1a1cf	-0.37818763
77	0xbe61db2c	-0.22056264
78	0x3d91a15a	0.071108535
79	0x3d6e9252	0.05824501
80	0x3d165f89	0.036712203
81	0xbdb1712f	-0.08664166
82	0xbe3c2b0e	-0.18375799
83	0xbd6ac8ee	-0.057320528
84	0xbe1676e7	-0.14693795
85	0xbca1c7fc	-0.01974868
86	0xbe8924a9	-0.26785782
87	0xbe3f41c0	-0.18677425
88	0x3e1203ce	0.14259264
89	0x3e35833f	0.17725848
90	0x3dd69a62	0.10478665
91	0xbe89e527	-0.26932642
92	0xbe2ad13b	-0.16681378
93	0xbe0935d3	-0.13399439
94	0x3d908921	0.07057405
95	0xbe182caf	-0.14860795
96	0x3df59af2	0.11992444
97	0xbef2bfad	-0.47411862
98	0x3e5a5364	0.21320873
99	0x3e899581	0.26871875
100	0x3ce1aec3	0.027549153
101	0x3cf2843a	0.029604066
102	0x3d638134	0.05554314
103	0x3c7e6970	0.015528068
104	0x3e93ebfa	0.28890973
105	0xbe817b1b	-0.25289235
106	0x3d4664f6	0.048436128
107	0x3e60c972	0.21951845
108	0xbe78d065	-0.24298246
109	0x3f558f5e	0.83421886
110	0x3e48e5fd	0.19618984
111	0xbbf46040	-0.007457763
112	0xc005cd40	-2.0906525
113	0xbf0f7f9e	-0.56054103
114	0xbe022eea	-0.12713209
115	0x3e2a6975	0.16641791
116	0x3f67a54f	0.90486616
117	0xbde480a8	-0.11157352
118	0xbd85011b	-0.064943515
119	0xbe9ad2d1	-0.30238965
120	0xbec9be80	-0.39403152
121	0x3e3dbb82	0.1852856
122	0x3d507162	0.05088938
123	0x3e858768	0.2607987
124	0x3dec1c6b	0.11528858
125	0x3d85618f	0.065127485
126	0x3e8d99f6	0.27656525
127	0x3d8ec22e	0.069706306

conv_layers.1.lin_src.weight f4 [128, 128]
0	0xbdcdaf19	-0.10043163
1	0x3e543dcf	0.20726703
2	0xbca4cac8	-0.020116225
3	0x3e91a381	0.28445056
4	0xbe2cc95c	-0.16873688
5	0xbe74fa7e	-0.2392368
6	0x3ea17ea4	0.31541932
7	0x3e1afae3	0.15134768
8	0xbe7b3632	-0.24532393
9	0xbe8e39f4	-0.2777859
10	0x3d82308b	0.06356915
11	0x3e915b08	0.28389764
12	0x3e1128fa	0.14175788
13	0xbd4b44c3	-0.049626123
14	0x3d41c27c	0.047304615
15	0xbe4abc19	-0.19798316
16	0xbdbab319	-0.091161914
17	0x3e8ab32d	0.27089825
18	0x3e9f7d35	0.31150213
19	0x3dd9bade	0.10631345
20	0x3e8f4610	0.2798314
21	0xbd9cbc12	-0.07653059
22	0x3e52bab2	0.20579031
23	0x3d897960	0.067126036
24	0xbe2c2c13	-0.16813688
25	0xbe25eeed	-0.16204424
26	0x3eb77514	0.3583151
27	0x3d994a70	0.07484901
28	0x3e712b96	0.23551783
29	0x3e96c90d	0.29450265
30	0xbe207069	-0.15667881
31	0xbcbace58	-0.02280347
32	0xbe174bca	-0.14775005
33	0x3a3c1263	0.00071743707
34	0xbf1437a4	-0.578974
35	0x3decd017	0.115631275
36	0xbf026cf8	-0.50947523
37	0x3f2ffc4d	0.68744355
38	0xbcd7790b	-0.026302835
39	0x3ded1012	0.11575331
40	0x3e5cf758	0.21578729
41	0xbd2b9410	-0.04188925
42	0x3d75be0a	0.05999569
43	0x3de34cb4	0.11098614
44	0xbe50fe47	-0.20409499
45	0xbe0b4017	-0.13598667
46	0x3f343a55	0.7040151
47	0x3a26dd51	0.0006365376
48	0x3db28239	0.08716244
49	0x3e245d2c	0.16051167
50	0xbf1e21e7	-0.6177048
51	0xbe985f08	-0.29760003
52	0xbdee476f	-0.116347186
53	0xbea64642	-0.32475477
54	0xbc997c93	-0.01873616
55	0xbf073240	-0.5281105
56	0x3e12dcae	0.14341995
57	0xbd749f86	-0.059722446
58	0xbc16284b	-0.00916488
59	0xbdd378c9	-0.10325772
60	0x3ef716c0	0.48259544
61	0xbf006aa1	-0.501627
62	0xbd12f2b1	-0.03587598
63	0xbdb15e5d	-0.086605765
64	0x3e8dd612	0.27702385
65	0x3e83fdd1	0.25779584
66	0x3da7a2cc	0.08185348
67	0xbd0266a2	-0.03183616
68	0x3e974d4d	0.29551163
69	0x3de5e159	0.11224622
70	0xbd9ac7f3	-0.075576685
71	0xbc883c5e	-0.016630348
72	0x3dc0bf82	0.09411527
73	0x3ee89ba8	0.45431256
74	0x3e0fd372	0.14045504
75	0x3e10e09e	0.14148185
76	0x3e86de7e	0.26341623
77	0xbe04288b	-0.12906091
78	0xbecd20ce	-0.4006409
79	0x3e36ad20	0.1783948
80	0x3ddc5fdb	0.107604705
81	0xbdb87a7e	-0.090077385
82	0xbe12c02d	-0.14331122
83	0xbebc126a	-0.367328
84	0xbf65db44	-0.897877
85	0xbe74e6eb	-0.23916213
86	0xbe456fc6	-0.1928092
87	0x3d54f761	0.05199373
88	0xbdecfef0	-0.11572063
89	0xbdcb139d	-0.0991585
90	0x3df857d4	0.12126127
91	0x3e67aece	0.22625276
92	0xbe3e58c2	-0.18588546
93	0xbe12c289	-0.14332022
94	0x3d23bb60	0.039973617
95	0x3e51aa8e	0.20475218
96	0xbd2a3631	-0.041555587
97	0xbddfbe38	-0.10924953
98	0xbdc22489	-0.09479625
99	0xbd2d8700	-0.042365074
100	0xbdc74ae6	-0.097310826
101	0xbd58fa57	-0.052973118
102	0xbc9691e9	-0.018380122
103	0x3d8bede8	0.068324864
104	0x3e44066c	0.19143075
105	0xbc77ea91	-0.015131609
106	0x3f025a24	0.50918794
107	0xbdd51533	-0.10404434
108	0xbdb8bacc	-0.09020004
109	0x3d4e99fc	0.05043982
110	0xbd320e7c	-0.043470845
111	0xbd9d1955	-0.07670847
112	0xbe60d605	-0.21956642
113	0xbcbe448c	-0.023226045
114	0x3dd38053	0.1032721
115	0x3d8615c8	0.06547123
116	0xbe48abe0	-0.19596815
117	0xbdab426c	-0.08362278
118	0xbe0a3d15	-0.13499863
119	0xbe5fe8e3	-0.21866183
120	0xbe0d041f	-0.13771103
121	0x3c29e8e8	0.010370471
122	0xbdb87608	-0.09006888
123	0xbe46b859	-0.1940626
124	0x3da2c1c2	0.079471126
125	0xbb590b8f	-0.0033118462
126	0x3d8be4ca	0.068307474
127	0xbe16f08d	-0.147402
128	0x3eb22685	0.34795013
129	0x3de3be5a	0.11120291
130	0x3d4b601f	0.049652215
131	0xbe062aa9	-0.13102211
132	0x3db6184d	0.08891354
133	0xbe22a155	-0.15881856
134	0xbe90577d	-0.28191748
135	0x3e59b139	0.21259011
136	0xbb358983	-0.0027700372
137	0x3df975b6	0.12180655
138	0x3e9279fe	0.28608698
139	0x3e8d4af7	0.27596256
140	0xbeb0f27d	-0.34560004
141	0x3d535bf2	0.051601358
142	0x3d2210ad	0.039566685
143	0xbe1d211d	-0.15344663
144	0xbdee5f29	-0.11639244
145	0xbe7c4d7c	-0.24638933
146	0xbe3d18cc	-0.1846649
147	0xbd8659c2	-0.06560089
148	0xbd2b5895	-0.041832525
149	0x3db16835	0.08662454
150	0x3e5b7624	0.21431786
151	0xbdb16858	-0.0866248
152	0xbd145354	-0.03621228
153	0x3d73af4a	0.05949334
154	0xbc0b5968	-0.008505203
155	0xbd9661f7	-0.07342904
156	0xbd24053c	-0.040044054
157	0x3eab1d0c	0.33420599
158	0x3e4aaff2	0.1979368
159	0x3e6ad7dc	0.22933906
160	0xbeb10127	-0.34571192
161	0xbbec4c06	-0.007211211
162	0xbe56c0e8	-0.20972025
163	0xbe0c6490	-0.13710237
164	0xbe058d0e	-0.1304209
165	0x3e979330	0.29604483
166	0x3e30fc41	0.17283727
167	0x3e3524ea	0.17689863
168	0xbdaabab0	-0.08336389
169	0x3e50300f	0.20330833
170	0x3e446d5d	0.19182344
171	0xbdb0c549	-0.08631379
172	0xbeda1bef	-0.42599437
173	0xbe023a1e	-0.12717482
174	0x3e82ca95	0.25545183
175	0x3c33e888	0.010980733
176	0xbe3d974e	-0.1851475
177	0x3e8ea2fa	0.27858716
178	0xbf0ffdde	-0.56246746
179	0xbd4f6ea4	-0.050642624
180	0xba927762	-0.0011174495
181	0xbe508663	-0.20363764
182	0xbe7194e2	-0.2359195
183	0xbebc85e7	-0.3682091
184	0xbe41cdbf	-0.18926142
185	0x3cd2a827	0.025714947
186	0xbb27e793	-0.0025620207
187	0xbeb54340	-0.3540287
188	0x3f851063	1.0395626
189	0xbe79599b	-0.24350588
190	0x3c139012	0.009006517
191	0x3d965a06	0.07341389
192	0xbe90e4e1	-0.2829962
193	0x3e056717	0.13027607
194	0xbec76685	-0.38945404
195	0x3d1c391d	0.038140405
196	0x3e800b9c	0.25008857
197	0xbcf2e767	-0.029651357
198	0x3e27ff59	0.16406001
199	0x3eb804e7	0.3594124
200	0x3e392081	0.18078806
201	0xbcbb13a6	-0.022836518
202	0xbe20bddb	-0.15697424
203	0xbe5bc5b0	-0.2146213
204	0x3d91c0ae	0.07116829
205	0xbef98b03	-0.4873887
206	0x3cf72cba	0.030172694
207	0x3de4b2ec	0.11166939
208	0xbcb11c30	-0.021619886
209	0x3db05708	0.0861035
210	0x3dc74240	0.09729433
211	0x3e9880d6	0.29785794
212	0xbeb3760d	-0.35051003
213	0x3d90ac67	0.07064133
214	0xbe79e426	-0.24403438
215	0x3e34407c	0.17602724
216	0xbdc0874f	-0.09400808
217	0x3dd8c346	0.105841205
218	0xbc5aba12	-0.013350027
219	0xbeb82164	-0.35962975
220	0x3ed86578	0.42264915
221	0x3ebbde18	0.36692882
222	0xbe5c3aac	-0.21506757
223	0xbd9264cd	-0.071481325
224	0x3e035a52	0.12827423
225	0x3d8e5521	0.06949831
226	0xbe173f04	-0.14770132
227	0x3e4ba3cb	0.19886701
228	0x3ee02c26	0.43783683
229	0xbe3e6c3d	-0.18595977
230	0xbeab8077	-0.33496448
231	0x3e979afb	0.29610428
232	0x3dc77355	0.09738795
233	0x3e2dd69f	0.16976403
234	0x3f29a04d	0.66260225
235	0x3eae3e97	0.34032127
236	0x3d8e0dad	0.06936202
237	0x3c5fe9cf	0.013666584
238	0x3e801de3	0.25022802
239	0xbdb5d3f8	-0.088783205
240	0xbdf89f35	-0.12139741
241	0x3c7b10dd	0.015323845
242	0xbdf936e5	-0.121686734
243	0xbee24929	-0.44196442
244	0x3ef9bdb1	0.48777536
245	0x3f0191e5	0.5061324
246	0xbeae13d4	-0.33999503
247	0xbe8d41fb	-0.27589402
248	0x3e8045dd	0.250533
249	0xbe85a26e	-0.26100487
250	0xbda95bbc	-0.0826945
251	0x3e34cc04	0.17655951
252	0x3e9c4a2b	0.30525336
253	0xbd8d2c26	-0.06893186
254	0x3e88ba3c	0.26704586
255	0x3e3df2a4	0.18549591

conv_layers.1.lin_dst.weight f4 [128, 128]
0	0xbdcdaf19	-0.10043163
1	0x3e543dcf	0.20726703
2	0xbca4cac8	-0.020116225
3	0x3e91a381	0.28445056
4	0xbe2cc95c	-0.16873688
5	0xbe74fa7e	-0.2392368
6	0x3ea17ea4	0.31541932
7	0x3e1afae3	0.15134768
8	0xbe7b3632	-0.24532393
9	0xbe8e39f4	-0.2777859
10	0x3d82308b	0.06356915
11	0x3e915b08	0.28389764
12	0x3e1128fa	0.14175788
13	0xbd4b44c3	-0.049626123
14	0x3d41c27c	0.047304615
15	0xbe4abc19	-0.19798316
16	0xbdbab319	-0.091161914
17	0x3e8ab32d	0.27089825
18	0x3e9f7d35	0.31150213
19	0x3dd9bade	0.10631345
20	0x3e8f4610	0.2798314
21	0xbd9cbc12	-0.07653059
22	0x3e52bab2	0.20579031
23	0x3d897960	0.067126036
24	0xbe2c2c13	-0.16813688
25	0xbe25eeed	-0.16204424
26	0x3eb77514	0.3583151
27	0x3d994a70	0.07484901
28	0x3e712b96	0.23551783
29	0x3e96c90d	0.29450265
30	0xbe207069	-0.15667881
31	0xbcbace58	-0.02280347
32	0xbe174bca	-0.14775005
33	0x3a3c1263	0.00071743707
34	0xbf1437a4	-0.578974
35	0x3decd017	0.115631275
36	0xbf026cf8	-0.50947523
37	0x3f2ffc4d	0.68744355
38	0xbcd7790b	-0.026302835
39	0x3ded1012	0.11575331
40	0x3e5cf758	0.21578729
41	0xbd2b9410	-0.04188925
42	0x3d75be0a	0.05999569
43	0x3de34cb4	0.11098614
44	0xbe50fe47	-0.20409499
45	0xbe0b4017	-0.13598667
46	0x3f343a55	0.7040151
47	0x3a26dd51	0.0006365376
48	0x3db28239	0.08716244
49	0x3e245d2c	0.16051167
50	0xbf1e21e7	-0.6177048
51	0xbe985f08	-0.29760003
52	0xbdee476f	-0.116347186
53	0xbea64642	-0.32475477
54	0xbc997c93	-0.01873616
55	0xbf073240	-0.5281105
56	0x3e12dcae	0.14341995
57	0xbd749f86	-0.059722446
58	0xbc16284b	-0.00916488
59	0xbdd378c9	-0.10325772
60	0x3ef716c0	0.48259544
61	0xbf006aa1	-0.501627
62	0xbd12f2b1	-0.03587598
63	0xbdb15e5d	-0.086605765
64	0x3e8dd612	0.27702385
65	0x3e83fdd1	0.25779584
66	0x3da7a2cc	0.08185348
67	0xbd0266a2	-0.03183616
68	0x3e974d4d	0.29551163
69	0x3de5e159	0.11224622
70	0xbd9ac7f3	-0.075576685
71	0xbc883c5e	-0.016630348
72	0x3dc0bf82	0.09411527
73	0x3ee89ba8	0.45431256
74	0x3e0fd372	0.14045504
75	0x3e10e09e	0.14148185
76	0x3e86de7e	0.26341623
77	0xbe04288b	-0.12906091
78	0xbecd20ce	-0.4006409
79	0x3e36ad20	0.1783948
80	0x3ddc5fdb	0.107604705
81	0xbdb87a7e	-0.090077385
82	0xbe12c02d	-0.14331122
83	0xbebc126a	-0.367328
84	0xbf65db44	-0.897877
85	0xbe74e6eb	-0.23916213
86	0xbe456fc6	-0.1928092
87	0x3d54f761	0.05199373
88	0xbdecfef0	-0.11572063
89	0xbdcb139d	-0.0991585
90	0x3df857d4	0.12126127
91	0x3e67aece	0.22625276
92	0xbe3e58c2	-0.18588546
93	0xbe12c289	-0.14332022
94	0x3d23bb60	0.039973617
95	0x3e51aa8e	0.20475218
96	0xbd2a3631	-0.041555587
97	0xbddfbe38	-0.10924953
98	0xbdc22489	-0.09479625
99	0xbd2d8700	-0.042365074
100	0xbdc74ae6	-0.097310826
101	0xbd58fa57	-0.052973118
102	0xbc9691e9	-0.018380122
103	0x3d8bede8	0.068324864
104	0x3e44066c	0.19143075
105	0xbc77ea91	-0.015131609
106	0x3f025a24	0.50918794
107	0xbdd51533	-0.10404434
108	0xbdb8bacc	-0.09020004
109	0x3d4e99fc	0.05043982
110	0xbd320e7c	-0.043470845
111	0xbd9d1955	-0.07670847
112	0xbe60d605	-0.21956642
113	0xbcbe448c	-0.023226045
114	0x3dd38053	0.1032721
115	0x3d8615c8	0.06547123
116	0xbe48abe0	-0.19596815
117	0xbdab426c	-0.08362278
118	0xbe0a3d15	-0.13499863
119	0xbe5fe8e3	-0.21866183
120	0xbe0d041f	-0.13771103
121	0x3c29e8e8	0.010370471
122	0xbdb87608	-0.09006888
123	0xbe46b859	-0.1940626
124	0x3da2c1c2	0.079471126
125	0xbb590b8f	-0.0033118462
126	0x3d8be4ca	0.068307474
127	0xbe16f08d	-0.147402
128	0x3eb22685	0.34795013
129	0x3de3be5a	0.11120291
130	0x3d4b601f	0.049652215
131	0xbe062aa9	-0.13102211
132	0x3db6184d	0.08891354
133	0xbe22a155	-0.15881856
134	0xbe90577d	-0.28191748
135	0x3e59b139	0.21259011
136	0xbb358983	-0.0027700372
137	0x3df975b6	0.12180655
138	0x3e9279fe	0.28608698
139	0x3e8d4af7	0.27596256
140	0xbeb0f27d	-0.34560004
141	0x3d535bf2	0.051601358
142	0x3d2210ad	0.039566685
143	0xbe1d211d	-0.15344663
144	0xbdee5f29	-0.11639244
145	0xbe7c4d7c	-0.24638933
146	0xbe3d18cc	-0.1846649
147	0xbd8659c2	-0.06560089
148	0xbd2b5895	-0.041832525
149	0x3db16835	0.08662454
150	0x3e5b7624	0.21431786
151	0xbdb16858	-0.0866248
152	0xbd145354	-0.03621228
153	0x3d73af4a	0.05949334
154	0xbc0b5968	-0.008505203
155	0xbd9661f7	-0.07342904
156	0xbd24053c	-0.040044054
157	0x3eab1d0c	0.33420599
158	0x3e4aaff2	0.1979368
159	0x3e6ad7dc	0.22933906
160	0xbeb10127	-0.34571192
161	0xbbec4c06	-0.007211211
162	0xbe56c0e8	-0.20972025
163	0xbe0c6490	-0.13710237
164	0xbe058d0e	-0.1304209
165	0x3e979330	0.29604483
166	0x3e30fc41	0.17283727
167	0x3e3524ea	0.17689863
168	0xbdaabab0	-0.08336389
169	0x3e50300f	0.20330833
170	0x3e446d5d	0.19182344
171	0xbdb0c549	-0.08631379
172	0xbeda1bef	-0.42599437
173	0xbe023a1e	-0.12717482
174	0x3e82ca95	0.25545183
175	0x3c33e888	0.010980733
176	0xbe3d974e	-0.1851475
177	0x3e8ea2fa	0.27858716
178	0xbf0ffdde	-0.56246746
179	0xbd4f6ea4	-0.050642624
180	0xba927762	-0.0011174495
181	0xbe508663	-0.20363764
182	0xbe7194e2	-0.2359195
183	0xbebc85e7	-0.3682091
184	0xbe41cdbf	-0.18926142
185	0x3cd2a827	0.025714947
186	0xbb27e793	-0.0025620207
187	0xbeb54340	-0.3540287
188	0x3f851063	1.0395626
189	0xbe79599b	-0.24350588
190	0x3c139012	0.009006517
191	0x3d965a06	0.07341389
192	0xbe90e4e1	-0.2829962
193	0x3e056717	0.13027607
194	0xbec76685	-0.38945404
195	0x3d1c391d	0.038140405
196	0x3e800b9c	0.25008857
197	0xbcf2e767	-0.029651357
198	0x3e27ff59	0.16406001
199	0x3eb804e7	0.3594124
200	0x3e392081	0.18078806
201	0xbcbb13a6	-0.022836518
202	0xbe20bddb	-0.15697424
203	0xbe5bc5b0	-0.2146213
204	0x3d91c0ae	0.07116829
205	0xbef98b03	-0.4873887
206	0x3cf72cba	0.030172694
207	0x3de4b2ec	0.11166939
208	0xbcb11c30	-0.021619886
209	0x3db05708	0.0861035
210	0x3dc74240	0.09729433
211	0x3e9880d6	0.29785794
212	0xbeb3760d	-0.35051003
213	0x3d90ac67	0.07064133
214	0xbe79e426	-0.24403438
215	0x3e34407c	0.17602724
216	0xbdc0874f	-0.09400808
217	0x3dd8c346	0.105841205
218	0xbc5aba12	-0.013350027
219	0xbeb82164	-0.35962975
220	0x3ed86578	0.42264915
221	0x3ebbde18	0.36692882
222	0xbe5c3aac	-0.21506757
223	0xbd9264cd	-0.071481325
224	0x3e035a52	0.12827423
225	0x3d8e5521	0.06949831
226	0xbe173f04	-0.14770132
227	0x3e4ba3cb	0.19886701
228	0x3ee02c26	0.43783683
229	0xbe3e6c3d	-0.18595977
230	0xbeab8077	-0.33496448
231	0x3e979afb	0.29610428
232	0x3dc77355	0.09738795
233	0x3e2dd69f	0.16976403
234	0x3f29a04d	0.66260225
235	0x3eae3e97	0.34032127
236	0x3d8e0dad	0.06936202
237	0x3c5fe9cf	0.013666584
238	0x3e801de3	0.25022802
239	0xbdb5d3f8	-0.088783205
240	0xbdf89f35	-0.12139741
241	0x3c7b10dd	0.015323845
242	0xbdf936e5	-0.121686734
243	0xbee24929	-0.44196442
244	0x3ef9bdb1	0.48777536
245	0x3f0191e5	0.5061324
246	0xbeae13d4	-0.33999503
247	0xbe8d41fb	-0.27589402
248	0x3e8045dd	0.250533
249	0xbe85a26e	-0.26100487
250	0xbda95bbc	-0.0826945
251	0x3e34cc04	0.17655951
252	0x3e9c4a2b	0.30525336
253	0xbd8d2c26	-0.06893186
254	0x3e88ba3c	0.26704586
255	0x3e3df2a4	0.18549591

conv_layers.2.att_src f4 [1, 4, 32]
0	0xbf0cddf5	-0.5502618
1	0xbab6b9c7	-0.0013940864
2	0xbc7d1334	-0.015446473
3	0xbecd2407	-0.4006655
4	0xbc85a86f	-0.016315667
5	0x3de78555	0.11304728
6	0xbf123280	-0.57108307
7	0xbf1aabe2	-0.6041852
8	0xbdd08b8d	-0.10182867
9	0xbf401d53	-0.75044745
10	0xbdde550c	-0.10856065
11	0xbeb64724	-0.3560115
12	0x3eb386b9	0.35063723
13	0xbf8d962a	-1.1061451
14	0xbd988088	-0.074463904
15	0xbe5659a4	-0.20932633
16	0x3b3de860	0.0028977618
17	0xbfa1f884	-1.2653966
18	0x3eede732	0.4646545
19	0xbf38fb31	-0.7225829
20	0x3f13a671	0.57675844
21	0xbf234f3f	-0.63792795
22	0xbf1acd20	-0.60469246
23	0x3b48e159	0.0030651896
24	0x3e968517	0.29398414
25	0xbf27ab33	-0.65495604
26	0xbe299eac	-0.16564435
27	0x3e93dddf	0.28880212
28	0x3f6184b5	0.8809312
29	0xb98e9ac1	-0.0002719965
30	0xbeb1586d	-0.34637776
31	0xbf9fb791	-1.2477895
32	0x3f0861bc	0.5327413
33	0xbef08ef9	-0.4698408
34	0x3d4d5c1c	0.05013667
35	0x3de4d925	0.111742295
36	0x3e9bfe7c	0.30467594
37	0x3ec0e6f2	0.37676197
38	0x3e1ed26e	0.1550996
39	0xbe8a7048	-0.2703879
40	0x3d30c2f0	0.043154657
41	0xbe124cc9	-0.14287104
42	0x3e176f0b	0.14788453
43	0x3dff4219	0.12463779
44	0xbe26febe	-0.16308114
45	0xbeb8cb6d	-0.36092702
46	0xbd798496	-0.06091746
47	0x3f6f75d8	0.9353919
48	0x3bc96273	0.0061457693
49	0xbe5cd75e	-0.21566531
50	0x3e29e4dc	0.16591209
51	0xbf45d25b	-0.772741
52	0x3def32c5	0.116796054
53	0x3e0db8c4	0.13840014
54	0x3dd9e00d	0.106384374
55	0x3e7db620	0.24776506
56	0x3d3ebdb0	0.04656762
57	0x3e651174	0.22369939
58	0x3bc08210	0.0058748797
59	0x3ca02e59	0.01955335
60	0x3eb7db6b	0.3590959
61	0x3ecfb0d2	0.4056459
62	0x3dc05730	0.0939163
63	0xbd6d9207	-0.05800059
64	0x3d847cfa	0.0646915
65	0x3d0e0067	0.034668352
66	0x3f17187f	0.59021753
67	0x39d22e3f	0.00040088777
68	0xbf52315e	-0.8210658
69	0x3d828754	0.06373468
70	0xbc07173a	-0.008245284
71	0x3d8d328c	0.06894407
72	0x3c9b5456	0.018961113
73	0xbe74a235	-0.23890002
74	0xbd140537	-0.036137786
75	0x3a0ba48d	0.0005326949
76	0x3ebdc9af	0.37067935
77	0xbdba1c78	-0.09087461
78	0x3f0d7b07	0.5526585
79	0xb9615c62	-0.00021492087
80	0x3e29c249	0.1657802
81	0x3c505c07	0.0127172535
82	0x3e17acc4	0.14811999
83	0xb9bf3d21	-0.00036475903
84	0x3fa3bc6f	1.279188
85	0xbf1c6eac	-0.6110637
86	0x3e73e9a4	0.23819596
87	0xbe1301de	-0.14356181
88	0x3ea53e48	0.3227408
89	0x3977791a	0.0002360087
90	0x3bb7b6cc	0.005606508
91	0x3f14aa54	0.580724
92	0x3f9e7b7b	1.2381433
93	0x3e0da738	0.1383332
94	0xb826c04a	-3.9756567e-05
95	0xbe5b7bd7	-0.2143396
96	0xbf7329ef	-0.9498586
97	0xbfb63821	-1.4235879
98	0x3e4e1d6c	0.20128411
99	0x3f058de6	0.52169645
100	0xbeffeb14	-0.49984038
101	0x3e827086	0.25476474
102	0x3e700dee	0.23442814
103	0x3c06f42b	0.008236925
104	0xbf5eba54	-0.87003064
105	0xbe5dac48	-0.21647751
106	0xbed53740	-0.41643715
107	0xbeb78b7e	-0.35848612
108	0x3eca09a9	0.39460495
109	0xbf3d3520	-0.7390919
110	0xbe176c23	-0.14787345
111	0xbeba5001	-0.36389163
112	0xbd083780	-0.033256054
113	0xbeac59ae	-0.3366217
114	0xbea1f3b2	-0.31631237
115	0xbf8af367	-1.085553
116	0x3c14837c	0.009064551
117	0xbf20bd40	-0.6278877
118	0x3e103a47	0.14084731
119	0xbd03d42d	-0.03218477
120	0x3ecc9baa	0.39962512
121	0xbea618e8	-0.32440877
122	0x3deb4946	0.11488585
123	0x3ee0d28c	0.43910635
124	0x3f5f4b2b	0.8722407
125	0x3f50bc7b	0.815376
126	0x3f1ce64b	0.612889
127	0xbdb386f7	-0.08765977
