embd_16_nHead_4_nlayer_2_Batch_500.pth (torch, 23307 bytes, 11 tensors)

conv_layers.0.att_src f4 [1, 4, 16]
0	0x3d8421b1	0.064517386
1	0xbeccfa08	-0.4003451
2	0x3f4f27b1	0.8091994
3	0x3e5109bf	0.20413874
4	0x3e44b9de	0.19211528
5	0xbe9a226d	-0.3010439
6	0x3f16ee5e	0.5895747
7	0x3e8d4d11	0.2759786
8	0xbeba9ed8	-0.36449313
9	0x3f17dad3	0.59318274
10	0x3d9c848b	0.07642468
11	0x3f171fe2	0.59033024
12	0xbe9bfb9b	-0.30465397
13	0x3c96f8db	0.01842921
14	0xbd0cb695	-0.03435381
15	0x3e4a78c2	0.19772628
16	0x3ef54879	0.47906855
17	0x3e4e318e	0.20136091
18	0x3eba498d	0.3638424
19	0xbe601fd1	-0.21887137
20	0xbeaae3d1	-0.33376935
21	0x3ed0ebe7	0.4080498
22	0x3e5dde5f	0.21666859
23	0xb95a9d7e	-0.0002084877
24	0x3f0e9cd4	0.5570805
25	0xbe0057c8	-0.12533486
26	0xbec5ca83	-0.38631067
27	0x3ed3fe76	0.41405076
28	0x3e992fac	0.29919183
29	0xbef32e5b	-0.47496304
30	0xbd5d55e9	-0.05403701
31	0x3f334cca	0.70039046
32	0xbccdb0ae	-0.025108662
33	0x3dba29c0	0.090899944
34	0xbea429c1	-0.32063106
35	0xbd21fab1	-0.03954572
36	0x3e5420ad	0.2071559
37	0xbf1679a0	-0.58779335
38	0xbd12c0c9	-0.035828386
39	0x3f176c25	0.5914939
40	0xbe8d3947	-0.27582762
41	0xbe02b21d	-0.12763257
42	0xbf1bf805	-0.6092532
43	0x3d2711fe	0.040788643
44	0xbeeba29d	-0.46022502
45	0xbf55a317	-0.8345198
46	0xbe9b2181	-0.30299
47	0xbe005ff6	-0.12536606
48	0xbf1ab112	-0.6042644
49	0x3e945e56	0.28978223
50	0xbe52f3aa	-0.20600763
51	0xbd7f239e	-0.062289827
52	0xbe89c107	-0.2690508
53	0xbe7ae9b1	-0.24503209
54	0x3ef3c391	0.47610143
55	0xbd4b10e6	-0.049576662
56	0xbe080ecd	-0.13286896
57	0xbe792795	-0.24331506
58	0x3e5db4f2	0.21651056
59	0xbee7be7a	-0.4526251
60	0xbf1997f8	-0.5999751
61	0xbdd76914	-0.10518089
62	0x3ef190c0	0.47180748
63	0x3f0d43a2	0.55181324

conv_layers.0.att_dst f4 [1, 4, 16]
0	0x3e1b6161	0.15173866
1	0x3dadf0bc	0.08493182
2	0x3e79f420	0.24409533
3	0xbe2e0e7c	-0.16997713
4	0x3dcadb75	0.09905139
5	0xbcef224e	-0.029191162
6	0x3eb3c1c4	0.3510877
7	0x3e07cdbd	0.13262077
8	0xbdc047a6	-0.09388666
9	0xbf2305d1	-0.6368075
10	0xbecb38de	-0.39691824
11	0x3e94e39d	0.29079905
12	0xbd64a404	-0.05582048
13	0xbcf57c95	-0.029966632
14	0x3e6e5fa4	0.23278672
15	0xbe538253	-0.20655183
16	0xbe2bf2f0	-0.16791892
17	0x3ebca0b5	0.3684136
18	0x3e518f60	0.2046485
19	0xbda91a7f	-0.08257007
20	0x3db5986a	0.08866961
21	0xbded5eb4	-0.11590329
22	0xbe9a8b9b	-0.30184636
23	0x3ecbda12	0.39814812
24	0xbea838ac	-0.32855737
25	0xbee567c7	-0.44805738
26	0x3dc71998	0.097216785
27	0xbd87d1af	-0.06631791
28	0xbe4f4589	-0.2024137
29	0xbeee574b	-0.46550974
30	0xbe8c56ed	-0.2741007
31	0xbe6c6225	-0.23084314
32	0x3dc98dc0	0.0984149
33	0x3e47a42c	0.1949622
34	0xbedcdc6b	-0.43136916
35	0x3edf66a9	0.4363301
36	0xbe4f4a5c	-0.2024321
37	0x3ee9199f	0.4552736
38	0xbed91e6f	-0.4240603
39	0x3edfbc5f	0.43698403
40	0x3eb97d75	0.3622853
41	0x3eee5c4b	0.4655479
42	0x3d87401d	0.066040255
43	0x3ee74721	0.45171455
44	0xbeda4221	-0.42628577
45	0xbf18705c	-0.59546447
46	0x3eafd49b	0.34341893
47	0xbec116cd	-0.37712708
48	0xbe3dc44b	-0.18531911
49	0xbe86da6e	-0.26338524
50	0x3eb5cd5c	0.3550824
51	0xbdc38aa3	-0.09547927
52	0xbd90b91a	-0.07066555
53	0x3f084dc5	0.53243667
54	0x3d14e3d6	0.036350094
55	0xbe880400	-0.26565552
56	0xbe6da2c5	-0.23206623
57	0xbeb121d4	-0.3459612
58	0x3e87997d	0.2648429
59	0x3e4b3a14	0.19846374
60	0x3d966d03	0.07345011
61	0x3d6d2937	0.057900634
62	0xbec964b9	-0.39334658
63	0xbd91d204	-0.071201354

conv_layers.0.bias f4 [64]
0	0x3c343f05	0.011001353
1	0xbe28f54a	-0.1649982
2	0x3e4e8e38	0.2017144
3	0xbe132eed	-0.1437337
4	0x3e3a655b	0.18202727
5	0xbe1c7418	-0.15278661
6	0x3ea77fb3	0.32714614
7	0xbe312fbd	-0.17303367
8	0xbd5e5ab0	-0.054285705
9	0x3e282ff1	0.16424538
10	0xbe2867fb	-0.16445915
11	0x3e46fd93	0.19432668
12	0x3e245098	0.16046369
13	0xbe3ed354	-0.18635303
14	0xbe515d36	-0.20445713
15	0x3e588333	0.21143799
16	0x3c297c87	0.010344631
17	0xbea2100a	-0.31652862
18	0x3e68059f	0.22658394
19	0x3e666f7e	0.22503468
20	0xbdfc456b	-0.12317928
21	0x3e47cd49	0.19511904
22	0xbe0511fb	-0.1299514
23	0x3dca0636	0.09864466
24	0x3e243741	0.16036703
25	0xbe63333e	-0.22187516
26	0x3e425c74	0.1898058
27	0xbe567dfc	-0.20946497
28	0x3e0a056b	0.1347863
29	0xbe0e6c26	-0.13908443
30	0xbdfa843a	-0.122322515
31	0x3e00c571	0.12575318
32	0xbe44df75	-0.19225867
33	0x3e153341	0.14570333
34	0xbd80e21a	-0.062931255
35	0xbe62731a	-0.2211422
36	0xbe3f78b0	-0.18698382
37	0xbe8313c4	-0.25601017
38	0x3e02f70a	0.1278955
39	0x3e18592a	0.14877763
40	0xbe54595e	-0.20737216
41	0x3e0766f4	0.13222867
42	0xbe4541b9	-0.19263352
43	0x3e21f292	0.1581519
44	0xbe6a6df7	-0.22893511
45	0xbd29fee6	-0.041502856
46	0x3dade809	0.08491523
47	0x3e0efc06	0.13963327
48	0xbe528bc7	-0.20561133
49	0x3e2f0296	0.1709083
50	0xbe8bdc8c	-0.273167
51	0x3e2827cd	0.16421433
52	0xbe4af489	-0.19819845
53	0x3e260673	0.16213398
54	0x3e0202a8	0.12696326
55	0xbe4c7259	-0.19965495
56	0xbe611322	-0.21979955
57	0x3e3db982	0.18527797
58	0x3e34bdfe	0.17650601
59	0xbe2ca981	-0.16861536
60	0xbe4271ce	-0.18988726
61	0x3e2cd442	0.16877845
62	0x3e55a057	0.20861946
63	0x3e2d837b	0.16944687

conv_layers.0.lin_src.weight f4 [64, 4]
0	0xbc5fa7d6	-0.013650855
1	0x3e82bb0f	0.2553334
2	0x3e890e4f	0.2676873
3	0xbcf6001c	-0.030029349
4	0xbebb664f	-0.36601493
5	0xbf61348c	-0.87970805
6	0xbda7d6ee	-0.081952915
7	0xbba5c80e	-0.005059249
8	0x3ea4ed43	0.32212266
9	0x3f260fcb	0.6486785
10	0x3e0a7720	0.13522005
11	0x3bd2633d	0.0064205215
12	0x3d85d773	0.06535234
13	0xbeaaa70f	-0.3333058
14	0xbecbd1ea	-0.3980859
15	0xbe3650d0	-0.17804265
16	0x3d716eae	0.058943443
17	0x3e2d0897	0.16897808
18	0x3ebe054f	0.37113425
19	0x3e78fb19	0.24314536
20	0xbe840a3a	-0.25789052
21	0xbed8e34f	-0.42360923
22	0xbe73078d	-0.23733349
23	0xbe6133c0	-0.21992397
24	0x3f2f12e2	0.6838819
25	0x3f61262c	0.8794887
26	0x3e3e1527	0.18562756
27	0xbe6cbe4b	-0.23119466
28	0xbe9e5d83	-0.3093072
29	0xbf4b973a	-0.7952763
30	0xbe2a4568	-0.16628039
31	0xbe0474f1	-0.12935235
32	0xbea6dfde	-0.32592672
33	0xbec9856f	-0.39359614
34	0xbee5ee70	-0.44908476
35	0x3b9e87dc	0.004837973
36	0x3ee25af0	0.44210005
37	0x3f11a791	0.5689631
38	0x3e79fd09	0.24412932
39	0xbeb2d0ca	-0.34924918
40	0xbb608a8f	-0.0034262275
41	0xbe521b52	-0.20518234
42	0xbed3090a	-0.41217834
43	0xbe1d5d56	-0.15367636
44	0x3e644a74	0.22294027
45	0x3ed43e0e	0.41453594
46	0x3eae586a	0.3405183
47	0x3d1fa24b	0.038973134
48	0xbd75bf35	-0.059996802
49	0x3efb2167	0.4904892
50	0x3ec77a74	0.38960612
51	0x3e6f38f8	0.23361576
52	0xbf0daeaa	-0.5534464
53	0xbecae81c	-0.3963021
54	0xbe9553fc	-0.29165637
55	0xbe46e85d	-0.19424577
56	0xbf083d7e	-0.5321883
57	0xbf70fdab	-0.94137067
58	0xbe3a3691	-0.18184878
59	0xbd63d3fd	-0.05562209
60	0x3f164340	0.58696365
61	0x3de9332e	0.11386715
62	0x3f00cf50	0.50316334
63	0xbd35a24c	-0.04434423
64	0xbaacc666	-0.0013181686
65	0x3ea5ab2d	0.3235716
66	0x3ebcc262	0.36867052
67	0xbec33bc3	-0.38131532
68	0x3b91e0c8	0.004451845
69	0x3df6214f	0.12018072
70	0xbecb92a0	-0.39760303
71	0xbced364d	-0.028956557
72	0x3e01887c	0.12649721
73	0x3e382c68	0.1798569
74	0x3e8842a4	0.26613343
75	0x3dd192dd	0.1023309
76	0x3ec6e1cb	0.3884414
77	0x3e1ca460	0.15297079
78	0x3e8bf06c	0.27331865
79	0xbe26c3e2	-0.16285661
80	0xbe8faaad	-0.28059903
81	0xbf1fb55e	-0.6238612
82	0xbe284258	-0.16431558
83	0x3d00a1d8	0.031404346
84	0x3ed78cb5	0.42099538
85	0x3eab04ec	0.33402193
86	0x3e80c9a6	0.25153846
87	0xbeab8fee	-0.33508247
88	0xbede52e5	-0.43422619
89	0xbf6846ce	-0.9073304
90	0xbdcc05cc	-0.09962043
91	0xbd00e557	-0.031468716
92	0x3e91cdec	0.28477418
93	0x3f0085dd	0.5020426
94	0x3ea6c9d3	0.32575855
95	0xbe478682	-0.19484904
96	0x3ea76fbd	0.32702437
97	0x3eae2a3f	0.34016606
98	0x3e81e34e	0.25368732
99	0xbecccbfc	-0.39999378
100	0xbdb0c2a2	-0.08630873
101	0xbeb0b21b	-0.34510884
102	0xbe973a0e	-0.2953648
103	0xbd7e82f7	-0.062136617
104	0x3ca36838	0.019947156
105	0xbda7cc24	-0.081932336
106	0x3e88dcd2	0.26730973
107	0xbdbc1f5e	-0.0918567
108	0x3cd158a0	0.025554955
109	0xbd8ecf1d	-0.069730975
110	0xbee05040	-0.43811226
111	0xbc3232e9	-0.010876396
112	0x3e077bcc	0.13230819
113	0x3ef00179	0.46876124
114	0x3ed73cb9	0.42038515
115	0xbe9595c7	-0.29215834
116	0xbe92be44	-0.28660786
117	0xbf2731c4	-0.6531031
118	0xbe26bf0f	-0.1628382
119	0x3d5fa7e2	0.054603465
120	0xbdda9f23	-0.10674884
121	0xbf0927de	-0.5357646
122	0xbea0a14d	-0.31373063
123	0x3d9e7761	0.077376135
124	0x3de5dc4d	0.1122366
125	0x3f318174	0.69338155
126	0x3de05382	0.10953428
127	0x3db5946c	0.088662
128	0xbf11176a	-0.5667635
129	0xbdec1b96	-0.11528699
130	0xbea66aa5	-0.32503238
131	0xbdfe376f	-0.12412917
132	0x3dd5681e	0.104202494
133	0x3ed66807	0.41876242
134	0x3eab9b39	0.33516863
135	0x3e481e2c	0.1954276
136	0xbeea862c	-0.4580549
137	0xbe64e79e	-0.2235398
138	0xbea290a1	-0.31750968
139	0x3da0f526	0.07859258
140	0xbf0a7792	-0.540887
141	0xbea0e7bd	-0.31426802
142	0xbed260d1	-0.4108949
143	0xbe9c4a97	-0.30525658
144	0xbdbc27ed	-0.09187303
145	0xbef10ec5	-0.4708158
146	0xbeea2e9e	-0.4573869
147	0xbe0f0ecc	-0.13970488
148	0xbf12c88b	-0.57337254
149	0xbf20255b	-0.62557
150	0xbe5f0d8e	-0.21782514
151	0x3e842edf	0.2581701
152	0x3ed4ecd4	0.41586936
153	0x3f6bf6b2	0.921733
154	0x3de3679a	0.11103745
155	0xbe1fa96b	-0.15591972
156	0x3e85c89d	0.26129618
157	0x3e942f13	0.28942165
158	0x3edce964	0.43146813
159	0x3d5e643f	0.05429482
160	0xbe54bbc7	-0.20774756
161	0xbe7e30ba	-0.24823275
162	0xbe945bb9	-0.2897623
163	0xbd810d73	-0.06301393
164	0x3ea47f2d	0.32128277
165	0x3f0fe492	0.56208146
166	0x3e9b8c9e	0.3038072
167	0x3e922674	0.28544962
168	0xbe81d6fa	-0.25359327
169	0xbec1a736	-0.37822884
170	0xbe871aae	-0.26387542
171	0xbd072c34	-0.03300114
172	0x3e276ede	0.16350886
173	0x3e096194	0.1341613
174	0x3f07de21	0.53073317
175	0x3ea2ede2	0.31822115
176	0xbf13e332	-0.5776855
177	0xbed2a8e8	-0.4114449
178	0xbe8e6342	-0.27810103
179	0xbd0e6e11	-0.034772936
180	0xbf044446	-0.51666677
181	0xbf63e46e	-0.8902043
182	0xbdc1e475	-0.09467403
183	0x3e779019	0.24176063
184	0xbdc5d677	-0.096600465
185	0x3dee369c	0.1163151
186	0x3e5c52cb	0.21515958
187	0x3e34a93a	0.1764268
188	0x3e7d6297	0.2474464
189	0x3e6ef53a	0.23335734
190	0x3ecb2552	0.3967691
191	0x3e4ca5f1	0.19985177
192	0xbeb26571	-0.3484302
193	0xbf08137c	-0.5315473
194	0xbe3404f8	-0.1758002
195	0xbe14bc80	-0.14525032
196	0xbc158cd6	-0.009127816
197	0x3f0521fd	0.52004987
198	0x3ecc4187	0.39893743
199	0xbe83d5ef	-0.25749156
200	0xbee77f05	-0.45214096
201	0xbeb301de	-0.34962362
202	0xbe8377a3	-0.25677213
203	0x3deb46c7	0.11488109
204	0xbdc614a1	-0.096719034
205	0x3ea36bdc	0.31918228
206	0x3ee81925	0.45331684
207	0x3dd7a176	0.10528843
208	0xbb93bc21	-0.0045085107
209	0xbe538bfe	-0.20658872
210	0xbeea0287	-0.45705053
211	0x3e6be819	0.23037757
212	0x3e4cb5d0	0.19991231
213	0x3f0398e7	0.51405185
214	0x3ee5fb78	0.44918418
215	0x3c63385b	0.013868417
216	0xbc8f8f60	-0.017524421
217	0x3e19a714	0.15005141
218	0x3e8feb67	0.28109285
219	0xbd5688ae	-0.05237644
220	0xbe2bdca8	-0.16783392
221	0x3d43f146	0.04783752
222	0xbee91bae	-0.4552893
223	0xbe855c2e	-0.2604689
224	0xbe7a6ffd	-0.24456783
225	0xbdee68e3	-0.11641099
226	0xbefc3383	-0.4925805
227	0xbd97d2b7	-0.074132375
228	0x3bce038c	0.006287044
229	0x3dfef10d	0.124483205
230	0x3e3d0612	0.18459347
231	0xbe4b9c97	-0.19883953
232	0x3e333f1a	0.1750454
233	0x3dd1bef0	0.102414966
234	0x3eed6b9f	0.4637117
235	0x3d956699	0.072949596
236	0xbe22271b	-0.1583523
237	0xbe56e282	-0.20984843
238	0xbea3b2e9	-0.31972435
239	0x3e937c65	0.28805843
240	0x3cb34df5	0.021887759
241	0xbe11b204	-0.14228064
242	0xbedeab80	-0.4349022
243	0x3e9dd426	0.3082592
244	0x3e610a4b	0.21976583
245	0x3ec467d0	0.38360453
246	0x3eaf9cf5	0.34299436
247	0xbde38ad7	-0.11110466
248	0x3c2b4435	0.010453274
249	0xbc82bd17	-0.015959306
250	0x3eeb9167	0.4600937
251	0x3e3bd4df	0.18342923
252	0x3e71799d	0.23581548
253	0x3efcc874	0.49371684
254	0x3ec3e780	0.38262558
255	0xbe1d0a88	-0.15336049

conv_layers.0.lin_dst.weight f4 [64, 4]
0	0xbc5fa7d6	-0.013650855
1	0x3e82bb0f	0.2553334
2	0x3e890e4f	0.2676873
3	0xbcf6001c	-0.030029349
4	0xbebb664f	-0.36601493
5	0xbf61348c	-0.87970805
6	0xbda7d6ee	-0.081952915
7	0xbba5c80e	-0.005059249
8	0x3ea4ed43	0.32212266
9	0x3f260fcb	0.6486785
10	0x3e0a7720	0.13522005
11	0x3bd2633d	0.0064205215
12	0x3d85d773	0.06535234
13	0xbeaaa70f	-0.3333058
14	0xbecbd1ea	-0.3980859
15	0xbe3650d0	-0.17804265
16	0x3d716eae	0.058943443
17	0x3e2d0897	0.16897808
18	0x3ebe054f	0.37113425
19	0x3e78fb19	0.24314536
20	0xbe840a3a	-0.25789052
21	0xbed8e34f	-0.42360923
22	0xbe73078d	-0.23733349
23	0xbe6133c0	-0.21992397
24	0x3f2f12e2	0.6838819
25	0x3f61262c	0.8794887
26	0x3e3e1527	0.18562756
27	0xbe6cbe4b	-0.23119466
28	0xbe9e5d83	-0.3093072
29	0xbf4b973a	-0.7952763
30	0xbe2a4568	-0.16628039
31	0xbe0474f1	-0.12935235
32	0xbea6dfde	-0.32592672
33	0xbec9856f	-0.39359614
34	0xbee5ee70	-0.44908476
35	0x3b9e87dc	0.004837973
36	0x3ee25af0	0.44210005
37	0x3f11a791	0.5689631
38	0x3e79fd09	0.24412932
39	0xbeb2d0ca	-0.34924918
40	0xbb608a8f	-0.0034262275
41	0xbe521b52	-0.20518234
42	0xbed3090a	-0.41217834
43	0xbe1d5d56	-0.15367636
44	0x3e644a74	0.22294027
45	0x3ed43e0e	0.41453594
46	0x3eae586a	0.3405183
47	0x3d1fa24b	0.038973134
48	0xbd75bf35	-0.059996802
49	0x3efb2167	0.4904892
50	0x3ec77a74	0.38960612
51	0x3e6f38f8	0.23361576
52	0xbf0daeaa	-0.5534464
53	0xbecae81c	-0.3963021
54	0xbe9553fc	-0.29165637
55	0xbe46e85d	-0.19424577
56	0xbf083d7e	-0.5321883
57	0xbf70fdab	-0.94137067
58	0xbe3a3691	-0.18184878
59	0xbd63d3fd	-0.05562209
60	0x3f164340	0.58696365
61	0x3de9332e	0.11386715
62	0x3f00cf50	0.50316334
63	0xbd35a24c	-0.04434423
64	0xbaacc666	-0.0013181686
65	0x3ea5ab2d	0.3235716
66	0x3ebcc262	0.36867052
67	0xbec33bc3	-0.38131532
68	0x3b91e0c8	0.004451845
69	0x3df6214f	0.12018072
70	0xbecb92a0	-0.39760303
71	0xbced364d	-0.028956557
72	0x3e01887c	0.12649721
73	0x3e382c68	0.1798569
74	0x3e8842a4	0.26613343
75	0x3dd192dd	0.1023309
76	0x3ec6e1cb	0.3884414
77	0x3e1ca460	0.15297079
78	0x3e8bf06c	0.27331865
79	0xbe26c3e2	-0.16285661
80	0xbe8faaad	-0.28059903
81	0xbf1fb55e	-0.6238612
82	0xbe284258	-0.16431558
83	0x3d00a1d8	0.031404346
84	0x3ed78cb5	0.42099538
85	0x3eab04ec	0.33402193
86	0x3e80c9a6	0.25153846
87	0xbeab8fee	-0.33508247
88	0xbede52e5	-0.43422619
89	0xbf6846ce	-0.9073304
90	0xbdcc05cc	-0.09962043
91	0xbd00e557	-0.031468716
92	0x3e91cdec	0.28477418
93	0x3f0085dd	0.5020426
94	0x3ea6c9d3	0.32575855
95	0xbe478682	-0.19484904
96	0x3ea76fbd	0.32702437
97	0x3eae2a3f	0.34016606
98	0x3e81e34e	0.25368732
99	0xbecccbfc	-0.39999378
100	0xbdb0c2a2	-0.08630873
101	0xbeb0b21b	-0.34510884
102	0xbe973a0e	-0.2953648
103	0xbd7e82f7	-0.062136617
104	0x3ca36838	0.019947156
105	0xbda7cc24	-0.081932336
106	0x3e88dcd2	0.26730973
107	0xbdbc1f5e	-0.0918567
108	0x3cd158a0	0.025554955
109	0xbd8ecf1d	-0.069730975
110	0xbee05040	-0.43811226
111	0xbc3232e9	-0.010876396
112	0x3e077bcc	0.13230819
113	0x3ef00179	0.46876124
114	0x3ed73cb9	0.42038515
115	0xbe9595c7	-0.29215834
116	0xbe92be44	-0.28660786
117	0xbf2731c4	-0.6531031
118	0xbe26bf0f	-0.1628382
119	0x3d5fa7e2	0.054603465
120	0xbdda9f23	-0.10674884
121	0xbf0927de	-0.5357646
122	0xbea0a14d	-0.31373063
123	0x3d9e7761	0.077376135
124	0x3de5dc4d	0.1122366
125	0x3f318174	0.69338155
126	0x3de05382	0.10953428
127	0x3db5946c	0.088662
128	0xbf11176a	-0.5667635
129	0xbdec1b96	-0.11528699
130	0xbea66aa5	-0.32503238
131	0xbdfe376f	-0.12412917
132	0x3dd5681e	0.104202494
133	0x3ed66807	0.41876242
134	0x3eab9b39	0.33516863
135	0x3e481e2c	0.1954276
136	0xbeea862c	-0.4580549
137	0xbe64e79e	-0.2235398
138	0xbea290a1	-0.31750968
139	0x3da0f526	0.07859258
140	0xbf0a7792	-0.540887
141	0xbea0e7bd	-0.31426802
142	0xbed260d1	-0.4108949
143	0xbe9c4a97	-0.30525658
144	0xbdbc27ed	-0.09187303
145	0xbef10ec5	-0.4708158
146	0xbeea2e9e	-0.4573869
147	0xbe0f0ecc	-0.13970488
148	0xbf12c88b	-0.57337254
149	0xbf20255b	-0.62557
150	0xbe5f0d8e	-0.21782514
151	0x3e842edf	0.2581701
152	0x3ed4ecd4	0.41586936
153	0x3f6bf6b2	0.921733
154	0x3de3679a	0.11103745
155	0xbe1fa96b	-0.15591972
156	0x3e85c89d	0.26129618
157	0x3e942f13	0.28942165
158	0x3edce964	0.43146813
159	0x3d5e643f	0.05429482
160	0xbe54bbc7	-0.20774756
161	0xbe7e30ba	-0.24823275
162	0xbe945bb9	-0.2897623
163	0xbd810d73	-0.06301393
164	0x3ea47f2d	0.32128277
165	0x3f0fe492	0.56208146
166	0x3e9b8c9e	0.3038072
167	0x3e922674	0.28544962
168	0xbe81d6fa	-0.25359327
169	0xbec1a736	-0.37822884
170	0xbe871aae	-0.26387542
171	0xbd072c34	-0.03300114
172	0x3e276ede	0.16350886
173	0x3e096194	0.1341613
174	0x3f07de21	0.53073317
175	0x3ea2ede2	0.31822115
176	0xbf13e332	-0.5776855
177	0xbed2a8e8	-0.4114449
178	0xbe8e6342	-0.27810103
179	0xbd0e6e11	-0.034772936
180	0xbf044446	-0.51666677
181	0xbf63e46e	-0.8902043
182	0xbdc1e475	-0.09467403
183	0x3e779019	0.24176063
184	0xbdc5d677	-0.096600465
185	0x3dee369c	0.1163151
186	0x3e5c52cb	0.21515958
187	0x3e34a93a	0.1764268
188	0x3e7d6297	0.2474464
189	0x3e6ef53a	0.23335734
190	0x3ecb2552	0.3967691
191	0x3e4ca5f1	0.19985177
192	0xbeb26571	-0.3484302
193	0xbf08137c	-0.5315473
194	0xbe3404f8	-0.1758002
195	0xbe14bc80	-0.14525032
196	0xbc158cd6	-0.009127816
197	0x3f0521fd	0.52004987
198	0x3ecc4187	0.39893743
199	0xbe83d5ef	-0.25749156
200	0xbee77f05	-0.45214096
201	0xbeb301de	-0.34962362
202	0xbe8377a3	-0.25677213
203	0x3deb46c7	0.11488109
204	0xbdc614a1	-0.096719034
205	0x3ea36bdc	0.31918228
206	0x3ee81925	0.45331684
207	0x3dd7a176	0.10528843
208	0xbb93bc21	-0.0045085107
209	0xbe538bfe	-0.20658872
210	0xbeea0287	-0.45705053
211	0x3e6be819	0.23037757
212	0x3e4cb5d0	0.19991231
213	0x3f0398e7	0.51405185
214	0x3ee5fb78	0.44918418
215	0x3c63385b	0.013868417
216	0xbc8f8f60	-0.017524421
217	0x3e19a714	0.15005141
218	0x3e8feb67	0.28109285
219	0xbd5688ae	-0.05237644
220	0xbe2bdca8	-0.16783392
221	0x3d43f146	0.04783752
222	0xbee91bae	-0.4552893
223	0xbe855c2e	-0.2604689
224	0xbe7a6ffd	-0.24456783
225	0xbdee68e3	-0.11641099
226	0xbefc3383	-0.4925805
227	0xbd97d2b7	-0.074132375
228	0x3bce038c	0.006287044
229	0x3dfef10d	0.124483205
230	0x3e3d0612	0.18459347
231	0xbe4b9c97	-0.19883953
232	0x3e333f1a	0.1750454
233	0x3dd1bef0	0.102414966
234	0x3eed6b9f	0.4637117
235	0x3d956699	0.072949596
236	0xbe22271b	-0.1583523
237	0xbe56e282	-0.20984843
238	0xbea3b2e9	-0.31972435
239	0x3e937c65	0.28805843
240	0x3cb34df5	0.021887759
241	0xbe11b204	-0.14228064
242	0xbedeab80	-0.4349022
243	0x3e9dd426	0.3082592
244	0x3e610a4b	0.21976583
245	0x3ec467d0	0.38360453
246	0x3eaf9cf5	0.34299436
247	0xbde38ad7	-0.11110466
248	0x3c2b4435	0.010453274
249	0xbc82bd17	-0.015959306
250	0x3eeb9167	0.4600937
251	0x3e3bd4df	0.18342923
252	0x3e71799d	0.23581548
253	0x3efcc874	0.49371684
254	0x3ec3e780	0.38262558
255	0xbe1d0a88	-0.15336049

conv_layers.1.att_src f4 [1, 4, 16]
0	0xbe51b5a3	-0.20479445
1	0x3e7bed92	0.24602345
2	0xbf0a7203	-0.5408022
3	0x3cbf05f1	0.023318263
4	0xbc60c84a	-0.013719628
5	0x3dd80370	0.10547531
6	0x3e9ac70b	0.30229983
7	0x3de78e3d	0.11306427
8	0x3edd37bb	0.4320658
9	0xbe3aea92	-0.18253544
10	0x3eff2d8f	0.49839446
11	0x3cb5716a	0.022148807
12	0xbc3dd8dc	-0.011587348
13	0x3dfd8d96	0.12380521
14	0xbf122992	-0.5709468
15	0xbdd0b422	-0.101906076
16	0x3ede622f	0.43434283
17	0x3ea1d821	0.31610206
18	0xbe9d298d	-0.30695763
19	0x3f2a9400	0.6663208
20	0x3dd9fe11	0.106441624
21	0x3f03b588	0.5144887
22	0xbe4c0264	-0.19922787
23	0xbe97c7a4	-0.296445
24	0x3f294035	0.661136
25	0xbf09b3be	-0.5378989
26	0xbec3726a	-0.38173229
27	0xbf01d004	-0.5070803
28	0x3ed25c22	0.41085917
29	0x3f088cb2	0.53339684
30	0xbf2678e9	-0.65028244
31	0x3ecdbfa2	0.40185267
32	0xbdfca516	-0.12336175
33	0x3ef33a01	0.4750519
34	0x3e84cc4b	0.25937113
35	0x3f2bdf84	0.6713793
36	0x3ea74a38	0.32673812
37	0x3e8da82f	0.27667376
38	0x3db18a60	0.08668971
39	0x3d92b587	0.0716353
40	0xbec5cf24	-0.38634598
41	0xbdf17b8c	-0.11791143
42	0xbe7b0c3a	-0.24516383
43	0xbe81a402	-0.2532044
44	0x3e415f1c	0.18883938
45	0x3d798094	0.060913637
46	0xbecd79a3	-0.40131864
47	0x3e211877	0.15731989
48	0x3e066a50	0.13126493
49	0x3f01d37b	0.5071332
50	0xbe787ccf	-0.2426636
51	0xbe6d16c7	-0.2315322
52	0x3e4137b1	0.18868901
53	0x3eb793aa	0.35854846
54	0x3ede62ed	0.4343485
55	0x3dcf887d	0.10133455
56	0x3f058c47	0.5216717
57	0x3e9c7447	0.30557463
58	0x3d71eb0d	0.059062053
59	0x3ef3391e	0.47504514
60	0xbeb3c359	-0.35109976
61	0xbe65c0a1	-0.22436763
62	0x3edf7634	0.4364487
63	0xbf090d5f	-0.5353603

conv_layers.1.att_dst f4 [1, 4, 16]
0	0x3da29a46	0.079395816
1	0x3e68d5e3	0.22737841
2	0xbefd3045	-0.4945089
3	0xbf03b9f5	-0.5145562
4	0x3eff3acd	0.4984955
5	0xbe3b2838	-0.18277061
6	0xbc59933c	-0.013279732
7	0x3e9d83a2	0.3076449
8	0xbf08ea04	-0.5348208
9	0xbef1a150	-0.47193384
10	0x3e585824	0.21127373
11	0xbe07edda	-0.13274327
12	0x3efb443c	0.49075496
13	0xbef4af31	-0.4778991
14	0x3e9a7be6	0.30172652
15	0x3eaa61f5	0.3327786
16	0x3ea5a40a	0.32351714
17	0x3e692763	0.22768931
18	0x3ed15d0e	0.40891308
19	0xbeab35f3	-0.33439597
20	0x3e32b3a5	0.17451341
21	0x3e27bb4a	0.16380039
22	0xbec06701	-0.37578586
23	0x3ef041a2	0.46925074
24	0xbdd937bc	-0.106063336
25	0xbe826d16	-0.2547385
26	0x3dd51399	0.104041286
27	0x3ee0a57b	0.43876252
28	0xbcd59b99	-0.026075171
29	0x3e9fe245	0.31227317
30	0x3e432b7b	0.19059555
31	0x3edeff55	0.43554178
32	0x3e22f723	0.15914588
33	0xbe92d178	-0.28675437
34	0x3e9a0fb3	0.30090103
35	0x3d87f156	0.06637828
36	0x3d6d4922	0.057931073
37	0xbec13f1c	-0.3774346
38	0xbecc5558	-0.39908862
39	0xbf0f3311	-0.55937296
40	0x3f0c4d52	0.5480548
41	0xbefce162	-0.49390703
42	0x3f01ad7a	0.5065533
43	0x3ecfafc1	0.40563777
44	0xbe713e02	-0.2355881
45	0xbf00f47f	-0.5037307
46	0xbe9859d0	-0.29756021
47	0xbe4fb94d	-0.2028553
48	0x3e2e57ed	0.17025729
49	0xbe8c9032	-0.27453762
50	0x3ea27ebb	0.31737313
51	0x3e235fb8	0.15954483
52	0xbeea727f	-0.4579048
53	0xbd9de537	-0.07709735
54	0x3e93cef1	0.2886882
55	0xbce3671e	-0.027759131
56	0x3e774e80	0.24151039
57	0x3e7d66f9	0.24746312
58	0x3e133432	0.1437538
59	0xbdd414f9	-0.10355563
60	0xbbda83a6	-0.0066685257
61	0x3ee402e4	0.44533455
62	0x3e24949e	0.16072318
63	0x3e28f3ae	0.16499206

conv_layers.1.bias f4 [64]
0	0x3dd67bc5	0.10472826
1	0x3ddddc8e	0.10833083
2	0xbde7f22d	-0.11325488
3	0x3e0075e2	0.12544969
4	0x3dc39bae	0.09551178
5	0x3dfec9a4	0.12440804
6	0x3df2f283	0.11862662
7	0xbdf6354a	-0.12021883
8	0x3de58f28	0.112089455
9	0xbdb94398	-0.090460956
10	0x3dd31b1a	0.103079036
11	0xbdc2dd5a	-0.09514876
12	0x3e00e5e5	0.12587698
13	0x3de0d6a7	0.10978442
14	0xbdd15b23	-0.10222461
15	0x3dd18dbb	0.10232111
16	0x3e144dea	0.14482847
17	0x3dbef9b5	0.093249716
18	0xbdbe84df	-0.09302687
19	0x3df113cd	0.11771355
20	0x3dd94201	0.10608292
21	0x3e022030	0.12707591
22	0x3ddaa424	0.106758386
23	0xbdd450d1	-0.10366977
24	0x3df75ab5	0.12077848
25	0xbdd21fbf	-0.10259961
26	0x3dbc8a83	0.092061065
27	0xbde2d2ce	-0.11075364
28	0x3e0699af	0.13144563
29	0x3dbe46f4	0.09290877
30	0xbdfd7fd0	-0.12377894
31	0x3db355b2	0.087565795
32	0x3de0ffdb	0.109863006
33	0x3dd35147	0.10318237
34	0xbde8004b	-0.11328181
35	0x3dcde0de	0.10052656
36	0x3da1c773	0.0789937
37	0x3deda930	0.116045356
38	0x3dc65f09	0.09686095
39	0xbdc003a4	-0.093756944
40	0x3dd165f6	0.10224526
41	0xbdf49b73	-0.11943712
42	0x3dd5397d	0.10411356
43	0xbe008216	-0.12549624
44	0x3df80c6f	0.121117465
45	0x3dbff25e	0.093724
46	0xbdf239da	-0.118274406
47	0x3dcdf23f	0.100559704
48	0x3de530c4	0.11190942
49	0x3da8fa28	0.082508385
50	0xbe04d1cd	-0.12970658
51	0x3e0573ce	0.13032457
52	0x3dd9ce81	0.106350906
53	0x3e06a3de	0.13148448
54	0x3de873cd	0.11350212
55	0xbde445cd	-0.11146126
56	0x3e06e64a	0.13173786
57	0xbdc010b3	-0.09378185
58	0x3ddc5fce	0.10760461
59	0xbdc8302d	-0.09774814
60	0x3dbfa6d1	0.093579896
61	0x3dad274e	0.084547624
62	0xbdfd238b	-0.12360295
63	0x3ddf43c2	0.10901596

conv_layers.1.lin_src.weight f4 [64, 64]
0	0x3ce54370	0.027986258
1	0xbee44bb8	-0.4458902
2	0x3eb2daa4	0.34932435
3	0xbe5b5052	-0.21417359
4	0x3e7531dd	0.23944803
5	0x3d9e2852	0.07722534
6	0x3ef1d2f2	0.4723125
7	0xbdfab68e	-0.12241851
8	0xbc970ca6	-0.018438648
9	0x3e2d2041	0.16906835
10	0xbe597c71	-0.21238877
11	0x3e14ac36	0.14518818
12	0xbd582450	-0.052769005
13	0xbe1e9a4c	-0.15488547
14	0xbf075d6f	-0.52876943
15	0x3e38603b	0.18005459
16	0x3e35daed	0.17759295
17	0x3d92c4c2	0.07166435
18	0x3e47c90a	0.19510284
19	0x3d77f588	0.06053689
20	0xbe8f2a6e	-0.2796206
21	0x3eb4b9ad	0.3529791
22	0xbdc11c69	-0.09429247
23	0x3ea61070	0.32434416
24	0x3e24d179	0.16095532
25	0xbe30840e	-0.17237875
26	0x3d955e26	0.07293348
27	0xbe942dfb	-0.2894133
28	0x3e53cbae	0.20683166
29	0xbe2cf5bd	-0.16890617
30	0xbc5ab11e	-0.013347892
31	0x3e815e04	0.2526704
32	0xbe96da58	-0.29463458
33	0x3df7d0fc	0.121004075
34	0xbe4a20c1	-0.19739057
35	0xbe6717c6	-0.22567663
36	0x3bcbcc96	0.006219457
37	0xbf1b96ba	-0.60776865
38	0x3e090486	0.13380632
39	0xbbcc3c7a	-0.0062327953
40	0xbe5ec60b	-0.21755235
41	0xbd90a907	-0.070634894
42	0x3c96bb91	0.018399986
43	0x3e2890aa	0.16461435
44	0xbe84e959	-0.2595928
45	0xbd835466	-0.06412582
46	0x3e25e539	0.16200723
47	0x3e8f145e	0.27945226
48	0xbe92f084	-0.28699124
49	0x3e19d46f	0.15022443
50	0xbe8affb8	-0.27148223
51	0x3e87ce71	0.2652469
52	0xbde684a3	-0.11255767
53	0xbdd932ee	-0.10605417
54	0x3da58e9f	0.080838434
55	0xbdb6896a	-0.089129284
56	0xbcfcdc4f	-0.03086677
57	0xbc751de3	-0.014960739
58	0xbcaebf0a	-0.021331329
59	0x3ca6f52c	0.020380579
60	0xbe3f7b89	-0.18699469
61	0x3e787fb3	0.24267463
62	0x3e59011a	0.21191826
63	0x3e77b111	0.24188639
64	0x3e7cedd0	0.24700093
65	0xbebe4070	-0.37158537
66	0x3e7efd9f	0.24901436
67	0xbe0060f1	-0.1253698
68	0xbd1eca67	-0.038767245
69	0xbe7e6539	-0.24843301
70	0x3ef3e0ec	0.4763254
71	0xbed8ce7a	-0.4234503
72	0xbe5be88b	-0.21475427
73	0x3eaa46a2	0.33257014
74	0xbe678b29	-0.22611679
75	0x3e0431e5	0.12909658
76	0x3ea30930	0.31842947
77	0xbd310ab0	-0.043223083
78	0xbede2c9b	-0.43393406
79	0x3e9ab04e	0.30212635
80	0x3cdf9c5f	0.027296243
81	0xbd872577	-0.06598943
82	0x3e5705e3	0.2099834
83	0x3e88e303	0.26735696
84	0xbe7826f0	-0.24233603
85	0x3eb5860b	0.3545383
86	0xbddd38b4	-0.10801831
87	0x3ea4e558	0.32206225
88	0xbd260cb5	-0.040539462
89	0xbd6d1418	-0.05788049
90	0x3de8bc19	0.11364002
91	0x3cec8f37	0.028876884
92	0x3e959aff	0.29219815
93	0x3d37dda0	0.044889092
94	0xbce3cdcf	-0.027808098
95	0xbcc36a02	-0.02385426
96	0xbebc2889	-0.36749676
97	0x3e7066f7	0.23476778
98	0xbe882b62	-0.26595598
99	0xbecc8196	-0.39942616
100	0xbe8bde79	-0.2731817
101	0xbf08c6a9	-0.5342813
102	0x3dc82906	0.097734496
103	0x3db26f4c	0.087126344
104	0xbd464b6b	-0.048411768
105	0x3d7fbfdb	0.062438827
106	0xbe01ca07	-0.12674724
107	0x3e036ec2	0.1283522
108	0xbecc5cbb	-0.39914498
109	0xbeee5117	-0.46546242
110	0x3e9ea585	0.30985656
111	0xbc8fc480	-0.017549753
112	0xbd970696	-0.07374303
113	0xbdae3e62	-0.08507992
114	0xbea95619	-0.330735
115	0xbd5d89da	-0.054086544
116	0xbe9bf72f	-0.30462024
117	0xbd67fa09	-0.056634936
118	0xbd92602e	-0.07147251
119	0xbe30df11	-0.17272593
120	0xbd13bf5c	-0.036071166
121	0x3d0d33aa	0.0344731
122	0x3d011cb6	0.03152152
123	0x3b085b56	0.0020806394
124	0xbd84e529	-0.06489021
125	0x3e04a786	0.1295453
126	0xbdb1b954	-0.08677927
127	0xbd7d8e40	-0.06190324
128	0xbdd5bd5f	-0.1043651
129	0x3e802c77	0.25033924
130	0xbe181ad2	-0.14853981
131	0xbbe07db2	-0.0068509215
132	0xbdf52f25	-0.11971883
133	0x3bf01df2	0.0073277885
134	0xbedbce90	-0.42931032
135	0x3da6cf7f	0.081450455
136	0x3c8fc11c	0.017548136
137	0xbe970d67	-0.29502413
138	0xbcb67feb	-0.022277793
139	0xbe98018f	-0.2968869
140	0xbe716950	-0.2357533
141	0x3e30e7ef	0.17275976
142	0x3ebe84c6	0.37210673
143	0xbe027b71	-0.12742402
144	0xbea2a9b8	-0.3177011
145	0x3d02c2d2	0.031924076
146	0xbcf748dd	-0.030186111
147	0xbcd45acc	-0.025922202
148	0x3c5a2256	0.01331385
149	0xbe2624ef	-0.16225027
150	0x3ed077be	0.40716356
151	0xbe5f3f24	-0.2180143
152	0xbeb4ff7e	-0.35351175
153	0x3e4a7fc2	0.19775298
154	0xbdaa25fa	-0.08308025
155	0x3e8a8a1e	0.270585
156	0xbe940a0d	-0.28913918
157	0x3e63d246	0.22248182
158	0xbbab8e59	-0.005235475
159	0xbe5ab9f5	-0.2136
160	0x3e993979	0.2992666
161	0x3cc3700a	0.023857135
162	0x3da416e2	0.08012177
163	0x3e976eca	0.29576713
164	0x3cc2268b	0.02370002
165	0x3e51031d	0.20411344
166	0xbeca0955	-0.39460245
167	0xbe4ee062	-0.20202783
168	0xbccb0387	-0.024781955
169	0xbe829d48	-0.2551062
170	0x3eb690a6	0.35657233
171	0xbea9399b	-0.33051762
172	0x3de110a3	0.10989501
173	0x3ede4795	0.43413988
174	0xbe885c36	-0.2663285
175	0xbe137f51	-0.14404036
176	0x3c1738d1	0.009229855
177	0xbe0fee96	-0.14055857
178	0x3e3035bc	0.17207998
179	0xbe1390fc	-0.14410776
180	0x3e7ad9c9	0.24497141
181	0xbe308e10	-0.17241693
182	0xbe12f287	-0.1435033
183	0x3e3db908	0.18527615
184	0xbd9fb1bf	-0.07797574
185	0x3c5aa520	0.013345033
186	0xbd74f2f3	-0.059802007
187	0x3e46f55e	0.19429538
188	0x3e48b80c	0.19601458
189	0xbdd2faea	-0.10301764
190	0x3dacad0a	0.08431442
191	0xbe8c9ed9	-0.2746494
192	0x3e7d8d11	0.24760844
193	0xbef48879	-0.4776037
194	0x3e90bbdc	0.28268325
195	0xbc920b67	-0.017827703
196	0x3e93d26c	0.28871477
197	0xbdbb7318	-0.09152812
198	0x3eca68ba	0.39533025
199	0xbdefb1c0	-0.11703825
200	0xbe819da0	-0.2531557
201	0x3d99cd19	0.075098224
202	0xbeaea5b3	-0.34110793
203	0x3de6ca7e	0.11269091
204	0x3d4ba9f6	0.049722634
205	0xbe3d0a6f	-0.18461011
206	0xbeb0c580	-0.3452568
207	0x3be78380	0.0070652366
208	0x3cd48f8d	0.025947357
209	0x3d16a2b3	0.036776256
210	0x3e8c0b6c	0.27352464
211	0x3dca4db5	0.09878103
212	0xbdcfcc23	-0.10146358
213	0x3dc0d1b6	0.09414999
214	0xbeb04d59	-0.34434012
215	0x3ea05fef	0.31323192
216	0x3bf0a2fa	0.007343647
217	0xbe40131e	-0.18757293
218	0x3e90f360	0.2831068
219	0xbb75041b	-0.003738648
220	0x3eab16b6	0.33415765
221	0x3cd8aa14	0.026448287
222	0xbe6cc547	-0.2312213
223	0x3ebc3849	0.36761692
224	0xbe0328de	-0.12808558
225	0x3e53eaba	0.2069501
226	0xbe068ff5	-0.13140853
227	0xbddbf24c	-0.10739574
228	0xbe64867c	-0.22316927
229	0xbe164a20	-0.14676714
230	0x3e9a0e1d	0.30088893
231	0x3dfc32c5	0.12314371
232	0xbec9bb81	-0.39400867
233	0x3e655a84	0.2239781
234	0xbe9b6265	-0.30348507
235	0xbd84b22f	-0.06479298
236	0xbe78ec6a	-0.24308935
237	0xbea6b71e	-0.32561582
238	0xbd92ce3d	-0.07168243
239	0x3ea8cb17	0.32967445
240	0xbe9f0b38	-0.31063247
241	0xbd380c33	-0.04493351
242	0xbe81d0fd	-0.25354758
243	0x3d879900	0.06620979
244	0xbe013017	-0.12616001
245	0xbd15d952	-0.036584206
246	0x3d37f3b2	0.04491014
247	0xbdafb650	-0.08579695
248	0xbdc6a7da	-0.09699984
249	0xb94a7e8c	-0.00019311364
250	0x3e735117	0.23761402
251	0xbe39d356	-0.18147025
252	0xbdc4afb8	-0.09603828
253	0x3e9d22ff	0.30690762
254	0xbd918a4c	-0.07106456
255	0x3dbc9fa6	0.09210138

conv_layers.1.lin_dst.weight f4 [64, 64]
0	0x3ce54370	0.027986258
1	0xbee44bb8	-0.4458902
2	0x3eb2daa4	0.34932435
3	0xbe5b5052	-0.21417359
4	0x3e7531dd	0.23944803
5	0x3d9e2852	0.07722534
6	0x3ef1d2f2	0.4723125
7	0xbdfab68e	-0.12241851
8	0xbc970ca6	-0.018438648
9	0x3e2d2041	0.16906835
10	0xbe597c71	-0.21238877
11	0x3e14ac36	0.14518818
12	0xbd582450	-0.052769005
13	0xbe1e9a4c	-0.15488547
14	0xbf075d6f	-0.52876943
15	0x3e38603b	0.18005459
16	0x3e35daed	0.17759295
17	0x3d92c4c2	0.07166435
18	0x3e47c90a	0.19510284
19	0x3d77f588	0.06053689
20	0xbe8f2a6e	-0.2796206
21	0x3eb4b9ad	0.3529791
22	0xbdc11c69	-0.09429247
23	0x3ea61070	0.32434416
24	0x3e24d179	0.16095532
25	0xbe30840e	-0.17237875
26	0x3d955e26	0.07293348
27	0xbe942dfb	-0.2894133
28	0x3e53cbae	0.20683166
29	0xbe2cf5bd	-0.16890617
30	0xbc5ab11e	-0.013347892
31	0x3e815e04	0.2526704
32	0xbe96da58	-0.29463458
33	0x3df7d0fc	0.121004075
34	0xbe4a20c1	-0.19739057
35	0xbe6717c6	-0.22567663
36	0x3bcbcc96	0.006219457
37	0xbf1b96ba	-0.60776865
38	0x3e090486	0.13380632
39	0xbbcc3c7a	-0.0062327953
40	0xbe5ec60b	-0.21755235
41	0xbd90a907	-0.070634894
42	0x3c96bb91	0.018399986
43	0x3e2890aa	0.16461435
44	0xbe84e959	-0.2595928
45	0xbd835466	-0.06412582
46	0x3e25e539	0.16200723
47	0x3e8f145e	0.27945226
48	0xbe92f084	-0.28699124
49	0x3e19d46f	0.15022443
50	0xbe8affb8	-0.27148223
51	0x3e87ce71	0.2652469
52	0xbde684a3	-0.11255767
53	0xbdd932ee	-0.10605417
54	0x3da58e9f	0.080838434
55	0xbdb6896a	-0.089129284
56	0xbcfcdc4f	-0.03086677
57	0xbc751de3	-0.014960739
58	0xbcaebf0a	-0.021331329
59	0x3ca6f52c	0.020380579
60	0xbe3f7b89	-0.18699469
61	0x3e787fb3	0.24267463
62	0x3e59011a	0.21191826
63	0x3e77b111	0.24188639
64	0x3e7cedd0	0.24700093
65	0xbebe4070	-0.37158537
66	0x3e7efd9f	0.24901436
67	0xbe0060f1	-0.1253698
68	0xbd1eca67	-0.038767245
69	0xbe7e6539	-0.24843301
70	0x3ef3e0ec	0.4763254
71	0xbed8ce7a	-0.4234503
72	0xbe5be88b	-0.21475427
73	0x3eaa46a2	0.33257014
74	0xbe678b29	-0.22611679
75	0x3e0431e5	0.12909658
76	0x3ea30930	0.31842947
77	0xbd310ab0	-0.043223083
78	0xbede2c9b	-0.43393406
79	0x3e9ab04e	0.30212635
80	0x3cdf9c5f	0.027296243
81	0xbd872577	-0.06598943
82	0x3e5705e3	0.2099834
83	0x3e88e303	0.26735696
84	0xbe7826f0	-0.24233603
85	0x3eb5860b	0.3545383
86	0xbddd38b4	-0.10801831
87	0x3ea4e558	0.32206225
88	0xbd260cb5	-0.040539462
89	0xbd6d1418	-0.05788049
90	0x3de8bc19	0.11364002
91	0x3cec8f37	0.028876884
92	0x3e959aff	0.29219815
93	0x3d37dda0	0.044889092
94	0xbce3cdcf	-0.027808098
95	0xbcc36a02	-0.02385426
96	0xbebc2889	-0.36749676
97	0x3e7066f7	0.23476778
98	0xbe882b62	-0.26595598
99	0xbecc8196	-0.39942616
100	0xbe8bde79	-0.2731817
101	0xbf08c6a9	-0.5342813
102	0x3dc82906	0.097734496
103	0x3db26f4c	0.087126344
104	0xbd464b6b	-0.048411768
105	0x3d7fbfdb	0.062438827
106	0xbe01ca07	-0.12674724
107	0x3e036ec2	0.1283522
108	0xbecc5cbb	-0.39914498
109	0xbeee5117	-0.46546242
110	0x3e9ea585	0.30985656
111	0xbc8fc480	-0.017549753
112	0xbd970696	-0.07374303
113	0xbdae3e62	-0.08507992
114	0xbea95619	-0.330735
115	0xbd5d89da	-0.054086544
116	0xbe9bf72f	-0.30462024
117	0xbd67fa09	-0.056634936
118	0xbd92602e	-0.07147251
119	0xbe30df11	-0.17272593
120	0xbd13bf5c	-0.036071166
121	0x3d0d33aa	0.0344731
122	0x3d011cb6	0.03152152
123	0x3b085b56	0.0020806394
124	0xbd84e529	-0.06489021
125	0x3e04a786	0.1295453
126	0xbdb1b954	-0.08677927
127	0xbd7d8e40	-0.06190324
128	0xbdd5bd5f	-0.1043651
129	0x3e802c77	0.25033924
130	0xbe181ad2	-0.14853981
131	0xbbe07db2	-0.0068509215
132	0xbdf52f25	-0.11971883
133	0x3bf01df2	0.0073277885
134	0xbedbce90	-0.42931032
135	0x3da6cf7f	0.081450455
136	0x3c8fc11c	0.017548136
137	0xbe970d67	-0.29502413
138	0xbcb67feb	-0.022277793
139	0xbe98018f	-0.2968869
140	0xbe716950	-0.2357533
141	0x3e30e7ef	0.17275976
142	0x3ebe84c6	0.37210673
143	0xbe027b71	-0.12742402
144	0xbea2a9b8	-0.3177011
145	0x3d02c2d2	0.031924076
146	0xbcf748dd	-0.030186111
147	0xbcd45acc	-0.025922202
148	0x3c5a2256	0.01331385
149	0xbe2624ef	-0.16225027
150	0x3ed077be	0.40716356
151	0xbe5f3f24	-0.2180143
152	0xbeb4ff7e	-0.35351175
153	0x3e4a7fc2	0.19775298
154	0xbdaa25fa	-0.08308025
155	0x3e8a8a1e	0.270585
156	0xbe940a0d	-0.28913918
157	0x3e63d246	0.22248182
158	0xbbab8e59	-0.005235475
159	0xbe5ab9f5	-0.2136
160	0x3e993979	0.2992666
161	0x3cc3700a	0.023857135
162	0x3da416e2	0.08012177
163	0x3e976eca	0.29576713
164	0x3cc2268b	0.02370002
165	0x3e51031d	0.20411344
166	0xbeca0955	-0.39460245
167	0xbe4ee062	-0.20202783
168	0xbccb0387	-0.024781955
169	0xbe829d48	-0.2551062
170	0x3eb690a6	0.35657233
171	0xbea9399b	-0.33051762
172	0x3de110a3	0.10989501
173	0x3ede4795	0.43413988
174	0xbe885c36	-0.2663285
175	0xbe137f51	-0.14404036
176	0x3c1738d1	0.009229855
177	0xbe0fee96	-0.14055857
178	0x3e3035bc	0.17207998
179	0xbe1390fc	-0.14410776
180	0x3e7ad9c9	0.24497141
181	0xbe308e10	-0.17241693
182	0xbe12f287	-0.1435033
183	0x3e3db908	0.18527615
184	0xbd9fb1bf	-0.07797574
185	0x3c5aa520	0.013345033
186	0xbd74f2f3	-0.059802007
187	0x3e46f55e	0.19429538
188	0x3e48b80c	0.19601458
189	0xbdd2faea	-0.10301764
190	0x3dacad0a	0.08431442
191	0xbe8c9ed9	-0.2746494
192	0x3e7d8d11	0.24760844
193	0xbef48879	-0.4776037
194	0x3e90bbdc	0.28268325
195	0xbc920b67	-0.017827703
196	0x3e93d26c	0.28871477
197	0xbdbb7318	-0.09152812
198	0x3eca68ba	0.39533025
199	0xbdefb1c0	-0.11703825
200	0xbe819da0	-0.2531557
201	0x3d99cd19	0.075098224
202	0xbeaea5b3	-0.34110793
203	0x3de6ca7e	0.11269091
204	0x3d4ba9f6	0.049722634
205	0xbe3d0a6f	-0.18461011
206	0xbeb0c580	-0.3452568
207	0x3be78380	0.0070652366
208	0x3cd48f8d	0.025947357
209	0x3d16a2b3	0.036776256
210	0x3e8c0b6c	0.27352464
211	0x3dca4db5	0.09878103
212	0xbdcfcc23	-0.10146358
213	0x3dc0d1b6	0.09414999
214	0xbeb04d59	-0.34434012
215	0x3ea05fef	0.31323192
216	0x3bf0a2fa	0.007343647
217	0xbe40131e	-0.18757293
218	0x3e90f360	0.2831068
219	0xbb75041b	-0.003738648
220	0x3eab16b6	0.33415765
221	0x3cd8aa14	0.026448287
222	0xbe6cc547	-0.2312213
223	0x3ebc3849	0.36761692
224	0xbe0328de	-0.12808558
225	0x3e53eaba	0.2069501
226	0xbe068ff5	-0.13140853
227	0xbddbf24c	-0.10739574
228	0xbe64867c	-0.22316927
229	0xbe164a20	-0.14676714
230	0x3e9a0e1d	0.30088893
231	0x3dfc32c5	0.12314371
232	0xbec9bb81	-0.39400867
233	0x3e655a84	0.2239781
234	0xbe9b6265	-0.30348507
235	0xbd84b22f	-0.06479298
236	0xbe78ec6a	-0.24308935
237	0xbea6b71e	-0.32561582
238	0xbd92ce3d	-0.07168243
239	0x3ea8cb17	0.32967445
240	0xbe9f0b38	-0.31063247
241	0xbd380c33	-0.04493351
242	0xbe81d0fd	-0.25354758
243	0x3d879900	0.06620979
244	0xbe013017	-0.12616001
245	0xbd15d952	-0.036584206
246	0x3d37f3b2	0.04491014
247	0xbdafb650	-0.08579695
248	0xbdc6a7da	-0.09699984
249	0xb94a7e8c	-0.00019311364
250	0x3e735117	0.23761402
251	0xbe39d356	-0.18147025
252	0xbdc4afb8	-0.09603828
253	0x3e9d22ff	0.30690762
254	0xbd918a4c	-0.07106456
255	0x3dbc9fa6	0.09210138

out.weight f4 [1, 48]
0	0x401367aa	2.3032022
1	0x400df8d4	2.2183123
2	0xc005e21c	-2.0919256
3	0x4011f4a2	2.2805562
4	0x400248b2	2.035687
5	0x40066120	2.099678
6	0x401302d4	2.2970476
7	0xc014d118	-2.325262
8	0x400774a4	2.1164942
9	0xc012be1c	-2.2928534
10	0x40070424	2.1096277
11	0xc00d82c2	-2.2111058
12	0x400d4172	2.2071195
13	0x4011065e	2.2660136
14	0xc0022a78	-2.033842
15	0x4004b616	2.0736136
16	0x400a2f76	2.1591468
17	0x40133fc0	2.300766
18	0xc01072aa	-2.2569985
19	0x40046b50	2.0690498
20	0x400c00cc	2.1875486
21	0x40131caa	2.2986245
22	0x400e603e	2.2246242
23	0xc0124236	-2.2852912
24	0x4004f5fe	2.0775142
25	0xc007f19e	-2.1241221
26	0x40106860	2.2563705
27	0xc005891a	-2.086493
28	0x400f303a	2.2373185
29	0x400b49a0	2.1763687
30	0xc00c95c2	-2.1966405
31	0x400c2816	2.1899467
32	0xbeb9f808	-0.36322045
33	0xbe99f2b0	-0.30067968
34	0x3e9e3a48	0.3090384
35	0xbe9e2602	-0.30888373
36	0xbe8d826a	-0.2763856
37	0xbeab7574	-0.33488047
38	0xbe96e4da	-0.29471475
39	0x3e61c225	0.22046717
40	0xbe86ef1a	-0.26354295
41	0x3e8bee1e	0.27330106
42	0xbe8f63f2	-0.2800594
43	0x3e9e140a	0.30874664
44	0xbe99a8c0	-0.3001156
45	0xbe5aa463	-0.21351771
46	0x3ea1de9e	0.31615156
47	0xbe79bdd9	-0.24388827
