embd_16_nHead_2_nlayer_3_Batch_50.pth (torch, 15579 bytes, 16 tensors)

conv_layers.0.att_src f4 [1, 2, 16]
0	0xbebac662	-0.3647948
1	0xbe557559	-0.20845546
2	0x3eb34ea9	0.3502095
3	0xbd61526f	-0.055010255
4	0xba847924	-0.0010106904
5	0x3a3e5a37	0.0007261368
6	0x3e8b2d43	0.2718297
7	0xbbb73ac4	-0.005591722
8	0x3dea4902	0.114397064
9	0xbe2a3845	-0.16623028
10	0xbc7f2653	-0.015573102
11	0xbdfc41b3	-0.12317219
12	0x3cbae20f	0.022812871
13	0xbb9651ad	-0.004587373
14	0x3bf8145a	0.0075707855
15	0x3d5ff578	0.054677457
16	0xbc8820db	-0.01661723
17	0xbb657916	-0.00350148
18	0xbe3052f4	-0.17219144
19	0x3d1e8eb2	0.038710304
20	0x3ae9c3f5	0.0017834889
21	0x3e76dbfa	0.24107352
22	0xbe6b56bc	-0.22982305
23	0x3c68cdd5	0.01420923
24	0xbef9081d	-0.48639002
25	0x3da5393a	0.08067556
26	0x3b9ae94f	0.0047275196
27	0xbcc3b55b	-0.023890188
28	0x3e4acffe	0.19805905
29	0xbe91e24f	-0.28492972
30	0x3f2d74b2	0.6775619
31	0x3aadf46c	0.0013271696

conv_layers.0.att_dst f4 [1, 2, 16]
0	0x3f2587b3	0.64660186
1	0xc0437cdf	-3.0544965
2	0x3fe0261f	1.7511634
3	0x3f5bdccc	0.85883784
4	0x3f26b32e	0.65117157
5	0xbf9dd1c7	-1.2329644
6	0x402318db	2.548392
7	0x3fdae789	1.7101909
8	0x3fe1ecc1	1.7650377
9	0x3fcbad2e	1.5912225
10	0xc0544ec3	-3.3173072
11	0xc02ad308	-2.6691303
12	0xbfd62cdd	-1.6732441
13	0xbf84c6f1	-1.0373212
14	0x3f71c364	0.9443877
15	0xc0082fd1	-2.1279185
16	0x3d8ef22b	0.069797836
17	0x3b6e830e	0.0036394033
18	0xbe884564	-0.2661544
19	0xbdc8b3e8	-0.097999394
20	0xbaef8af3	-0.0018275663
21	0xbe4f074c	-0.20217627
22	0x3e07b0ac	0.13250989
23	0xbac8349c	-0.0015274468
24	0x3f0adbc1	0.5424157
25	0x3e122ea2	0.14275602
26	0xbc46d2c6	-0.012135213
27	0xbe64c7d6	-0.22341856
28	0xbca4358f	-0.02004507
29	0x3f1f5b91	0.62249094
30	0xbd4a4745	-0.049384374
31	0xba25a66f	-0.0006319051

conv_layers.0.bias f4 [32]
0	0xbdffe4e0	-0.12494826
1	0x401dd8fd	2.466369
2	0xbdadd0a8	-0.08487064
3	0xbee4d431	-0.4469314
4	0x384567a0	4.706497e-05
5	0x39e17cbe	0.00043008284
6	0xc0189515	-2.3840992
7	0xbfa2a06f	-1.270521
8	0xc0289a83	-2.6344306
9	0x3e0c28ce	0.13687441
10	0x3f713bc6	0.9423183
11	0x3f9b26c1	1.2121202
12	0x3f0db254	0.5535023
13	0xbf1f90b5	-0.6233018
14	0xbe1e4b18	-0.15458333
15	0x3e4a5f90	0.19763017
16	0xbf60d935	-0.8783143
17	0x3a99138a	0.0011678797
18	0x3fea0527	1.8282822
19	0x3e9dd745	0.308283
20	0xbab70d38	-0.0013965731
21	0x3fe16329	1.7608386
22	0xbf82fb6c	-1.0232978
23	0xc00fe26b	-2.2481945
24	0xbf249a1b	-0.64297646
25	0x3d0a3f6b	0.033751886
26	0x3b13bd11	0.0022543112
27	0x3fc7848d	1.5587326
28	0x3f3d277f	0.7388839
29	0x3e66d6b0	0.22542834
30	0xbf098cee	-0.53730667
31	0xc05bb321	-3.4328082

conv_layers.0.lin_src.weight f4 [32, 4]
0	0x3e078bcd	0.13236924
1	0xc07088bb	-3.7583454
2	0x3e5a298f	0.21304916
3	0xbece4a9e	-0.40291303
4	0x3fca6a90	1.581377
5	0xc050425b	-3.25405
6	0xbe0ee9cf	-0.13956378
7	0xc0336153	-2.8028152
8	0x40321ff9	2.7832015
9	0x4048091a	3.1255555
10	0xbe2fcd22	-0.17168096
11	0x405faaf7	3.4948099
12	0xc07cb05f	-3.9482648
13	0xbfbc1a22	-1.4695475
14	0x3e1872e3	0.14887576
15	0x3ed46285	0.41481414
16	0x39b3c0f6	0.00034285308
17	0x392ca468	0.00016464444
18	0x3a32f213	0.0006826233
19	0xba690b1f	-0.0008889902
20	0xbb6c883c	-0.0036091944
21	0x3b1089f6	0.0022054887
22	0x3a531b41	0.00080530724
23	0xb9cd7a96	-0.0003919198
24	0x4041b038	3.0263805
25	0x403fd815	2.9975636
26	0x3e98f39d	0.29873362
27	0x40099ae3	2.1500785
28	0x40186bf3	2.3815887
29	0x3fc90283	1.5703892
30	0x3eb5c796	0.35503834
31	0xbfb0fe11	-1.3827535
32	0xc05da1fb	-3.4630115
33	0x40307b14	2.757512
34	0x3ee101e6	0.4394676
35	0x401765cd	2.3655884
36	0xbfaca6dd	-1.3488423
37	0xc0b37fb3	-5.6093383
38	0x3e36728a	0.1781713
39	0x3f0fc274	0.56156087
40	0xc0d530c2	-6.662202
41	0x3feb6976	1.8391559
42	0xbe280d73	-0.1641138
43	0xbf841e6f	-1.0321788
44	0x3fe4ec0c	1.7884536
45	0xc0a9aa43	-5.302034
46	0xbd96666d	-0.07343755
47	0xbf436737	-0.7632937
48	0xbfade30d	-1.3584915
49	0xc04b64df	-3.1780317
50	0xbed98100	-0.42481232
51	0x3fe08873	1.7541641
52	0x3f7e1828	0.9925561
53	0xc0da3b30	-6.819725
54	0xbefa6b89	-0.48910168
55	0x403409b2	2.8130918
56	0xbfba2b6c	-1.4544501
57	0x3c142de9	0.009044149
58	0x3f257ebb	0.646465
59	0xbf09c3a7	-0.53814167
60	0xc159329f	-13.574859
61	0x3fe5c892	1.7951834
62	0xbe877341	-0.2645512
63	0x3f0d7c75	0.5526803
64	0xbe0dda13	-0.1385272
65	0x3d2f90d3	0.042862725
66	0x39846b36	0.0002525688
67	0xbcfba6e6	-0.030719232
68	0xbc0c57b2	-0.00856583
69	0x3aad157f	0.0013205259
70	0x39e84fbb	0.00044309892
71	0xba2e54b1	-0.0006650193
72	0x3f56e0bf	0.83936685
73	0xc09cfc1f	-4.9057765
74	0xbea6cfbd	-0.32580367
75	0xbfa678bf	-1.3005599
76	0xc0b32b88	-5.599064
77	0x3fcab3d2	1.5836127
78	0xbf09b6de	-0.5379466
79	0x41192930	9.572556
80	0x3a05adec	0.0005099464
81	0xbb869634	-0.004107261
82	0xba174760	-0.00057708286
83	0x3ac5826a	0.0015068774
84	0xc0185a4e	-2.3805118
85	0xc05b6e0a	-3.4285913
86	0xbe38a6b5	-0.18032344
87	0xc0905b5f	-4.5111537
88	0xbfa4b37b	-1.2867273
89	0x405a48cd	3.4106934
90	0x3d3c6ab4	0.046000198
91	0x3db277dd	0.08714268
92	0xbcf455ba	-0.029826034
93	0xbcc8a817	-0.024494214
94	0x39d316d4	0.00040262064
95	0xbc3d948a	-0.011571059
96	0x400503c5	2.078355
97	0x4080defe	4.0272207
98	0xbd2a77b3	-0.04161806
99	0x40317bf8	2.7731915
100	0x4012563f	2.286514
101	0xc08619a8	-4.190632
102	0x3e57b5a6	0.21065387
103	0xc028226d	-2.6271012
104	0x3d21bb20	0.039485097
105	0x3b8006cb	0.00390706
106	0x3b1be846	0.0023789569
107	0x39c828e5	0.00038177441
108	0x3fe76cde	1.8080099
109	0xc01c1f60	-2.439415
110	0xbe87f8f1	-0.26557115
111	0x4050a81e	3.260261
112	0x3d0029d7	0.0312899
113	0x40655315	3.583196
114	0xbebc8522	-0.36820322
115	0xc08aa275	-4.332331
116	0x3f999190	1.1997547
117	0x40841c85	4.1284814
118	0xbe29d3a2	-0.16584638
119	0xbfc7b59d	-1.5602299
120	0xc0878c84	-4.235903
121	0x40890268	4.2815437
122	0xbcff6d80	-0.031180143
123	0xc0892d59	-4.2867856
124	0x3bd2ecf5	0.006436939
125	0xbaedd70a	-0.0018145752
126	0x39d410ae	0.00040448218
127	0x3a574973	0.0008212544

conv_layers.0.lin_dst.weight f4 [32, 4]
0	0x3e078bcd	0.13236924
1	0xc07088bb	-3.7583454
2	0x3e5a298f	0.21304916
3	0xbece4a9e	-0.40291303
4	0x3fca6a90	1.581377
5	0xc050425b	-3.25405
6	0xbe0ee9cf	-0.13956378
7	0xc0336153	-2.8028152
8	0x40321ff9	2.7832015
9	0x4048091a	3.1255555
10	0xbe2fcd22	-0.17168096
11	0x405faaf7	3.4948099
12	0xc07cb05f	-3.9482648
13	0xbfbc1a22	-1.4695475
14	0x3e1872e3	0.14887576
15	0x3ed46285	0.41481414
16	0x39b3c0f6	0.00034285308
17	0x392ca468	0.00016464444
18	0x3a32f213	0.0006826233
19	0xba690b1f	-0.0008889902
20	0xbb6c883c	-0.0036091944
21	0x3b1089f6	0.0022054887
22	0x3a531b41	0.00080530724
23	0xb9cd7a96	-0.0003919198
24	0x4041b038	3.0263805
25	0x403fd815	2.9975636
26	0x3e98f39d	0.29873362
27	0x40099ae3	2.1500785
28	0x40186bf3	2.3815887
29	0x3fc90283	1.5703892
30	0x3eb5c796	0.35503834
31	0xbfb0fe11	-1.3827535
32	0xc05da1fb	-3.4630115
33	0x40307b14	2.757512
34	0x3ee101e6	0.4394676
35	0x401765cd	2.3655884
36	0xbfaca6dd	-1.3488423
37	0xc0b37fb3	-5.6093383
38	0x3e36728a	0.1781713
39	0x3f0fc274	0.56156087
40	0xc0d530c2	-6.662202
41	0x3feb6976	1.8391559
42	0xbe280d73	-0.1641138
43	0xbf841e6f	-1.0321788
44	0x3fe4ec0c	1.7884536
45	0xc0a9aa43	-5.302034
46	0xbd96666d	-0.07343755
47	0xbf436737	-0.7632937
48	0xbfade30d	-1.3584915
49	0xc04b64df	-3.1780317
50	0xbed98100	-0.42481232
51	0x3fe08873	1.7541641
52	0x3f7e1828	0.9925561
53	0xc0da3b30	-6.819725
54	0xbefa6b89	-0.48910168
55	0x403409b2	2.8130918
56	0xbfba2b6c	-1.4544501
57	0x3c142de9	0.009044149
58	0x3f257ebb	0.646465
59	0xbf09c3a7	-0.53814167
60	0xc159329f	-13.574859
61	0x3fe5c892	1.7951834
62	0xbe877341	-0.2645512
63	0x3f0d7c75	0.5526803
64	0xbe0dda13	-0.1385272
65	0x3d2f90d3	0.042862725
66	0x39846b36	0.0002525688
67	0xbcfba6e6	-0.030719232
68	0xbc0c57b2	-0.00856583
69	0x3aad157f	0.0013205259
70	0x39e84fbb	0.00044309892
71	0xba2e54b1	-0.0006650193
72	0x3f56e0bf	0.83936685
73	0xc09cfc1f	-4.9057765
74	0xbea6cfbd	-0.32580367
75	0xbfa678bf	-1.3005599
76	0xc0b32b88	-5.599064
77	0x3fcab3d2	1.5836127
78	0xbf09b6de	-0.5379466
79	0x41192930	9.572556
80	0x3a05adec	0.0005099464
81	0xbb869634	-0.004107261
82	0xba174760	-0.00057708286
83	0x3ac5826a	0.0015068774
84	0xc0185a4e	-2.3805118
85	0xc05b6e0a	-3.4285913
86	0xbe38a6b5	-0.18032344
87	0xc0905b5f	-4.5111537
88	0xbfa4b37b	-1.2867273
89	0x405a48cd	3.4106934
90	0x3d3c6ab4	0.046000198
91	0x3db277dd	0.08714268
92	0xbcf455ba	-0.029826034
93	0xbcc8a817	-0.024494214
94	0x39d316d4	0.00040262064
95	0xbc3d948a	-0.011571059
96	0x400503c5	2.078355
97	0x4080defe	4.0272207
98	0xbd2a77b3	-0.04161806
99	0x40317bf8	2.7731915
100	0x4012563f	2.286514
101	0xc08619a8	-4.190632
102	0x3e57b5a6	0.21065387
103	0xc028226d	-2.6271012
104	0x3d21bb20	0.039485097
105	0x3b8006cb	0.00390706
106	0x3b1be846	0.0023789569
107	0x39c828e5	0.00038177441
108	0x3fe76cde	1.8080099
109	0xc01c1f60	-2.439415
110	0xbe87f8f1	-0.26557115
111	0x4050a81e	3.260261
112	0x3d0029d7	0.0312899
113	0x40655315	3.583196
114	0xbebc8522	-0.36820322
115	0xc08aa275	-4.332331
116	0x3f999190	1.1997547
117	0x40841c85	4.1284814
118	0xbe29d3a2	-0.16584638
119	0xbfc7b59d	-1.5602299
120	0xc0878c84	-4.235903
121	0x40890268	4.2815437
122	0xbcff6d80	-0.031180143
123	0xc0892d59	-4.2867856
124	0x3bd2ecf5	0.006436939
125	0xbaedd70a	-0.0018145752
126	0x39d410ae	0.00040448218
127	0x3a574973	0.0008212544

conv_layers.1.att_src f4 [1, 2, 16]
0	0x3ddeac4b	0.10872706
1	0xbeebfc66	-0.46091002
2	0x3ebc9c54	0.3683802
3	0x3ebbd7c4	0.36688054
4	0xbe745c2b	-0.23863284
5	0xbee3a592	-0.44462258
6	0xbd1cbff9	-0.038269017
7	0x3ee7a8b0	0.45245886
8	0x3e071623	0.13192038
9	0x3f504fac	0.8137157
10	0xbceb8d5e	-0.028753933
11	0x3ed13aaa	0.4086507
12	0x3dc722ba	0.097234204
13	0x3ca70c36	0.020391565
14	0x3e2e4f49	0.17022432
15	0x3e92ba64	0.2865783
16	0xbcca9b87	-0.024732364
17	0x3c0fbcfc	0.008773085
18	0x3e3b62ad	0.1829936
19	0xbeb7eca6	-0.35922736
20	0x3eb5b734	0.35491335
21	0xbe55c5c0	-0.20876217
22	0x3eba4a30	0.36384726
23	0x3ed58931	0.4170623
24	0xbf55906d	-0.834235
25	0x3edf26ee	0.43584388
26	0xbe21b088	-0.15789998
27	0x3e115a91	0.14194705
28	0xbea828e1	-0.32843688
29	0xbe9f1ef4	-0.31078303
30	0xbb0ee63f	-0.0021804718
31	0x3d93158b	0.07181843

conv_layers.1.att_dst f4 [1, 2, 16]
0	0xbf7673fb	-0.9627072
1	0x3fdb4132	1.7129271
2	0xbfc637cb	-1.5485777
3	0xbcacb141	-0.021080615
4	0x407b9b71	3.9313624
5	0xbee08d5d	-0.43857852
6	0xbf603984	-0.8758776
7	0xbea1948b	-0.31558642
8	0xc06bf79a	-3.6869874
9	0x3d81d7f3	0.06340017
10	0x3faf766c	1.3708014
11	0xc01ea8ba	-2.4790483
12	0x405b04ae	3.4221606
13	0x4064c6e0	3.5746384
14	0x3f8095b5	1.0045687
15	0xc033fe2e	-2.812389
16	0x3e83b392	0.2572294
17	0xbe81f5a8	-0.25382733
18	0x3ec7dc91	0.39035466
19	0xbdfa0e66	-0.122097775
20	0xbcbcc1a6	-0.023041558
21	0x3b46813f	0.003028944
22	0xbe011fe9	-0.12609829
23	0x3e582e7c	0.21111482
24	0x3f77942b	0.9671046
25	0xbeb1df9d	-0.34740916
26	0xbe8cd337	-0.27504894
27	0xbf1644a8	-0.5869851
28	0xbf064d96	-0.52462137
29	0x3dac3746	0.0840898
30	0x3ec258a9	0.37958267
31	0x3dd3b142	0.103365436

conv_layers.1.bias f4 [32]
0	0x3eaff611	0.3436742
1	0xbdabceb5	-0.083890356
2	0x4003cd8e	2.059421
3	0x3e455fb3	0.19274788
4	0xbe89e5f9	-0.26933268
5	0xbe491694	-0.19637519
6	0xbf83539d	-1.0259892
7	0x3f566e02	0.8376161
8	0x3fb35d9a	1.401294
9	0x3eaa7d81	0.33298877
10	0x3e02fd8a	0.1279203
11	0xbdfcd857	-0.12345951
12	0xbe78156e	-0.24226925
13	0xbca5cd1d	-0.020239407
14	0x3e4f46da	0.20241871
15	0xbf3c041c	-0.7344377
16	0xbfe81748	-1.8132105
17	0x3e303416	0.17207369
18	0x3f9b1e15	1.2118555
19	0x4026581b	2.5991275
20	0x3e7230ee	0.23651478
21	0xc041ce65	-3.0282223
22	0x3fc79806	1.5593269
23	0xbdbe1f6f	-0.09283339
24	0x3ef923a3	0.4866
25	0x3ed31a9b	0.41231236
26	0x3f9454ed	1.1588417
27	0x3dd61a4e	0.10454236
28	0x3e8e38bc	0.2777766
29	0xbe0460d4	-0.12927562
30	0xbe9aeef5	-0.30260435
31	0xbdb6197d	-0.0889158

conv_layers.1.lin_src.weight f4 [32, 32]
0	0x3f74e425	0.9566062
1	0xbfe714be	-1.8053205
2	0x3fe8e4c8	1.8194818
3	0xbfd9d301	-1.7017518
4	0x3c5a753c	0.013333615
5	0x3cb12e26	0.02162845
6	0x3f5cc07e	0.8623122
7	0xbf0c8800	-0.5489502
8	0x3f65a61b	0.8970658
9	0x3f1f9ad7	0.6234564
10	0xbfddbf48	-1.7324
11	0xbed6a8b6	-0.4192559
12	0x3eaeaaa7	0.34114572
13	0x3f981198	1.1880369
14	0x3d840748	0.06446701
15	0x3fe8309a	1.8139832
16	0xbd1885c3	-0.03723694
17	0xbb12f9bd	-0.0022426688
18	0x3f8998a0	1.0749702
19	0xbf4d1fdd	-0.80126745
20	0x3c4b4d67	0.012408591
21	0x4067ce10	3.621952
22	0x3f9733da	1.1812699
23	0x3db80e68	0.08987123
24	0xbff8281f	-1.9387244
25	0x400a01f4	2.1563692
26	0x3c9faa6e	0.019490447
27	0xbf370084	-0.7148516
28	0xbddb488c	-0.107071966
29	0x3fd67beb	1.6756567
30	0x3fe490e6	1.785672
31	0x3e766dc3	0.24065308
32	0xbf83f294	-1.0308404
33	0x3fac5f3a	1.3466561
34	0xbe868526	-0.2627346
35	0xbeab276f	-0.33428523
36	0x3baf6ff8	0.005353924
37	0x3c6aecfa	0.014338726
38	0x3f07bf7a	0.53026545
39	0xbe15a508	-0.14613736
40	0xbf0ff457	-0.5623221
41	0x3fd283ac	1.6446433
42	0x3fad01c4	1.3516164
43	0x3ed686aa	0.41899616
44	0xbebf98ce	-0.37421268
45	0xbe0eb5dd	-0.13936563
46	0x3edee359	0.43532827
47	0xbf50999f	-0.8148441
48	0x3ed9f611	0.42570546
49	0x3c82aa30	0.015950292
50	0xbf766c4d	-0.96259004
51	0x3d8a57d3	0.067550324
52	0xbc9882de	-0.01861709
53	0x3f675610	0.90365696
54	0xbf4e2415	-0.80523807
55	0x3f11b58c	0.56917644
56	0xbf1a4884	-0.602669
57	0xbfa4222b	-1.2822927
58	0x3c3e0c78	0.0115996525
59	0xbf5a403e	-0.85254276
60	0x3e9659c2	0.29365355
61	0xbee6f402	-0.45108038
62	0xc06c4e3a	-3.6922746
63	0x3f0db152	0.55348694
64	0x3f196383	0.5991747
65	0xbf32fe8b	-0.6991965
66	0x3dea41c7	0.11438327
67	0xbf9e4d7b	-1.2367395
68	0x3b459843	0.003015057
69	0xbbfd84da	-0.0077367844
70	0x3f331d54	0.69966626
71	0xbf40d40a	-0.75323546
72	0xbe1f0989	-0.15530981
73	0xbf13fec7	-0.57810634
74	0xbf0ac367	-0.5420441
75	0x3ecba6c7	0.3977568
76	0xbf64d578	-0.8938823
77	0x3ecd842a	0.40139896
78	0x3e94fa8f	0.2909741
79	0x3faf979e	1.3718145
80	0xbf4851ce	-0.78249824
81	0xb981a8f6	-0.00024730683
82	0x402a861e	2.6644359
83	0xbf349ab9	-0.7054859
84	0xbc4749df	-0.012163608
85	0x3eacbdea	0.33738643
86	0x4060ac34	3.5105104
87	0xbf6e8a46	-0.9317974
88	0xc04771a0	-3.1163101
89	0x404e7cb4	3.2263613
90	0xbbcc3443	-0.006231816
91	0x3f2cdcf9	0.6752468
92	0x3fd1dfe0	1.6396446
93	0xbf2ff8ad	-0.68738824
94	0x40685e8e	3.6307712
95	0xbf665f0a	-0.8998877
96	0x3f0e71ab	0.55642194
97	0xbf330a70	-0.699378
98	0x3eae002c	0.33984506
99	0xbe1e6b56	-0.15470633
100	0x3b5e12c2	0.0033885692
101	0x3bf9a97f	0.0076190825
102	0xbe8d2efb	-0.27574906
103	0x3e427f0e	0.1899378
104	0x3f280d03	0.65644854
105	0x3e58b8df	0.21164273
106	0xbec3bb4f	-0.38228843
107	0x3edf9c01	0.4367371
108	0x3f311a92	0.6918117
109	0xbeea623e	-0.45778078
110	0xbe6420ff	-0.22278212
111	0x3e571fc4	0.21008211
112	0x3caaabaa	0.020833809
113	0xbb89d381	-0.0042061214
114	0xbea19b00	-0.31563568
115	0xbe890303	-0.2676011
116	0x3b275f3b	0.002553894
117	0x3d0b03ff	0.033939358
118	0x3cba3aef	0.02273318
119	0xbeaf2b2f	-0.34212634
120	0xbf176ac6	-0.591473
121	0x3fd752be	1.6822126
122	0x3b0bf8ca	0.0021358007
123	0x3e3c331f	0.18378876
124	0xbeba2931	-0.36359552
125	0xbfd29d22	-1.6454203
126	0x40062d56	2.096517
127	0xbeefb53e	-0.46817964
128	0x3f4648ea	0.7745501
129	0x3e8cc5fa	0.27494794
130	0x3df07f8b	0.11743077
131	0x3e6ae51a	0.22938958
132	0xbb2160ac	-0.0024624271
133	0xbb784217	-0.003788119
134	0xbe9f45bf	-0.311079
135	0x3eae00a3	0.3398486
136	0x3e495c02	0.19664004
137	0x3e909425	0.28238025
138	0x3f2102f0	0.6289511
139	0x3e65383c	0.22384733
140	0x3cb1a3fe	0.021684643
141	0xbee7b499	-0.45254973
142	0xbdd3ab5e	-0.1033542
143	0xbe9d2bfa	-0.30697614
144	0x3d7f5b7c	0.062343106
145	0xbb260170	-0.0025330447
146	0xbd9bb8bc	-0.07603595
147	0x3f0e7a0c	0.5565498
148	0x3b14cbc6	0.0022704466
149	0xbddfb4b1	-0.10923136
150	0x3f0ac2f0	0.542037
151	0x3ead0e3c	0.33799922
152	0x3f48ebbf	0.7848472
153	0x3eee9d2b	0.46604285
154	0xbb7ce5af	-0.003858905
155	0xbc6ff115	-0.014644881
156	0xbea601d1	-0.3242326
157	0xbebf9c38	-0.37423873
158	0xbf989aa7	-1.1922196
159	0xbc3fe218	-0.01171162
160	0xbf727ad6	-0.9471868
161	0xbedc6d1b	-0.4305199
162	0x3f3d8241	0.74026877
163	0xbe8ccdff	-0.27500913
164	0xbb173599	-0.0023072718
165	0xba509730	-0.0007957099
166	0xbdaf706b	-0.08566364
167	0x3eab6fa7	0.3348362
168	0xbe56e9c4	-0.20987612
169	0x3f1974c9	0.59943825
170	0x3e264e92	0.1624091
171	0x3e479fde	0.19494578
172	0xbe2027bb	-0.15640156
173	0x3e278f96	0.16363367
174	0xbc45ff03	-0.012084725
175	0x3dbf5d4a	0.09343965
176	0x3e693cbb	0.22777073
177	0xbaf68275	-0.001880719
178	0x3e9c9f3f	0.30590245
179	0x3ebd0a7b	0.36922058
180	0x3b1462cc	0.0022641895
181	0x3d829ffb	0.0637817
182	0x3efcd6c8	0.49382615
183	0x3e8ef2bb	0.27919564
184	0xbd1ffd90	-0.039060175
185	0xbf558391	-0.8340388
186	0xb7cb53e0	-2.4238543e-05
187	0x3e7d437d	0.24732776
188	0x3f9bbc70	1.2166882
189	0x3f7270b8	0.94703245
190	0x3f8789ef	1.0588969
191	0x3e1e23af	0.154433
192	0xbf4ba582	-0.7954942
193	0xc0299c10	-2.6501503
194	0x3f55044a	0.8320967
195	0xbff8ab18	-1.9427214
196	0x3a90be02	0.0011042955
197	0x3bc67404	0.0060563106
198	0x3ee6c7b4	0.45074236
199	0xbf97d108	-1.1860666
200	0xbf1e72a7	-0.61893696
201	0x40066007	2.099611
202	0xbf99608d	-1.198259
203	0xbfe07b2d	-1.753759
204	0x3d945dcf	0.07244455
205	0x3f759ca3	0.95942134
206	0x3fa537c6	1.2907646
207	0xbe97f774	-0.2968098
208	0x3f1a423e	0.6025733
209	0x3caeb12f	0.021324722
210	0xbf8ec0f3	-1.1152633
211	0xbe1fce95	-0.15606149
212	0xbcb5bc7c	-0.022184603
213	0x3fca1a5c	1.5789294
214	0xbfe80ace	-1.8128297
215	0x3f8a35d5	1.0797678
216	0xc00fb7ad	-2.2455857
217	0x401cebf2	2.451901
218	0x3cbe626e	0.023240294
219	0x3f9cfaae	1.2264001
220	0xbe1c5581	-0.15266992
221	0x3f2cb003	0.6745607
222	0x40609bb1	3.5095026
223	0x3f919de0	1.1376305
224	0x3fb90dfc	1.4457393
225	0x3e6d8621	0.23195697
226	0xbe80f428	-0.25186276
227	0xbdd1000b	-0.10205086
228	0x3b48ef4c	0.003066021
229	0x3885c22a	6.3781e-05
230	0x3ef39dc8	0.47581315
231	0x3ed6353a	0.41837484
232	0xbe1f1a9d	-0.15537496
233	0x3e8f5c57	0.28000137
234	0x3f0da1a7	0.55324787
235	0xbed0cd46	-0.4078161
236	0x3ed2deae	0.41185516
237	0x3bcd7a21	0.0062706624
238	0xbe0e8931	-0.13919522
239	0x3d8336a9	0.0640691
240	0xbf3fc66d	-0.7491215
241	0xbc039ac9	-0.008032509
242	0xbfa30e02	-1.273865
243	0xbf1ac454	-0.6045582
244	0x3b2baa78	0.0026194137
245	0xbea25d7f	-0.31711957
246	0x3d98bb78	0.07457632
247	0xbf7258cf	-0.9466676
248	0xbf4b59bb	-0.7943379
249	0x402a36a6	2.6595855
250	0x3aeb0317	0.0017929998
251	0xbf135b3e	-0.575611
252	0xbff1421c	-1.88483
253	0xc028c4cd	-2.6370118
254	0xbf33e532	-0.702716
255	0xbf847402	-1.0347903

conv_layers.1.lin_dst.weight f4 [32, 32]
0	0x3f74e425	0.9566062
1	0xbfe714be	-1.8053205
2	0x3fe8e4c8	1.8194818
3	0xbfd9d301	-1.7017518
4	0x3c5a753c	0.013333615
5	0x3cb12e26	0.02162845
6	0x3f5cc07e	0.8623122
7	0xbf0c8800	-0.5489502
8	0x3f65a61b	0.8970658
9	0x3f1f9ad7	0.6234564
10	0xbfddbf48	-1.7324
11	0xbed6a8b6	-0.4192559
12	0x3eaeaaa7	0.34114572
13	0x3f981198	1.1880369
14	0x3d840748	0.06446701
15	0x3fe8309a	1.8139832
16	0xbd1885c3	-0.03723694
17	0xbb12f9bd	-0.0022426688
18	0x3f8998a0	1.0749702
19	0xbf4d1fdd	-0.80126745
20	0x3c4b4d67	0.012408591
21	0x4067ce10	3.621952
22	0x3f9733da	1.1812699
23	0x3db80e68	0.08987123
24	0xbff8281f	-1.9387244
25	0x400a01f4	2.1563692
26	0x3c9faa6e	0.019490447
27	0xbf370084	-0.7148516
28	0xbddb488c	-0.107071966
29	0x3fd67beb	1.6756567
30	0x3fe490e6	1.785672
31	0x3e766dc3	0.24065308
32	0xbf83f294	-1.0308404
33	0x3fac5f3a	1.3466561
34	0xbe868526	-0.2627346
35	0xbeab276f	-0.33428523
36	0x3baf6ff8	0.005353924
37	0x3c6aecfa	0.014338726
38	0x3f07bf7a	0.53026545
39	0xbe15a508	-0.14613736
40	0xbf0ff457	-0.5623221
41	0x3fd283ac	1.6446433
42	0x3fad01c4	1.3516164
43	0x3ed686aa	0.41899616
44	0xbebf98ce	-0.37421268
45	0xbe0eb5dd	-0.13936563
46	0x3edee359	0.43532827
47	0xbf50999f	-0.8148441
48	0x3ed9f611	0.42570546
49	0x3c82aa30	0.015950292
50	0xbf766c4d	-0.96259004
51	0x3d8a57d3	0.067550324
52	0xbc9882de	-0.01861709
53	0x3f675610	0.90365696
54	0xbf4e2415	-0.80523807
55	0x3f11b58c	0.56917644
56	0xbf1a4884	-0.602669
57	0xbfa4222b	-1.2822927
58	0x3c3e0c78	0.0115996525
59	0xbf5a403e	-0.85254276
60	0x3e9659c2	0.29365355
61	0xbee6f402	-0.45108038
62	0xc06c4e3a	-3.6922746
63	0x3f0db152	0.55348694
64	0x3f196383	0.5991747
65	0xbf32fe8b	-0.6991965
66	0x3dea41c7	0.11438327
67	0xbf9e4d7b	-1.2367395
68	0x3b459843	0.003015057
69	0xbbfd84da	-0.0077367844
70	0x3f331d54	0.69966626
71	0xbf40d40a	-0.75323546
72	0xbe1f0989	-0.15530981
73	0xbf13fec7	-0.57810634
74	0xbf0ac367	-0.5420441
75	0x3ecba6c7	0.3977568
76	0xbf64d578	-0.8938823
77	0x3ecd842a	0.40139896
78	0x3e94fa8f	0.2909741
79	0x3faf979e	1.3718145
80	0xbf4851ce	-0.78249824
81	0xb981a8f6	-0.00024730683
82	0x402a861e	2.6644359
83	0xbf349ab9	-0.7054859
84	0xbc4749df	-0.012163608
85	0x3eacbdea	0.33738643
86	0x4060ac34	3.5105104
87	0xbf6e8a46	-0.9317974
88	0xc04771a0	-3.1163101
89	0x404e7cb4	3.2263613
90	0xbbcc3443	-0.006231816
91	0x3f2cdcf9	0.6752468
92	0x3fd1dfe0	1.6396446
93	0xbf2ff8ad	-0.68738824
94	0x40685e8e	3.6307712
95	0xbf665f0a	-0.8998877
96	0x3f0e71ab	0.55642194
97	0xbf330a70	-0.699378
98	0x3eae002c	0.33984506
99	0xbe1e6b56	-0.15470633
100	0x3b5e12c2	0.0033885692
101	0x3bf9a97f	0.0076190825
102	0xbe8d2efb	-0.27574906
103	0x3e427f0e	0.1899378
104	0x3f280d03	0.65644854
105	0x3e58b8df	0.21164273
106	0xbec3bb4f	-0.38228843
107	0x3edf9c01	0.4367371
108	0x3f311a92	0.6918117
109	0xbeea623e	-0.45778078
110	0xbe6420ff	-0.22278212
111	0x3e571fc4	0.21008211
112	0x3caaabaa	0.020833809
113	0xbb89d381	-0.0042061214
114	0xbea19b00	-0.31563568
115	0xbe890303	-0.2676011
116	0x3b275f3b	0.002553894
117	0x3d0b03ff	0.033939358
118	0x3cba3aef	0.02273318
119	0xbeaf2b2f	-0.34212634
120	0xbf176ac6	-0.591473
121	0x3fd752be	1.6822126
122	0x3b0bf8ca	0.0021358007
123	0x3e3c331f	0.18378876
124	0xbeba2931	-0.36359552
125	0xbfd29d22	-1.6454203
126	0x40062d56	2.096517
127	0xbeefb53e	-0.46817964
128	0x3f4648ea	0.7745501
129	0x3e8cc5fa	0.27494794
130	0x3df07f8b	0.11743077
131	0x3e6ae51a	0.22938958
132	0xbb2160ac	-0.0024624271
133	0xbb784217	-0.003788119
134	0xbe9f45bf	-0.311079
135	0x3eae00a3	0.3398486
136	0x3e495c02	0.19664004
137	0x3e909425	0.28238025
138	0x3f2102f0	0.6289511
139	0x3e65383c	0.22384733
140	0x3cb1a3fe	0.021684643
141	0xbee7b499	-0.45254973
142	0xbdd3ab5e	-0.1033542
143	0xbe9d2bfa	-0.30697614
144	0x3d7f5b7c	0.062343106
145	0xbb260170	-0.0025330447
146	0xbd9bb8bc	-0.07603595
147	0x3f0e7a0c	0.5565498
148	0x3b14cbc6	0.0022704466
149	0xbddfb4b1	-0.10923136
150	0x3f0ac2f0	0.542037
151	0x3ead0e3c	0.33799922
152	0x3f48ebbf	0.7848472
153	0x3eee9d2b	0.46604285
154	0xbb7ce5af	-0.003858905
155	0xbc6ff115	-0.014644881
156	0xbea601d1	-0.3242326
157	0xbebf9c38	-0.37423873
158	0xbf989aa7	-1.1922196
159	0xbc3fe218	-0.01171162
160	0xbf727ad6	-0.9471868
161	0xbedc6d1b	-0.4305199
162	0x3f3d8241	0.74026877
163	0xbe8ccdff	-0.27500913
164	0xbb173599	-0.0023072718
165	0xba509730	-0.0007957099
166	0xbdaf706b	-0.08566364
167	0x3eab6fa7	0.3348362
168	0xbe56e9c4	-0.20987612
169	0x3f1974c9	0.59943825
170	0x3e264e92	0.1624091
171	0x3e479fde	0.19494578
172	0xbe2027bb	-0.15640156
173	0x3e278f96	0.16363367
174	0xbc45ff03	-0.012084725
175	0x3dbf5d4a	0.09343965
176	0x3e693cbb	0.22777073
177	0xbaf68275	-0.001880719
178	0x3e9c9f3f	0.30590245
179	0x3ebd0a7b	0.36922058
180	0x3b1462cc	0.0022641895
181	0x3d829ffb	0.0637817
182	0x3efcd6c8	0.49382615
183	0x3e8ef2bb	0.27919564
184	0xbd1ffd90	-0.039060175
185	0xbf558391	-0.8340388
186	0xb7cb53e0	-2.4238543e-05
187	0x3e7d437d	0.24732776
188	0x3f9bbc70	1.2166882
189	0x3f7270b8	0.94703245
190	0x3f8789ef	1.0588969
191	0x3e1e23af	0.154433
192	0xbf4ba582	-0.7954942
193	0xc0299c10	-2.6501503
194	0x3f55044a	0.8320967
195	0xbff8ab18	-1.9427214
196	0x3a90be02	0.0011042955
197	0x3bc67404	0.0060563106
198	0x3ee6c7b4	0.45074236
199	0xbf97d108	-1.1860666
200	0xbf1e72a7	-0.61893696
201	0x40066007	2.099611
202	0xbf99608d	-1.198259
203	0xbfe07b2d	-1.753759
204	0x3d945dcf	0.07244455
205	0x3f759ca3	0.95942134
206	0x3fa537c6	1.2907646
207	0xbe97f774	-0.2968098
208	0x3f1a423e	0.6025733
209	0x3caeb12f	0.021324722
210	0xbf8ec0f3	-1.1152633
211	0xbe1fce95	-0.15606149
212	0xbcb5bc7c	-0.022184603
213	0x3fca1a5c	1.5789294
214	0xbfe80ace	-1.8128297
215	0x3f8a35d5	1.0797678
216	0xc00fb7ad	-2.2455857
217	0x401cebf2	2.451901
218	0x3cbe626e	0.023240294
219	0x3f9cfaae	1.2264001
220	0xbe1c5581	-0.15266992
221	0x3f2cb003	0.6745607
222	0x40609bb1	3.5095026
223	0x3f919de0	1.1376305
224	0x3fb90dfc	1.4457393
225	0x3e6d8621	0.23195697
226	0xbe80f428	-0.25186276
227	0xbdd1000b	-0.10205086
228	0x3b48ef4c	0.003066021
229	0x3885c22a	6.3781e-05
230	0x3ef39dc8	0.47581315
231	0x3ed6353a	0.41837484
232	0xbe1f1a9d	-0.15537496
233	0x3e8f5c57	0.28000137
234	0x3f0da1a7	0.55324787
235	0xbed0cd46	-0.4078161
236	0x3ed2deae	0.41185516
237	0x3bcd7a21	0.0062706624
238	0xbe0e8931	-0.13919522
239	0x3d8336a9	0.0640691
240	0xbf3fc66d	-0.7491215
241	0xbc039ac9	-0.008032509
242	0xbfa30e02	-1.273865
243	0xbf1ac454	-0.6045582
244	0x3b2baa78	0.0026194137
245	0xbea25d7f	-0.31711957
246	0x3d98bb78	0.07457632
247	0xbf7258cf	-0.9466676
248	0xbf4b59bb	-0.7943379
249	0x402a36a6	2.6595855
250	0x3aeb0317	0.0017929998
251	0xbf135b3e	-0.575611
252	0xbff1421c	-1.88483
253	0xc028c4cd	-2.6370118
254	0xbf33e532	-0.702716
255	0xbf847402	-1.0347903

conv_layers.2.att_src f4 [1, 2, 16]
0	0x3dbcdce3	0.09221818
1	0xbe211789	-0.15731634
2	0x3db119b9	0.08647484
3	0x3d064c69	0.032787714
4	0x3dbae069	0.09124834
5	0xbe1689fb	-0.14701073
6	0x3b08c1e9	0.0020867533
7	0xbcb864cc	-0.022509001
8	0x3d6c4fba	0.05769322
9	0xbe606848	-0.2191478
10	0xbe560350	-0.20899701
11	0x3e2ba102	0.16760638
12	0x3f2dd2cd	0.6789978
13	0xbee6d7f4	-0.45086634
14	0xbe616692	-0.22011784
15	0xbf17e200	-0.59329224
16	0x3e08075c	0.13284057
17	0x3efe6e11	0.4969335
18	0x3ea5487f	0.32281873
19	0x3d2584be	0.040409796
20	0xbc90ecda	-0.017691065
21	0x3f0829da	0.5318886
22	0x3e78d79f	0.24301003
23	0x3e726aa7	0.23673497
24	0x3f0489c8	0.5177274
25	0xbd19f07b	-0.037582856
26	0xb9f4c972	-0.00046689395
27	0x3f10807f	0.5644607
28	0x3d364ee5	0.044508833
29	0x3d9cd1cc	0.07657203
30	0xbd8e89c2	-0.06959869
31	0xbe5f8844	-0.21829325

conv_layers.2.att_dst f4 [1, 2, 16]
0	0x3ebd6a33	0.36995086
1	0xbd51270d	-0.051062632
2	0xbe7a166a	-0.24422613
3	0xbe171340	-0.14753437
4	0x3dbcc7ce	0.09217797
5	0x3ed5ec4e	0.4178185
6	0xbcb44486	-0.02200533
7	0x3e21533c	0.15754408
8	0x3c8bb8d3	0.017055904
9	0xbf238da5	-0.6388801
10	0x3ec67c75	0.38766828
11	0x3e0f8039	0.14013757
12	0x3f4a9b4d	0.7914322
13	0xbef14fcf	-0.47131202
14	0xbf8f90e5	-1.1216093
15	0x3f165bc9	0.58733803
16	0x3f7d160e	0.9886178
17	0xbf080973	-0.5313942
18	0xbf77c40b	-0.9678351
19	0xbebbaa1b	-0.36653218
20	0xbfdd3ccd	-1.728418
21	0xbf9d347b	-1.2281641
22	0x3eb678ae	0.35638946
23	0xbf3325ce	-0.6997956
24	0xbebeebb1	-0.37289193
25	0xbebc319b	-0.36756596
26	0x3a87b87d	0.0010354664
27	0xbea73845	-0.32660118
28	0xbeda95e1	-0.42692474
29	0xbe13d82d	-0.14437933
30	0x3ef91d33	0.4865509
31	0x3f7684be	0.962963

conv_layers.2.bias f4 [32]
0	0x3ddd850d	0.10816393
1	0x3ef22177	0.47291157
2	0x3fe17bf6	1.7615955
3	0x401282ee	2.2892413
4	0xbdfac388	-0.12244326
5	0xc00bc3d9	-2.1838286
6	0x3fedc75c	1.8576465
7	0x3f8b3193	1.0874504
8	0x401ad764	2.4193964
9	0xbf14d0dd	-0.581312
10	0xbf780ebd	-0.9689749
11	0x3e91ae12	0.28453118
12	0xbe784932	-0.24246672
13	0x3fbdbe97	1.4823788
14	0xc14fc42d	-12.9853945
15	0x4190ff6f	18.124723
16	0xc1827a64	-16.309761
17	0x418faf90	17.960724
18	0xbf120aa6	-0.570475
19	0x401d4d9b	2.4578617
20	0xbea500ad	-0.32227078
21	0x3a3b00b0	0.00071335863
22	0x3ea6274d	0.3245186
23	0x3f35eb61	0.71062285
24	0x410c637a	8.774286
25	0x40321c28	2.7829685
26	0x4116120c	9.379406
27	0x3ea385f7	0.31938145
28	0xbf02fd41	-0.51167685
29	0x3ec60543	0.3867589
30	0xc06ed67c	-3.731841
31	0x3f39e89f	0.72620577

conv_layers.2.lin_src.weight f4 [32, 32]
0	0x3eb40467	0.3515961
1	0x3c19b729	0.009382048
2	0x3d8657d3	0.0655972
3	0x3e248e45	0.16069897
4	0x3f2d1154	0.67604566
5	0xbeadddda	-0.33958322
6	0x3e378250	0.17920804
7	0x3f61f781	0.88268286
8	0xbd51a1d8	-0.051179737
9	0x3d7e662d	0.06210916
10	0x3e12463c	0.14284605
11	0xbddcca41	-0.10780764
12	0x3dc363ba	0.09540506
13	0x3d93ca99	0.07216377
14	0xbf91188d	-1.1335617
15	0x3d3b0c53	0.04566605
16	0xbe05a948	-0.13052857
17	0x3d2babdf	0.041911956
18	0xbe70a716	-0.23501238
19	0xbf67732f	-0.9041013
20	0xbe235d2a	-0.15953508
21	0xbdd492b9	-0.103795476
22	0x3e785ba5	0.2425371
23	0xbe561eab	-0.20910136
24	0x3e62e4f8	0.22157657
25	0xbe327cf4	-0.17430478
26	0xbc077be3	-0.008269283
27	0x3d9ca6e6	0.07649021
28	0x3e68a329	0.2271849
29	0xbe1530d9	-0.14569415
30	0x3e426b2f	0.189862
31	0xbed241d1	-0.4106584
32	0x3fb96665	1.4484373
33	0x3ee57bd9	0.4482105
34	0xbece04e7	-0.40238115
35	0xbf85f195	-1.046435
36	0x3fb26a84	1.3938756
37	0xbec61ac8	-0.38692307
38	0x3fbfc4c5	1.4981924
39	0xbdd98b7f	-0.1062231
40	0x3fefadb0	1.872488
41	0x3f2206e1	0.63291746
42	0x3f8126a7	1.0089921
43	0xbf1d2ab4	-0.61393285
44	0x3f2ab4d6	0.66682184
45	0xbecacf5f	-0.39611337
46	0x3f990dda	1.1957352
47	0x3f9e95d2	1.2389472
48	0x3f651782	0.89488995
49	0xbfba1678	-1.4538107
50	0xbf465479	-0.77472645
51	0xbe8f1695	-0.27946916
52	0xbe66f94a	-0.22556034
53	0xbf221fa9	-0.6332956
54	0xbdc438a8	-0.09581119
55	0x3d35611f	0.044282075
56	0xbfb1875e	-1.3869436
57	0xbe2476c0	-0.16060925
58	0x3f9aa17b	1.208053
59	0x3f0be079	0.54639393
60	0xbeb15ccc	-0.3464111
61	0xbf87bb56	-1.0604045
62	0xbf0d2e1c	-0.5514848
63	0xc0090a1e	-2.1412425
64	0x3f8b570c	1.088594
65	0x3edf06b0	0.4355979
66	0xbecb2df5	-0.396835
67	0x3e67ec5e	0.2264876
68	0xbd848971	-0.06471527
69	0x3e8f694c	0.28010023
70	0x3f64d89c	0.8939302
71	0x400a0870	2.156765
72	0x3d466f42	0.048445947
73	0x3f8ba60c	1.0910048
74	0xbe153794	-0.14571983
75	0xbe4fd8f7	-0.2029761
76	0xbf6dc19a	-0.9287354
77	0xbfcb7db9	-1.5897743
78	0xbf24df64	-0.6440337
79	0x3f12c968	0.5733857
80	0xbece01b1	-0.40235665
81	0xbf1b1fee	-0.60595596
82	0xbfa1c135	-1.2637087
83	0x3f20e990	0.6285639
84	0xbd21b1db	-0.039476257
85	0x3f8167de	1.0109823
86	0x3fb13c0d	1.3846451
87	0xbf3092c9	-0.68973976
88	0x3f865f74	1.049788
89	0xbf0071ea	-0.5017382
90	0x3f016b58	0.5055442
91	0xbf4ce283	-0.8003313
92	0x3f86a139	1.0517951
93	0xbf3a28e1	-0.72718626
94	0xbee012e5	-0.43764415
95	0xbf3361e9	-0.70071274
96	0x3ee79686	0.45232028
97	0x3e738bb1	0.23783757
98	0x3f982990	1.1887684
99	0xbfdd1a5f	-1.7273673
100	0x3e3cd6f8	0.18441379
101	0xbe0809d7	-0.13285004
102	0x3fc707ef	1.5549296
103	0x3f8b6ba8	1.0892229
104	0xbf1f8b32	-0.6232177
105	0x3fd929ff	1.6965941
106	0xbf2cdfca	-0.67528975
107	0x3f466a9b	0.7750642
108	0x3fb2e2ee	1.3975503
109	0x3ee230d6	0.44177884
110	0xc0708d0a	-3.7586083
111	0xbf7063f4	-0.93902516
112	0x3efb7ef5	0.49120298
113	0xbe6b0d13	-0.22954206
114	0x3ffa1a5e	1.9539297
115	0x40137fc8	2.3046741
116	0xbefb500c	-0.49084508
117	0xbe1c3dd3	-0.15257959
118	0x3f130946	0.57436025
119	0x40466d43	3.1004188
120	0xbe70b82c	-0.23507756
121	0xbfd22a48	-1.6419153
122	0x3f503e22	0.8134481
123	0x3fb3679c	1.4015994
124	0xbe37c349	-0.17945589
125	0x3f5703a7	0.8398995
126	0x3e94a5f8	0.29032874
127	0xbde4e068	-0.111756146
128	0xbdaccff7	-0.08438104
129	0x3deb4f68	0.11489755
130	0x3f298eae	0.66233337
131	0x3d93c5fe	0.072154984
132	0x3ef8bfba	0.48583776
133	0xbf1b7b25	-0.6073478
134	0x3ebcc16a	0.36866313
135	0x3e67a9bc	0.22623342
136	0xbebeefb5	-0.37292257
137	0x3dfdfbfd	0.124015786
138	0x3e2c5b09	0.16831602
139	0x3efdec03	0.49594125
140	0xbdc22532	-0.09479751
141	0x3e15acef	0.1461675
142	0xbf0f1d28	-0.55903864
143	0x3f06eefa	0.527084
144	0x3f3d6aa5	0.7399085
145	0x3ecc27be	0.3987407
146	0xbeb648f1	-0.35602525
147	0x3d45be25	0.04827704
148	0xbf15a852	-0.5845996
149	0x3b910db4	0.0044266824
150	0xbe28925e	-0.16462085
151	0x3cccdba2	0.025007073
152	0x3c95c8a9	0.018284159
153	0x3e86b8c7	0.2631285
154	0x3f4ff6a8	0.8123574
155	0xbeaffa56	-0.3437068
156	0xbdd4f229	-0.10397751
157	0xbe8456f4	-0.2584759
158	0x3f2eda80	0.68302155
159	0x3f8caf96	1.0991085
160	0xbf980b1f	-1.1878394
161	0xbf918c33	-1.137091
162	0xbf5206a4	-0.8204138
163	0x3f0003ce	0.50005805
164	0xbfc94039	-1.5722724
165	0x3eafdde3	0.34348974
166	0x3edde24e	0.4333672
167	0xbf5b716f	-0.8571996
168	0xc02f6960	-2.7408066
169	0xbfa61d51	-1.2977697
170	0xbfd9a009	-1.7001964
171	0xbf98317e	-1.1890104
172	0xbfca2cb1	-1.5794889
173	0x3ea97c55	0.3310267
174	0x3eebd015	0.46057191
175	0x3f83726d	1.0269295
176	0x3f0bed29	0.5465875
177	0x3cda7d11	0.026670964
178	0x3fbec56d	1.4904
179	0x404ac731	3.1684077
180	0x3e63394d	0.22189827
181	0xbf43c391	-0.76470286
182	0xbf5732fb	-0.84062165
183	0x3f9e1d21	1.235264
184	0xbf925a05	-1.1433722
185	0x3eec7af2	0.4618755
186	0xbfc7dbe2	-1.5613978
187	0x3f94aa18	1.1614408
188	0xbecc2a1d	-0.3987588
189	0x3ee28f2f	0.44249865
190	0x3d9ef307	0.077611975
191	0x3fa31c3b	1.274299
192	0xbe6cc506	-0.23122033
193	0x3ff45e38	1.9091253
194	0x40254abf	2.5826871
195	0xbfdb9acd	-1.7156616
196	0x3f690de3	0.91036814
197	0xbe841d4b	-0.258036
198	0xbf20db65	-0.6283477
199	0xbf829636	-1.0202091
200	0x3f5d0afd	0.8634489
201	0x3fc05e4b	1.5028776
202	0x3e38d0f5	0.18048461
203	0x3f7150ab	0.94263715
204	0xc0138c6f	-2.3054464
205	0x3f04ea8d	0.51920396
206	0x40116468	2.2717533
207	0x3fbbc752	1.4670203
208	0x3ecb5db1	0.39719918
209	0x3fa95f40	1.3232193
210	0xbc9b5034	-0.018959142
211	0x3f5480bf	0.8300895
212	0xbfd656d0	-1.6745243
213	0xbfde1074	-1.7348771
214	0x3eef67d1	0.46758893
215	0xc08517d6	-4.1591597
216	0xbfe4776a	-1.7848942
217	0xbfedbbe2	-1.8572962
218	0x3ef4e95e	0.47834295
219	0x3f965d0d	1.1747147
220	0x3810bac8	3.450623e-05
221	0x3e3faef1	0.18719079
222	0x3fb918c3	1.4460682
223	0xbfbd8bc8	-1.4808283
224	0xbf4eef5b	-0.8083398
225	0x3e7969af	0.24356721
226	0x3d2870fd	0.04112338
227	0x3facd918	1.3503752
228	0xbf84151c	-1.0318942
229	0x3f3a727b	0.72830933
230	0xbff15928	-1.8855333
231	0x40692b8c	3.643283
232	0xbfbaa78c	-1.4582381
233	0x3d8ea52e	0.06965099
234	0xbed129a8	-0.40852094
235	0x3feab4a6	1.833638
236	0xbe32cc96	-0.17460856
237	0x3f340455	0.7031911
238	0x3d4df330	0.05028075
239	0x3fd47f0b	1.660127
240	0x3ecffb62	0.40621477
241	0x3c9ba244	0.018998273
242	0xbd1504b4	-0.03638144
243	0xbf7a1c25	-0.97699195
244	0xbfbce6e8	-1.4757967
245	0xbf384a2b	-0.7198817
246	0xbed141e0	-0.4087057
247	0xbf932ff2	-1.1499007
248	0xbe6770e3	-0.22601657
249	0x3e884b2a	0.26619846
250	0x3f73f190	0.9529047
251	0xbe5bcab6	-0.21464047
252	0xbf22e225	-0.6362632
253	0x3d592daf	0.053022083
254	0x3e82c493	0.255406
255	0x3f1866b5	0.5953172

conv_layers.2.lin_dst.weight f4 [32, 32]
0	0x3eb40467	0.3515961
1	0x3c19b729	0.009382048
2	0x3d8657d3	0.0655972
3	0x3e248e45	0.16069897
4	0x3f2d1154	0.67604566
5	0xbeadddda	-0.33958322
6	0x3e378250	0.17920804
7	0x3f61f781	0.88268286
8	0xbd51a1d8	-0.051179737
9	0x3d7e662d	0.06210916
10	0x3e12463c	0.14284605
11	0xbddcca41	-0.10780764
12	0x3dc363ba	0.09540506
13	0x3d93ca99	0.07216377
14	0xbf91188d	-1.1335617
15	0x3d3b0c53	0.04566605
16	0xbe05a948	-0.13052857
17	0x3d2babdf	0.041911956
18	0xbe70a716	-0.23501238
19	0xbf67732f	-0.9041013
20	0xbe235d2a	-0.15953508
21	0xbdd492b9	-0.103795476
22	0x3e785ba5	0.2425371
23	0xbe561eab	-0.20910136
24	0x3e62e4f8	0.22157657
25	0xbe327cf4	-0.17430478
26	0xbc077be3	-0.008269283
27	0x3d9ca6e6	0.07649021
28	0x3e68a329	0.2271849
29	0xbe1530d9	-0.14569415
30	0x3e426b2f	0.189862
31	0xbed241d1	-0.4106584
32	0x3fb96665	1.4484373
33	0x3ee57bd9	0.4482105
34	0xbece04e7	-0.40238115
35	0xbf85f195	-1.046435
36	0x3fb26a84	1.3938756
37	0xbec61ac8	-0.38692307
38	0x3fbfc4c5	1.4981924
39	0xbdd98b7f	-0.1062231
40	0x3fefadb0	1.872488
41	0x3f2206e1	0.63291746
42	0x3f8126a7	1.0089921
43	0xbf1d2ab4	-0.61393285
44	0x3f2ab4d6	0.66682184
45	0xbecacf5f	-0.39611337
46	0x3f990dda	1.1957352
47	0x3f9e95d2	1.2389472
48	0x3f651782	0.89488995
49	0xbfba1678	-1.4538107
50	0xbf465479	-0.77472645
51	0xbe8f1695	-0.27946916
52	0xbe66f94a	-0.22556034
53	0xbf221fa9	-0.6332956
54	0xbdc438a8	-0.09581119
55	0x3d35611f	0.044282075
56	0xbfb1875e	-1.3869436
57	0xbe2476c0	-0.16060925
58	0x3f9aa17b	1.208053
59	0x3f0be079	0.54639393
60	0xbeb15ccc	-0.3464111
61	0xbf87bb56	-1.0604045
62	0xbf0d2e1c	-0.5514848
63	0xc0090a1e	-2.1412425
64	0x3f8b570c	1.088594
65	0x3edf06b0	0.4355979
66	0xbecb2df5	-0.396835
67	0x3e67ec5e	0.2264876
68	0xbd848971	-0.06471527
69	0x3e8f694c	0.28010023
70	0x3f64d89c	0.8939302
71	0x400a0870	2.156765
72	0x3d466f42	0.048445947
73	0x3f8ba60c	1.0910048
74	0xbe153794	-0.14571983
75	0xbe4fd8f7	-0.2029761
76	0xbf6dc19a	-0.9287354
77	0xbfcb7db9	-1.5897743
78	0xbf24df64	-0.6440337
79	0x3f12c968	0.5733857
80	0xbece01b1	-0.40235665
81	0xbf1b1fee	-0.60595596
82	0xbfa1c135	-1.2637087
83	0x3f20e990	0.6285639
84	0xbd21b1db	-0.039476257
85	0x3f8167de	1.0109823
86	0x3fb13c0d	1.3846451
87	0xbf3092c9	-0.68973976
88	0x3f865f74	1.049788
89	0xbf0071ea	-0.5017382
90	0x3f016b58	0.5055442
91	0xbf4ce283	-0.8003313
92	0x3f86a139	1.0517951
93	0xbf3a28e1	-0.72718626
94	0xbee012e5	-0.43764415
95	0xbf3361e9	-0.70071274
96	0x3ee79686	0.45232028
97	0x3e738bb1	0.23783757
98	0x3f982990	1.1887684
99	0xbfdd1a5f	-1.7273673
100	0x3e3cd6f8	0.18441379
101	0xbe0809d7	-0.13285004
102	0x3fc707ef	1.5549296
103	0x3f8b6ba8	1.0892229
104	0xbf1f8b32	-0.6232177
105	0x3fd929ff	1.6965941
106	0xbf2cdfca	-0.67528975
107	0x3f466a9b	0.7750642
108	0x3fb2e2ee	1.3975503
109	0x3ee230d6	0.44177884
110	0xc0708d0a	-3.7586083
111	0xbf7063f4	-0.93902516
112	0x3efb7ef5	0.49120298
113	0xbe6b0d13	-0.22954206
114	0x3ffa1a5e	1.9539297
115	0x40137fc8	2.3046741
116	0xbefb500c	-0.49084508
117	0xbe1c3dd3	-0.15257959
118	0x3f130946	0.57436025
119	0x40466d43	3.1004188
120	0xbe70b82c	-0.23507756
121	0xbfd22a48	-1.6419153
122	0x3f503e22	0.8134481
123	0x3fb3679c	1.4015994
124	0xbe37c349	-0.17945589
125	0x3f5703a7	0.8398995
126	0x3e94a5f8	0.29032874
127	0xbde4e068	-0.111756146
128	0xbdaccff7	-0.08438104
129	0x3deb4f68	0.11489755
130	0x3f298eae	0.66233337
131	0x3d93c5fe	0.072154984
132	0x3ef8bfba	0.48583776
133	0xbf1b7b25	-0.6073478
134	0x3ebcc16a	0.36866313
135	0x3e67a9bc	0.22623342
136	0xbebeefb5	-0.37292257
137	0x3dfdfbfd	0.124015786
138	0x3e2c5b09	0.16831602
139	0x3efdec03	0.49594125
140	0xbdc22532	-0.09479751
141	0x3e15acef	0.1461675
142	0xbf0f1d28	-0.55903864
143	0x3f06eefa	0.527084
144	0x3f3d6aa5	0.7399085
145	0x3ecc27be	0.3987407
146	0xbeb648f1	-0.35602525
147	0x3d45be25	0.04827704
148	0xbf15a852	-0.5845996
149	0x3b910db4	0.0044266824
150	0xbe28925e	-0.16462085
151	0x3cccdba2	0.025007073
152	0x3c95c8a9	0.018284159
153	0x3e86b8c7	0.2631285
154	0x3f4ff6a8	0.8123574
155	0xbeaffa56	-0.3437068
156	0xbdd4f229	-0.10397751
157	0xbe8456f4	-0.2584759
158	0x3f2eda80	0.68302155
159	0x3f8caf96	1.0991085
160	0xbf980b1f	-1.1878394
161	0xbf918c33	-1.137091
162	0xbf5206a4	-0.8204138
163	0x3f0003ce	0.50005805
164	0xbfc94039	-1.5722724
165	0x3eafdde3	0.34348974
166	0x3edde24e	0.4333672
167	0xbf5b716f	-0.8571996
168	0xc02f6960	-2.7408066
169	0xbfa61d51	-1.2977697
170	0xbfd9a009	-1.7001964
171	0xbf98317e	-1.1890104
172	0xbfca2cb1	-1.5794889
173	0x3ea97c55	0.3310267
174	0x3eebd015	0.46057191
175	0x3f83726d	1.0269295
176	0x3f0bed29	0.5465875
177	0x3cda7d11	0.026670964
178	0x3fbec56d	1.4904
179	0x404ac731	3.1684077
180	0x3e63394d	0.22189827
181	0xbf43c391	-0.76470286
182	0xbf5732fb	-0.84062165
183	0x3f9e1d21	1.235264
184	0xbf925a05	-1.1433722
185	0x3eec7af2	0.4618755
186	0xbfc7dbe2	-1.5613978
187	0x3f94aa18	1.1614408
188	0xbecc2a1d	-0.3987588
189	0x3ee28f2f	0.44249865
190	0x3d9ef307	0.077611975
191	0x3fa31c3b	1.274299
192	0xbe6cc506	-0.23122033
193	0x3ff45e38	1.9091253
194	0x40254abf	2.5826871
195	0xbfdb9acd	-1.7156616
196	0x3f690de3	0.91036814
197	0xbe841d4b	-0.258036
198	0xbf20db65	-0.6283477
199	0xbf829636	-1.0202091
200	0x3f5d0afd	0.8634489
201	0x3fc05e4b	1.5028776
202	0x3e38d0f5	0.18048461
203	0x3f7150ab	0.94263715
204	0xc0138c6f	-2.3054464
205	0x3f04ea8d	0.51920396
206	0x40116468	2.2717533
207	0x3fbbc752	1.4670203
208	0x3ecb5db1	0.39719918
209	0x3fa95f40	1.3232193
210	0xbc9b5034	-0.018959142
211	0x3f5480bf	0.8300895
212	0xbfd656d0	-1.6745243
213	0xbfde1074	-1.7348771
214	0x3eef67d1	0.46758893
215	0xc08517d6	-4.1591597
216	0xbfe4776a	-1.7848942
217	0xbfedbbe2	-1.8572962
218	0x3ef4e95e	0.47834295
219	0x3f965d0d	1.1747147
220	0x3810bac8	3.450623e-05
221	0x3e3faef1	0.18719079
222	0x3fb918c3	1.4460682
223	0xbfbd8bc8	-1.4808283
224	0xbf4eef5b	-0.8083398
225	0x3e7969af	0.24356721
226	0x3d2870fd	0.04112338
227	0x3facd918	1.3503752
228	0xbf84151c	-1.0318942
229	0x3f3a727b	0.72830933
230	0xbff15928	-1.8855333
231	0x40692b8c	3.643283
232	0xbfbaa78c	-1.4582381
233	0x3d8ea52e	0.06965099
234	0xbed129a8	-0.40852094
235	0x3feab4a6	1.833638
236	0xbe32cc96	-0.17460856
237	0x3f340455	0.7031911
238	0x3d4df330	0.05028075
239	0x3fd47f0b	1.660127
240	0x3ecffb62	0.40621477
241	0x3c9ba244	0.018998273
242	0xbd1504b4	-0.03638144
243	0xbf7a1c25	-0.97699195
244	0xbfbce6e8	-1.4757967
245	0xbf384a2b	-0.7198817
246	0xbed141e0	-0.4087057
247	0xbf932ff2	-1.1499007
248	0xbe6770e3	-0.22601657
249	0x3e884b2a	0.26619846
250	0x3f73f190	0.9529047
251	0xbe5bcab6	-0.21464047
252	0xbf22e225	-0.6362632
253	0x3d592daf	0.053022083
254	0x3e82c493	0.255406
255	0x3f1866b5	0.5953172

out.weight f4 [1, 48]
0	0xc053ca92	-3.309239
1	0xbf1ffc6f	-0.6249456
2	0xc0e7651d	-7.231093
3	0x3f0c2fa3	0.5476019
4	0xc09f3c7c	-4.9761333
5	0x3e03e470	0.1288011
6	0x3e44af18	0.19207418
7	0xc0a07aa1	-5.0149693
8	0xbe4b0e59	-0.19829692
9	0x4098d3b4	4.7758427
10	0x40af4ff9	5.4785123
11	0xc05ec937	-3.4810312
12	0xc034ae3b	-2.8231342
13	0x405119bd	3.267196
14	0x3f0fcaa3	0.56168574
15	0x3d7215cd	0.059102822
16	0x4031dce2	2.7791066
17	0xbfd72ffe	-1.6811521
18	0xc019402b	-2.3945415
19	0xbf2931cb	-0.66091603
20	0x408756a7	4.2293277
21	0x3ec83524	0.39103043
22	0xbf79f9c5	-0.97646743
23	0xc0a7fa72	-5.249322
24	0xbed16c66	-0.40903014
25	0xc086c929	-4.2120557
26	0x40a2815c	5.078291
27	0xc0cd5b20	-6.4173737
28	0x3fc82a7d	1.5637966
29	0xc0708bb3	-3.7585266
30	0x3e162ec2	0.14666274
31	0x3e7a6a2b	0.24454562
32	0xc0628cac	-3.539836
33	0x3ff252b2	1.8931487
34	0xbef3277b	-0.4749106
35	0x3feb085a	1.8361924
36	0xbfa25389	-1.2681743
37	0xc069e548	-3.6546192
38	0x4012271c	2.283637
39	0xbf1279f8	-0.5721736
40	0x400be344	2.1857462
41	0x40160c6e	2.3445086
42	0x403f40de	2.9883342
43	0xbff4815e	-1.910198
44	0xc0240430	-2.5627556
45	0x401f8525	2.4925015
46	0xc00b82e9	-2.1798651
47	0x401596f8	2.3373394
