embd_32_nHead_4_nlayer_3_Batch_100.pth (torch, 143659 bytes, 16 tensors)

conv_layers.0.att_src f4 [1, 4, 32]
0	0xbbd61b25	-0.0065339976
1	0x3a8ec2ca	0.0010891792
2	0x3f169872	0.58826363
3	0xbf00b0fd	-0.5027006
4	0x3c3de852	0.011591034
5	0xbf8f4926	-1.1194198
6	0xbf53e5fb	-0.827728
7	0xbb5798ec	-0.0032897545
8	0x3f95494c	1.1662993
9	0x3d69f31f	0.057116624
10	0x3c5f6dac	0.013636988
11	0xbefbf9bb	-0.49213967
12	0xbb4cce40	-0.0031250864
13	0xbc2dc31b	-0.010605599
14	0x3ab1cc56	0.0013564925
15	0x3c1d8921	0.009615214
16	0xbc311b71	-0.010809765
17	0xbb94ade3	-0.0045373305
18	0xbbb847d1	-0.0056237956
19	0xbefb93d9	-0.49136236
20	0xbbf2ea4e	-0.007413185
21	0xbc1ac34b	-0.009445976
22	0xbedaf4b3	-0.42764816
23	0xbb080f0e	-0.0020760926
24	0x3bb0f5e5	0.0054004067
25	0xbea71f55	-0.32641092
26	0xbc7e86be	-0.015535055
27	0x3b8d7a23	0.0043175383
28	0x3c304eeb	0.010761003
29	0x3f7ffdd4	0.99996686
30	0x3b8746ae	0.0041282987
31	0xbc40ac3d	-0.011759815
32	0xbda4ab45	-0.080404796
33	0x3be94c9a	0.0071197273
34	0xbec973c3	-0.39346132
35	0x3b990f89	0.0046710414
36	0xbe6d5f6c	-0.23180932
37	0xbe5f993d	-0.218358
38	0x3be857d2	0.007090547
39	0x3e9ab40f	0.302155
40	0xba445390	-0.00074892584
41	0xbb3c600d	-0.0028743774
42	0xbb7fb110	-0.003901545
43	0xbb42dafe	-0.002973258
44	0x3bcf371f	0.0063237096
45	0x3b8d25e0	0.0043074936
46	0xbebcf3bb	-0.36904702
47	0xbbd70d17	-0.0065628397
48	0xb9cd8b28	-0.00039204326
49	0x3d490385	0.049075622
50	0xbecd566b	-0.40104994
51	0x3ac5ffbd	0.0015106123
52	0x3dd4b1de	0.10385488
53	0x3f2cc51f	0.6748828
54	0xbb50158b	-0.0031751122
55	0xbd0bc14b	-0.034119885
56	0xbb88ce72	-0.004175001
57	0x3ba2a044	0.004962953
58	0xbb994f6c	-0.0046786573
59	0xbb13010b	-0.0022431042
60	0x3e9609f6	0.29304475
61	0x3e68e16e	0.22742245
62	0xbb9246e8	-0.004464019
63	0xbb9fe911	-0.0048800786
64	0x3ec166a9	0.37773636
65	0xbd704d18	-0.058667272
66	0xba665f97	-0.00087880477
67	0xbe509117	-0.20367847
68	0x3f063d3b	0.5243718
69	0x3bd50817	0.0065012085
70	0xbb0fc2e7	-0.002193624
71	0xb968147a	-0.00022132872
72	0x3ed28598	0.4111755
73	0x3ecf456b	0.4048265
74	0x3ee70692	0.451222
75	0x3c24550f	0.010030045
76	0x3f00e4eb	0.503493
77	0x3aea6424	0.0017882627
78	0xbc03bcd1	-0.008040623
79	0x3a48d667	0.0007661343
80	0x3b8135c5	0.0039431774
81	0x3b90af29	0.004415412
82	0xbb2bc01e	-0.002620704
83	0x39f1223d	0.00045992612
84	0xbed22ee9	-0.41051415
85	0xbd9b773f	-0.07591104
86	0xbbd19939	-0.0063964394
87	0xbac996cf	-0.0015380027
88	0xbe7a2dfd	-0.24431606
89	0x3bbdd02d	0.0057926388
90	0xbd8bcf0b	-0.068266
91	0x3e2beafb	0.16788857
92	0xbe36b311	-0.17841746
93	0xba715018	-0.00092053553
94	0x3d149685	0.03627636
95	0x3a4ec161	0.0007887092
96	0xbdb4a0a1	-0.088197
97	0xbf03ac0d	-0.51434404
98	0xbb04a398	-0.002023911
99	0x3aa89166	0.0012860715
100	0x39c63d21	0.00037811048
101	0xbe0ee845	-0.13955791
102	0xbf430275	-0.76175624
103	0xbe8470bb	-0.25867257
104	0xb831964a	-4.2340056e-05
105	0x39e4dad1	0.0004365058
106	0xbf0bb6be	-0.5457572
107	0x3b06391e	0.0020480822
108	0x3a12dbb1	0.00056021946
109	0xbed49c5a	-0.41525537
110	0x39d0fbe6	0.0003986053
111	0xbae2e4f6	-0.0017310667
112	0xbf0a9c23	-0.54144496
113	0xbd8cad85	-0.06869034
114	0xbf977e6c	-1.1835456
115	0x3eda0a7d	0.42586127
116	0x3a809a04	0.0009811525
117	0xb912d8b3	-0.00014004372
118	0x3f139b32	0.57658684
119	0x3f37cb1d	0.717943
120	0x3ed41cd2	0.41428238
121	0xbaf77b47	-0.0018881344
122	0x39e25007	0.00043165704
123	0x3af64a15	0.0018790389
124	0x3b3feaae	0.0029284167
125	0xbe6e01ff	-0.23242949
126	0xba9a4c3c	-0.0011771987
127	0x3e92ebc3	0.28695497

conv_layers.0.att_dst f4 [1, 4, 32]
0	0x3bc6d17d	0.0060674534
1	0x3b56a99f	0.003275491
2	0x3eb67fe0	0.35644436
3	0xbe015ec0	-0.126338
4	0xbc19aa90	-0.009379044
5	0xbe66e6ed	-0.22549029
6	0xbeae2dbf	-0.34019276
7	0xbb13ea8b	-0.0022570218
8	0x3db1553d	0.08658836
9	0x3e27048f	0.16310333
10	0xbc1bb203	-0.0095028905
11	0xbea969b2	-0.33088452
12	0xbb6358ea	-0.0034690448
13	0x3b953f2a	0.004554649
14	0x3c587a3a	0.013212735
15	0xbc2a3b45	-0.0103901075
16	0x3cf893e2	0.030343954
17	0xbc3b62a8	-0.011437096
18	0xbbae9b1e	-0.00532855
19	0x3c7d090b	0.015444051
20	0xbbcd46b9	-0.0062645343
21	0x3b571613	0.0032819554
22	0xbebedf78	-0.37279868
23	0x3d8a10b7	0.06741469
24	0xbcb3a7c2	-0.02193058
25	0xbef84dbf	-0.48496816
26	0x3a9ac746	0.0011808656
27	0xbbc5d518	-0.0060373656
28	0xbc605aaf	-0.013693496
29	0x3ef3eb3e	0.47640413
30	0xb7f16f1f	-2.8781184e-05
31	0x3ba0aff4	0.0049037877
32	0x3ea0d783	0.31414422
33	0xbbd5475f	-0.0065087522
34	0x3dce57b3	0.10075321
35	0xba074a43	-0.0005160907
36	0x3e1f5677	0.15560327
37	0x3c972f82	0.01845527
38	0xbbf80765	-0.007569241
39	0xbe030106	-0.12793359
40	0xba4dd312	-0.00078515813
41	0x3bc9d399	0.0061592576
42	0x3ba7da67	0.005122471
43	0x3a14a916	0.0005670948
44	0xbbab2176	-0.0052224947
45	0x3b16eccb	0.0023029323
46	0x3e8e2e3b	0.27769646
47	0x3bcd1ffb	0.006259916
48	0x3b8cab76	0.0042929007
49	0xbc94ad65	-0.018149087
50	0x3e96af82	0.29430777
51	0x3ae2eb7c	0.0017312611
52	0xbe943deb	-0.2895349
53	0xbe7a2400	-0.24427795
54	0x3b47d021	0.0030489045
55	0xbf0eb29e	-0.557413
56	0x3a9e9046	0.001209744
57	0x39bd883f	0.000361504
58	0x3b33b5e6	0.0027421652
59	0x3b00111b	0.0019541446
60	0xbe96d541	-0.29459575
61	0xbea945e2	-0.3306113
62	0x3bf165e4	0.0073668826
63	0x3c138146	0.009002989
64	0x3dd98a86	0.106221244
65	0xbecaf84d	-0.39642563
66	0xbad7ee6e	-0.0016474256
67	0xbe02fef2	-0.12792566
68	0x3df2150e	0.11820422
69	0x3c61df00	0.0137860775
70	0x3b8f45f8	0.0043723546
71	0x39817a12	0.00024695747
72	0x3ea8c5f1	0.32963517
73	0xbe7db65d	-0.24776597
74	0xbe4a0d68	-0.19731677
75	0xba99b3fb	-0.0011726612
76	0xbb1b7a3e	-0.0023723985
77	0xbc0bfe11	-0.008544461
78	0xbb81d8f2	-0.0039626295
79	0x3b9b73c9	0.0047440273
80	0x3c39171d	0.011297015
81	0x3ae8171f	0.0017707086
82	0x3ba26a12	0.004956492
83	0x3c33bbb2	0.010970043
84	0xbeb509ce	-0.35359043
85	0xbe2bd6b1	-0.16781117
86	0x3b8bb66d	0.00426369
87	0x3a6bc0a1	0.00089932425
88	0xbeb93b21	-0.36177924
89	0xbae47d49	-0.0017432357
90	0x3d10089e	0.035164468
91	0xbe15ab27	-0.1461607
92	0xbe1f8098	-0.15576398
93	0x3c4d593a	0.01253348
94	0x3b915eed	0.004436365
95	0xbc04cfaf	-0.008106156
96	0x3d6c886d	0.057747293
97	0x3ef49333	0.47768554
98	0xbb639b34	-0.003472996
99	0xbb7b934b	-0.0038387354
100	0x3b465cb9	0.003026767
101	0x3eb9f687	0.36320898
102	0x3ecda996	0.40168446
103	0x3de2d111	0.110750325
104	0xbb00a92a	-0.001963208
105	0x3b468c97	0.00302962
106	0xbc3db554	-0.0115788765
107	0xb9af0722	-0.00033383915
108	0x3b057563	0.0020364157
109	0x3f1efff0	0.6210928
110	0xbba789dd	-0.00511287
111	0x3bcefa92	0.0063164914
112	0x3f3938e1	0.72352415
113	0xbe023633	-0.12715988
114	0x3f5329dc	0.8248575
115	0xbe9d2244	-0.30690205
116	0xbb98433d	-0.0046466873
117	0xb9063c6e	-0.00012801748
118	0xbf13a490	-0.5767298
119	0xbfa08c0d	-1.254274
120	0x3f5fe4fa	0.87458766
121	0x3a4714cc	0.00075943465
122	0x3a9b653f	0.0011855735
123	0x3b68814e	0.0035477462
124	0xb9b88be6	-0.00035199447
125	0xbd212485	-0.03934147
126	0xbae11254	-0.00171716
127	0x3e6c051e	0.23048827

conv_layers.0.bias f4 [128]
0	0x3a6cd1a0	0.0009033922
1	0xbacc536c	-0.0015588826
2	0xbf6f485f	-0.93469805
3	0x3d656a9c	0.056009874
4	0xbb3a74b0	-0.0028450899
5	0xbe28f07a	-0.16497985
6	0x3eaf5721	0.34246162
7	0xbb148882	-0.0022664373
8	0xbe2ad9df	-0.16684674
9	0xbf8bf28e	-1.0933397
10	0xba92546c	-0.0011164076
11	0x3f8debb3	1.1087555
12	0xb993613c	-0.0002811047
13	0x3a5ed977	0.0008501033
14	0x3a95cf3c	0.0011429559
15	0x3ae57ebd	0.0017509084
16	0x3b2dbbf0	0.0026509725
17	0x3adf853e	0.0017053259
18	0x3a39df88	0.00070904987
19	0xbe07a1d2	-0.13245323
20	0xbb03a3ab	-0.0020086567
21	0x3b6bc420	0.0035975054
22	0x3ebf05f3	0.37309226
23	0xbf8980f2	-1.0742476
24	0x3a0a0340	0.00052647665
25	0x3ea45142	0.32093245
26	0x38aeafb9	8.3296974e-05
27	0x3a2bb464	0.00065500126
28	0xba96f659	-0.0011517509
29	0x3e8b4919	0.27204207
30	0x3ad83868	0.0016496303
31	0x3a450051	0.0007515001
32	0xbe62041f	-0.22071885
33	0xba3e7e1e	-0.0007266718
34	0x3cce41ec	0.025177918
35	0xbb0f80ab	-0.002189676
36	0xbdd86447	-0.105660014
37	0xbf1761f1	-0.5913382
38	0xba2b8bd1	-0.00065439666
39	0xbf9f4325	-1.2442366
40	0xba513b10	-0.0007981518
41	0x3b51ca24	0.0032011354
42	0x3a420026	0.0007400535
43	0xbaabac94	-0.0013097697
44	0x3a58634e	0.00082545436
45	0x3b83c420	0.0040211827
46	0x3e7ea6fc	0.24868387
47	0xbb3fb3eb	-0.0029251527
48	0x3b3ec5f6	0.0029109693
49	0xbed8a12d	-0.42310467
50	0x3d30c00b	0.043151896
51	0xba8136a6	-0.0009858205
52	0x3f0035e3	0.50082225
53	0xbe0f7243	-0.14008431
54	0xbb35fb7d	-0.0027768307
55	0xbd8c1144	-0.06839231
56	0xba149254	-0.00056675565
57	0x3b95ab3e	0.004567533
58	0xbb033a25	-0.002002367
59	0xba54d17e	-0.0008118375
60	0x3d783b6d	0.060603548
61	0x3e588e83	0.21148114
62	0xbb00f82a	-0.0019679167
63	0x3b915e8e	0.0044363206
64	0x3f2793de	0.6546
65	0x3e058117	0.13037525
66	0x3b0e3e4e	0.0021704617
67	0x3fc50e0e	1.5394914
68	0x3d9496f3	0.07255354
69	0xbafc21eb	-0.0019236183
70	0xbaad3b73	-0.001321657
71	0xbb35720f	-0.0027686392
72	0xbf2fa510	-0.6861124
73	0x3e02295d	0.12711091
74	0x3f054f96	0.52074564
75	0xba2985f6	-0.00064668
76	0xbb32d23d	-0.0027285956
77	0xbaadebcc	-0.0013269125
78	0x3b5d2428	0.0033743475
79	0x3b3da212	0.0028935713
80	0xbb2119b0	-0.0024581961
81	0x39158655	0.0001425979
82	0xbb2c36c3	-0.0026277758
83	0xbb2005ad	-0.0024417446
84	0xbe165b83	-0.14683346
85	0xbf289872	-0.65857613
86	0xbaf563fd	-0.0018721815
87	0xb93f8554	-0.00018264848
88	0x3fc28ca5	1.5199171
89	0xbb634116	-0.0034676245
90	0x3f63b2ba	0.8894459
91	0x3eddf5c0	0.43351555
92	0xbe8c54e0	-0.27408504
93	0xbb1b3ecf	-0.002368856
94	0x3f171c07	0.5902714
95	0x3b4e47ba	0.0031475858
96	0xbdc7e31b	-0.09760114
97	0xbec3c9e4	-0.38239968
98	0xbba13809	-0.00492001
99	0xbb6b3408	-0.0035889167
100	0xbb0f287d	-0.0021844201
101	0xbdbcc8e1	-0.09218002
102	0xbf1b02f6	-0.60551393
103	0xbeafb2e9	-0.34316185
104	0xbb10ec85	-0.0022113633
105	0x3a99c033	0.0011730253
106	0x3e8a05c5	0.26957527
107	0xbb23170d	-0.0024885566
108	0x39abe21a	0.0003278412
109	0xbf667949	-0.90028816
110	0xbab1b02e	-0.0013556534
111	0x3ba96db3	0.005170548
112	0xbea15dec	-0.3151697
113	0x3df8629a	0.12128182
114	0xbf076362	-0.5288602
115	0x3f6060e5	0.8764785
116	0xbb3b7fc7	-0.0028610097
117	0xb9bfac20	-0.00036558602
118	0x3f916fac	1.1362205
119	0xbd70046c	-0.058597967
120	0xbccdc74f	-0.025119452
121	0xba93ee78	-0.0011286279
122	0x3a921d42	0.0011147636
123	0xbaf2bc31	-0.001851922
124	0xb81bf683	-3.718446e-05
125	0x3e99ff43	0.30077562
126	0xb9e5bfc1	-0.00043821151
127	0x3e1a65fc	0.15077966

conv_layers.0.lin_src.weight f4 [128, 4]
0	0xbb29e61c	-0.002592451
1	0xbb8274d6	-0.003981213
2	0xba86bf8f	-0.0010280478
3	0x3b1b66ba	0.0023712353
4	0xb93b7f2e	-0.00017881088
5	0xb7f27068	-2.8900991e-05
6	0xbade8d83	-0.001697943
7	0x3a07092f	0.000515121
8	0xc02c7084	-2.6943674
9	0x40383cd9	2.8787138
10	0x3d868308	0.06567961
11	0x3f7099e1	0.939848
12	0x3f0d9df8	0.55319166
13	0xbed61e3e	-0.41819948
14	0x3e59ca41	0.2126856
15	0xbeb61d27	-0.35569116
16	0xba08aef8	-0.00052140607
17	0x3a58d35e	0.0008271242
18	0xbaa1fd48	-0.0012358809
19	0xbb29e357	-0.0025922859
20	0xbed1a1fd	-0.409439
21	0xbf97e198	-1.1865721
22	0x3e345084	0.1760884
23	0xbeb0854b	-0.34476694
24	0x3f5b8714	0.8575299
25	0x3fea6393	1.8311638
26	0x3e822dce	0.2542557
27	0xbfcb4941	-1.588173
28	0x3c00f9a9	0.007872024
29	0x37366688	1.0871918e-05
30	0xbad258a3	-0.0016048144
31	0xba7510d1	-0.0009348514
32	0xbfc0c021	-1.5058633
33	0xc01e4ffa	-2.4736314
34	0x3df614cf	0.12015688
35	0x3e3b93e4	0.18318135
36	0x3dd438e2	0.10362412
37	0x4000c397	2.0119379
38	0x3de382c2	0.111089244
39	0x3f8d8d98	1.1058836
40	0xbb5da777	-0.003382174
41	0x3ae6f450	0.0017620418
42	0xb99a4300	-0.00029423088
43	0x380fc2e4	3.4275363e-05
44	0x3fac110a	1.34427
45	0xc024a061	-2.5722888
46	0xbde23c73	-0.11046686
47	0xbf8e0f13	-1.109835
48	0x3a135fdb	0.00056218886
49	0x3a87f80c	0.0010373606
50	0x3a43001a	0.0007438675
51	0xbb02ab46	-0.0019938513
52	0x3c096b25	0.008387362
53	0x3b1472b7	0.0022651383
54	0x3a6fea9d	0.00091520866
55	0x39dc5cc3	0.00042030783
56	0xbbc6b6f2	-0.0060642892
57	0xbb776531	-0.0037749524
58	0xbaad1f9b	-0.0013208272
59	0x3b5fd450	0.0034153648
60	0xbaeae8c9	-0.0017922159
61	0x3b4031a4	0.0029326463
62	0x395b4b64	0.00020913553
63	0xb871b8ee	-5.7631107e-05
64	0xbc0226c9	-0.007943817
65	0x3b0e6144	0.0021725455
66	0xba37dc6e	-0.00070137426
67	0x3b42a85b	0.0029702398
68	0x3a610d25	0.00085850275
69	0x3b6bf779	0.003600566
70	0x3a9c7b71	0.0011938644
71	0xba89fa09	-0.0010526787
72	0x3bf3ec21	0.0074439202
73	0x3b8487a3	0.0040444895
74	0xb8c63d78	-9.452825e-05
75	0xbab5f286	-0.0013881482
76	0xbfa72167	-1.3057069
77	0x401e36c3	2.4720924
78	0xbd89af2f	-0.06722867
79	0x3df882c0	0.121343136
80	0x3b30a226	0.0026952117
81	0x39a8fd28	0.00032232073
82	0xbb3a3469	-0.0028412587
83	0xbb0e59cf	-0.002172101
84	0x3a09d339	0.000525761
85	0x3bda4ace	0.0066617494
86	0x3ad178d5	0.0015981445
87	0x390f4694	0.00013663835
88	0xbf8ee552	-1.1163733
89	0x40040e14	2.0633593
90	0xbe20d21b	-0.15705149
91	0xbeb6eb6e	-0.35726494
92	0x403ce439	2.9514296
93	0x4020df88	2.5136433
94	0x3da5da00	0.08098221
95	0x3f8ac5fa	1.0841668
96	0x3ba1b20a	0.004934554
97	0x39792077	0.00023758585
98	0x3b2ca3de	0.002634279
99	0xbb259f34	-0.0025271894
100	0x3fceb7ef	1.6149882
101	0xc02ee1b8	-2.7325268
102	0xbd55d162	-0.052201636
103	0xbf1b1f24	-0.6059439
104	0x3c1a7cfe	0.0094292145
105	0xbaa73fa3	-0.0012760054
106	0xba282654	-0.0006414403
107	0xbac2c321	-0.0014859178
108	0xba64fb78	-0.00087349815
109	0x3b2eb4d2	0.002665807
110	0xbb156439	-0.0022795333
111	0xb9bf91eb	-0.00036539076
112	0x3b0bed14	0.0021351026
113	0x3b0ce04d	0.0021495998
114	0xba9d2e70	-0.0011991989
115	0xbb0ebc3b	-0.0021779675
116	0xbe94f5fa	-0.29093915
117	0x3fec35ca	1.8453915
118	0xbe4009ac	-0.1875369
119	0x3dc14f43	0.09438946
120	0xbacc57a7	-0.0015590087
121	0x375b1c08	1.3059944e-05
122	0x3aab5f86	0.0013074733
123	0x3aea70e0	0.0017886423
124	0x3a6a3d52	0.0008935529
125	0xbacc5300	-0.0015588701
126	0x399dff4f	0.00030135593
127	0x3a310178	0.0006752233
128	0x3eaf67b9	0.34258822
129	0x3f2c8648	0.67392397
130	0xbcfa30e5	-0.030540893
131	0x402d7445	2.7102215
132	0xbc3a65c2	-0.0113768
133	0xbb23be31	-0.002498519
134	0xb9bcd30f	-0.00036015405
135	0x3b26f199	0.0025473593
136	0x3f6ac728	0.9171014
137	0xc00061f9	-2.0059798
138	0x3d7c5346	0.061602853
139	0x3edeea41	0.43538097
140	0xbb02ba73	-0.0019947558
141	0xbba67c42	-0.0050807307
142	0xba10995f	-0.0005516018
143	0xbb15ad19	-0.002283877
144	0xbc8ab4b6	-0.016931873
145	0xbfd1c1dd	-1.6387287
146	0x3da9a526	0.08283453
147	0x3e3af0f7	0.18255983
148	0x3fc25ef4	1.5185227
149	0x40088b8a	2.1335168
150	0x3ca8ddb9	0.020613538
151	0xbd53ae9b	-0.05168019
152	0xbc2e8e73	-0.01065408
153	0x39eb79d0	0.0004491345
154	0xba0f133a	-0.0005457882
155	0x3bbe16c6	0.0058010546
156	0xbe99e7af	-0.30059573
157	0x4031d9d6	2.7789207
158	0x3de8ad3e	0.11361168
159	0xbfa58814	-1.2932153
160	0xbb4bc220	-0.003109105
161	0xbb25fb0c	-0.0025326638
162	0xb9abe179	-0.00032783652
163	0xbb726b53	-0.003699024
164	0x3bb30895	0.0054636695
165	0x3b884cf1	0.0041595628
166	0x3b27700a	0.0025548958
167	0xbb18d34b	-0.00233193
168	0xbb88b865	-0.004172372
169	0x3b04dd2b	0.0020273428
170	0x3a83f786	0.0010068275
171	0x3aac83f9	0.001316189
172	0x3b843135	0.0040341862
173	0xbb70a022	-0.003671654
174	0xb9fa7ce1	-0.00047776758
175	0xbb8412d6	-0.0040305657
176	0xb9be9926	-0.00036353729
177	0xbb035730	-0.0020040981
178	0xba732e4d	-0.0009276614
179	0x3a07aba7	0.00051754195
180	0xbae89c42	-0.0017746764
181	0x3ba79f6f	0.0051154415
182	0x3b4f4299	0.0031625389
183	0x39d20f4c	0.00040065718
184	0xbe8b405d	-0.27197543
185	0x3ff6b5b9	1.9274207
186	0xbe0bd7f6	-0.13656601
187	0x3edc821b	0.43068013
188	0xbb9d2217	-0.0047953236
189	0xbb7ae5c2	-0.003828392
190	0xbb49467d	-0.003071218
191	0xba130ba8	-0.0005609342
192	0x3bbcbefa	0.005760071
193	0x3a4e71ce	0.00078752346
194	0x3afaec46	0.0019143901
195	0xba9927a1	-0.0011684784
196	0xbf65e35b	-0.8980004
197	0x400777a3	2.116677
198	0x3ba74f8d	0.0051059187
199	0xbf38f9a4	-0.7225592
200	0x3f7efbc2	0.996029
201	0xbff80ebb	-1.9379495
202	0x3d52fb39	0.051509116
203	0x3f2bcbca	0.6710783
204	0xbc2b159a	-0.010442162
205	0x3a8cd354	0.0010744133
206	0x3a3c8ac8	0.0007192311
207	0x3bad3b60	0.005286619
208	0x3edfc0ab	0.43701681
209	0xbf952129	-1.1650745
210	0xbb147525	-0.0022652831
211	0xc03344b1	-2.8010676
212	0xbef2bd93	-0.4741026
213	0xc00617ef	-2.0952108
214	0x3e1d6d13	0.1537364
215	0xbf1fa653	-0.62363166
216	0x3b81c2f4	0.003960008
217	0xbb881d59	-0.004153889
218	0xbad1dd10	-0.0016011316
219	0xbac63f72	-0.0015125109
220	0x3ec7a755	0.38994852
221	0xc005fbda	-2.0934968
222	0x3dc8d93c	0.09807059
223	0xbe824032	-0.25439602
224	0x3b194c93	0.002339159
225	0x3a22a7c2	0.00062048074
226	0xbaf49446	-0.0018659912
227	0xbb02d68b	-0.0019964303
228	0xbb346b89	-0.0027529916
229	0x3a8243b4	0.000993839
230	0x3af28f1d	0.0018505786
231	0xb9f2b5e8	-0.00046293368
232	0xbb4ab4c3	-0.0030930496
233	0xb8614f77	-5.3718188e-05
234	0xba9a9535	-0.0011793735
235	0xbb8558aa	-0.0040694075
236	0x39a96407	0.00032308718
237	0x3a6cca18	0.00090328
238	0xb9fb3dc4	-0.0004792047
239	0xbbd63aae	-0.006537757
240	0x3f977f06	1.183564
241	0x400bd217	2.1846979
242	0xbda72384	-0.08161071
243	0xbf297e0c	-0.6620796
244	0x3e04886e	0.12942669
245	0xbf448063	-0.767584
246	0x3b927e51	0.0044706245
247	0xbf4724a9	-0.77790314
248	0xba12c09f	-0.0005598161
249	0xbb9bcf7d	-0.004754959
250	0xba9a6d1c	-0.0011781785
251	0xbbb5012f	-0.0055238227
252	0x3b114f7b	0.0022172618
253	0x3a922565	0.001115006
254	0x3b2adaec	0.002607043
255	0xbbba74f3	-0.005690211

conv_layers.0.lin_dst.weight f4 [128, 4]
0	0xbb29e61c	-0.002592451
1	0xbb8274d6	-0.003981213
2	0xba86bf8f	-0.0010280478
3	0x3b1b66ba	0.0023712353
4	0xb93b7f2e	-0.00017881088
5	0xb7f27068	-2.8900991e-05
6	0xbade8d83	-0.001697943
7	0x3a07092f	0.000515121
8	0xc02c7084	-2.6943674
9	0x40383cd9	2.8787138
10	0x3d868308	0.06567961
11	0x3f7099e1	0.939848
12	0x3f0d9df8	0.55319166
13	0xbed61e3e	-0.41819948
14	0x3e59ca41	0.2126856
15	0xbeb61d27	-0.35569116
16	0xba08aef8	-0.00052140607
17	0x3a58d35e	0.0008271242
18	0xbaa1fd48	-0.0012358809
19	0xbb29e357	-0.0025922859
20	0xbed1a1fd	-0.409439
21	0xbf97e198	-1.1865721
22	0x3e345084	0.1760884
23	0xbeb0854b	-0.34476694
24	0x3f5b8714	0.8575299
25	0x3fea6393	1.8311638
26	0x3e822dce	0.2542557
27	0xbfcb4941	-1.588173
28	0x3c00f9a9	0.007872024
29	0x37366688	1.0871918e-05
30	0xbad258a3	-0.0016048144
31	0xba7510d1	-0.0009348514
32	0xbfc0c021	-1.5058633
33	0xc01e4ffa	-2.4736314
34	0x3df614cf	0.12015688
35	0x3e3b93e4	0.18318135
36	0x3dd438e2	0.10362412
37	0x4000c397	2.0119379
38	0x3de382c2	0.111089244
39	0x3f8d8d98	1.1058836
40	0xbb5da777	-0.003382174
41	0x3ae6f450	0.0017620418
42	0xb99a4300	-0.00029423088
43	0x380fc2e4	3.4275363e-05
44	0x3fac110a	1.34427
45	0xc024a061	-2.5722888
46	0xbde23c73	-0.11046686
47	0xbf8e0f13	-1.109835
48	0x3a135fdb	0.00056218886
49	0x3a87f80c	0.0010373606
50	0x3a43001a	0.0007438675
51	0xbb02ab46	-0.0019938513
52	0x3c096b25	0.008387362
53	0x3b1472b7	0.0022651383
54	0x3a6fea9d	0.00091520866
55	0x39dc5cc3	0.00042030783
56	0xbbc6b6f2	-0.0060642892
57	0xbb776531	-0.0037749524
58	0xbaad1f9b	-0.0013208272
59	0x3b5fd450	0.0034153648
60	0xbaeae8c9	-0.0017922159
61	0x3b4031a4	0.0029326463
62	0x395b4b64	0.00020913553
63	0xb871b8ee	-5.7631107e-05
64	0xbc0226c9	-0.007943817
65	0x3b0e6144	0.0021725455
66	0xba37dc6e	-0.00070137426
67	0x3b42a85b	0.0029702398
68	0x3a610d25	0.00085850275
69	0x3b6bf779	0.003600566
70	0x3a9c7b71	0.0011938644
71	0xba89fa09	-0.0010526787
72	0x3bf3ec21	0.0074439202
73	0x3b8487a3	0.0040444895
74	0xb8c63d78	-9.452825e-05
75	0xbab5f286	-0.0013881482
76	0xbfa72167	-1.3057069
77	0x401e36c3	2.4720924
78	0xbd89af2f	-0.06722867
79	0x3df882c0	0.121343136
80	0x3b30a226	0.0026952117
81	0x39a8fd28	0.00032232073
82	0xbb3a3469	-0.0028412587
83	0xbb0e59cf	-0.002172101
84	0x3a09d339	0.000525761
85	0x3bda4ace	0.0066617494
86	0x3ad178d5	0.0015981445
87	0x390f4694	0.00013663835
88	0xbf8ee552	-1.1163733
89	0x40040e14	2.0633593
90	0xbe20d21b	-0.15705149
91	0xbeb6eb6e	-0.35726494
92	0x403ce439	2.9514296
93	0x4020df88	2.5136433
94	0x3da5da00	0.08098221
95	0x3f8ac5fa	1.0841668
96	0x3ba1b20a	0.004934554
97	0x39792077	0.00023758585
98	0x3b2ca3de	0.002634279
99	0xbb259f34	-0.0025271894
100	0x3fceb7ef	1.6149882
101	0xc02ee1b8	-2.7325268
102	0xbd55d162	-0.052201636
103	0xbf1b1f24	-0.6059439
104	0x3c1a7cfe	0.0094292145
105	0xbaa73fa3	-0.0012760054
106	0xba282654	-0.0006414403
107	0xbac2c321	-0.0014859178
108	0xba64fb78	-0.00087349815
109	0x3b2eb4d2	0.002665807
110	0xbb156439	-0.0022795333
111	0xb9bf91eb	-0.00036539076
112	0x3b0bed14	0.0021351026
113	0x3b0ce04d	0.0021495998
114	0xba9d2e70	-0.0011991989
115	0xbb0ebc3b	-0.0021779675
116	0xbe94f5fa	-0.29093915
117	0x3fec35ca	1.8453915
118	0xbe4009ac	-0.1875369
119	0x3dc14f43	0.09438946
120	0xbacc57a7	-0.0015590087
121	0x375b1c08	1.3059944e-05
122	0x3aab5f86	0.0013074733
123	0x3aea70e0	0.0017886423
124	0x3a6a3d52	0.0008935529
125	0xbacc5300	-0.0015588701
126	0x399dff4f	0.00030135593
127	0x3a310178	0.0006752233
128	0x3eaf67b9	0.34258822
129	0x3f2c8648	0.67392397
130	0xbcfa30e5	-0.030540893
131	0x402d7445	2.7102215
132	0xbc3a65c2	-0.0113768
133	0xbb23be31	-0.002498519
134	0xb9bcd30f	-0.00036015405
135	0x3b26f199	0.0025473593
136	0x3f6ac728	0.9171014
137	0xc00061f9	-2.0059798
138	0x3d7c5346	0.061602853
139	0x3edeea41	0.43538097
140	0xbb02ba73	-0.0019947558
141	0xbba67c42	-0.0050807307
142	0xba10995f	-0.0005516018
143	0xbb15ad19	-0.002283877
144	0xbc8ab4b6	-0.016931873
145	0xbfd1c1dd	-1.6387287
146	0x3da9a526	0.08283453
147	0x3e3af0f7	0.18255983
148	0x3fc25ef4	1.5185227
149	0x40088b8a	2.1335168
150	0x3ca8ddb9	0.020613538
151	0xbd53ae9b	-0.05168019
152	0xbc2e8e73	-0.01065408
153	0x39eb79d0	0.0004491345
154	0xba0f133a	-0.0005457882
155	0x3bbe16c6	0.0058010546
156	0xbe99e7af	-0.30059573
157	0x4031d9d6	2.7789207
158	0x3de8ad3e	0.11361168
159	0xbfa58814	-1.2932153
160	0xbb4bc220	-0.003109105
161	0xbb25fb0c	-0.0025326638
162	0xb9abe179	-0.00032783652
163	0xbb726b53	-0.003699024
164	0x3bb30895	0.0054636695
165	0x3b884cf1	0.0041595628
166	0x3b27700a	0.0025548958
167	0xbb18d34b	-0.00233193
168	0xbb88b865	-0.004172372
169	0x3b04dd2b	0.0020273428
170	0x3a83f786	0.0010068275
171	0x3aac83f9	0.001316189
172	0x3b843135	0.0040341862
173	0xbb70a022	-0.003671654
174	0xb9fa7ce1	-0.00047776758
175	0xbb8412d6	-0.0040305657
176	0xb9be9926	-0.00036353729
177	0xbb035730	-0.0020040981
178	0xba732e4d	-0.0009276614
179	0x3a07aba7	0.00051754195
180	0xbae89c42	-0.0017746764
181	0x3ba79f6f	0.0051154415
182	0x3b4f4299	0.0031625389
183	0x39d20f4c	0.00040065718
184	0xbe8b405d	-0.27197543
185	0x3ff6b5b9	1.9274207
186	0xbe0bd7f6	-0.13656601
187	0x3edc821b	0.43068013
188	0xbb9d2217	-0.0047953236
189	0xbb7ae5c2	-0.003828392
190	0xbb49467d	-0.003071218
191	0xba130ba8	-0.0005609342
192	0x3bbcbefa	0.005760071
193	0x3a4e71ce	0.00078752346
194	0x3afaec46	0.0019143901
195	0xba9927a1	-0.0011684784
196	0xbf65e35b	-0.8980004
197	0x400777a3	2.116677
198	0x3ba74f8d	0.0051059187
199	0xbf38f9a4	-0.7225592
200	0x3f7efbc2	0.996029
201	0xbff80ebb	-1.9379495
202	0x3d52fb39	0.051509116
203	0x3f2bcbca	0.6710783
204	0xbc2b159a	-0.010442162
205	0x3a8cd354	0.0010744133
206	0x3a3c8ac8	0.0007192311
207	0x3bad3b60	0.005286619
208	0x3edfc0ab	0.43701681
209	0xbf952129	-1.1650745
210	0xbb147525	-0.0022652831
211	0xc03344b1	-2.8010676
212	0xbef2bd93	-0.4741026
213	0xc00617ef	-2.0952108
214	0x3e1d6d13	0.1537364
215	0xbf1fa653	-0.62363166
216	0x3b81c2f4	0.003960008
217	0xbb881d59	-0.004153889
218	0xbad1dd10	-0.0016011316
219	0xbac63f72	-0.0015125109
220	0x3ec7a755	0.38994852
221	0xc005fbda	-2.0934968
222	0x3dc8d93c	0.09807059
223	0xbe824032	-0.25439602
224	0x3b194c93	0.002339159
225	0x3a22a7c2	0.00062048074
226	0xbaf49446	-0.0018659912
227	0xbb02d68b	-0.0019964303
228	0xbb346b89	-0.0027529916
229	0x3a8243b4	0.000993839
230	0x3af28f1d	0.0018505786
231	0xb9f2b5e8	-0.00046293368
232	0xbb4ab4c3	-0.0030930496
233	0xb8614f77	-5.3718188e-05
234	0xba9a9535	-0.0011793735
235	0xbb8558aa	-0.0040694075
236	0x39a96407	0.00032308718
237	0x3a6cca18	0.00090328
238	0xb9fb3dc4	-0.0004792047
239	0xbbd63aae	-0.006537757
240	0x3f977f06	1.183564
241	0x400bd217	2.1846979
242	0xbda72384	-0.08161071
243	0xbf297e0c	-0.6620796
244	0x3e04886e	0.12942669
245	0xbf448063	-0.767584
246	0x3b927e51	0.0044706245
247	0xbf4724a9	-0.77790314
248	0xba12c09f	-0.0005598161
249	0xbb9bcf7d	-0.004754959
250	0xba9a6d1c	-0.0011781785
251	0xbbb5012f	-0.0055238227
252	0x3b114f7b	0.0022172618
253	0x3a922565	0.001115006
254	0x3b2adaec	0.002607043
255	0xbbba74f3	-0.005690211

conv_layers.1.att_src f4 [1, 4, 32]
0	0xbd41d834	-0.047325328
1	0xbc9f8ea5	-0.019477198
2	0x3d8668fd	0.06562994
3	0x3e303838	0.17208946
4	0xbdda4ed4	-0.106595665
5	0xbd9f4600	-0.07777023
6	0xbc9e40b5	-0.019317964
7	0x3d7a5cf5	0.061123807
8	0x3c5ffe0a	0.0136714075
9	0xbe303091	-0.17206027
10	0xbe142243	-0.14466195
11	0x3e0af640	0.135705
12	0x3aabaa9c	0.001309711
13	0xbcdb00cf	-0.026733784
14	0x3e454503	0.19264607
15	0x3cad94fb	0.021189203
16	0xbe1dda77	-0.15415369
17	0xbdbd03ed	-0.092292644
18	0xbe925829	-0.28582886
19	0xbe6c5508	-0.23079312
20	0x3d0e1e42	0.034696825
21	0xbe7ac58c	-0.2448942
22	0xbc1e4a4f	-0.009661271
23	0xbdccc6c2	-0.099988475
24	0xbe0b4385	-0.13599975
25	0x3e300160	0.17188025
26	0x3b076541	0.0020659717
27	0x3e441a33	0.19150619
28	0xbd386825	-0.045021195
29	0xbd6568f2	-0.056008287
30	0xbce5f4ea	-0.028070886
31	0x3e0c6a97	0.13712536
32	0xbe188ff6	-0.14898667
33	0xbe2891a1	-0.16461803
34	0x3cb315d4	0.021860994
35	0xbdca6f4f	-0.09884512
36	0xbe3634ac	-0.1779353
37	0xbe85cc5d	-0.2613248
38	0xbd7dccf4	-0.061963037
39	0xbcc7c031	-0.024383636
40	0xbec2f9d5	-0.38081232
41	0x3d058948	0.032601625
42	0x3ce7e582	0.02830768
43	0x3e6c95a3	0.23103957
44	0x3d6e4884	0.058174625
45	0xbdc082a8	-0.09399921
46	0x3d66732d	0.056262184
47	0x3e22feb6	0.15917477
48	0x3b8b878a	0.004258101
49	0xbe19aeb1	-0.15008046
50	0xb93fe824	-0.00018301659
51	0xbe2fa795	-0.17153771
52	0xbcda29e1	-0.026631298
53	0xbe2a6a52	-0.1664212
54	0xbe8ff218	-0.2811439
55	0x3af76f97	0.0018877861
56	0x3d2654d5	0.040608246
57	0xbd093315	-0.03349598
58	0xbd0b6826	-0.03403487
59	0xbdcfef8e	-0.10153113
60	0x3d6f4ee6	0.058424853
61	0x3adfea11	0.0017083307
62	0xbe8109d8	-0.25202823
63	0xbe9ce09d	-0.30640116
64	0x3c85f6c4	0.016353019
65	0x3d6c994e	0.05776339
66	0x3a353dcf	0.0006913812
67	0x3e03cdea	0.12871519
68	0x3da79035	0.08181802
69	0xbd0575bf	-0.032582995
70	0x3a0e4fe1	0.0005428773
71	0xbc7ee82d	-0.015558285
72	0xbe3c19f7	-0.1836928
73	0x3da97a66	0.08275299
74	0x3d5ecb06	0.054392837
75	0x3caac9a6	0.020848107
76	0xbda9cad8	-0.082906425
77	0xbde23544	-0.11045316
78	0xbcc58bfc	-0.024114601
79	0x3cd24426	0.025667261
80	0x3d868e51	0.065701135
81	0x3d44b62e	0.048025303
82	0xbd14d602	-0.036336906
83	0x3e0c62be	0.13709542
84	0x3cd01715	0.025401631
85	0xbce681a4	-0.02813799
86	0xbd840d30	-0.06447828
87	0xbdfc7922	-0.12327792
88	0x3cf90e4a	0.030402321
89	0x3c9e1184	0.019295461
90	0x3d42948d	0.04750495
91	0x3cdaa012	0.026687656
92	0x3cbf45d7	0.023348732
93	0x3dca3b24	0.098745614
94	0x3e083d26	0.13304576
95	0xbd031e3b	-0.032011252
96	0x3d75a643	0.059973013
97	0xbd2c5727	-0.042075302
98	0xbccc397b	-0.024929753
99	0xbe04e7a3	-0.12978987
100	0x3d1856cc	0.03719215
101	0x3d193c58	0.037411064
102	0x3dba5ba2	0.09099509
103	0xbef867c9	-0.48516682
104	0xbe273746	-0.16329679
105	0x3f36bc52	0.71381104
106	0x3d1fe05d	0.03903233
107	0xbce306fc	-0.027713291
108	0x3e34639f	0.17616127
109	0x3d155f97	0.036468115
110	0xbe2e03cb	-0.16993634
111	0xbce6858a	-0.028139848
112	0x3d9abc9b	0.07555505
113	0xbde22b82	-0.11043455
114	0xbcaa22cf	-0.020768551
115	0x3cd4a399	0.025956916
116	0x3e09b49c	0.13447803
117	0x3dbc6b7c	0.092001885
118	0xbcfb6cc8	-0.03069152
119	0x3a43946d	0.0007460777
120	0xbe3eb02a	-0.18621889
121	0x3e0a5acf	0.13511203
122	0x3d8339c6	0.06407504
123	0x3d825108	0.06363112
124	0x3d5ba784	0.053626552
125	0x3e5b4fa5	0.214171
126	0x3d7faa79	0.062418435
127	0xbd69f7d5	-0.057121117

conv_layers.1.att_dst f4 [1, 4, 32]
0	0xbd7a52db	-0.061114173
1	0xbcfc7724	-0.03081853
2	0x3f1669d1	0.58755213
3	0xbed1b382	-0.40957266
4	0xbcb9d5b3	-0.022684908
5	0x3e2a1f9a	0.16613618
6	0x3e6b4adc	0.22977775
7	0xbddd36d6	-0.10801475
8	0x3e50d0b3	0.20392112
9	0xbf2aa523	-0.6665823
10	0xbd37eaa0	-0.04490149
11	0x3ddc0849	0.10743768
12	0x3dad5850	0.0846411
13	0xbe8fc4a1	-0.28079703
14	0xbf16f99a	-0.5897461
15	0xbef57579	-0.47941187
16	0x3f25bf42	0.6474496
17	0xbe6f43b4	-0.2336567
18	0x3ee47bb4	0.44625628
19	0xbeb388de	-0.3506536
20	0xbd0fef8a	-0.03514055
21	0xbe39afa4	-0.18133408
22	0x3fa8f74c	1.3200469
23	0x3f8d153e	1.1022108
24	0x3ea7fb1e	0.32808775
25	0x3e9d057d	0.3066825
26	0x3f8a534f	1.0806674
27	0x3ee0c924	0.43903458
28	0x3f719c5a	0.943792
29	0xbf465c1b	-0.7748429
30	0x3f1e3f17	0.6181502
31	0xbf1e8a17	-0.6192946
32	0x3dc1b870	0.09459007
33	0x3d90759d	0.07053683
34	0xbedbafec	-0.42907655
35	0x3d3bec12	0.04587943
36	0xbf2159ce	-0.63027656
37	0xbd9f47a9	-0.0777734
38	0x3eb7eef3	0.3592449
39	0x40089748	2.1342335
40	0x3e80de61	0.25169662
41	0xbf8d260b	-1.1027235
42	0x3f02388d	0.5086754
43	0x3f96bcd0	1.1776371
44	0xbf1e3c73	-0.6181099
45	0x3edf3558	0.43595386
46	0xbf4d08eb	-0.8009173
47	0xbecea337	-0.40358898
48	0xbe920cb9	-0.28525332
49	0x3d930591	0.07178796
50	0xbce6fbd0	-0.028196245
51	0xbefb2cef	-0.4905772
52	0xbccccf27	-0.025001122
53	0x3f1f4e2f	0.62228674
54	0x3e493a4e	0.19651148
55	0xbca85ccf	-0.020552067
56	0xbe9962fd	-0.29958335
57	0x3dda9d05	0.1067448
58	0x3e915530	0.28385305
59	0x3dc899e8	0.0979498
60	0xbf444fb2	-0.76684105
61	0x3f97bcec	1.1854529
62	0x3ec4d69e	0.3844499
63	0x3dcfe5c3	0.101512454
64	0x3d072cf9	0.033001874
65	0xbdae61b4	-0.08514729
66	0xbd15b36b	-0.03654806
67	0xbe267821	-0.16256763
68	0xbe6f16a5	-0.23348482
69	0x3e3fbc40	0.18724155
70	0x3d98ecf7	0.074670725
71	0x3e5ffc52	0.21873596
72	0x3d6d394c	0.05791597
73	0xbd97c03e	-0.07409714
74	0x3e3500c0	0.17676067
75	0x3d8f1121	0.06985689
76	0xbdb00924	-0.085954934
77	0xbaaacc40	-0.0013030842
78	0x3e48e6f1	0.19619347
79	0x3ae84f5d	0.0017723847
80	0xbe09424a	-0.13404194
81	0xbd94aac8	-0.072591364
82	0xbea80cdd	-0.32822314
83	0xbe2786f8	-0.1636008
84	0x3e5bb52c	0.2145583
85	0x3cfa82ee	0.03058001
86	0x3e1c9620	0.15291643
87	0xbe546f3d	-0.20745559
88	0x3ccf1da3	0.025282687
89	0x3e01a5f3	0.12660961
90	0xbee3fc42	-0.44528395
91	0xbe555294	-0.20832282
92	0x3e6056d4	0.21908122
93	0xbd13fc9c	-0.03612958
94	0xbe33df52	-0.17565659
95	0xbbfe106f	-0.007753424
96	0x3fa88343	1.3165058
97	0xbf6c0df6	-0.922088
98	0xbf758306	-0.9590305
99	0x3f02ce9e	0.5109652
100	0xc00d30e9	-2.2061102
101	0x406a3a89	3.6598227
102	0xbfd05280	-1.6275177
103	0xc0a06df2	-5.013421
104	0x3ef8bfbe	0.48583788
105	0x4008eb5c	2.1393652
106	0x3fb157ab	1.3854879
107	0xbffa8110	-1.9570637
108	0xbea4eab7	-0.32210323
109	0xbf65cbb8	-0.89763975
110	0x3f48c6bf	0.7842826
111	0xc0be8ee1	-5.9549413
112	0xbfc38f9f	-1.5278205
113	0x3de0dc52	0.10979523
114	0xbf5e879f	-0.8692569
115	0xbf23608d	-0.638192
116	0x3e108d82	0.14116481
117	0xbfae8475	-1.3634173
118	0xbd87945b	-0.066200934
119	0xbd59773c	-0.053092226
120	0x3ec23f57	0.3793895
121	0xbf7de772	-0.9918128
122	0x3e879144	0.26478016
123	0x3ec3f5e7	0.38273546
124	0xbf05f553	-0.5232746
125	0xc0485ffd	-3.1308587
126	0x3e5fe29d	0.2186379
127	0x4031e11e	2.779365

conv_layers.1.bias f4 [128]
0	0x3deef4c6	0.116677806
1	0x3eb06060	0.34448528
2	0xbdc747c0	-0.09730482
3	0x3eb27636	0.34855813
4	0x3f30a09d	0.68995076
5	0x3eabc6f9	0.33550242
6	0xbd93c4d3	-0.072152756
7	0x3f22b5ad	0.63558465
8	0x3db856f4	0.0900096
9	0x3fd68fdb	1.6762651
10	0x3ef1b02c	0.4720472
11	0xbed2c85d	-0.4116849
12	0x3eef6b27	0.46761438
13	0xbef85dcb	-0.48509058
14	0xbe427f8b	-0.18993966
15	0x3f8c8c47	1.0980309
16	0xbe9ad5c0	-0.30241203
17	0xbdfaed0e	-0.12252246
18	0xbf1cd33d	-0.61259824
19	0x3e4e9fbd	0.20178123
20	0xbd5e71c0	-0.0543077
21	0x3b3d53ec	0.0028889133
22	0xbf5e2795	-0.8677915
23	0xbef12191	-0.47095922
24	0xbd055a92	-0.032557078
25	0xbf67233e	-0.9028815
26	0xbf5192e7	-0.8186478
27	0xbfa20af2	-1.265959
28	0x3da6bc02	0.081413284
29	0x3e6b638e	0.22987196
30	0x3c0f20f1	0.008735881
31	0x3eecac0e	0.46225017
32	0x3f950ae8	1.1643953
33	0x3f5f0d44	0.87129617
34	0xbf58e43c	-0.8472326
35	0x3f0802fb	0.5312955
36	0xba237196	-0.0006234882
37	0xbf046daa	-0.51729834
38	0x3fb531e8	1.4155855
39	0x3ed1fcb9	0.41013125
40	0xbf73f427	-0.9529442
41	0xbf15126f	-0.5823125
42	0x400f5b0d	2.2399323
43	0x3f71ff1c	0.9452989
44	0x3f250499	0.6446014
45	0x3f101810	0.56286716
46	0x4000add0	2.0106087
47	0x3d4ee97a	0.05051563
48	0x3f82bd69	1.0214053
49	0xbd432d1d	-0.047650445
50	0x40aa7361	5.3265843
51	0x3e6b1dd1	0.22960593
52	0x3f509be2	0.8148786
53	0x3f94e07e	1.163101
54	0xbcd53f9f	-0.026031313
55	0x4093fa2d	4.624289
56	0x3e80bf07	0.25145742
57	0x3e9bc9bf	0.30427358
58	0x3f43e2cc	0.7651794
59	0xbd2b602a	-0.041839756
60	0x3cfbbfcd	0.030731106
61	0x3fde3548	1.736001
62	0x3de2b078	0.11068815
63	0xbef1c112	-0.47217613
64	0xbefe040d	-0.49612466
65	0xbf44032e	-0.7656735
66	0x3d4a9582	0.049458988
67	0x3f9a2aaf	1.2044276
68	0x3f58ecea	0.847365
69	0x3e6ba709	0.23012938
70	0xbe504575	-0.20338996
71	0x3f8b4298	1.0879698
72	0xbf1c7e31	-0.6113005
73	0x3e2bb77d	0.16769214
74	0x3ed4f665	0.41594234
75	0xbf6125a7	-0.8794808
76	0x3cd58913	0.026066339
77	0xbcf519d7	-0.029919548
78	0xbf10be01	-0.5653992
79	0xbe98b8c1	-0.29828456
80	0x3ed65cbf	0.41867635
81	0x3f1aa6b5	0.60410625
82	0xbc04180f	-0.008062377
83	0x3ef9ec7e	0.48813242
84	0xbd0e25e5	-0.034704108
85	0x3d335610	0.043783247
86	0xbe31f212	-0.17377499
87	0xbf5cfe91	-0.8632594
88	0xbf94d21e	-1.1626623
89	0x3e6a1a7c	0.22861665
90	0x3e713ee6	0.2355915
91	0x3f755ff4	0.9584954
92	0xbf13d909	-0.57753044
93	0xbf213ece	-0.6298646
94	0x3ec5e424	0.3865062
95	0xbeef0546	-0.4668371
96	0x3f9fe1c3	1.2490772
97	0xbd2f9f5f	-0.042876597
98	0xbd0144d6	-0.031559788
99	0x3ea4ad2e	0.32163376
100	0xbeb025f3	-0.34403953
101	0xbf0e37cc	-0.5555389
102	0x3e315ea4	0.17321259
103	0x3e545602	0.20735934
104	0x3ec7ab43	0.3899785
105	0xbfa525ca	-1.2902157
106	0x3f66f9b9	0.90224797
107	0x3f7fdea0	0.99949074
108	0x3e38d3d9	0.18049563
109	0x3cba5785	0.02274681
110	0xbf2588f2	-0.64662087
111	0x3e3b3b3d	0.18284316
112	0x3e667553	0.22505693
113	0xbf750e98	-0.95725393
114	0x3f0cfb2a	0.55070746
115	0x3e03931c	0.12849087
116	0x3ec9b34e	0.3939461
117	0xbfb54a2e	-1.4163263
118	0xbe663963	-0.22482829
119	0xc06e281c	-3.721198
120	0x3ce3151a	0.027720023
121	0x3d95b7e8	0.07310468
122	0xbf80be66	-1.0058105
123	0x3f002f1d	0.5007189
124	0x3f451fe2	0.77001774
125	0xbee0c8e3	-0.43903264
126	0x3f1a171b	0.60191506
127	0xbd924e6b	-0.07143863

conv_layers.1.lin_src.weight f4 [128, 128]
0	0x3b2c462d	0.0026286945
1	0xbb791368	-0.0038005952
2	0x3d9e1f97	0.07720869
3	0xbbce7b93	-0.0063013523
4	0x38e1de15	0.00010770202
5	0xbe57f0ca	-0.21087947
6	0x3e202d65	0.15642317
7	0x3b89cf69	0.0042056334
8	0xbee8c171	-0.45460084
9	0xbe5d90e7	-0.21637307
10	0xba574122	-0.00082113047
11	0x3e2caff7	0.16864
12	0x3b2a8826	0.0026021092
13	0x3b6e5e71	0.003637221
14	0xbae0e74f	-0.0017158779
15	0x3ad6660e	0.0016357319
16	0x3b801d40	0.003909737
17	0xb94b307c	-0.0001937765
18	0x3b9f1ebf	0.00485596
19	0x3ec6bc4b	0.3881553
20	0x3b8a8c03	0.0042281165
21	0x3b94c71c	0.0045403372
22	0x3ee05d5f	0.43821236
23	0xbee30faf	-0.44347903
24	0xbb74da37	-0.0037361511
25	0x3cb446d8	0.022006437
26	0xba8cc47a	-0.0010739707
27	0xba0140cc	-0.0004930615
28	0xba3909f1	-0.00070586713
29	0x3e394051	0.18090941
30	0x3b0a82c2	0.0021135067
31	0x3af39aea	0.0018585597
32	0xbdf8c747	-0.12147384
33	0xbaddd066	-0.001692307
34	0x3d062468	0.032749563
35	0x3af53138	0.0018706685
36	0xbe7a417c	-0.24439043
37	0xbe1bc7b1	-0.15212895
38	0xbc151ac4	-0.00910062
39	0xbf50ec6c	-0.8161075
40	0x3b3c0db9	0.0028694703
41	0xba7a34d6	-0.00095446163
42	0x3bf3b136	0.0074368967
43	0xbba6e188	-0.0050928034
44	0xbab31ac4	-0.0013664593
45	0x3aed9bef	0.0018128137
46	0x3f4b70a1	0.79468733
47	0x3b9acf22	0.004724399
48	0x3bc8e58e	0.0061308807
49	0xbe2526fb	-0.16128151
50	0xbb56b261	-0.003276013
51	0xbb796741	-0.003805593
52	0x3f0a5c82	0.54047406
53	0xbf2c6ac5	-0.6735042
54	0xbb24a9c3	-0.00251256
55	0xbee59cb8	-0.4484613
56	0x3b064806	0.0020489707
57	0x38a6b734	7.949621e-05
58	0x3b17a732	0.0023140428
59	0x3b7eb1df	0.0038863344
60	0x3e83af7f	0.2571983
61	0x3e23b65b	0.15987532
62	0x3b96b0b3	0.004598701
63	0x3ba00490	0.0048833564
64	0xbe14b80a	-0.1452333
65	0x3ee60a76	0.44929856
66	0x3b5b6f5a	0.0033483119
67	0xbe2b8367	-0.16749345
68	0x3e7d9a79	0.24765958
69	0xbb2e5dc4	-0.0026606182
70	0x3b4bc8cb	0.0031095024
71	0x3b19c564	0.0023463601
72	0x3eb60399	0.3554962
73	0x3f29281f	0.66076845
74	0xbe7e6eb9	-0.24846925
75	0xbb9ac7cf	-0.004723526
76	0x3d2c5f13	0.042082857
77	0x3af6bca2	0.0018824528
78	0x3b768d08	0.0037620682
79	0xbbe008c5	-0.006836983
80	0xb8b73919	-8.736755e-05
81	0xb9cfd1d2	-0.00039638445
82	0xbb9ecb4f	-0.0048460136
83	0x39416252	0.00018442541
84	0xbf90370f	-1.1266803
85	0xbdf7e013	-0.12103286
86	0x3ae8ccec	0.0017761267
87	0x3b84ecd8	0.0040565543
88	0xbf0b97b9	-0.54528385
89	0xbbc2f9c9	-0.005950187
90	0x3d16a403	0.036777508
91	0xbdc87ff8	-0.09790033
92	0xbdecce3f	-0.11562776
93	0x3a73afbf	0.00092959026
94	0x3dab8e7c	0.08376786
95	0x3bad6c72	0.0052924687
96	0x3c958eec	0.018256627
97	0xbe5f05ff	-0.21779631
98	0xbb2be109	-0.002622666
99	0xbabd0ab8	-0.001442275
100	0x377b3bd0	1.4974692e-05
101	0xbe8f8fb5	-0.28039327
102	0xbe403cdc	-0.18773216
103	0x3d1eda18	0.03878221
104	0xba661a31	-0.00087777065
105	0xba409b7b	-0.0007347387
106	0x3f668e30	0.9006071
107	0xbb63ff77	-0.003478972
108	0xbb5bfa28	-0.0033565853
109	0x3e1a4aa4	0.15067536
110	0x395860eb	0.0002063547
111	0x3b61dffe	0.0034465785
112	0xbe1f3b75	-0.15550025
113	0xbbb07f2d	-0.0053862543
114	0x3cf9f658	0.030512974
115	0xbd31b0e4	-0.043381587
116	0xbb9850a8	-0.004648287
117	0xbbe9f7eb	-0.00714015
118	0xbe4e54a7	-0.2014948
119	0x3b34c11a	0.0027580918
120	0x3fbe94a9	1.4889117
121	0xbb643799	-0.0034823178
122	0xbac41de3	-0.001496252
123	0xba8073b7	-0.0009800111
124	0x3b1c85fe	0.0023883577
125	0xbeb8a9ae	-0.36066955
126	0xbb2bddf4	-0.0026224824
127	0x3e53c020	0.20678759
128	0x3bfaa877	0.007649477
129	0xbb8cfa45	-0.0043022954
130	0x3eea0b69	0.4571183
131	0x3e8b1748	0.271662
132	0xbc3bfb5d	-0.011473504
133	0x3ec16bb9	0.37777498
134	0x3dfa9fa8	0.12237483
135	0xbc40aad3	-0.011759478
136	0x3f0b95db	0.54525536
137	0x3e023026	0.1271368
138	0x3be4e233	0.006984973
139	0xbed78d72	-0.42100102
140	0x3b97404a	0.004615818
141	0xbb8cf652	-0.0043018246
142	0xbbdc496e	-0.0067226207
143	0x3bfb303a	0.007665661
144	0x3c65496b	0.013994555
145	0x39cbb43f	0.0003885347
146	0x3bb1851b	0.0054174787
147	0xbe6c45ae	-0.23073456
148	0xbc009835	-0.007848789
149	0x3c075c4a	0.0082617495
150	0xbf1384d5	-0.5762456
151	0xbea9c90d	-0.33161202
152	0xbbf92cc9	-0.0076042158
153	0xbd8dee1d	-0.06930182
154	0xbc73f6c9	-0.014890381
155	0xbb16fdf5	-0.0023039554
156	0xbbe26ebe	-0.006910174
157	0xbefb2f8e	-0.4905972
158	0x3c306425	0.010766064
159	0x3b9bff4c	0.0047606584
160	0xbeafa776	-0.3430745
161	0xbcc79f75	-0.024368027
162	0xbf101454	-0.5628102
163	0xbb700df8	-0.003662942
164	0x3de40782	0.111342445
165	0xbe2080f4	-0.15674192
166	0xbcba73b4	-0.02276025
167	0x3e6d0410	0.23146081
168	0x3c05ba10	0.008162037
169	0x3b906dd7	0.004407625
170	0xba681d28	-0.0008854442
171	0xbc030870	-0.007997617
172	0xbc32ec48	-0.010920592
173	0x3c007cf1	0.007842288
174	0xbe0b7839	-0.1362008
175	0x3c88052b	0.016604027
176	0x3a570ff2	0.0008203975
177	0x3f0dbf2d	0.55369836
178	0xbf44825d	-0.7676142
179	0x3b9090a2	0.004411773
180	0x3d755801	0.05989838
181	0x3e9dbc97	0.30807945
182	0x3a8f4fc7	0.001093381
183	0xbe985549	-0.29752567
184	0x3c1f5728	0.0097253695
185	0xbc1f36a3	-0.009717616
186	0xbb947f11	-0.004531749
187	0x366f7080	3.567926e-06
188	0x3e95993e	0.29218477
189	0x3cbfdce7	0.023420764
190	0xbb08cc31	-0.002087366
191	0x3c8d25bf	0.017229913
192	0x3e1a8b60	0.1509223
193	0x3f31197c	0.6917951
194	0x3c32499f	0.01088181
195	0x3e9ece29	0.31016663
196	0x3ef713f0	0.482574
197	0x3a571cf7	0.0008205915
198	0x3b018c96	0.0019767634
199	0xbaff60fa	-0.0019483857
200	0xbe9f227d	-0.31081
201	0x3f08f220	0.53494453
202	0x3e94bc4c	0.2904991
203	0x3c00226e	0.007820709
204	0x3f18a11e	0.59620845
205	0xbb9e2268	-0.004825879
206	0x3bb6bad3	0.0055764704
207	0xbbce7dbb	-0.0063016093
208	0xbc14bfef	-0.009078964
209	0x3a8732d8	0.0010314835
210	0xbc691521	-0.014226229
211	0xbbe64f9b	-0.0070285327
212	0xbf8056e1	-1.0026513
213	0x3e3b0b5e	0.18266055
214	0x3b98af58	0.0046595745
215	0xbae22d01	-0.0017255844
216	0x3f291de8	0.6606126
217	0xbc563d50	-0.0130761415
218	0x3e378ed4	0.17925578
219	0x3e523f3a	0.20531932
220	0xbd61acf9	-0.0550966
221	0x3cbc3dbb	0.022978654
222	0xbd546569	-0.051854525
223	0x3bca000e	0.0061645573
224	0xbe296156	-0.16541037
225	0x3f543e6f	0.82907766
226	0x3b0ea61d	0.0021766492
227	0x3bcfa26c	0.006336501
228	0xbc9e9112	-0.019356284
229	0x3f71aa9e	0.94400966
230	0x3fb831b1	1.4390165
231	0xbd5b6415	-0.053562243
232	0xbc7bde4f	-0.015372827
233	0x3c45dab3	0.012076068
234	0xbf47fea4	-0.78122926
235	0x3c76bfd6	0.015060386
236	0xbc2aedcb	-0.010432671
237	0x3e83949d	0.2569932
238	0xbc0baee7	-0.008525587
239	0xbbf0faa6	-0.0073540984
240	0x3ec995e6	0.39372176
241	0xbf0a7e10	-0.54098606
242	0x403f426d	2.9884293
243	0xbed56590	-0.4167905
244	0x3b445d38	0.002996279
245	0x3c5929bf	0.013254582
246	0xbedee831	-0.43536523
247	0xbe1871e4	-0.14887196
248	0x3f0a4bb7	0.5402178
249	0x3bcce1ed	0.0062525184
250	0xbc6ebb56	-0.014571032
251	0x3c5e5834	0.013570834
252	0xbc0d9619	-0.008641743
253	0x3f693e0a	0.9111029
254	0x3c100db3	0.008792329
255	0xbf893111	-1.0718099

conv_layers.1.lin_dst.weight f4 [128, 128]
0	0x3b2c462d	0.0026286945
1	0xbb791368	-0.0038005952
2	0x3d9e1f97	0.07720869
3	0xbbce7b93	-0.0063013523
4	0x38e1de15	0.00010770202
5	0xbe57f0ca	-0.21087947
6	0x3e202d65	0.15642317
7	0x3b89cf69	0.0042056334
8	0xbee8c171	-0.45460084
9	0xbe5d90e7	-0.21637307
10	0xba574122	-0.00082113047
11	0x3e2caff7	0.16864
12	0x3b2a8826	0.0026021092
13	0x3b6e5e71	0.003637221
14	0xbae0e74f	-0.0017158779
15	0x3ad6660e	0.0016357319
16	0x3b801d40	0.003909737
17	0xb94b307c	-0.0001937765
18	0x3b9f1ebf	0.00485596
19	0x3ec6bc4b	0.3881553
20	0x3b8a8c03	0.0042281165
21	0x3b94c71c	0.0045403372
22	0x3ee05d5f	0.43821236
23	0xbee30faf	-0.44347903
24	0xbb74da37	-0.0037361511
25	0x3cb446d8	0.022006437
26	0xba8cc47a	-0.0010739707
27	0xba0140cc	-0.0004930615
28	0xba3909f1	-0.00070586713
29	0x3e394051	0.18090941
30	0x3b0a82c2	0.0021135067
31	0x3af39aea	0.0018585597
32	0xbdf8c747	-0.12147384
33	0xbaddd066	-0.001692307
34	0x3d062468	0.032749563
35	0x3af53138	0.0018706685
36	0xbe7a417c	-0.24439043
37	0xbe1bc7b1	-0.15212895
38	0xbc151ac4	-0.00910062
39	0xbf50ec6c	-0.8161075
40	0x3b3c0db9	0.0028694703
41	0xba7a34d6	-0.00095446163
42	0x3bf3b136	0.0074368967
43	0xbba6e188	-0.0050928034
44	0xbab31ac4	-0.0013664593
45	0x3aed9bef	0.0018128137
46	0x3f4b70a1	0.79468733
47	0x3b9acf22	0.004724399
48	0x3bc8e58e	0.0061308807
49	0xbe2526fb	-0.16128151
50	0xbb56b261	-0.003276013
51	0xbb796741	-0.003805593
52	0x3f0a5c82	0.54047406
53	0xbf2c6ac5	-0.6735042
54	0xbb24a9c3	-0.00251256
55	0xbee59cb8	-0.4484613
56	0x3b064806	0.0020489707
57	0x38a6b734	7.949621e-05
58	0x3b17a732	0.0023140428
59	0x3b7eb1df	0.0038863344
60	0x3e83af7f	0.2571983
61	0x3e23b65b	0.15987532
62	0x3b96b0b3	0.004598701
63	0x3ba00490	0.0048833564
64	0xbe14b80a	-0.1452333
65	0x3ee60a76	0.44929856
66	0x3b5b6f5a	0.0033483119
67	0xbe2b8367	-0.16749345
68	0x3e7d9a79	0.24765958
69	0xbb2e5dc4	-0.0026606182
70	0x3b4bc8cb	0.0031095024
71	0x3b19c564	0.0023463601
72	0x3eb60399	0.3554962
73	0x3f29281f	0.66076845
74	0xbe7e6eb9	-0.24846925
75	0xbb9ac7cf	-0.004723526
76	0x3d2c5f13	0.042082857
77	0x3af6bca2	0.0018824528
78	0x3b768d08	0.0037620682
79	0xbbe008c5	-0.006836983
80	0xb8b73919	-8.736755e-05
81	0xb9cfd1d2	-0.00039638445
82	0xbb9ecb4f	-0.0048460136
83	0x39416252	0.00018442541
84	0xbf90370f	-1.1266803
85	0xbdf7e013	-0.12103286
86	0x3ae8ccec	0.0017761267
87	0x3b84ecd8	0.0040565543
88	0xbf0b97b9	-0.54528385
89	0xbbc2f9c9	-0.005950187
90	0x3d16a403	0.036777508
91	0xbdc87ff8	-0.09790033
92	0xbdecce3f	-0.11562776
93	0x3a73afbf	0.00092959026
94	0x3dab8e7c	0.08376786
95	0x3bad6c72	0.0052924687
96	0x3c958eec	0.018256627
97	0xbe5f05ff	-0.21779631
98	0xbb2be109	-0.002622666
99	0xbabd0ab8	-0.001442275
100	0x377b3bd0	1.4974692e-05
101	0xbe8f8fb5	-0.28039327
102	0xbe403cdc	-0.18773216
103	0x3d1eda18	0.03878221
104	0xba661a31	-0.00087777065
105	0xba409b7b	-0.0007347387
106	0x3f668e30	0.9006071
107	0xbb63ff77	-0.003478972
108	0xbb5bfa28	-0.0033565853
109	0x3e1a4aa4	0.15067536
110	0x395860eb	0.0002063547
111	0x3b61dffe	0.0034465785
112	0xbe1f3b75	-0.15550025
113	0xbbb07f2d	-0.0053862543
114	0x3cf9f658	0.030512974
115	0xbd31b0e4	-0.043381587
116	0xbb9850a8	-0.004648287
117	0xbbe9f7eb	-0.00714015
118	0xbe4e54a7	-0.2014948
119	0x3b34c11a	0.0027580918
120	0x3fbe94a9	1.4889117
121	0xbb643799	-0.0034823178
122	0xbac41de3	-0.001496252
123	0xba8073b7	-0.0009800111
124	0x3b1c85fe	0.0023883577
125	0xbeb8a9ae	-0.36066955
126	0xbb2bddf4	-0.0026224824
127	0x3e53c020	0.20678759
128	0x3bfaa877	0.007649477
129	0xbb8cfa45	-0.0043022954
130	0x3eea0b69	0.4571183
131	0x3e8b1748	0.271662
132	0xbc3bfb5d	-0.011473504
133	0x3ec16bb9	0.37777498
134	0x3dfa9fa8	0.12237483
135	0xbc40aad3	-0.011759478
136	0x3f0b95db	0.54525536
137	0x3e023026	0.1271368
138	0x3be4e233	0.006984973
139	0xbed78d72	-0.42100102
140	0x3b97404a	0.004615818
141	0xbb8cf652	-0.0043018246
142	0xbbdc496e	-0.0067226207
143	0x3bfb303a	0.007665661
144	0x3c65496b	0.013994555
145	0x39cbb43f	0.0003885347
146	0x3bb1851b	0.0054174787
147	0xbe6c45ae	-0.23073456
148	0xbc009835	-0.007848789
149	0x3c075c4a	0.0082617495
150	0xbf1384d5	-0.5762456
151	0xbea9c90d	-0.33161202
152	0xbbf92cc9	-0.0076042158
153	0xbd8dee1d	-0.06930182
154	0xbc73f6c9	-0.014890381
155	0xbb16fdf5	-0.0023039554
156	0xbbe26ebe	-0.006910174
157	0xbefb2f8e	-0.4905972
158	0x3c306425	0.010766064
159	0x3b9bff4c	0.0047606584
160	0xbeafa776	-0.3430745
161	0xbcc79f75	-0.024368027
162	0xbf101454	-0.5628102
163	0xbb700df8	-0.003662942
164	0x3de40782	0.111342445
165	0xbe2080f4	-0.15674192
166	0xbcba73b4	-0.02276025
167	0x3e6d0410	0.23146081
168	0x3c05ba10	0.008162037
169	0x3b906dd7	0.004407625
170	0xba681d28	-0.0008854442
171	0xbc030870	-0.007997617
172	0xbc32ec48	-0.010920592
173	0x3c007cf1	0.007842288
174	0xbe0b7839	-0.1362008
175	0x3c88052b	0.016604027
176	0x3a570ff2	0.0008203975
177	0x3f0dbf2d	0.55369836
178	0xbf44825d	-0.7676142
179	0x3b9090a2	0.004411773
180	0x3d755801	0.05989838
181	0x3e9dbc97	0.30807945
182	0x3a8f4fc7	0.001093381
183	0xbe985549	-0.29752567
184	0x3c1f5728	0.0097253695
185	0xbc1f36a3	-0.009717616
186	0xbb947f11	-0.004531749
187	0x366f7080	3.567926e-06
188	0x3e95993e	0.29218477
189	0x3cbfdce7	0.023420764
190	0xbb08cc31	-0.002087366
191	0x3c8d25bf	0.017229913
192	0x3e1a8b60	0.1509223
193	0x3f31197c	0.6917951
194	0x3c32499f	0.01088181
195	0x3e9ece29	0.31016663
196	0x3ef713f0	0.482574
197	0x3a571cf7	0.0008205915
198	0x3b018c96	0.0019767634
199	0xbaff60fa	-0.0019483857
200	0xbe9f227d	-0.31081
201	0x3f08f220	0.53494453
202	0x3e94bc4c	0.2904991
203	0x3c00226e	0.007820709
204	0x3f18a11e	0.59620845
205	0xbb9e2268	-0.004825879
206	0x3bb6bad3	0.0055764704
207	0xbbce7dbb	-0.0063016093
208	0xbc14bfef	-0.009078964
209	0x3a8732d8	0.0010314835
210	0xbc691521	-0.014226229
211	0xbbe64f9b	-0.0070285327
212	0xbf8056e1	-1.0026513
213	0x3e3b0b5e	0.18266055
214	0x3b98af58	0.0046595745
215	0xbae22d01	-0.0017255844
216	0x3f291de8	0.6606126
217	0xbc563d50	-0.0130761415
218	0x3e378ed4	0.17925578
219	0x3e523f3a	0.20531932
220	0xbd61acf9	-0.0550966
221	0x3cbc3dbb	0.022978654
222	0xbd546569	-0.051854525
223	0x3bca000e	0.0061645573
224	0xbe296156	-0.16541037
225	0x3f543e6f	0.82907766
226	0x3b0ea61d	0.0021766492
227	0x3bcfa26c	0.006336501
228	0xbc9e9112	-0.019356284
229	0x3f71aa9e	0.94400966
230	0x3fb831b1	1.4390165
231	0xbd5b6415	-0.053562243
232	0xbc7bde4f	-0.015372827
233	0x3c45dab3	0.012076068
234	0xbf47fea4	-0.78122926
235	0x3c76bfd6	0.015060386
236	0xbc2aedcb	-0.010432671
237	0x3e83949d	0.2569932
238	0xbc0baee7	-0.008525587
239	0xbbf0faa6	-0.0073540984
240	0x3ec995e6	0.39372176
241	0xbf0a7e10	-0.54098606
242	0x403f426d	2.9884293
243	0xbed56590	-0.4167905
244	0x3b445d38	0.002996279
245	0x3c5929bf	0.013254582
246	0xbedee831	-0.43536523
247	0xbe1871e4	-0.14887196
248	0x3f0a4bb7	0.5402178
249	0x3bcce1ed	0.0062525184
250	0xbc6ebb56	-0.014571032
251	0x3c5e5834	0.013570834
252	0xbc0d9619	-0.008641743
253	0x3f693e0a	0.9111029
254	0x3c100db3	0.008792329
255	0xbf893111	-1.0718099
