embd_16_nHead_4_nlayer_3_Batch_50.pth (torch, 41819 bytes, 16 tensors)

conv_layers.0.att_src f4 [1, 4, 16]
000000 fc 5b d9 39 12 4d 02 bf ec ec 0a bb 48 28 3c 3e
       0.00041458 -0.5089885 -0.0021198345 0.18374741
000010 c1 ba cf 3e 46 3c 29 3b 12 1b e1 b9 01 ce f2 3a
       0.4057217 0.002582328 -0.00042935513 0.0018524529
000020 df b8 79 be 41 ae 4d 3f d3 c3 7a 3c 12 c2 06 3f
       -0.24386929 0.80344015 0.015305477 0.5263988
000030 3b e2 c7 ba 42 f3 00 3b a9 2b 70 3d bc 77 78 bd
       -0.0015249917 0.0019676243 0.058635388 -0.060661063
000040 98 05 82 3e 49 ae b7 3e c7 3f a3 3e c0 dc 4e 3d
       0.25394893 0.35875157 0.31884596 0.050503492
000050 07 2c fe 3d 52 60 5f ba 07 56 ec 3a 50 75 37 3d
       0.12410741 -0.0008521128 0.0018031009 0.044789612
000060 17 d2 60 3b af 4b 99 3e 3b 64 e0 be 10 99 26 3b
       0.003430491 0.29940554 -0.4382647 0.0025420822
000070 96 2a 33 3b 50 35 86 be 13 8b a8 3a f2 17 1b 3e
       0.0027338616 -0.2621255 0.001285883 0.15145853
000080 7b e1 ec be 0d c8 27 3e f4 f4 27 3b 4a 5e 2e 3b
       -0.46265778 0.16384907 0.0025628181 0.0026606494
000090 8a b3 fd 3a 3e b4 c8 3e 06 19 1e bb 31 a4 20 3d
       0.0019355875 0.39200014 -0.0024123802 0.039219085
0000a0 e8 d5 cb 3c d2 11 15 3b 6e 69 24 3e b3 a4 69 be
       0.024882272 0.0022746217 0.16055843 -0.22816734
0000b0 ca e8 8d bb 95 ee 7e ba d6 41 3d 3b bc 35 0d bf
       -0.004330729 -0.00097248825 0.0028878353 -0.5516012
0000c0 07 7e 85 b9 c0 6a e4 bd 21 4e d9 3a 3e 9b 90 be
       -0.00025461635 -0.111531734 0.001657907 -0.2824344
0000d0 0d 59 9d ba 4b 54 17 be cd 82 60 3a 8d 16 91 3e
       -0.0012004689 -0.14778249 0.0008564413 0.28337517
0000e0 c3 21 a1 39 2e 8c d0 bd 0f 02 bf ba d8 f9 d0 3a
       0.00030733467 -0.10182987 -0.0014572757 0.00159436
0000f0 6f 01 8f b9 4d cc 2c 3a 38 06 91 ba 15 af 24 bd
       -0.00027276154 0.00065917225 -0.0011064475 -0.040206034

conv_layers.0.att_dst f4 [1, 4, 16]
000000 48 35 5f 40 1e 29 98 40 33 c1 4f c0 ef 12 9e c0
       3.487627 4.755019 -3.246167 -4.939811
000010 cd 72 50 40 95 37 d7 be 92 31 74 c0 77 8a 53 3e
       3.257007 -0.42034593 -3.8155255 0.20658289
000020 75 d2 9b c0 fb 2e 36 40 5b 2d ae c0 74 ce 91 40
       -4.8694406 2.8466175 -5.4430366 4.556452
000030 aa 9e 53 40 53 b2 0a 3d fb c0 be bf 0b d2 8b 40
       3.306559 0.03386147 -1.4902643 4.36939
000040 89 ec a8 3e 07 9b 58 be 01 ec 2a bd af 44 b4 bc
       0.32992962 -0.21152888 -0.041728977 -0.022005407
000050 9b e6 dd bd db e4 a4 ba d0 f7 7c bb f8 ed b7 3e
       -0.10835 -0.0012580411 -0.0038599856 0.35923743
000060 99 53 4c bb 1b dc 55 bf 50 a7 6a bf 8c 09 e7 bb
       -0.0031177758 -0.8353898 -0.9166155 -0.0070506986
000070 e7 51 7d 3a 0f b0 b2 3e e8 6f 70 b9 0d 63 a2 be
       0.00096633885 0.34899947 -0.00022929872 -0.31716195
000080 ed 65 0b 3f 63 e8 3e 3f 64 29 54 3c d2 63 89 3a
       0.544524 0.74573344 0.012949321 0.0010482019
000090 2b 93 9a 3c 79 da 4e 3f 91 24 64 3d ea 80 41 3f
       0.018869003 0.8080211 0.055698935 0.7558733
0000a0 eb 5e 47 3f fa 8f 34 bd 64 93 63 c0 00 de f3 40
       0.7787921 -0.04408262 -3.555871 7.6208496
0000b0 63 71 2b bc 52 ce 19 3c 42 1d 54 3d 22 16 26 3f
       -0.010464045 0.0093875695 0.051785715 0.6487752
0000c0 e3 6d 95 3d d2 b9 64 be d3 43 c4 bc 8d 77 cf 3f
       0.0729635 -0.2233651 -0.023958122 1.6208359
0000d0 2a 43 6f be f3 bf 88 3f de 89 3a 3e b8 76 ee bf
       -0.23365465 1.0683578 0.18216655 -1.862998
0000e0 6e e3 20 bf 95 38 4d 3f 6d 26 96 be 78 05 a1 be
       -0.6284703 0.8016446 -0.29326192 -0.31449485
0000f0 5d f8 f6 be aa 9a 4f 3f c4 12 09 3f eb d3 8b 3e
       -0.4823636 0.81095374 0.5354426 0.27310118

conv_layers.0.bias f4 [64]
000000 2a 60 0b ba c0 dc de be 19 2f 45 bb 0a 65 a6 be
       -0.0005316759 -0.43527794 -0.0030087887 -0.32498962
000010 76 41 5d bf d6 23 d3 ba 36 d2 fc 3e 2c 0e 3a bb
       -0.8642801 -0.0016108702 0.49379128 -0.0028389795
000020 26 a0 10 40 e3 e8 b0 bf 6e e9 1f 3f 6c 13 72 bf
       2.2597747 -1.3821071 0.6246556 -0.94560885
000030 fe 62 a8 ba e6 e9 44 bb 13 cf 25 3f f3 c3 71 bf
       -0.0012846885 -0.003004664 0.64769095 -0.9443962
000040 ed 69 ac bf 36 03 9e 3f 96 12 1d be f8 bf 6c be
       -1.3469826 1.234473 -0.15339121 -0.23120105
000050 3d 67 72 bd 72 ba a1 3a 7c 34 2b 3a b5 f6 a2 bf
       -0.059180487 0.001233889 0.0006530953 -1.2731539
000060 6c 65 de 3a 82 ff 4f 3f 02 0d 26 be 25 d9 1a 3a
       0.0016967482 0.8124925 -0.162159 0.0005906991
000070 0e d6 36 ba 14 5e e1 bd da 4d 45 3a b6 db e7 3d
       -0.00069746457 -0.11004272 0.00075265544 0.113212034
000080 d9 a9 6f be 23 e5 ff bf 11 1f 83 ba 40 bf e1 b9
       -0.23404635 -1.9991802 -0.0010003765 -0.00043057837
000090 ed 73 8d 39 e5 66 44 be ae b7 1c b9 28 1e c9 bf
       0.00026979987 -0.19179876 -0.00014945745 -1.5712328
0000a0 66 d6 c3 be 81 da 29 ba 13 a8 07 3e 98 2d 1c bf
       -0.3824951 -0.0006479398 0.13247709 -0.6100707
0000b0 1c 6f 8b 3a ce 48 48 3a 67 07 f1 ba 42 42 5f bf
       0.0010637972 0.0007640243 -0.0018389047 -0.87210476
0000c0 ff eb 00 3a c7 9c 41 bf 42 45 fc 39 1c 3c 53 bf
       0.00049179787 -0.7562985 0.00048116787 -0.82513595
0000d0 c9 8f 7e ba 33 fe 96 bf 50 ac 2a 3a eb 02 76 3e
       -0.0009710757 -1.1796325 0.0006510662 0.2402455
0000e0 22 61 1c 39 68 01 d5 be 78 21 39 ba b6 4c b9 3a
       0.00014913504 -0.41602635 -0.0007062177 0.0014137242
0000f0 ab 1e 54 ba 51 f9 4a ba 87 c3 23 bb c2 32 0c bf
       -0.0008091728 -0.00077428395 -0.002498837 -0.5476495

conv_layers.0.lin_src.weight f4 [64, 4]
000000 19 55 05 bb d4 66 28 bb 96 07 0a 3a 8a 34 b5 39
       -0.0020344912 -0.0025696056 0.00052654126 0.00034562155
000010 7c 53 d6 3e 80 ed 46 c0 63 c9 42 3e 30 93 c0 3e
       0.4186057 -3.1082458 0.19022135 0.37612295
000020 dc df 1f 3c b1 76 48 ba d2 79 af ba f4 50 6d bb
       0.009757962 -0.0007647081 -0.0013387746 -0.0036211582
000030 3a 8d 90 be 5a 6f 15 40 91 bc eb be 3e 35 fd 3f
       -0.28232747 2.3349214 -0.46042302 1.9781873
000040 80 8e f7 bf 98 8e 2d 40 80 e2 0f 3c 96 2f 77 3f
       -1.9340363 2.7118282 0.008782029 0.96556985
000050 2d ac c8 bc 1b 8c 74 3a 74 a5 1a bb 7a f5 71 bb
       -0.024496162 0.00093287387 -0.0023597153 -0.0036919997
000060 6c 5f 80 3f 02 dd 2a 40 93 ca 36 be 9c 15 12 bf
       1.002912 2.6697392 -0.17850713 -0.57064223
000070 df 0b 9e bc bb 4b d1 ba e6 38 9b ba 83 c1 88 bb
       -0.01929277 -0.0015968004 -0.0011842519 -0.004173459
000080 ca 24 2d bf 80 0f 3a c0 74 31 c0 be c9 ff de bf
       -0.6763426 -2.907196 -0.3753773 -1.742181
000090 d4 b9 36 3e 64 94 49 40 f8 0a 2c 3d 3f 57 b7 3f
       0.17844325 3.149682 0.042002648 1.43235
0000a0 c4 61 0d c0 4f 2c 15 c0 65 29 5d bf 8e be e8 3d
       -2.2090921 -2.3308294 -0.8639129 0.113644704
0000b0 ed 34 67 3f dc eb 6e 40 0c 3a a0 3d 7f 31 bf 3f
       0.90315133 3.7331457 0.078235716 1.493698
0000c0 d1 58 83 3c 29 8d 4c 3b 1a a6 e6 3a 87 44 1f 3b
       0.016033562 0.0031212068 0.001759711 0.002430232
0000d0 bf a8 3f bc 04 9c 31 bb 5b a9 04 bb 9e db 66 bb
       -0.011697947 -0.002710105 -0.0020242545 -0.0035226117
0000e0 06 43 ae c0 e3 6c bf bf 17 6e 0e bd 8c 56 10 bf
       -5.4456816 -1.4955105 -0.03477296 -0.5638206
0000f0 a1 73 a0 bf 58 02 65 40 03 08 18 3e 83 29 33 bf
       -1.2535287 3.578268 0.14846806 -0.69985217
000100 f7 6d f5 be 60 04 e1 3f e6 75 5c 3e 40 1a 49 c0
       -0.4793546 1.757946 0.2152935 -3.1422272
000110 5c 5f 2f 3e 1f 8c 21 c0 42 e0 82 bd 14 60 bd c0
       0.1712622 -2.5241773 -0.0639043 -5.9179783
000120 31 8e db bf fe 07 2e c0 1b 01 00 3e cd a6 19 3f
       -1.7152768 -2.7192378 0.12500422 0.6002014
000130 7c ea 08 bd 53 c7 5a c0 b9 bb 5e 3e dc 2f ad 3e
       -0.033426747 -3.4184158 0.21751298 0.33825576
000140 31 bd 03 c0 f1 54 2e 3f c6 8e 13 bd ec b3 de 3f
       -2.0584223 0.6809836 -0.03602483 1.7398658
000150 26 a9 1c ba 7b b6 27 ba c4 09 f6 b8 26 60 f9 3a
       -0.0005976133 -0.0006397736 -0.00011732013 0.0019025847
000160 16 a1 4b 3b 4e 30 0e ba 3a f6 73 3a 3f 0c 32 3b
       0.0031071356 -0.0005424068 0.0009306405 0.0027167944
000170 b0 80 89 be 4e 7e d2 3f 2d 30 9f 3e 88 c5 ce bf
       -0.26855993 1.6444795 0.31091443 -1.6154032
000180 4c 4a 10 3c ba 8f b7 ba aa 23 e5 39 c9 e9 be b9
       0.008806776 -0.0014004626 0.00043704855 -0.00036413808
000190 ac e4 c4 be 5d 49 4f c0 dc 62 bd bc 88 52 51 3f
       -0.38455713 -3.2388527 -0.023118429 0.8176656
0001a0 9e 42 55 bd 13 e4 6f c0 1c 62 16 3e fd 87 83 3f
       -0.052065484 -3.7482955 0.14685863 1.0275875
0001b0 b4 ac 81 b9 07 ac 9c 38 9a 23 c2 3a 1d c5 fd b9
       -0.0002473347 7.470702e-05 0.0014811635 -0.0004840278
0001c0 b9 2c 87 bb d0 c6 ad ba 23 f2 ff 3a c5 af 82 38
       -0.0041252044 -0.0013258103 0.0019527118 6.231623e-05
0001d0 5d 0e e0 3f c1 aa 8f bf 8e 02 3e 3c 56 0a 90 40
       1.7504383 -1.1223985 0.011597289 4.5012617
0001e0 fd 4f 2e b9 52 78 d6 39 c5 c2 72 3a 99 83 86 3a
       -0.00016623731 0.00040906906 0.00092605903 0.0010262608
0001f0 bd f7 85 3d 42 cb 3a be af 7a a3 3b db 4f bc bf
       0.06541393 -0.18241599 0.0049889903 -1.471187
000200 29 52 46 c0 ac e8 92 40 94 cd ef bd 59 ec 70 3e
       -3.0987647 4.5909023 -0.11709133 0.2352766
000210 33 06 1b 3f 6d 06 b2 bf f8 49 0f 3f 7f 94 f7 3f
       0.60556334 -1.3908211 0.5597224 1.9342192
000220 3c 1b ab ba a7 9d 9c ba 96 f1 92 ba 2c d3 1a bb
       -0.0013054381 -0.001194884 -0.0011210914 -0.0023624403
000230 89 0c 8c ba 6d be b6 bb 23 91 1f 3b 00 01 90 ba
       -0.0010684888 -0.0055768997 0.0024347983 -0.0010986626
000240 48 ed a2 3b 0e c0 74 bb 50 37 15 3b da 99 66 39
       0.004972134 -0.0037345919 0.0022768565 0.00021991823
000250 70 ee 66 bf 18 bc db 3f e7 15 bc be 94 97 ad 3f
       -0.90207577 1.7166777 -0.3673546 1.3561883
000260 eb 24 97 bb fc 71 08 bb 9f 08 c3 3a 18 fb 48 39
       -0.0046125553 -0.0020819893 0.0014879889 0.00019167026
000270 e0 e0 20 c0 c3 36 f0 3e e2 a8 93 3e e2 58 cc 3f
       -2.5137253 0.4691678 0.28839785 1.5964625
000280 cc 15 85 bf 8f 00 63 3f d9 f1 3f 3d bd 63 c4 3e
       -1.0397277 0.8867273 0.046861503 0.38357344
000290 67 02 a1 3b c4 8f 44 3b 63 42 ea ba ba fb 76 ba
       0.0049136165 0.0029992918 -0.0017872568 -0.00094216655
0002a0 79 32 f6 3e db 07 1e 40 dd d9 8a be e5 9b bb 3c
       0.48085383 2.4692295 -0.27119341 0.022901485
0002b0 6b 00 51 40 09 d0 84 40 fe db e0 3f 17 b8 96 bc
       3.2656505 4.150395 1.7567136 -0.018398328
0002c0 86 07 a5 ba d3 6f 79 3b 66 7d e9 ba 5c 87 e3 3a
       -0.0012590743 0.0038061037 -0.0017813861 0.0017359066
0002d0 0c 2e a3 3b d6 ce f4 3a 22 8a a4 ba 17 87 22 3b
       0.0049798544 0.0018677365 -0.0012553374 0.0024799758
0002e0 07 c4 d4 bb 1d f1 50 bb 9f 87 70 3a 65 4e 3f bb
       -0.006493095 -0.0031881996 0.00091754826 -0.0029191014
0002f0 10 85 47 40 9c b7 90 40 22 f4 46 3b de c1 60 3f
       3.1174965 4.5224133 0.0030357917 0.8779582
000300 f2 2b 26 3b 88 33 53 b7 2e bd b2 3a 0e e6 f3 3a
       0.0025355783 -1.2588578e-05 0.0013636702 0.001860799
000310 9b 28 b2 3e 1a 54 59 40 26 e0 58 3e f6 61 93 bf
       0.34796605 3.3957582 0.21179256 -1.151427
000320 75 8d 97 bb 52 e4 e7 3b b7 85 2d ba dc 21 97 ba
       -0.0046250173 0.0070767784 -0.00066193513 -0.0011530477
000330 75 99 10 3f b8 1a 7e 40 2d 87 94 3c 77 d7 19 3f
       0.56484157 3.9703808 0.018130863 0.600944
000340 cf 96 35 bc 49 d2 b8 bb cc ce 9a ba f2 4b be ba
       -0.011083319 -0.0056403023 -0.0011810898 -0.0014518483
000350 2e 06 04 3f 8c 89 89 3f d1 b2 47 3e 13 f6 84 3f
       0.5157193 1.0745101 0.19501807 1.0387596
000360 73 06 83 3b 43 12 43 bb 25 ad 1c 39 0b 37 b2 39
       0.0039985715 -0.0029765524 0.0001494182 0.00033991816
000370 3f d9 98 be 17 db 70 40 b0 67 21 be 2a 9a 72 bf
       -0.29853246 3.7633722 -0.1576221 -0.94766486
000380 c6 0b be bb 61 dd 3c 3b 19 93 cd ba 6f d5 11 3a
       -0.0057997433 0.0028818476 -0.0015684097 0.0005563115
000390 b5 29 8e bf 32 cc 31 c0 94 96 32 3e 2e ad 09 3f
       -1.1106478 -2.778088 0.17440253 0.53779876
0003a0 75 0f 49 3b c3 35 d3 bb ff 2d 00 ba 1c c0 a5 3a
       0.003067938 -0.006445618 -0.00048896665 0.0012645754
0003b0 e4 e1 3d 3c 1b bd e5 3a d1 15 0d 3a fd b9 e2 3a
       0.011589501 0.0017527671 0.0005381974 0.001729786
0003c0 77 32 00 bb 69 fe 24 3b b8 be 58 b9 f4 18 91 b9
       -0.001956133 0.0025176054 -0.00020670414 -0.00027675147
0003d0 23 79 a3 bb b2 c4 65 3b 16 ec a5 39 87 14 66 3a
       -0.004988806 0.0035059866 0.0003164715 0.00087768625
0003e0 12 7a b2 ba 5d 1a 6e 3a 96 54 01 bb 1e 3c 1f ba
       -0.0013616702 0.0009082908 -0.0019734255 -0.0006074327
0003f0 4d 46 2a c0 6c fb e8 3f 15 7f e8 3c bb 68 20 3f
       -2.6605408 1.8201728 0.02838091 0.62659806

conv_layers.0.lin_dst.weight f4 [64, 4]
000000 19 55 05 bb d4 66 28 bb 96 07 0a 3a 8a 34 b5 39
       -0.0020344912 -0.0025696056 0.00052654126 0.00034562155
000010 7c 53 d6 3e 80 ed 46 c0 63 c9 42 3e 30 93 c0 3e
       0.4186057 -3.1082458 0.19022135 0.37612295
000020 dc df 1f 3c b1 76 48 ba d2 79 af ba f4 50 6d bb
       0.009757962 -0.0007647081 -0.0013387746 -0.0036211582
000030 3a 8d 90 be 5a 6f 15 40 91 bc eb be 3e 35 fd 3f
       -0.28232747 2.3349214 -0.46042302 1.9781873
000040 80 8e f7 bf 98 8e 2d 40 80 e2 0f 3c 96 2f 77 3f
       -1.9340363 2.7118282 0.008782029 0.96556985
000050 2d ac c8 bc 1b 8c 74 3a 74 a5 1a bb 7a f5 71 bb
       -0.024496162 0.00093287387 -0.0023597153 -0.0036919997
000060 6c 5f 80 3f 02 dd 2a 40 93 ca 36 be 9c 15 12 bf
       1.002912 2.6697392 -0.17850713 -0.57064223
000070 df 0b 9e bc bb 4b d1 ba e6 38 9b ba 83 c1 88 bb
       -0.01929277 -0.0015968004 -0.0011842519 -0.004173459
000080 ca 24 2d bf 80 0f 3a c0 74 31 c0 be c9 ff de bf
       -0.6763426 -2.907196 -0.3753773 -1.742181
000090 d4 b9 36 3e 64 94 49 40 f8 0a 2c 3d 3f 57 b7 3f
       0.17844325 3.149682 0.042002648 1.43235
0000a0 c4 61 0d c0 4f 2c 15 c0 65 29 5d bf 8e be e8 3d
       -2.2090921 -2.3308294 -0.8639129 0.113644704
0000b0 ed 34 67 3f dc eb 6e 40 0c 3a a0 3d 7f 31 bf 3f
       0.90315133 3.7331457 0.078235716 1.493698
0000c0 d1 58 83 3c 29 8d 4c 3b 1a a6 e6 3a 87 44 1f 3b
       0.016033562 0.0031212068 0.001759711 0.002430232
0000d0 bf a8 3f bc 04 9c 31 bb 5b a9 04 bb 9e db 66 bb
       -0.011697947 -0.002710105 -0.0020242545 -0.0035226117
0000e0 06 43 ae c0 e3 6c bf bf 17 6e 0e bd 8c 56 10 bf
       -5.4456816 -1.4955105 -0.03477296 -0.5638206
0000f0 a1 73 a0 bf 58 02 65 40 03 08 18 3e 83 29 33 bf
       -1.2535287 3.578268 0.14846806 -0.69985217
000100 f7 6d f5 be 60 04 e1 3f e6 75 5c 3e 40 1a 49 c0
       -0.4793546 1.757946 0.2152935 -3.1422272
000110 5c 5f 2f 3e 1f 8c 21 c0 42 e0 82 bd 14 60 bd c0
       0.1712622 -2.5241773 -0.0639043 -5.9179783
000120 31 8e db bf fe 07 2e c0 1b 01 00 3e cd a6 19 3f
       -1.7152768 -2.7192378 0.12500422 0.6002014
000130 7c ea 08 bd 53 c7 5a c0 b9 bb 5e 3e dc 2f ad 3e
       -0.033426747 -3.4184158 0.21751298 0.33825576
000140 31 bd 03 c0 f1 54 2e 3f c6 8e 13 bd ec b3 de 3f
       -2.0584223 0.6809836 -0.03602483 1.7398658
000150 26 a9 1c ba 7b b6 27 ba c4 09 f6 b8 26 60 f9 3a
       -0.0005976133 -0.0006397736 -0.00011732013 0.0019025847
000160 16 a1 4b 3b 4e 30 0e ba 3a f6 73 3a 3f 0c 32 3b
       0.0031071356 -0.0005424068 0.0009306405 0.0027167944
000170 b0 80 89 be 4e 7e d2 3f 2d 30 9f 3e 88 c5 ce bf
       -0.26855993 1.6444795 0.31091443 -1.6154032
000180 4c 4a 10 3c ba 8f b7 ba aa 23 e5 39 c9 e9 be b9
       0.008806776 -0.0014004626 0.00043704855 -0.00036413808
000190 ac e4 c4 be 5d 49 4f c0 dc 62 bd bc 88 52 51 3f
       -0.38455713 -3.2388527 -0.023118429 0.8176656
0001a0 9e 42 55 bd 13 e4 6f c0 1c 62 16 3e fd 87 83 3f
       -0.052065484 -3.7482955 0.14685863 1.0275875
0001b0 b4 ac 81 b9 07 ac 9c 38 9a 23 c2 3a 1d c5 fd b9
       -0.0002473347 7.470702e-05 0.0014811635 -0.0004840278
0001c0 b9 2c 87 bb d0 c6 ad ba 23 f2 ff 3a c5 af 82 38
       -0.0041252044 -0.0013258103 0.0019527118 6.231623e-05
0001d0 5d 0e e0 3f c1 aa 8f bf 8e 02 3e 3c 56 0a 90 40
       1.7504383 -1.1223985 0.011597289 4.5012617
0001e0 fd 4f 2e b9 52 78 d6 39 c5 c2 72 3a 99 83 86 3a
       -0.00016623731 0.00040906906 0.00092605903 0.0010262608
0001f0 bd f7 85 3d 42 cb 3a be af 7a a3 3b db 4f bc bf
       0.06541393 -0.18241599 0.0049889903 -1.471187
000200 29 52 46 c0 ac e8 92 40 94 cd ef bd 59 ec 70 3e
       -3.0987647 4.5909023 -0.11709133 0.2352766
000210 33 06 1b 3f 6d 06 b2 bf f8 49 0f 3f 7f 94 f7 3f
       0.60556334 -1.3908211 0.5597224 1.9342192
000220 3c 1b ab ba a7 9d 9c ba 96 f1 92 ba 2c d3 1a bb
       -0.0013054381 -0.001194884 -0.0011210914 -0.0023624403
000230 89 0c 8c ba 6d be b6 bb 23 91 1f 3b 00 01 90 ba
       -0.0010684888 -0.0055768997 0.0024347983 -0.0010986626
000240 48 ed a2 3b 0e c0 74 bb 50 37 15 3b da 99 66 39
       0.004972134 -0.0037345919 0.0022768565 0.00021991823
000250 70 ee 66 bf 18 bc db 3f e7 15 bc be 94 97 ad 3f
       -0.90207577 1.7166777 -0.3673546 1.3561883
000260 eb 24 97 bb fc 71 08 bb 9f 08 c3 3a 18 fb 48 39
       -0.0046125553 -0.0020819893 0.0014879889 0.00019167026
000270 e0 e0 20 c0 c3 36 f0 3e e2 a8 93 3e e2 58 cc 3f
       -2.5137253 0.4691678 0.28839785 1.5964625
000280 cc 15 85 bf 8f 00 63 3f d9 f1 3f 3d bd 63 c4 3e
       -1.0397277 0.8867273 0.046861503 0.38357344
000290 67 02 a1 3b c4 8f 44 3b 63 42 ea ba ba fb 76 ba
       0.0049136165 0.0029992918 -0.0017872568 -0.00094216655
0002a0 79 32 f6 3e db 07 1e 40 dd d9 8a be e5 9b bb 3c
       0.48085383 2.4692295 -0.27119341 0.022901485
0002b0 6b 00 51 40 09 d0 84 40 fe db e0 3f 17 b8 96 bc
       3.2656505 4.150395 1.7567136 -0.018398328
0002c0 86 07 a5 ba d3 6f 79 3b 66 7d e9 ba 5c 87 e3 3a
       -0.0012590743 0.0038061037 -0.0017813861 0.0017359066
0002d0 0c 2e a3 3b d6 ce f4 3a 22 8a a4 ba 17 87 22 3b
       0.0049798544 0.0018677365 -0.0012553374 0.0024799758
0002e0 07 c4 d4 bb 1d f1 50 bb 9f 87 70 3a 65 4e 3f bb
       -0.006493095 -0.0031881996 0.00091754826 -0.0029191014
0002f0 10 85 47 40 9c b7 90 40 22 f4 46 3b de c1 60 3f
       3.1174965 4.5224133 0.0030357917 0.8779582
000300 f2 2b 26 3b 88 33 53 b7 2e bd b2 3a 0e e6 f3 3a
       0.0025355783 -1.2588578e-05 0.0013636702 0.001860799
000310 9b 28 b2 3e 1a 54 59 40 26 e0 58 3e f6 61 93 bf
       0.34796605 3.3957582 0.21179256 -1.151427
000320 75 8d 97 bb 52 e4 e7 3b b7 85 2d ba dc 21 97 ba
       -0.0046250173 0.0070767784 -0.00066193513 -0.0011530477
000330 75 99 10 3f b8 1a 7e 40 2d 87 94 3c 77 d7 19 3f
       0.56484157 3.9703808 0.018130863 0.600944
000340 cf 96 35 bc 49 d2 b8 bb cc ce 9a ba f2 4b be ba
       -0.011083319 -0.0056403023 -0.0011810898 -0.0014518483
000350 2e 06 04 3f 8c 89 89 3f d1 b2 47 3e 13 f6 84 3f
       0.5157193 1.0745101 0.19501807 1.0387596
000360 73 06 83 3b 43 12 43 bb 25 ad 1c 39 0b 37 b2 39
       0.0039985715 -0.0029765524 0.0001494182 0.00033991816
000370 3f d9 98 be 17 db 70 40 b0 67 21 be 2a 9a 72 bf
       -0.29853246 3.7633722 -0.1576221 -0.94766486
000380 c6 0b be bb 61 dd 3c 3b 19 93 cd ba 6f d5 11 3a
       -0.0057997433 0.0028818476 -0.0015684097 0.0005563115
000390 b5 29 8e bf 32 cc 31 c0 94 96 32 3e 2e ad 09 3f
       -1.1106478 -2.778088 0.17440253 0.53779876
0003a0 75 0f 49 3b c3 35 d3 bb ff 2d 00 ba 1c c0 a5 3a
       0.003067938 -0.006445618 -0.00048896665 0.0012645754
0003b0 e4 e1 3d 3c 1b bd e5 3a d1 15 0d 3a fd b9 e2 3a
       0.011589501 0.0017527671 0.0005381974 0.001729786
0003c0 77 32 00 bb 69 fe 24 3b b8 be 58 b9 f4 18 91 b9
       -0.001956133 0.0025176054 -0.00020670414 -0.00027675147
0003d0 23 79 a3 bb b2 c4 65 3b 16 ec a5 39 87 14 66 3a
       -0.004988806 0.0035059866 0.0003164715 0.00087768625
0003e0 12 7a b2 ba 5d 1a 6e 3a 96 54 01 bb 1e 3c 1f ba
       -0.0013616702 0.0009082908 -0.0019734255 -0.0006074327
0003f0 4d 46 2a c0 6c fb e8 3f 15 7f e8 3c bb 68 20 3f
       -2.6605408 1.8201728 0.02838091 0.62659806

conv_layers.1.att_src f4 [1, 4, 16]
000000 6a 19 80 bd 77 3a e1 be d3 0a cd be 0d 6a 77 be
       -0.06254847 -0.43989918 -0.4004732 -0.24161549
000010 ae 57 09 be 46 51 89 3d db f9 31 be 89 85 c3 3d
       -0.13412353 0.06704955 -0.17380469 0.09546954
000020 5d c7 20 3e a6 be 19 3d d2 ea dd 3c 52 7b db 3d
       0.15701051 0.037535332 0.02708951 0.10716881
000030 d7 ad a2 bd b3 be 2c be f7 f9 95 3d df 95 22 bf
       -0.079433136 -0.16869621 0.07323068 -0.63509935
000040 fe a9 fc bd 9c 8c 16 3e 42 7d 51 be b8 7c 90 bc
       -0.12337111 0.14702076 -0.20457938 -0.017637596
000050 53 5a 51 bf de 65 12 3e 74 ba 0b bf 0c 61 ba bc
       -0.8177845 0.14296672 -0.5458138 -0.022751354
000060 27 e2 b9 3d a3 9e 05 bf 53 22 2c be 71 f3 bd be
       0.09076338 -0.52195185 -0.16809969 -0.37099794
000070 78 89 e6 3e a4 5d 7a be 61 98 60 bf b3 79 89 be
       0.45026755 -0.24449784 -0.8773251 -0.26850662
000080 b5 9c 42 be 80 1d 2d 3e 0f a4 b4 3e d8 3f a3 3e
       -0.19005091 0.16905785 0.35281417 0.31884646
000090 76 2f 8e 3e 56 d4 88 3b dd 71 b0 bc e6 aa a5 bd
       0.27770585 0.004175703 -0.02153867 -0.08089237
0000a0 1a 2e 2d 3e af c9 f4 3d 88 f6 cd 3d c2 b7 85 3e
       0.16912118 0.119525306 0.10056788 0.2611676
0000b0 a3 8d 17 be 18 d3 8a 3c a1 35 82 be 2e d2 93 ba
       -0.14800124 0.01694636 -0.2543154 -0.0011277848
0000c0 78 ec af 3c c1 60 99 3e 26 e2 1b be f0 40 3a bf
       0.021475062 0.2995663 -0.15222988 -0.72755337
0000d0 a0 cc 9b 3d dc 32 1d bd 6c 4d 4a bd 81 da 33 3e
       0.076073885 -0.03837858 -0.04939024 0.17563821
0000e0 c2 82 7d 3d 46 dc 2e be 47 96 52 bd 9a 47 e5 3b
       0.06189228 -0.17076215 -0.051412847 0.006997061
0000f0 84 4d e9 bc 98 46 40 3d 30 b8 11 3d d4 42 64 bc
       -0.028479345 0.046942323 0.035576046 -0.013931949

conv_layers.1.att_dst f4 [1, 4, 16]
000000 56 c6 9e 3c 7b c3 63 3d a8 7f ce 3d 75 b6 ab 3e
       0.019381683 0.055606347 0.10082942 0.3353764
000010 e0 3c 64 3e 50 f1 11 be dd c5 49 be eb cb 3a 3c
       0.22288847 -0.1425221 -0.19704385 0.011401157
000020 fd 61 9a bd 7d 54 19 bf d6 93 d2 3e a9 ca 8b 3d
       -0.07538221 -0.59894544 0.41128415 0.06825764
000030 38 c5 7c be 9c ba 31 3f c6 41 1e bd b3 2e 18 3f
       -0.24684608 0.6942537 -0.038636945 0.5944626
000040 82 93 35 3e 68 ac 78 3c 80 ec f4 3e 69 af c2 be
       0.17732051 0.015177824 0.47836685 -0.38024452
000050 27 00 2f be 81 b9 19 be bf 01 a2 be b3 48 81 3d
       -0.17089902 -0.1501217 -0.31641957 0.063126944
000060 fe ee 42 bf 89 20 07 bf b3 78 a9 bc b2 b3 00 be
       -0.76145923 -0.5278402 -0.020687437 -0.12568548
000070 16 d6 f2 be 12 6b 91 be b5 5e 47 bf bf 87 68 3f
       -0.4742896 -0.28402 -0.77878886 0.9083213
000080 f4 fa 92 bf 86 b0 ca 3e c9 04 94 c0 54 9c 98 3f
       -1.1482835 0.39587802 -4.625584 1.1922708
000090 b9 ac 23 c0 c1 ef 8e bf 45 6d 21 c0 31 1b f0 be
       -2.5574172 -1.1166917 -2.5222943 -0.46895745
0000a0 40 e3 c2 3f 1d a9 6e c0 6c 9b c0 3e 6c b9 b3 3f
       1.5225601 -3.7290719 0.37618577 1.4040961
0000b0 13 ea f2 3e d7 90 8f 3f e9 8e 47 be a6 29 55 3d
       0.4744421 1.1216077 -0.1948811 0.052041672
0000c0 f5 49 0c c0 5f 2d 62 be 1a e3 28 c0 20 e2 d0 bf
       -2.192014 -0.2208762 -2.6388612 -1.6319008
0000d0 87 04 bd c0 cf b5 34 3f 60 57 63 bf 3d 74 8b 3e
       -5.9068027 0.7058992 -0.888052 0.2723712
0000e0 40 35 e6 3f 2d bb 17 40 41 b5 ae 3f 2e 9c 5f be
       1.7985001 2.3707993 1.3649064 -0.21836922
0000f0 18 74 c4 bf 80 e9 5d 3f 00 24 db be 06 36 c1 3f
       -1.5347929 0.8668442 -0.42800903 1.5094612

conv_layers.1.bias f4 [64]
000000 98 d5 04 3e c2 2c 40 bf 61 df c0 bf c4 bb b8 3f
       0.12972105 -0.75068295 -1.506817 1.4432302
000010 da fd 5f 3f cf b3 90 bf d0 da 8f bf f9 18 b5 be
       0.8749672 -1.1304873 -1.1238651 -0.35370615
000020 83 7e 16 bf 6e 88 2e bf 48 12 9a 3d 71 e5 ad bd
       -0.5878679 -0.68176925 0.07523018 -0.08491028
000030 ca f0 1d be b6 30 59 3f f8 25 0b 3f a6 cf ba be
       -0.15423885 0.8483995 0.5435481 -0.36486548
000040 18 2c ef be 48 83 86 3f 5a 12 fd bf ac 36 06 3f
       -0.46713328 1.0508814 -1.9771225 0.5242717
000050 c9 68 b9 bf c6 ec 89 be b7 0a c4 3e 7a 9f 54 3f
       -1.4485103 -0.26938456 0.38289425 0.8305584
000060 36 ca 92 3f 53 f7 ed 3e e3 d3 1a be 7d e0 29 3f
       1.146796 0.46477756 -0.15119891 0.66358167
000070 2b 5e da 3e b5 b1 d9 3e 56 ed 8f be 43 67 de be
       0.4264997 0.42518392 -0.2811076 -0.43438157
000080 e7 3a 90 bf b9 db 89 bd 54 e4 5c be de 3f 43 40
       -1.1267976 -0.06731362 -0.21571475 3.0507731
000090 68 9a 06 be 29 eb 49 41 35 df 05 3e 9c 8c 23 bd
       -0.13144839 12.619912 0.13073428 -0.039929017
0000a0 79 89 a3 3e ce 00 73 3e 57 1d 69 3f f6 f8 22 bd
       0.3194082 0.23730776 0.91060394 -0.03978821
0000b0 06 f6 b7 3e 7e 32 7b bf 9a 37 5c 3f 2b ef 36 3e
       0.35929888 -0.9812392 0.8602234 0.17864673
0000c0 3d 62 2d 3f d7 ce 0e 3e 94 c7 63 be 87 c8 9b bf
       0.67728025 0.1394609 -0.22244102 -1.2170571
0000d0 9d 51 5d 3f 95 05 26 3f db 4c d2 bd a2 fe 99 3e
       0.86452657 0.6485227 -0.10268565 0.30077082
0000e0 e1 3f 4d 3e 01 97 68 bf a3 68 5e bf 0a a9 b0 be
       0.20043899 -0.90855414 -0.8687841 -0.34503967
0000f0 30 57 77 3e e1 a7 c0 3e 96 14 82 bd d6 c2 5f 3e
       0.24154353 0.3762808 -0.06351583 0.21851668

conv_layers.1.lin_src.weight f4 [64, 64]
000000 df 0f 0e 3c 54 3c 4d 3f 9a 28 b5 3a 49 03 ec 3d
       0.008670776 0.8017018 0.0013821304 0.11524064
000010 09 ac b4 3f e8 7a f7 3c f7 76 c6 bf 52 59 ec bb
       1.4115001 0.030209973 -1.5505055 -0.0072127962
000020 0e 6c e9 bd d7 3d fd 3f 1d b8 a6 be 54 fb 73 3e
       -0.11397563 1.9784497 -0.32562342 0.23826343
000030 02 2f 24 bb 7c f3 84 3c 9a 37 ed be 57 54 8d bf
       -0.0025052433 0.016229384 -0.46331483 -1.1041363
000040 2d 94 06 40 c9 7f 74 bf 58 93 c6 3d eb 60 75 bf
       2.102794 -0.95507485 0.09696072 -0.9585101
000050 07 58 a0 be f5 74 bc bb 4f 54 66 bc 24 7e 8c 3d
       -0.3131716 -0.005751247 -0.014058187 0.06859997
000060 23 cc 03 bc 3e a9 0b c0 d6 b1 d4 bf 8f 22 d1 3b
       -0.008044275 -2.1822047 -1.6616771 0.0063822935
000070 91 13 0f bc 06 1e 90 3e c4 5a ea 3b 12 fa 7d 3d
       -0.008732692 0.28147906 0.0071519334 0.062006064
000080 46 46 db bf 8b 54 b6 be e5 e6 8c 3a 34 f5 5e bb
       -1.7130821 -0.35611376 0.0010749964 -0.0034020664
000090 c0 29 47 bb 6b b6 d7 bf a9 c7 20 3c 33 55 89 bf
       -0.0030389875 -1.6852545 0.009813228 -1.0729126
0000a0 f3 8e b2 be 6c 80 58 3b 6b 90 85 bf e3 df 3a 3f
       -0.34874687 0.003303553 -1.0434698 0.72997874
0000b0 49 49 af 3a 25 7f a7 bb d3 2a e2 3b 08 1c 8e bf
       0.0013373281 -0.0051115924 0.0069020777 -1.1102304
0000c0 d6 8a ae 3b 21 66 4e 3f 5a 2d 21 3c 28 d0 f9 3f
       0.005326609 0.80624586 0.009837473 1.9516649
0000d0 82 73 1d 3c f3 83 20 3f 73 d5 9d 3b c6 1c 83 3f
       0.009610059 0.6270134 0.004816705 1.0243156
0000e0 a6 00 70 bc 24 e0 5b be 6c d3 6a bc d5 01 c0 bc
       -0.014648592 -0.21472222 -0.014332633 -0.023438374
0000f0 26 01 08 bb a5 7c 04 3c b7 9c 84 3c 04 e9 24 bf
       -0.0020752638 0.008086358 0.016188009 -0.64418054
000100 bd d4 3a 3c ad 9b 61 bf 58 20 15 3c 5a 4a 9b 3d
       0.01140326 -0.8812817 0.00910195 0.07582541
000110 8e 74 73 3f ae 62 ff ba 1f da f9 be 3a b6 05 3c
       0.95099723 -0.0019484365 -0.48799226 0.008161122
000120 bc 17 4a bd b5 91 24 3e e2 98 b9 3e 8e 2d f9 be
       -0.04933904 0.16071208 0.36249453 -0.48667568
000130 6c a1 d8 bb d0 96 35 3c e3 28 56 be ff e0 f0 be
       -0.00661104 0.01108332 -0.20914035 -0.47046658
000140 62 4c 1c bf 96 89 1c 3f 39 d0 1f bf 33 d3 2d 3f
       -0.6105405 0.6114744 -0.624271 0.6790039
000150 8f 9f ab be ce c0 f9 3b 98 72 3e bc 96 6e f5 3e
       -0.3352017 0.007621861 -0.011624001 0.47935933
000160 97 fc ad bc 74 06 15 3f c7 f3 fc 3e 9d 7e 88 bc
       -0.021238608 0.5821297 0.49404737 -0.016661936
000170 dd 8b b5 3c b0 bb 2d bf 80 b5 eb 3b 77 12 c0 3e
       0.022161419 -0.67864513 0.0071932673 0.37514088
000180 f7 c3 b4 bf ce 7c 05 be 5e 79 7a ba 46 a3 b4 3b
       -1.4122304 -0.1303589 -0.0009554828 0.005512628
000190 c1 93 9b 3a 5d 6d f1 3c cb be 5e bb df d6 75 3f
       0.0011869596 0.029471094 -0.0033988233 0.9603099
0001a0 67 89 07 be ed 94 0d 3a 44 15 52 3f c5 77 b1 bf
       -0.13236009 0.0005400915 0.820637 -1.3864676
0001b0 56 c7 04 bc 67 ef 23 b9 e2 ad b4 bb e9 ff 4b bf
       -0.008104166 -0.00015634076 -0.0055138925 -0.7968736
0001c0 33 36 7c ba 48 0a 2c c0 09 2a 9d bb 44 7a 34 bf
       -0.00096211134 -2.6881275 -0.0047962707 -0.7049906
0001d0 e6 21 1a 3b 33 86 b0 be 0b 48 e2 3a 3f fc 96 bf
       0.002351874 -0.34477386 0.0017263902 -1.1795729
0001e0 78 84 ee 3b 63 22 63 3e ee 70 59 ba 46 53 10 3c
       0.007278975 0.22181086 -0.0008294721 0.008808916
0001f0 84 34 a0 3b b0 ea 85 3c 58 4e fa 3b bc 2a 56 3c
       0.004889073 0.01634726 0.007638734 0.013071712
000200 a4 55 37 bb b8 7d 4f be 99 91 13 3b ae 3d 0f 3e
       -0.002797463 -0.20262802 0.0022517203 0.13988373
000210 9e cc 69 3f 50 da 4e 3b 28 a2 d6 be ef 29 c8 bb
       0.91327846 0.003156323 -0.4192059 -0.0061085145
000220 85 9a 02 be a7 b2 06 40 ee 13 c3 3e 0c 06 8a bf
       -0.12754257 2.104654 0.38101143 -1.0783095
000230 50 f7 91 3b e1 87 3c 3c ec b7 20 bf d1 1a 9a 3f
       0.004454531 0.011507005 -0.6278064 1.2039434
000240 d3 cc 04 3f 3a 7c 5a 40 8d b9 dc be c4 7d 46 bf
       0.51875037 3.4138322 -0.43110314 -0.77535653
000250 bd 6c 40 bf 1c 53 45 3c bf 5d 76 3c 8f c1 20 3f
       -0.7516592 0.012043741 0.015036999 0.62795347
000260 34 f7 67 3c c4 9f c9 3f ba 13 da 3e 07 f3 bf bb
       0.014158059 1.5751882 0.42593175 -0.0058578285
000270 a3 9d 33 3c 5c 23 72 bf 26 ab 87 3c 83 0b 33 3f
       0.0109628765 -0.94585204 0.016561102 0.6993944
000280 03 2e 9e 3f 8f 9c 67 3f 33 b8 13 bc 41 01 f1 b8
       1.2357792 0.90473264 -0.0090160845 -0.00011492009
000290 2a d4 10 3b 24 70 31 c0 47 86 2d 39 62 1f 82 3e
       0.0022099116 -2.7724695 0.00016548588 0.25414568
0002a0 84 8c 84 be 1c f9 9f bb 98 20 b1 bf fd 45 9d bd
       -0.25888455 -0.004881991 -1.3838072 -0.07679365
0002b0 e6 26 43 3b 07 24 0f 3b c8 f8 4e bb 41 c3 5e 3f
       0.0029777824 0.0021841542 -0.003158139 0.87016684
0002c0 87 a8 71 bc 8a c0 aa bf f7 38 35 3c d0 8a 08 c0
       -0.014749653 -1.3340008 0.011060945 -2.1334724
0002d0 1f 5c 50 3c b2 0d 76 bf 98 35 d9 3b 2e 2c 2f 3e
       0.012717276 -0.9611465 0.0066287033 0.17106697
0002e0 6b 9a 63 bb 82 fd ac 3c d7 80 1a bb 2e 19 4d ba
       -0.0034729491 0.021116976 -0.002357533 -0.00078238815
0002f0 8b f3 b8 3a a4 73 78 bc 84 2b 52 3c 65 78 4f bf
       0.0014110667 -0.01516429 0.012827758 -0.8104308
000300 c4 35 0b 3c 71 0c 0c 3f f7 93 be bb b6 4b a3 3e
       0.008496705 0.54706484 -0.0058159786 0.318937
000310 29 71 3a bd 60 11 68 3a a8 0d 5f bf 86 a3 de bb
       -0.045518074 0.0008852687 -0.8713021 -0.006794396
000320 fa 50 69 bd 6d ae ae bf 38 98 90 be 47 00 1c 3f
       -0.05696199 -1.364698 -0.28241134 0.60937923
000330 b2 c2 27 3c 0f 15 ad ba 30 ed 50 3f 64 49 50 bf
       0.01023929 -0.0013205128 0.8161192 -0.81361985
000340 f1 2a 2a bf 85 4f 51 3f 55 f4 75 3d a1 93 fe 3e
       -0.66471773 0.8176196 0.060047466 0.49722007
000350 2e 51 13 3e 78 04 d1 3a 79 4c 48 3c 41 76 3c 3f
       0.14386436 0.0015946766 0.012225264 0.7361794
000360 f9 30 7f bb 6a 05 5f 3e 01 6e b1 bf 74 9d ce 3b
       -0.0038939102 0.21779409 -1.3861696 0.006305391
000370 78 c4 cd 3c 52 90 e7 be 4d c8 b0 3c c7 b8 66 3e
       0.025118098 -0.45227295 0.021579886 0.22531424
000380 34 c8 73 3f cb 33 77 3e ec 18 e2 3b e0 c9 61 ba
       0.9522736 0.24140851 0.0068999436 -0.00086131506
000390 78 aa d7 3a 66 b6 81 bf 75 5f fc 3b bd 03 8f bf
       0.0016454002 -1.0133789 0.007701809 -1.1173016
0003a0 a4 ad b2 bd 5c 84 9b bb bb e8 2a bf 7c 4c 66 be
       -0.087245256 -0.004746003 -0.6676137 -0.22490114
0003b0 ba 4e 3f bc 63 72 30 3b 90 12 82 3c 97 91 53 3f
       -0.011676485 0.0026923649 0.015877992 0.8264403
0003c0 f9 77 2b 3c 16 c2 25 bf 9f 16 76 3a 7b 07 fa bf
       0.010465615 -0.64749277 0.0009387526 -1.9533533
0003d0 b3 f9 f6 3b 40 95 a8 be 93 27 33 3c 1f 24 09 bf
       0.0075370907 -0.3292637 0.010934728 -0.5357074
0003e0 22 30 f1 bb b4 c2 fe bd 4d 57 0a bc 71 de 81 3b
       -0.007360474 -0.124394804 -0.008443666 0.0039632847
0003f0 97 3d 8c ba e1 f4 2b 3c 07 26 63 3b df 8d 3f bf
       -0.0010699508 0.010495395 0.0034660117 -0.74825853

conv_layers.1.lin_dst.weight f4 [64, 64]
000000 df 0f 0e 3c 54 3c 4d 3f 9a 28 b5 3a 49 03 ec 3d
       0.008670776 0.8017018 0.0013821304 0.11524064
000010 09 ac b4 3f e8 7a f7 3c f7 76 c6 bf 52 59 ec bb
       1.4115001 0.030209973 -1.5505055 -0.0072127962
000020 0e 6c e9 bd d7 3d fd 3f 1d b8 a6 be 54 fb 73 3e
       -0.11397563 1.9784497 -0.32562342 0.23826343
000030 02 2f 24 bb 7c f3 84 3c 9a 37 ed be 57 54 8d bf
       -0.0025052433 0.016229384 -0.46331483 -1.1041363
000040 2d 94 06 40 c9 7f 74 bf 58 93 c6 3d eb 60 75 bf
       2.102794 -0.95507485 0.09696072 -0.9585101
000050 07 58 a0 be f5 74 bc bb 4f 54 66 bc 24 7e 8c 3d
       -0.3131716 -0.005751247 -0.014058187 0.06859997
000060 23 cc 03 bc 3e a9 0b c0 d6 b1 d4 bf 8f 22 d1 3b
       -0.008044275 -2.1822047 -1.6616771 0.0063822935
000070 91 13 0f bc 06 1e 90 3e c4 5a ea 3b 12 fa 7d 3d
       -0.008732692 0.28147906 0.0071519334 0.062006064
000080 46 46 db bf 8b 54 b6 be e5 e6 8c 3a 34 f5 5e bb
       -1.7130821 -0.35611376 0.0010749964 -0.0034020664
000090 c0 29 47 bb 6b b6 d7 bf a9 c7 20 3c 33 55 89 bf
       -0.0030389875 -1.6852545 0.009813228 -1.0729126
0000a0 f3 8e b2 be 6c 80 58 3b 6b 90 85 bf e3 df 3a 3f
       -0.34874687 0.003303553 -1.0434698 0.72997874
0000b0 49 49 af 3a 25 7f a7 bb d3 2a e2 3b 08 1c 8e bf
       0.0013373281 -0.0051115924 0.0069020777 -1.1102304
0000c0 d6 8a ae 3b 21 66 4e 3f 5a 2d 21 3c 28 d0 f9 3f
       0.005326609 0.80624586 0.009837473 1.9516649
0000d0 82 73 1d 3c f3 83 20 3f 73 d5 9d 3b c6 1c 83 3f
       0.009610059 0.6270134 0.004816705 1.0243156
0000e0 a6 00 70 bc 24 e0 5b be 6c d3 6a bc d5 01 c0 bc
       -0.014648592 -0.21472222 -0.014332633 -0.023438374
0000f0 26 01 08 bb a5 7c 04 3c b7 9c 84 3c 04 e9 24 bf
       -0.0020752638 0.008086358 0.016188009 -0.64418054
000100 bd d4 3a 3c ad 9b 61 bf 58 20 15 3c 5a 4a 9b 3d
       0.01140326 -0.8812817 0.00910195 0.07582541
000110 8e 74 73 3f ae 62 ff ba 1f da f9 be 3a b6 05 3c
       0.95099723 -0.0019484365 -0.48799226 0.008161122
000120 bc 17 4a bd b5 91 24 3e e2 98 b9 3e 8e 2d f9 be
       -0.04933904 0.16071208 0.36249453 -0.48667568
000130 6c a1 d8 bb d0 96 35 3c e3 28 56 be ff e0 f0 be
       -0.00661104 0.01108332 -0.20914035 -0.47046658
000140 62 4c 1c bf 96 89 1c 3f 39 d0 1f bf 33 d3 2d 3f
       -0.6105405 0.6114744 -0.624271 0.6790039
000150 8f 9f ab be ce c0 f9 3b 98 72 3e bc 96 6e f5 3e
       -0.3352017 0.007621861 -0.011624001 0.47935933
000160 97 fc ad bc 74 06 15 3f c7 f3 fc 3e 9d 7e 88 bc
       -0.021238608 0.5821297 0.49404737 -0.016661936
000170 dd 8b b5 3c b0 bb 2d bf 80 b5 eb 3b 77 12 c0 3e
       0.022161419 -0.67864513 0.0071932673 0.37514088
000180 f7 c3 b4 bf ce 7c 05 be 5e 79 7a ba 46 a3 b4 3b
       -1.4122304 -0.1303589 -0.0009554828 0.005512628
000190 c1 93 9b 3a 5d 6d f1 3c cb be 5e bb df d6 75 3f
       0.0011869596 0.029471094 -0.0033988233 0.9603099
0001a0 67 89 07 be ed 94 0d 3a 44 15 52 3f c5 77 b1 bf
       -0.13236009 0.0005400915 0.820637 -1.3864676
0001b0 56 c7 04 bc 67 ef 23 b9 e2 ad b4 bb e9 ff 4b bf
       -0.008104166 -0.00015634076 -0.0055138925 -0.7968736
0001c0 33 36 7c ba 48 0a 2c c0 09 2a 9d bb 44 7a 34 bf
       -0.00096211134 -2.6881275 -0.0047962707 -0.7049906
0001d0 e6 21 1a 3b 33 86 b0 be 0b 48 e2 3a 3f fc 96 bf
       0.002351874 -0.34477386 0.0017263902 -1.1795729
0001e0 78 84 ee 3b 63 22 63 3e ee 70 59 ba 46 53 10 3c
       0.007278975 0.22181086 -0.0008294721 0.008808916
0001f0 84 34 a0 3b b0 ea 85 3c 58 4e fa 3b bc 2a 56 3c
       0.004889073 0.01634726 0.007638734 0.013071712
000200 a4 55 37 bb b8 7d 4f be 99 91 13 3b ae 3d 0f 3e
       -0.002797463 -0.20262802 0.0022517203 0.13988373
000210 9e cc 69 3f 50 da 4e 3b 28 a2 d6 be ef 29 c8 bb
       0.91327846 0.003156323 -0.4192059 -0.0061085145
000220 85 9a 02 be a7 b2 06 40 ee 13 c3 3e 0c 06 8a bf
       -0.12754257 2.104654 0.38101143 -1.0783095
000230 50 f7 91 3b e1 87 3c 3c ec b7 20 bf d1 1a 9a 3f
       0.004454531 0.011507005 -0.6278064 1.2039434
000240 d3 cc 04 3f 3a 7c 5a 40 8d b9 dc be c4 7d 46 bf
       0.51875037 3.4138322 -0.43110314 -0.77535653
000250 bd 6c 40 bf 1c 53 45 3c bf 5d 76 3c 8f c1 20 3f
       -0.7516592 0.012043741 0.015036999 0.62795347
000260 34 f7 67 3c c4 9f c9 3f ba 13 da 3e 07 f3 bf bb
       0.014158059 1.5751882 0.42593175 -0.0058578285
000270 a3 9d 33 3c 5c 23 72 bf 26 ab 87 3c 83 0b 33 3f
       0.0109628765 -0.94585204 0.016561102 0.6993944
000280 03 2e 9e 3f 8f 9c 67 3f 33 b8 13 bc 41 01 f1 b8
       1.2357792 0.90473264 -0.0090160845 -0.00011492009
000290 2a d4 10 3b 24 70 31 c0 47 86 2d 39 62 1f 82 3e
       0.0022099116 -2.7724695 0.00016548588 0.25414568
0002a0 84 8c 84 be 1c f9 9f bb 98 20 b1 bf fd 45 9d bd
       -0.25888455 -0.004881991 -1.3838072 -0.07679365
0002b0 e6 26 43 3b 07 24 0f 3b c8 f8 4e bb 41 c3 5e 3f
       0.0029777824 0.0021841542 -0.003158139 0.87016684
0002c0 87 a8 71 bc 8a c0 aa bf f7 38 35 3c d0 8a 08 c0
       -0.014749653 -1.3340008 0.011060945 -2.1334724
0002d0 1f 5c 50 3c b2 0d 76 bf 98 35 d9 3b 2e 2c 2f 3e
       0.012717276 -0.9611465 0.0066287033 0.17106697
0002e0 6b 9a 63 bb 82 fd ac 3c d7 80 1a bb 2e 19 4d ba
       -0.0034729491 0.021116976 -0.002357533 -0.00078238815
0002f0 8b f3 b8 3a a4 73 78 bc 84 2b 52 3c 65 78 4f bf
       0.0014110667 -0.01516429 0.012827758 -0.8104308
000300 c4 35 0b 3c 71 0c 0c 3f f7 93 be bb b6 4b a3 3e
       0.008496705 0.54706484 -0.0058159786 0.318937
000310 29 71 3a bd 60 11 68 3a a8 0d 5f bf 86 a3 de bb
       -0.045518074 0.0008852687 -0.8713021 -0.006794396
000320 fa 50 69 bd 6d ae ae bf 38 98 90 be 47 00 1c 3f
       -0.05696199 -1.364698 -0.28241134 0.60937923
000330 b2 c2 27 3c 0f 15 ad ba 30 ed 50 3f 64 49 50 bf
       0.01023929 -0.0013205128 0.8161192 -0.81361985
000340 f1 2a 2a bf 85 4f 51 3f 55 f4 75 3d a1 93 fe 3e
       -0.66471773 0.8176196 0.060047466 0.49722007
000350 2e 51 13 3e 78 04 d1 3a 79 4c 48 3c 41 76 3c 3f
       0.14386436 0.0015946766 0.012225264 0.7361794
000360 f9 30 7f bb 6a 05 5f 3e 01 6e b1 bf 74 9d ce 3b
       -0.0038939102 0.21779409 -1.3861696 0.006305391
000370 78 c4 cd 3c 52 90 e7 be 4d c8 b0 3c c7 b8 66 3e
       0.025118098 -0.45227295 0.021579886 0.22531424
000380 34 c8 73 3f cb 33 77 3e ec 18 e2 3b e0 c9 61 ba
       0.9522736 0.24140851 0.0068999436 -0.00086131506
000390 78 aa d7 3a 66 b6 81 bf 75 5f fc 3b bd 03 8f bf
       0.0016454002 -1.0133789 0.007701809 -1.1173016
0003a0 a4 ad b2 bd 5c 84 9b bb bb e8 2a bf 7c 4c 66 be
       -0.087245256 -0.004746003 -0.6676137 -0.22490114
0003b0 ba 4e 3f bc 63 72 30 3b 90 12 82 3c 97 91 53 3f
       -0.011676485 0.0026923649 0.015877992 0.8264403
0003c0 f9 77 2b 3c 16 c2 25 bf 9f 16 76 3a 7b 07 fa bf
       0.010465615 -0.64749277 0.0009387526 -1.9533533
0003d0 b3 f9 f6 3b 40 95 a8 be 93 27 33 3c 1f 24 09 bf
       0.0075370907 -0.3292637 0.010934728 -0.5357074
0003e0 22 30 f1 bb b4 c2 fe bd 4d 57 0a bc 71 de 81 3b
       -0.007360474 -0.124394804 -0.008443666 0.0039632847
0003f0 97 3d 8c ba e1 f4 2b 3c 07 26 63 3b df 8d 3f bf
       -0.0010699508 0.010495395 0.0034660117 -0.74825853

conv_layers.2.att_src f4 [1, 4, 16]
000000 09 5b 5d 3f 86 b6 6e bb 5a 3c d7 3d 69 2f c2 3d
       0.86467034 -0.003642471 0.10509558 0.09481699
000010 30 19 46 3b 9b 55 53 3e 84 7c d2 ba a9 30 23 3c
       0.0030227415 0.20638125 -0.0016058837 0.009960332
000020 1a 14 28 3e 6f 9d 11 3d 3e 48 93 bc a5 50 ff ba
       0.16413918 0.03555053 -0.017978784 -0.001947899
000030 0e 1f 81 3d b6 46 13 3e 45 b3 09 3b ba a2 8d 3d
       0.06304751 0.14382443 0.0021011394 0.06915803
000040 25 9a c1 be 4a b8 26 3d 07 f0 85 3c eb 40 67 bc
       -0.37812915 0.040703095 0.016349806 -0.014114599
000050 9a 57 5b bc 7a 3e 07 3e 2f 66 2c bd 67 59 b4 3e
       -0.013387585 0.13207427 -0.042089637 0.3522446
000060 c0 91 68 bb c3 d4 d5 3d 89 7a f5 3c 36 58 9d 3d
       -0.0035487264 0.10440972 0.029965656 0.076828405
000070 4f 4c 1c 3f d3 f0 40 be 40 5c ec 3d 8e ab f1 bb
       0.6105394 -0.18841867 0.11541033 -0.0073751872
000080 31 56 2b 3f 94 b6 7c bb 25 b3 56 3e d3 c6 56 be
       0.6692839 -0.0038560973 0.20966776 -0.20974283
000090 91 b2 59 bd 3e bb 12 3b cd 25 da bd 1d e2 75 3b
       -0.05314881 0.0022389437 -0.10651741 0.0037518807
0000a0 83 44 96 bd 23 48 44 3c 22 e5 ba bc 35 5f 34 bc
       -0.07337286 0.011980089 -0.022814337 -0.011009027
0000b0 f2 db b2 be 16 22 20 3d 4c 28 65 be c0 ce 8a bd
       -0.3493343 0.039095007 -0.22378653 -0.06777716
0000c0 ee ae 8c bc a7 ea fd bd 01 29 f6 be 1f e2 4f bc
       -0.017173257 -0.12398272 -0.48078158 -0.012688189
0000d0 f2 6d 2d be 81 70 b8 3d 02 f9 83 3d eb 43 8c 3f
       -0.16936472 0.090058334 0.06443979 1.0958227
0000e0 83 0b 7e 3d 8f 2f 3e 3e 3c 58 d3 be eb 99 24 3c
       0.062022697 0.1857283 -0.41278255 0.0100464625
0000f0 92 f0 bd bc f0 91 62 be 4e 99 a5 bc 3e cc ae 3d
       -0.023186002 -0.22125983 -0.020214703 0.0853505

conv_layers.2.att_dst f4 [1, 4, 16]
000000 fb 87 7b 3f 34 d0 f7 bb d6 65 59 bf 17 20 7f bf
       0.98254365 -0.0075626615 -0.84921014 -0.9965834
000010 c0 65 a6 3a 0f 7a 8c bf ac 65 76 3c 3a 46 ed 40
       0.0012695119 -1.0974749 0.015038889 7.4148226
000020 a0 58 25 40 34 77 54 bf b2 53 66 3e 5a 9b d3 3b
       2.5835342 -0.8299439 0.22492865 0.0064577283
000030 f6 42 d3 3e 23 e7 61 40 f0 a6 67 3b d1 62 d0 3f
       0.41262025 3.5297325 0.0035347305 1.6280156
000040 23 5e 16 3f 14 b1 e1 be e5 ef b6 3e 70 69 c5 3f
       0.5873739 -0.44080412 0.357299 1.5422802
000050 aa 98 e3 ba 92 ea b1 bf 79 a7 f1 bf da 65 9c bf
       -0.0017364223 -1.389971 -1.8879234 -1.2218583
000060 60 6d 42 3b e8 c4 72 3f e0 86 43 bf 48 6a 07 be
       0.0029667243 0.94831705 -0.7637768 -0.13224137
000070 5e fc 67 bd 15 36 14 bf 7f 99 86 bf 36 1a e1 3e
       -0.05663716 -0.5789502 -1.0515593 0.4396531
000080 f0 72 f7 3c ad d8 8d 3f b2 05 7f 3f 39 a5 3c c0
       0.030206174 1.1081749 0.99618065 -2.9475844
000090 af bf 1c 3e 31 af 17 c0 c0 14 3a c0 27 f8 a3 3f
       0.15307496 -2.3700678 -2.9075165 1.2810105
0000a0 a2 f3 88 bf a9 fc c4 bf c7 79 e1 3f 75 6e ea be
       -1.0699351 -1.5389606 1.7615288 -0.45787397
0000b0 8f bf 1c c0 95 87 b3 3f 8e ae 28 40 8c 2e 94 bf
       -2.4491918 1.4025751 2.635654 -1.1576705
0000c0 c4 46 1d c0 27 57 1e c0 1b bc 7a be 40 81 53 bf
       -2.4574442 -2.4740694 -0.24485819 -0.82619095
0000d0 4f bc 7f 40 1c 7e d3 3e fa d7 95 c0 cf a4 20 40
       3.9958684 0.4130715 -4.6826143 2.510059
0000e0 b4 4b 4c bf b3 c9 d0 3e 54 b0 c0 3f 14 51 5b bf
       -0.79803014 0.40778884 1.5053811 -0.8567059
0000f0 0f 59 82 3e 5a 86 c2 bf a9 6b f9 be 5c 3d b2 3f
       0.2545857 -1.5197251 -0.4871495 1.3924975

conv_layers.2.bias f4 [64]
000000 02 e3 5e 41 20 57 01 41 d2 a8 02 40 6a 6e da 3d
       13.930422 8.083771 2.041554 0.10665591
000010 65 b7 f4 c0 ab 6a 0b 3e 4f 2b 18 c1 69 4c 3c 41
       -7.647387 0.1361491 -9.510573 11.768655
000020 81 8b 81 be 79 a8 ac 40 87 1a ac bf 05 9e 19 41
       -0.25301746 5.3955655 -1.3445596 9.601079
000030 78 4e 4c 41 43 d6 95 3d 6d 59 19 c1 ee 86 ea bd
       12.769157 0.07316258 -9.584332 -0.11451517
000040 b5 92 44 be 8e 84 48 3f 86 a6 84 40 f8 c3 0f c1
       -0.1919659 0.7832726 4.1453276 -8.985344
000050 5b 1f 9f c0 52 88 52 3e 35 a9 1d bf fe b7 e6 41
       -4.9725776 0.20559815 -0.61586314 28.83984
000060 50 3a 74 c1 21 9c a2 40 d0 e8 ee 40 af 72 54 bf
       -15.264236 5.0815587 7.4659195 -0.82987493
000070 6f 30 ad 41 4c d8 89 bc 45 39 1a be 42 20 43 bd
       21.64865 -0.016826771 -0.15060909 -0.047638185
000080 aa df 44 41 08 d5 b1 40 5b 0f 0c 3f f9 e3 ac 3d
       12.3046055 5.557255 0.5471093 0.0844192
000090 80 8d 7a c0 95 9b c3 c0 52 d1 e5 bd b1 62 61 bf
       -3.9148865 -6.112742 -0.11221565 -0.88041216
0000a0 c7 e5 d2 be cc b7 7c 3d 4d 04 b1 3f 23 3e cc bf
       -0.4119093 0.06169872 1.3829437 -1.5956463
0000b0 9e 63 ff 3c 8d 63 a9 bf 8b 93 7e bd ed a7 80 3d
       0.03117543 -1.3233505 -0.062152427 0.06282029
0000c0 01 f4 42 bf f5 b6 10 3e 11 20 f2 3d 55 49 8b c1
       -0.7615357 0.14132293 0.118225224 -17.410807
0000d0 c3 63 44 c1 91 03 8e c0 b3 f7 7e bc 91 e8 bc 41
       -12.274356 -4.4379354 -0.015561986 23.613558
0000e0 bf e1 e8 c0 b8 0e eb 3e c8 c7 7c 3d 36 df 64 bf
       -7.277557 0.45909667 0.061713964 -0.8940309
0000f0 b5 42 61 bf d9 f5 09 bf 35 2d 47 c0 44 7b 60 c0
       -0.8799241 -0.5389076 -3.1121342 -3.5075235
