embd: 16, nHead: 4, nlayer: 3, Batch: 50.pth (torch, 41931 bytes, 16 tensors)

conv_layers.0.att_src f4 [1, 4, 16]
00000000: 53f8 df3d 8285 c13e 997e 893e 4ec0 8d3e
00000010: cee3 623e 80e5 06bf ffff 0bbe 2011 d93e
00000020: 0916 91be 8d53 0a3f a83a 0c3e 4038 1e3f
00000030: b891 c2be ab66 353c b68e 153f eac2 103e
00000040: 15e8 d83e 6415 803e 7231 833d cde8 8abe
00000050: 7bac 51be f254 c03e 8324 023f 8da1 cabd
00000060: 1697 f53e a741 b9bc af49 e7be 8186 f43e
00000070: 5047 633e 47bf c3be 9886 423d 9f41 0b3f
00000080: dcf7 edbd 916c b83d 68c6 a3be 0d3f 9e3e
00000090: 6773 aa3e 2766 f0be 0605 62be babb 0a3f
000000a0: 967a 8bbe ab62 34be 918e 1cbf 8d8c 03bc
000000b0: a1af c3be 3b60 25bf a9ed 9ebe bdca 36be
000000c0: 5a82 fcbe 1530 123e 41fa ffba f27b 38be
000000d0: 7b69 00be 9e20 babe 8623 9d3e 976a a6bd
000000e0: 1ef7 4e3c 0812 3fbf e3a2 b13d 7ef8 97be
000000f0: 78cd a9be 2c7a d8be 972d a73e 713d d03e
0.10936036 0.3779717 0.268544 0.2768578 0.22157213 -0.5269394 -0.13671874 0.42395878
-0.28337124 0.5403374 0.1369425 0.6180458 -0.380018 0.011071841 0.58420885 0.14136854
0.42364565 0.2501632 0.06405915 -0.27130738 -0.20475952 0.37564808 0.5083696 -0.098940946
0.47966832 -0.022614313 -0.45173404 0.47758868 0.22195172 -0.3823187 0.04749164 0.54397005
-0.11619541 0.090050824 -0.3198731 0.3090748 0.3329117 -0.46952936 -0.22072229 0.541927
-0.27241963 -0.17615764 -0.6115504 -0.008029115 -0.38219932 -0.6459996 -0.31040695 -0.17850776
-0.493182 0.14276154 -0.0019529538 -0.18016031 -0.12540238 -0.3635301 0.30691165 -0.08125799
0.0126321595 -0.7463689 0.08673646 -0.29681772 -0.33164573 -0.4228071 0.3265197 0.40671876

conv_layers.0.att_dst f4 [1, 4, 16]
00000000: 77d8 b43e 3cdf 103f 0d71 9d3d a9a5 b4be
00000010: ca49 393e 6ebc 18be 1c74 403e 6dcb dbbc
00000020: 668f 43be 5017 3fbf 47dd 15bf b0e3 ce3e
00000030: 3d86 9e3d fbe7 1dbe 85c5 063c 437d e3bd
00000040: e33c debd 315f b53e 026e 983b 2cfd 16be
00000050: 7e15 a93d f92e a1bd 7bc5 0abe 7ab8 d03e
00000060: 6194 7abe a993 f4be 3bc2 95bd f5d7 6dbd
00000070: 2e66 2cbe 6268 04bf 8fc6 63be 10fd 90be
00000080: 318f 80bc ab14 293e 0e3a 03bf 38f1 e33e
00000090: 4e10 47be 128e e03e a081 cabe 3795 cc3e
000000a0: 3d55 833e f7e0 e93e a655 3b3d 6afc e23e
000000b0: d50b febe 48e2 16bf 55cb aa3e 0e08 c7be
000000c0: 745a 66be 708b 81be 8497 b03e 212f 65bd
000000d0: af45 a4bd b6af 103f a9e8 1c3d 84f2 99be
000000e0: c132 8dbe 0936 aabe 12dd 4d3e 4df3 3f3e
000000f0: 93c3 783d 800b 8e3d ec27 b9be 3204 83bd
0.353214 0.5659063 0.07687578 -0.3528264 0.18094555 -0.1491563 0.18794292 -0.0268304
-0.19097671 -0.7464495 -0.5854077 0.40408087 0.07740448 -0.15420525 0.008225803 -0.11107876
-0.10851457 0.35424188 0.004651786 -0.14745015 0.082560524 -0.078702874 -0.13551895 0.40765744
-0.24470665 -0.47768906 -0.07312437 -0.05806728 -0.16835853 -0.51721776 -0.22243713 -0.2831807
-0.015693279 0.1651179 -0.5126046 0.44519973 -0.19439813 0.4385839 -0.3955202 0.39957592
0.2565097 0.45679447 0.045735978 0.44333202 -0.49618402 -0.5893903 0.33358255 -0.38873333
-0.22495443 -0.25301695 0.34490597 -0.05595315 -0.080211036 0.56518114 0.03830782 -0.30067837
-0.27577785 -0.3324435 0.20103863 0.18745156 0.06073339 0.06935787 -0.3616327 -0.063972846

conv_layers.0.bias f4 [64]
00000000: 3256 9ebc 1353 d2bd 9650 063e 724e 583e
00000010: 19c1 e0bd 13c7 a13d 4704 d33d 2cca c93c
00000020: c79e a73e 9a1a adbb f883 f93e c367 593e
00000030: fe96 49be d47a 993d ae16 963d f5e6 1dbe
00000040: 1aaa 10bf e3de a23e cbb6 95bc f31d febd
00000050: 9c49 f3bb 9e2e fbbd 3652 db3b d732 003e
00000060: 5680 cebd bb26 8b3e bdc9 d9bd e7e4 c7be
00000070: 996c eabe 120f 29bc e58d 0dbe fa49 a53c
00000080: 33cd 0f3e 7dcb a9bd 5c4a 143e c399 1fbe
00000090: 88ad a6be 7c06 1d3e e92b 823e f398 4f3e
000000a0: 65df c33d 805d 0b3e 8318 143e 8449 bcbe
000000b0: a860 093e f1d4 82bd 541e 87be 20b6 123e
000000c0: ffc9 353d 8df2 b7be 4cb8 8c3d 1316 adbe
000000d0: 9558 993e 1db9 bebe 08f1 bbbd eb5d 0a3e
000000e0: 7b3a 763e d1f2 89bd 14b8 df3d a773 fe3d
000000f0: 2549 253e da0d 50be 2a9c 8fbe d092 aebe
-0.01932821 -0.102697514 0.13116679 0.21123675 -0.109743305 0.078992985 0.1030355 0.024632536
0.32738325 -0.005282712 0.48733497 0.21230988 -0.19686505 0.07494131 0.073285446 -0.15420134
-0.56509554 0.31810674 -0.018275639 -0.12408056 -0.0074245464 -0.12264751 0.00669315 0.12519394
-0.10083072 0.27177987 -0.10634182 -0.39041826 -0.45785978 -0.010318534 -0.1382366 0.020176876
0.14043121 -0.082907654 0.14481491 -0.15585999 -0.3255427 0.15334505 0.25424126 0.20273189
0.095640935 0.13609886 0.14462475 -0.36774838 0.13415778 -0.063882716 -0.26390326 0.14327288
0.04438209 -0.3592724 0.06871089 -0.33805904 0.29950395 -0.37250605 -0.091768324 0.1351239
0.24045746 -0.06735767 0.10923782 0.12424403 0.16141184 -0.20317784 -0.2804883 -0.34096384

conv_layers.0.lin_src.weight f4 [64, 4]
00000000: 20d0 f4bb 7d9e f4be 0b11 103e 06fe 963e
00000010: c863 9d3d db77 70bf af57 933d 83ed 133e
00000020: 976a 09bc daa0 4e3f 79e3 afbd dcd9 123e
00000030: 36c5 28bb 350c 48bf c127 08bf 07e2 a53e
00000040: c6c8 6fbe 8873 f3bd d02a 213e a5cc fc3e
00000050: 61c0 713c a340 1e3f 6a29 95bd 1c19 e5be
00000060: 5fe6 5c3e 0370 623f 2f63 90bd ea6a 50be
00000070: 7874 a93d 25a1 d93e 57ea 0ebe 324a 193e
00000080: dbac febc e3a0 81bd cae5 a5be e8aa 89be
00000090: ed54 673d 3295 95be 86aa 9a3d 9d07 c73e
000000a0: b616 febd c9db 0cbf 6820 f5be e812 a93e
000000b0: 0538 31be 8e1e 79be f84e 543e 4c87 463f
000000c0: 86a3 e0be 3c5f 1ebf 1715 e63d 6ea4 55be
000000d0: bf40 8bbe 2c1e 293f c8c5 d6bd 59d9 f0bd
000000e0: 7812 81be dc10 0abf 6e33 d3bd e44b c23e
000000f0: bd46 3e3e 844b acbd c3af ba3e f35e 3e3e
00000100: db57 a0be 1b85 06be e4ee 5b3e 1dfd 5abf
00000110: c5a2 65bd ee6b 20bd b99c 57be 9501 c8be
00000120: b013 fcbd 22a8 6abf ee9e 373d b4fd b63e
00000130: 0b34 18bd d818 88bf e955 803d 5902 80bd
00000140: d25d 12bc ad5f aa3e 2ca8 83bd e882 0f3e
00000150: d1e5 113e e5d5 48bf 282f 8a3d 97aa 3cbe
00000160: 93c5 0cbe 2cbe eb3e 0d94 b7bd ffd6 b2be
00000170: 3d81 e53e 9e2b e63e 52d2 bf3e 1ea7 1abe
00000180: fd1a 6ebc b61d fe3d 0aac 033e 5501 41bf
00000190: 6476 dd3b 504b 80be 163c 1bbe 3d14 833e
000001a0: f8e4 00be b1d4 8ebf 0317 4f3d f16d 203e
000001b0: e9f1 1cbd 4cc6 90bd 27d6 94be 0c31 c8be
000001c0: 4a1a b7bd f809 463e b123 823e bbe0 23bf
000001d0: 6990 7e3d 62d6 b73e 1f85 92bd b34a ba3e
000001e0: 7452 7e3d 5a2f 9e3e ed7e 4bbe 685e b0bd
000001f0: 8480 85be 2ea5 7abe ec10 743d 9d8e 47be
00000200: 2467 55be 4189 8f3f 393b 86bd a48b 683c
00000210: cf3f 8ebd 43ce 32bf 918f d83d 6362 f83d
00000220: 6072 6cbe 4fc7 493f c741 b7bd 4382 6b3e
00000230: 1e01 b7be 753a b93e a907 e5bc 14ea adbe
00000240: eff2 97be 94bf d4be 03c4 10be 354e 1ebe
00000250: 3265 38be 4196 2d3f a5ca 97bd 41e0 d43e
00000260: 2360 293e dae6 f43e 66e5 063e 59aa 19bd
00000270: 42a3 96be 0e63 c1be 7922 a93e 44c9 583e
00000280: e9b1 383e d5d5 663f 8f19 8fbd d6da a63e
00000290: 0101 693e 157a 32be c5cd 683e 59fd 903e
000002a0: 0536 0a3e ef51 473f 6a28 abbd 1d54 dc3d
000002b0: 359d 223e bad8 bc3e bd36 ce3e f70e c13e
000002c0: f2f9 23be d930 4c3f ec3d a2bd 74b6 c83e
000002d0: 21b2 f03d 0591 973e c5dc e9bd bba4 353e
000002e0: 9d74 943d 011b 143f 65f7 8f3e ecf8 613e
000002f0: 3b1f 893e 2fc4 b73e 89e8 723e 36f3 923e
00000300: b227 aebd 8664 fa3e 1aae 74bd 321f d2be
00000310: 7b93 cfbe 0550 123f 9c13 ec3d 0603 64bf
00000320: 2600 c5bd 44e1 07bf a91b f9bd bceb 153f
00000330: 64d4 10bd b9fb 7c3e 8290 223e b28d 093d
00000340: bcbe bb3e 4f21 45be 4b17 2abe 6220 803e
00000350: 84d0 223e f47b d83e d58c c23e 122e 0a3d
00000360: 92c1 a1be 491c ae3e d011 0c3e 19bb ccbe
00000370: e0e7 a1bd 8623 923f e1cf 3cbd 667b 52bf
00000380: 1bbc 72be 7b9f 6bbe 3c52 2cbe 8c08 5f3e
00000390: b8ee 97be b7d6 6dbf c2a4 5f3d 2863 953d
000003a0: 4c26 b3bd eb1d 533e 6be7 963e 8e63 bfbd
000003b0: 5fa5 2d3e 20fd bbbe c98c dabd 1e35 d63e
000003c0: b8a9 a23c d6a1 5e3f ce62 91bd f921 7c3d
000003d0: 4ca6 3dbd 0c1e 38bf cc46 813d db4e 1c3e
000003e0: 0748 9dbe 3dc4 053c 5b8f 593e aa15 913d
000003f0: 3426 efbc 6470 d63e f64c 313e 7931 84be
-0.0074710995 -0.47777167 0.14069001 0.2949068 0.076850474 -0.93932885 0.07194459 0.14446072
-0.008387229 0.8071419 -0.08588309 0.1434092 -0.0025752313 -0.78143626 -0.5318566 0.32399008
-0.23416433 -0.1188727 0.15738988 0.4937488 0.014755339 0.6181738 -0.0728329 -0.4474572
0.21572255 0.88452166 -0.07050168 -0.20353284 0.08274168 0.42505756 -0.13956581 0.1496971
-0.031088283 -0.06329515 -0.32401878 -0.26888204 0.056477476 -0.2921539 0.07552056 0.38872996
-0.124066755 -0.55022866 -0.47876287 0.33022237 -0.17306526 -0.24328062 0.20733249 0.77550197
-0.43874758 -0.61864066 0.11234491 -0.20863506 -0.27197835 0.66061664 -0.104869425 -0.11760206
-0.25209403 -0.53931975 -0.10312544 0.37948525 0.18581672 -0.08412841 0.3646222 0.18590908
-0.31317028 -0.13136713 0.21477848 -0.8554247 -0.056063432 -0.03916543 -0.21055879 -0.39063707
-0.123084426 -0.916628 0.0448293 0.35740435 -0.037159007 -1.0632582 0.06266386 -0.06250448
-0.008933501 0.3327612 -0.064285606 0.1401478 0.14247824 -0.7845138 0.067472756 -0.1842445
-0.13747244 0.46043527 -0.08963785 -0.34929654 0.44825163 0.44955152 0.3746515 -0.15102813
-0.014532802 0.12408011 0.12858596 -0.7539266 0.006758498 -0.2505746 -0.1515964 0.25601378
-0.12587345 -1.1158658 0.050559055 0.1566694 -0.03831664 -0.07069072 -0.29069635 -0.3909992
-0.08940561 0.1933974 0.25417855 -0.64014786 0.06214944 0.3590575 -0.07154297 0.36385116
0.062090352 0.308955 -0.19872637 -0.086117566 -0.26074612 -0.24477074 0.05958645 -0.19487996
-0.20840126 1.1213762 -0.065542646 0.014193449 -0.06945764 -0.6984598 0.10574258 0.12128141
-0.23090506 0.78819746 -0.08948093 0.2299891 -0.3574304 0.36177412 -0.027957754 -0.3396765
-0.2967753 -0.41552413 -0.14137273 -0.15459521 -0.18007353 0.67807394 -0.07411698 0.41577342
0.1654058 0.47832376 0.13173446 -0.03751597 -0.2942143 -0.37770885 0.33034113 0.21170527
0.18036617 0.9017003 -0.06987297 0.32588834 0.22754289 -0.17429383 0.22734745 0.2831829
0.1349717 0.77859396 -0.08357318 0.10758231 0.15880282 0.368841 0.40276137 0.3770673
-0.16013315 0.79762036 -0.07921967 0.392017 0.117527254 0.2960283 -0.114190616 0.17738621
0.07248805 0.57853705 0.28118435 0.22067612 0.2678164 0.35891864 0.23721518 0.2870118
-0.08503665 0.48904818 -0.05973635 -0.41039425 -0.40542206 0.5715335 0.11527178 -0.89067113
-0.09619169 -0.53078103 -0.12163479 0.5856283 -0.0353588 0.247054 0.15875438 0.033582397
0.36668956 -0.19250987 -0.16610448 0.25024706 0.15899855 0.4228207 0.3799807 0.033735342
-0.31592995 0.34005955 0.1367867 -0.39986494 -0.07905555 1.1417091 -0.046096686 -0.8221954
-0.23704569 -0.23010056 -0.16828245 0.21780604 -0.29674315 -0.92905754 0.054600485 0.07294303
-0.08747539 0.20616882 0.29473433 -0.093451604 0.16957615 -0.36716557 -0.10671384 0.418374
0.019856319 0.8696569 -0.070989236 0.061555836 -0.04630117 -0.7192085 0.063123316 0.15264456
-0.30719015 0.008164463 0.21246092 0.0708421 -0.029193021 0.41882622 0.17314515 -0.25818995

conv_layers.0.lin_dst.weight f4 [64, 4]
00000000: 20d0 f4bb 7d9e f4be 0b11 103e 06fe 963e
00000010: c863 9d3d db77 70bf af57 933d 83ed 133e
00000020: 976a 09bc daa0 4e3f 79e3 afbd dcd9 123e
00000030: 36c5 28bb 350c 48bf c127 08bf 07e2 a53e
00000040: c6c8 6fbe 8873 f3bd d02a 213e a5cc fc3e
00000050: 61c0 713c a340 1e3f 6a29 95bd 1c19 e5be
00000060: 5fe6 5c3e 0370 623f 2f63 90bd ea6a 50be
00000070: 7874 a93d 25a1 d93e 57ea 0ebe 324a 193e
00000080: dbac febc e3a0 81bd cae5 a5be e8aa 89be
00000090: ed54 673d 3295 95be 86aa 9a3d 9d07 c73e
000000a0: b616 febd c9db 0cbf 6820 f5be e812 a93e
000000b0: 0538 31be 8e1e 79be f84e 543e 4c87 463f
000000c0: 86a3 e0be 3c5f 1ebf 1715 e63d 6ea4 55be
000000d0: bf40 8bbe 2c1e 293f c8c5 d6bd 59d9 f0bd
000000e0: 7812 81be dc10 0abf 6e33 d3bd e44b c23e
000000f0: bd46 3e3e 844b acbd c3af ba3e f35e 3e3e
00000100: db57 a0be 1b85 06be e4ee 5b3e 1dfd 5abf
00000110: c5a2 65bd ee6b 20bd b99c 57be 9501 c8be
00000120: b013 fcbd 22a8 6abf ee9e 373d b4fd b63e
00000130: 0b34 18bd d818 88bf e955 803d 5902 80bd
00000140: d25d 12bc ad5f aa3e 2ca8 83bd e882 0f3e
00000150: d1e5 113e e5d5 48bf 282f 8a3d 97aa 3cbe
00000160: 93c5 0cbe 2cbe eb3e 0d94 b7bd ffd6 b2be
00000170: 3d81 e53e 9e2b e63e 52d2 bf3e 1ea7 1abe
00000180: fd1a 6ebc b61d fe3d 0aac 033e 5501 41bf
00000190: 6476 dd3b 504b 80be 163c 1bbe 3d14 833e
000001a0: f8e4 00be b1d4 8ebf 0317 4f3d f16d 203e
000001b0: e9f1 1cbd 4cc6 90bd 27d6 94be 0c31 c8be
000001c0: 4a1a b7bd f809 463e b123 823e bbe0 23bf
000001d0: 6990 7e3d 62d6 b73e 1f85 92bd b34a ba3e
000001e0: 7452 7e3d 5a2f 9e3e ed7e 4bbe 685e b0bd
000001f0: 8480 85be 2ea5 7abe ec10 743d 9d8e 47be
00000200: 2467 55be 4189 8f3f 393b 86bd a48b 683c
00000210: cf3f 8ebd 43ce 32bf 918f d83d 6362 f83d
00000220: 6072 6cbe 4fc7 493f c741 b7bd 4382 6b3e
00000230: 1e01 b7be 753a b93e a907 e5bc 14ea adbe
00000240: eff2 97be 94bf d4be 03c4 10be 354e 1ebe
00000250: 3265 38be 4196 2d3f a5ca 97bd 41e0 d43e
00000260: 2360 293e dae6 f43e 66e5 063e 59aa 19bd
00000270: 42a3 96be 0e63 c1be 7922 a93e 44c9 583e
00000280: e9b1 383e d5d5 663f 8f19 8fbd d6da a63e
00000290: 0101 693e 157a 32be c5cd 683e 59fd 903e
000002a0: 0536 0a3e ef51 473f 6a28 abbd 1d54 dc3d
000002b0: 359d 223e bad8 bc3e bd36 ce3e f70e c13e
000002c0: f2f9 23be d930 4c3f ec3d a2bd 74b6 c83e
000002d0: 21b2 f03d 0591 973e c5dc e9bd bba4 353e
000002e0: 9d74 943d 011b 143f 65f7 8f3e ecf8 613e
000002f0: 3b1f 893e 2fc4 b73e 89e8 723e 36f3 923e
00000300: b227 aebd 8664 fa3e 1aae 74bd 321f d2be
00000310: 7b93 cfbe 0550 123f 9c13 ec3d 0603 64bf
00000320: 2600 c5bd 44e1 07bf a91b f9bd bceb 153f
00000330: 64d4 10bd b9fb 7c3e 8290 223e b28d 093d
00000340: bcbe bb3e 4f21 45be 4b17 2abe 6220 803e
00000350: 84d0 223e f47b d83e d58c c23e 122e 0a3d
00000360: 92c1 a1be 491c ae3e d011 0c3e 19bb ccbe
00000370: e0e7 a1bd 8623 923f e1cf 3cbd 667b 52bf
00000380: 1bbc 72be 7b9f 6bbe 3c52 2cbe 8c08 5f3e
00000390: b8ee 97be b7d6 6dbf c2a4 5f3d 2863 953d
000003a0: 4c26 b3bd eb1d 533e 6be7 963e 8e63 bfbd
000003b0: 5fa5 2d3e 20fd bbbe c98c dabd 1e35 d63e
000003c0: b8a9 a23c d6a1 5e3f ce62 91bd f921 7c3d
000003d0: 4ca6 3dbd 0c1e 38bf cc46 813d db4e 1c3e
000003e0: 0748 9dbe 3dc4 053c 5b8f 593e aa15 913d
000003f0: 3426 efbc 6470 d63e f64c 313e 7931 84be
-0.0074710995 -0.47777167 0.14069001 0.2949068 0.076850474 -0.93932885 0.07194459 0.14446072
-0.008387229 0.8071419 -0.08588309 0.1434092 -0.0025752313 -0.78143626 -0.5318566 0.32399008
-0.23416433 -0.1188727 0.15738988 0.4937488 0.014755339 0.6181738 -0.0728329 -0.4474572
0.21572255 0.88452166 -0.07050168 -0.20353284 0.08274168 0.42505756 -0.13956581 0.1496971
-0.031088283 -0.06329515 -0.32401878 -0.26888204 0.056477476 -0.2921539 0.07552056 0.38872996
-0.124066755 -0.55022866 -0.47876287 0.33022237 -0.17306526 -0.24328062 0.20733249 0.77550197
-0.43874758 -0.61864066 0.11234491 -0.20863506 -0.27197835 0.66061664 -0.104869425 -0.11760206
-0.25209403 -0.53931975 -0.10312544 0.37948525 0.18581672 -0.08412841 0.3646222 0.18590908
-0.31317028 -0.13136713 0.21477848 -0.8554247 -0.056063432 -0.03916543 -0.21055879 -0.39063707
-0.123084426 -0.916628 0.0448293 0.35740435 -0.037159007 -1.0632582 0.06266386 -0.06250448
-0.008933501 0.3327612 -0.064285606 0.1401478 0.14247824 -0.7845138 0.067472756 -0.1842445
-0.13747244 0.46043527 -0.08963785 -0.34929654 0.44825163 0.44955152 0.3746515 -0.15102813
-0.014532802 0.12408011 0.12858596 -0.7539266 0.006758498 -0.2505746 -0.1515964 0.25601378
-0.12587345 -1.1158658 0.050559055 0.1566694 -0.03831664 -0.07069072 -0.29069635 -0.3909992
-0.08940561 0.1933974 0.25417855 -0.64014786 0.06214944 0.3590575 -0.07154297 0.36385116
0.062090352 0.308955 -0.19872637 -0.086117566 -0.26074612 -0.24477074 0.05958645 -0.19487996
-0.20840126 1.1213762 -0.065542646 0.014193449 -0.06945764 -0.6984598 0.10574258 0.12128141
-0.23090506 0.78819746 -0.08948093 0.2299891 -0.3574304 0.36177412 -0.027957754 -0.3396765
-0.2967753 -0.41552413 -0.14137273 -0.15459521 -0.18007353 0.67807394 -0.07411698 0.41577342
0.1654058 0.47832376 0.13173446 -0.03751597 -0.2942143 -0.37770885 0.33034113 0.21170527
0.18036617 0.9017003 -0.06987297 0.32588834 0.22754289 -0.17429383 0.22734745 0.2831829
0.1349717 0.77859396 -0.08357318 0.10758231 0.15880282 0.368841 0.40276137 0.3770673
-0.16013315 0.79762036 -0.07921967 0.392017 0.117527254 0.2960283 -0.114190616 0.17738621
0.07248805 0.57853705 0.28118435 0.22067612 0.2678164 0.35891864 0.23721518 0.2870118
-0.08503665 0.48904818 -0.05973635 -0.41039425 -0.40542206 0.5715335 0.11527178 -0.89067113
-0.09619169 -0.53078103 -0.12163479 0.5856283 -0.0353588 0.247054 0.15875438 0.033582397
0.36668956 -0.19250987 -0.16610448 0.25024706 0.15899855 0.4228207 0.3799807 0.033735342
-0.31592995 0.34005955 0.1367867 -0.39986494 -0.07905555 1.1417091 -0.046096686 -0.8221954
-0.23704569 -0.23010056 -0.16828245 0.21780604 -0.29674315 -0.92905754 0.054600485 0.07294303
-0.08747539 0.20616882 0.29473433 -0.093451604 0.16957615 -0.36716557 -0.10671384 0.418374
0.019856319 0.8696569 -0.070989236 0.061555836 -0.04630117 -0.7192085 0.063123316 0.15264456
-0.30719015 0.008164463 0.21246092 0.0708421 -0.029193021 0.41882622 0.17314515 -0.25818995

conv_layers.1.att_src f4 [1, 4, 16]
00000000: 4471 8cbe c547 efbd 6983 2cbf 5bf2 e9be
00000010: 40c4 973c febf 60be fbfa f7bd 7996 053f
00000020: b0f6 1b3e 5376 173e f7da 873e eaed e33d
00000030: 2bf6 94be 4077 25be 5934 07bf 93d1 bbbe
00000040: 5197 d43d edd2 163f d7b5 c2be f111 0e3f
00000050: bc42 52be 2b45 223e 6ffa 4fbf 5057 793d
00000060: 15be 313e 5398 1bbe 265e 0ebe 0229 b0bd
00000070: 47c5 273f 5692 283f 94dd 5fbf 6146 083f
00000080: d350 07bf 9fe5 bf3e 1cae 753f 45c1 463f
00000090: bf85 593f 1a6f 2e3f 8dc4 c43d 94d9 093e
000000a0: 11c2 62bf 0a00 033f 3c2c 10be 9824 843d
000000b0: 6544 6dbe a69d 843b c392 2ebf e096 5ebd
000000c0: d43f 3d3f ac2b 893f a753 a43d 8fd3 76bf
000000d0: 4b4f 1a3f 6749 4d3e 87ff 913e 436a 3e3f
000000e0: 01e2 5d3e c665 86bb a641 0abf f294 bb3d
000000f0: 1101 d9bd 0fa4 c73e 7741 773e 633f b5be
-0.27430165 -0.11683611 -0.67388016 -0.45692715 0.018526196 -0.21948239 -0.121084176 0.5218273
0.15230823 0.14791231 0.26534244 0.11129363 -0.2909406 -0.16158772 -0.5281425 -0.3668333
0.10380424 0.589156 -0.38029358 0.55496126 -0.2053327 0.15846698 -0.81241506 0.060874283
0.17357667 -0.15194826 -0.13903102 -0.086015716 0.65535396 0.6584829 -0.87447476 0.5323239
-0.528577 0.37479874 0.95968795 0.77638656 0.84969705 0.6813828 0.096078016 0.13461906
-0.8857737 0.51171935 -0.14079374 0.06452292 -0.23170622 0.0040471135 -0.6819269 -0.054343104
0.7392552 1.0716453 0.08023768 -0.9641656 0.6027724 0.20047532 0.28515264 0.7438089
0.21668245 -0.004101488 -0.5400642 0.091592684 -0.105959065 0.38992354 0.24146067 -0.35399923

conv_layers.1.att_dst f4 [1, 4, 16]
00000000: 6ae7 993c 6f09 a03e 105c e0be 9449 dbbe
00000010: 2f85 e03e e7e5 cdbd ac0f 953d 4e21 683e
00000020: 093d e6be 54e0 ebbe 2624 913e e0cc 09be
00000030: 8e6b 003f 98af c8be 6d4f af3e 6b43 cf3e
00000040: be6d f93e e466 453d 35de 153f fb58 2abe
00000050: 2f01 9f3e 35dd a43e bee4 23bf fa51 ab3e
00000060: c27a 05bd 0145 d2be 278a 72bd 2d0c a43e
00000070: 4929 9e3d 15e9 803e cf6a 9b3e b97b 8e3e
00000080: 5b60 073e 7422 b1be 31f9 b03e 9e6a b33c
00000090: 4679 823c 603d dabe a262 e3be 2b6e 01bf
000000a0: acea dd3e e273 ebbe 9423 ff3e 292f cd3e
000000b0: fd81 87be c1dc 01bf fd72 83be 302e 6cbe
000000c0: e182 833e eb4b 47be 4727 903e b177 2a3e
000000d0: 021f bdbe e59c 0ebd f8c4 a63e 66cf 74bd
000000e0: a55b 893e d3c1 283e b5a2 353e 6156 43be
000000f0: 5740 a13d 40c6 063f f6a0 933d 3c48 813e
0.018787105 0.31257197 -0.43820238 -0.42829573 0.4385161 -0.10053616 0.0727838 0.22668955
-0.4496844 -0.46069586 0.28347892 -0.1345706 0.50164115 -0.39196467 0.34240285 0.40481123
0.4871654 0.048193827 0.58542186 -0.16635506 0.3105559 0.32200018 -0.6402091 0.3346098
-0.032587774 -0.4106827 -0.059213784 0.3204054 0.07722718 0.25177827 0.30354926 0.27828768
0.1322035 -0.34596598 0.34565118 0.021901425 0.015926968 -0.4262495 -0.44411188 -0.5055873
0.43343103 -0.4598685 0.4983183 0.40075043 -0.2646636 -0.5072747 -0.25673667 -0.23064494
0.2568579 -0.19462554 0.28154966 0.16647221 -0.3693772 -0.034817595 0.3257215 -0.059768103
0.26827732 0.16480188 0.17737849 -0.1907592 0.078736 0.52646255 0.07208435 0.25250423

conv_layers.1.bias f4 [64]
00000000: 9498 6cbd e5cb 9dbd aea9 183d 2fe5 323e
00000010: 5c18 893d 6586 7b3d 3bfe b23a 2bc1 893d
00000020: 8102 483d 223a ec3c a4b4 a53b abfc f0bc
00000030: fd55 3a3c 385a ad3c 70dc f53c 0a1b 63bc
00000040: 367b a9bd 13a1 573e 7d9f 1abd 91f0 153c
00000050: d6a2 2b3d 3c68 463b fbd6 ac3b 89fe a93c
00000060: 32ea f1ba a34a 773d 5315 823d 7a46 50bd
00000070: 0154 073d cf34 b43b b44b 6cbd 6248 24bc
00000080: bf46 85bc 0c35 03bd 11f9 d93c 0ce5 813d
00000090: 5bca ebbc 11c5 8c3d 8bea dc3d 2c9f d53b
000000a0: 277e 443d b8e3 13be 047b 933d 31d9 9c3c
000000b0: 664a 243d 3a9a f0bc 3986 573d 5aac 93bc
000000c0: 48c2 f33c d83b 5e3d 2a18 44bd 6d54 81bd
000000d0: 63cc 9abd fd6d db3a 17e5 793d 6eab a23d
000000e0: 449b 993d 5084 853c a530 5ebd bf6e 493d
000000f0: b528 5cbd 18cb 843c 3fad a43b 3128 393b
-0.057762697 -0.077049054 0.037271194 0.17470239 0.06694099 0.061407465 0.0013656089 0.06726297
0.048830513 0.028836314 0.0050569344 -0.029417356 0.01137304 0.021161184 0.03001234 -0.013861427
-0.08275454 0.21057539 -0.037749756 0.009151594 0.04190334 0.003027453 0.005274651 0.020751255
-0.0018456636 0.060373913 0.063517235 -0.05084846 0.033039097 0.0054994593 -0.057689384 -0.010027023
-0.016269086 -0.03203301 0.026608022 0.06342515 -0.028783014 0.06873525 0.10786923 0.006519219
0.04797187 -0.14442337 0.07201198 0.019146534 0.040110014 -0.029370416 0.05261824 -0.01802652
0.029755726 0.05425629 -0.047874607 -0.06314931 -0.07558515 0.0016741153 0.061009493 0.07942854
0.07500318 0.016298443 -0.05424561 0.04917788 -0.05374976 0.016210124 0.0050255354 0.0028252716

conv_layers.1.lin_src.weight f4 [64, 64]
00000000: a0b3 1b3c 5627 1fbe 20dc a9be de04 0cbe
00000010: 07c4 533e 385b 4e3e 20bb c43d d28a 06be
00000020: 873c dd3c 6d8b 143e 89a7 4fbe a262 113d
00000030: 0cba 323e fcd2 08be cd6b 05bf ced9 dd3d
00000040: 3d4a 793d 444a 353e 4d3d a5be b115 32bf
00000050: cc0b 08be 7c0e 0f3e c9e9 453e 2ec8 183e
00000060: bc91 8f3d e372 bbbd 3e44 6cbe 571b 07be
00000070: 72e5 cc3d 7236 f0bc 2749 053e 5109 c83d
00000080: 1f63 933b 1ecd e23c fed0 25be 6bca b0bc
00000090: 3c12 193e 4afc dcbe 0fe2 e8bb 548b 2bbe
000000a0: b135 10be 9e7a 50be 5815 bc3d 1a6c dbbb
000000b0: c17a 53be 4f30 a33b e147 113d cca1 003e
000000c0: 3cf8 bcbd 0175 803e 260e 72be 924f 743e
000000d0: 6a9a 87bd 61f2 7cbe 66da 2a3d 8b7b 8e3e
000000e0: 6bf3 7e3c 5de2 dfbe 04d5 24be 5f11 093d
000000f0: d31b 45bd bc76 b93d 4ca5 f53d f473 4b3e
00000100: ff0d a03d fc32 debd 001a 7bb9 cf2b 533d
00000110: 08d3 6abe edcb 75bd 7cae 8bbd f620 acbd
00000120: 0c7b 19bd ccbf ff3d 355b 6fbd 07aa a0bd
00000130: 9760 1c3e 7dad 1c3e 0da7 a33d b1c9 ec3d
00000140: 082d 23be b7ce f93d bd20 b6bc b388 bf3c
00000150: 1784 8dba 54bf ee3d fb1f b93e 75d7 eb3d
00000160: 8cca 9abe 0bef 2f3e f44c 42bd d299 663e
00000170: 273b d03d ea7b 9d3e 9ccc 363e cd3c aebe
00000180: 7277 24be 0bf2 fe3c 6cf7 a1bd 4636 60bd
00000190: d8dd 04bd 9fd1 fbbc 3f1d 9fbe 7432 ffbd
000001a0: 1534 4a3e 3d1a 13be 6303 143e fd70 a8bd
000001b0: 77b1 9ebd 8d6e 78bd cbab f63d 7ac1 63be
000001c0: 2fe8 213e edf3 82be 56da 7cbd bfa0 68be
000001d0: 05f0 00be 58d6 7abe 5d9f 82be ee7f 1bbc
000001e0: 9aee 123e 139f 1dbe 2185 23be e466 3e3e
000001f0: ecb9 d03d 4800 11bd 5c58 8abe a19e 74be
00000200: c01c d23d 7259 3fbd 648d 90bd a6e8 fdbd
00000210: e757 df3d a0f0 c7bd db1d d93d 6f57 15bf
00000220: 19cc 1fbe 9989 b7bd bbdc 45be 494d c3bd
00000230: 581d a93d 023c 02be 439e 0cbf ff92 253d
00000240: 5b5f 91be 7b32 3cbd fada ea3d 833f 933d
00000250: 4632 a4bd fc5c eebd 8e91 1c3e af53 b0bd
00000260: f11f 95be d75e 023e 6afb e6bc 1755 0c3e
00000270: b11b 81be 3390 ff3d 5b76 06be baa8 d4bd
00000280: 484c 143e c7da 263e 9b69 56bd 0b15 02be
00000290: 4cb0 36be cf5e 56be e829 70bd 7642 53bd
000002a0: 0b58 a6be e68d cdbd 5355 0d3e 9396 43be
000002b0: 074a 69be 7ec5 cd3c 479e 27be ddfa beba
000002c0: 433d fbbd 5323 fabd f04c ae3d 17af b8bd
000002d0: 5161 4a3e 4990 a1bd c85e c3bd f6a2 ea3d
000002e0: bd65 10be de2a b43d 7be4 1c3d 8828 0e3e
000002f0: bbb1 0d3e a5b6 5dbd 2d86 223e d368 6ebe
00000300: b980 a53e 191a b4be 5f48 2abe 4648 1e3e
00000310: 9128 913e 4836 383d f4f9 693d 8cc4 57bd
00000320: 45aa b7bd 4747 9d3d 23cf 27be a219 e73d
00000330: ebd9 673e 5017 40be 5429 e8bd fb78 08be
00000340: 4c13 5ebe 8fa8 4b3e fbf4 aabd 835d 02bf
00000350: 0eb0 483e 47ea c4be 52ea ca3d 157a 633e
00000360: 3d08 9cbe 18ea c33d 30eb b8bd cb6a 773d
00000370: 60b7 a53d a421 a93e 003c e8bd f381 333d
00000380: 1e53 0a3e c6aa e43d 910c 1abd 2d0a 0f3d
00000390: edae 43be 1f4e 483e 39a0 953d 9725 963d
000003a0: 9dd0 85be 23d7 4c3e b26c cabd 6007 dbbd
000003b0: 13df 6dbd 98d0 dcbd 7956 08be 464f 903e
000003c0: 8479 ddbc 217e d4be fafe 2e3d 121a 45be
000003d0: ecf7 e63d bfe2 08be 3339 3abe 83b9 213e
000003e0: de1f 053e 9beb f1be 0238 e13d bbea 283d
000003f0: 3024 8e3e b714 aabd 5e5d 80be f9b1 18be
0.009503275 -0.15542349 -0.33175755 -0.13673732 0.20680247 0.20151985 0.09606004 -0.13138893
0.0270064 0.14506312 -0.20278753 0.035494454 0.17453784 -0.13361734 -0.52117616 0.108325586
0.060861815 0.17704111 -0.3227333 -0.6956435 -0.1328575 0.13970369 0.19327463 0.14920112
0.070102185 -0.09152772 -0.23072907 -0.13194023 0.10004701 -0.029322837 0.13016187 0.09767402
0.0044979 0.027685698 -0.16193005 -0.021580895 0.14948362 -0.4316123 -0.0071070264 -0.16752368
-0.14082982 -0.20359275 0.091837585 -0.0066962363 -0.20652296 0.004980124 0.03546894 0.1256172
-0.092270344 0.25089267 -0.2363821 0.23858479 -0.06621249 -0.24701835 0.041712187 0.2782863
0.015560965 -0.4372739 -0.16096884 0.033463832 -0.04812224 0.0905585 0.119944185 0.19868451
0.078151695 -0.10849568 -0.00023946911 0.05155545 -0.22932065 -0.060008932 -0.0682039 -0.08404724
-0.037470862 0.12487754 -0.05843659 -0.0784493 0.15271221 0.15300556 0.07990847 0.11561907
-0.15935147 0.12197631 -0.022232408 0.023380613 -0.0010796812 0.11657587 0.36157212 0.115157045
-0.30232656 0.17181031 -0.04743667 0.22519615 0.101675324 0.307586 0.1785149 -0.34030762
-0.1606119 0.031121274 -0.0790852 -0.05473926 -0.03243813 -0.030739604 -0.31077 -0.12460795
0.1974643 -0.14365478 0.14454417 -0.08224676 -0.077486925 -0.060652304 0.12044486 -0.22241774
0.15811227 -0.25576726 -0.06173166 -0.2271757 -0.1259156 -0.24495828 -0.2551221 -0.00949095
0.14348832 -0.15392713 -0.15968753 0.18593937 0.10191712 -0.03540066 -0.27020538 -0.23888637
0.1025939 -0.04671616 -0.07058218 -0.1239789 0.10905438 -0.097626925 0.106013976 -0.5833654
-0.15605201 -0.089617915 -0.19322483 -0.09536225 0.0825755 -0.12718204 -0.5492899 0.04042339
-0.28393063 -0.04594658 0.11467548 0.07189848 -0.080174014 -0.11638829 0.152899 -0.086097114
-0.29125932 0.12731491 -0.028196055 0.13704334 -0.2521644 0.12478676 -0.13131087 -0.103837445
0.14482224 0.16294394 -0.052346807 -0.1270334 -0.1784069 -0.20934604 -0.058633715 -0.051577054
-0.32489046 -0.100368306 0.1380208 -0.19100408 -0.22782145 0.025118586 -0.16368972 -0.0014570613
-0.12267544 -0.12213769 0.085107684 -0.09017771 0.19763686 -0.07888848 -0.095395625 0.114568636
-0.1410131 0.08797239 0.038303833 0.13882649 0.1383733 -0.05412926 0.15871496 -0.23282175
0.3232477 -0.3517616 -0.1662917 0.15457258 0.28351262 0.04497364 0.05712314 -0.052677676
-0.08968023 0.07679611 -0.1638761 0.11284186 0.22641723 -0.18758893 -0.11336008 -0.133274
-0.21687049 0.19888519 -0.083475076 -0.5092394 0.1959841 -0.3845999 0.09907974 0.2221454
-0.30475035 0.09566134 -0.090292335 0.06040458 0.08091617 0.33033478 -0.11339569 0.0438251
0.13508269 0.11165385 -0.03760964 0.034921814 -0.19109698 0.19561051 0.07305951 0.073313884
-0.26135722 0.20003943 -0.09884013 -0.10694766 -0.05807407 -0.107819736 -0.13314237 0.2818548
-0.027035482 -0.4150248 0.042723633 -0.19248226 0.11277756 -0.13367747 -0.18185882 0.15793423
0.13000438 -0.47250065 0.10997011 0.04123948 0.27761984 -0.08304732 -0.25071234 -0.14911641

conv_layers.1.lin_dst.weight f4 [64, 64]
00000000: a0b3 1b3c 5627 1fbe 20dc a9be de04 0cbe
00000010: 07c4 533e 385b 4e3e 20bb c43d d28a 06be
00000020: 873c dd3c 6d8b 143e 89a7 4fbe a262 113d
00000030: 0cba 323e fcd2 08be cd6b 05bf ced9 dd3d
00000040: 3d4a 793d 444a 353e 4d3d a5be b115 32bf
00000050: cc0b 08be 7c0e 0f3e c9e9 453e 2ec8 183e
00000060: bc91 8f3d e372 bbbd 3e44 6cbe 571b 07be
00000070: 72e5 cc3d 7236 f0bc 2749 053e 5109 c83d
00000080: 1f63 933b 1ecd e23c fed0 25be 6bca b0bc
00000090: 3c12 193e 4afc dcbe 0fe2 e8bb 548b 2bbe
000000a0: b135 10be 9e7a 50be 5815 bc3d 1a6c dbbb
000000b0: c17a 53be 4f30 a33b e147 113d cca1 003e
000000c0: 3cf8 bcbd 0175 803e 260e 72be 924f 743e
000000d0: 6a9a 87bd 61f2 7cbe 66da 2a3d 8b7b 8e3e
000000e0: 6bf3 7e3c 5de2 dfbe 04d5 24be 5f11 093d
000000f0: d31b 45bd bc76 b93d 4ca5 f53d f473 4b3e
00000100: ff0d a03d fc32 debd 001a 7bb9 cf2b 533d
00000110: 08d3 6abe edcb 75bd 7cae 8bbd f620 acbd
00000120: 0c7b 19bd ccbf ff3d 355b 6fbd 07aa a0bd
00000130: 9760 1c3e 7dad 1c3e 0da7 a33d b1c9 ec3d
00000140: 082d 23be b7ce f93d bd20 b6bc b388 bf3c
00000150: 1784 8dba 54bf ee3d fb1f b93e 75d7 eb3d
00000160: 8cca 9abe 0bef 2f3e f44c 42bd d299 663e
00000170: 273b d03d ea7b 9d3e 9ccc 363e cd3c aebe
00000180: 7277 24be 0bf2 fe3c 6cf7 a1bd 4636 60bd
00000190: d8dd 04bd 9fd1 fbbc 3f1d 9fbe 7432 ffbd
000001a0: 1534 4a3e 3d1a 13be 6303 143e fd70 a8bd
000001b0: 77b1 9ebd 8d6e 78bd cbab f63d 7ac1 63be
000001c0: 2fe8 213e edf3 82be 56da 7cbd bfa0 68be
000001d0: 05f0 00be 58d6 7abe 5d9f 82be ee7f 1bbc
000001e0: 9aee 123e 139f 1dbe 2185 23be e466 3e3e
000001f0: ecb9 d03d 4800 11bd 5c58 8abe a19e 74be
00000200: c01c d23d 7259 3fbd 648d 90bd a6e8 fdbd
00000210: e757 df3d a0f0 c7bd db1d d93d 6f57 15bf
00000220: 19cc 1fbe 9989 b7bd bbdc 45be 494d c3bd
00000230: 581d a93d 023c 02be 439e 0cbf ff92 253d
00000240: 5b5f 91be 7b32 3cbd fada ea3d 833f 933d
00000250: 4632 a4bd fc5c eebd 8e91 1c3e af53 b0bd
00000260: f11f 95be d75e 023e 6afb e6bc 1755 0c3e
00000270: b11b 81be 3390 ff3d 5b76 06be baa8 d4bd
00000280: 484c 143e c7da 263e 9b69 56bd 0b15 02be
00000290: 4cb0 36be cf5e 56be e829 70bd 7642 53bd
000002a0: 0b58 a6be e68d cdbd 5355 0d3e 9396 43be
000002b0: 074a 69be 7ec5 cd3c 479e 27be ddfa beba
000002c0: 433d fbbd 5323 fabd f04c ae3d 17af b8bd
000002d0: 5161 4a3e 4990 a1bd c85e c3bd f6a2 ea3d
000002e0: bd65 10be de2a b43d 7be4 1c3d 8828 0e3e
000002f0: bbb1 0d3e a5b6 5dbd 2d86 223e d368 6ebe
00000300: b980 a53e 191a b4be 5f48 2abe 4648 1e3e
00000310: 9128 913e 4836 383d f4f9 693d 8cc4 57bd
00000320: 45aa b7bd 4747 9d3d 23cf 27be a219 e73d
00000330: ebd9 673e 5017 40be 5429 e8bd fb78 08be
00000340: 4c13 5ebe 8fa8 4b3e fbf4 aabd 835d 02bf
00000350: 0eb0 483e 47ea c4be 52ea ca3d 157a 633e
00000360: 3d08 9cbe 18ea c33d 30eb b8bd cb6a 773d
00000370: 60b7 a53d a421 a93e 003c e8bd f381 333d
00000380: 1e53 0a3e c6aa e43d 910c 1abd 2d0a 0f3d
00000390: edae 43be 1f4e 483e 39a0 953d 9725 963d
000003a0: 9dd0 85be 23d7 4c3e b26c cabd 6007 dbbd
000003b0: 13df 6dbd 98d0 dcbd 7956 08be 464f 903e
000003c0: 8479 ddbc 217e d4be fafe 2e3d 121a 45be
000003d0: ecf7 e63d bfe2 08be 3339 3abe 83b9 213e
000003e0: de1f 053e 9beb f1be 0238 e13d bbea 283d
000003f0: 3024 8e3e b714 aabd 5e5d 80be f9b1 18be
0.009503275 -0.15542349 -0.33175755 -0.13673732 0.20680247 0.20151985 0.09606004 -0.13138893
0.0270064 0.14506312 -0.20278753 0.035494454 0.17453784 -0.13361734 -0.52117616 0.108325586
0.060861815 0.17704111 -0.3227333 -0.6956435 -0.1328575 0.13970369 0.19327463 0.14920112
0.070102185 -0.09152772 -0.23072907 -0.13194023 0.10004701 -0.029322837 0.13016187 0.09767402
0.0044979 0.027685698 -0.16193005 -0.021580895 0.14948362 -0.4316123 -0.0071070264 -0.16752368
-0.14082982 -0.20359275 0.091837585 -0.0066962363 -0.20652296 0.004980124 0.03546894 0.1256172
-0.092270344 0.25089267 -0.2363821 0.23858479 -0.06621249 -0.24701835 0.041712187 0.2782863
0.015560965 -0.4372739 -0.16096884 0.033463832 -0.04812224 0.0905585 0.119944185 0.19868451
0.078151695 -0.10849568 -0.00023946911 0.05155545 -0.22932065 -0.060008932 -0.0682039 -0.08404724
-0.037470862 0.12487754 -0.05843659 -0.0784493 0.15271221 0.15300556 0.07990847 0.11561907
-0.15935147 0.12197631 -0.022232408 0.023380613 -0.0010796812 0.11657587 0.36157212 0.115157045
-0.30232656 0.17181031 -0.04743667 0.22519615 0.101675324 0.307586 0.1785149 -0.34030762
-0.1606119 0.031121274 -0.0790852 -0.05473926 -0.03243813 -0.030739604 -0.31077 -0.12460795
0.1974643 -0.14365478 0.14454417 -0.08224676 -0.077486925 -0.060652304 0.12044486 -0.22241774
0.15811227 -0.25576726 -0.06173166 -0.2271757 -0.1259156 -0.24495828 -0.2551221 -0.00949095
0.14348832 -0.15392713 -0.15968753 0.18593937 0.10191712 -0.03540066 -0.27020538 -0.23888637
0.1025939 -0.04671616 -0.07058218 -0.1239789 0.10905438 -0.097626925 0.106013976 -0.5833654
-0.15605201 -0.089617915 -0.19322483 -0.09536225 0.0825755 -0.12718204 -0.5492899 0.04042339
-0.28393063 -0.04594658 0.11467548 0.07189848 -0.080174014 -0.11638829 0.152899 -0.086097114
-0.29125932 0.12731491 -0.028196055 0.13704334 -0.2521644 0.12478676 -0.13131087 -0.103837445
0.14482224 0.16294394 -0.052346807 -0.1270334 -0.1784069 -0.20934604 -0.058633715 -0.051577054
-0.32489046 -0.100368306 0.1380208 -0.19100408 -0.22782145 0.025118586 -0.16368972 -0.0014570613
-0.12267544 -0.12213769 0.085107684 -0.09017771 0.19763686 -0.07888848 -0.095395625 0.114568636
-0.1410131 0.08797239 0.038303833 0.13882649 0.1383733 -0.05412926 0.15871496 -0.23282175
0.3232477 -0.3517616 -0.1662917 0.15457258 0.28351262 0.04497364 0.05712314 -0.052677676
-0.08968023 0.07679611 -0.1638761 0.11284186 0.22641723 -0.18758893 -0.11336008 -0.133274
-0.21687049 0.19888519 -0.083475076 -0.5092394 0.1959841 -0.3845999 0.09907974 0.2221454
-0.30475035 0.09566134 -0.090292335 0.06040458 0.08091617 0.33033478 -0.11339569 0.0438251
0.13508269 0.11165385 -0.03760964 0.034921814 -0.19109698 0.19561051 0.07305951 0.073313884
-0.26135722 0.20003943 -0.09884013 -0.10694766 -0.05807407 -0.107819736 -0.13314237 0.2818548
-0.027035482 -0.4150248 0.042723633 -0.19248226 0.11277756 -0.13367747 -0.18185882 0.15793423
0.13000438 -0.47250065 0.10997011 0.04123948 0.27761984 -0.08304732 -0.25071234 -0.14911641

conv_layers.2.att_src f4 [1, 4, 16]
00000000: 60fc 933f b470 7c3f d372 763f 4020 c03e
00000010: 9ba8 e3be ad23 163e 18e2 79bf 3a34 e43e
00000020: b66f 5b3e 6b47 3c3f 3389 71be 70cc 7e3f
00000030: 7e5c 4d3f 1638 003e c85c a0bf db2c 43bf
00000040: 327c babe 2ae6 ba3f 623d 7c3e 1c23 5bbf
00000050: 3c95 55bf bf6c 993e 0788 07be 6eeb 783f
00000060: eb97 8fbf 1669 333f d9b7 a53e 4f54 06be
00000070: 56f0 8f3f ff8d 2fbf 406a ec3e 1804 cc3d
00000080: 064c 713f 2b69 d23d 9631 363f b83c 1dbf
00000090: f497 a8be 016d 7ebe 4c37 99be 75c8 51be
000000a0: 8ec3 c23d 0b67 043f d92a fc3c 48eb eabe
000000b0: 48ff c8be fd51 2fbe b4d7 863c e077 debe
000000c0: bcee 1ebf fe0b 143e fca0 20bf 17a2 0abf
000000d0: 2464 36bf 00fa d73e 5cd8 943e 6b08 c03e
000000e0: 4d3b 793e 1e89 ce3e a831 e9be f89f b3be
000000f0: e8fd 1ebf 34da 5ebf 426a 15bf 42b4 243e
1.1561394 0.9860947 0.9626896 0.37524605 -0.44464573 0.14662047 -0.97610617 0.44571096
0.21429333 0.73546475 -0.23587494 0.99530697 0.80219257 0.12521395 -1.2528315 -0.7624032
-0.36422879 1.460149 0.2463279 -0.8560045 -0.8343084 0.2996578 -0.13235484 0.9723424
-1.1218237 0.70082223 0.32366827 -0.13118099 1.124522 -0.68576044 0.46174812 0.09961718
0.9425663 0.102739654 0.7116941 -0.61420774 -0.3292843 -0.24846269 -0.29925 -0.20486625
0.09509955 0.5171973 0.03078215 -0.4588263 -0.39257264 -0.1712112 0.016460277 -0.43450832
-0.6208303 0.144577 -0.6274564 -0.5415358 -0.7124655 0.42182922 0.2907132 0.37506422
0.24339028 0.40338987 -0.45545697 -0.35082984 -0.6210618 -0.870517 -0.5836526 0.16084388

conv_layers.2.att_dst f4 [1, 4, 16]
00000000: 934e f13e 4e72 de3d a606 02bf f35e 833e
00000010: d9ba 05bd 2fa3 b2be cff6 08bf 6963 5c3e
00000020: ab41 9fbd a45f c5be 6113 fa3e f611 01bf
00000030: 3ff0 9bbe b980 f43e 1cd7 38be a28b 9f3e
00000040: 3976 34bd f709 173c c076 f03e b416 19be
00000050: 2f7e 6d3c 5d97 a63e 1b8b 3c3e 7aaf 8fbd
00000060: dd4d 8abe 39b6 c7be 09f3 16bc 1277 ab3e
00000070: 7f1a 9fbe 9fa5 9abe 8a0f 02be d717 fc3e
00000080: cb11 a43e e026 373e 96fe febe 8c05 0f3e
00000090: e523 8c3c 0320 d23e 5793 38be ab64 56bc
000000a0: 87c1 c83e 5e11 c6bd 9046 063f d30a 873e
000000b0: f835 cdbb 9821 f13e a0c4 d8be 03c6 fabe
000000c0: 4a33 c5be b251 c73e ce53 153f 6fe1 6a3d
000000d0: ac80 7f3d 0ace 233e d643 e1be b3ea 5e3e
000000e0: 79ea adbe a6d7 e93d 3a33 e7be 4c90 f23d
000000f0: 9827 823e 25c3 a13e 1a78 0fbe 1cd1 b33e
0.4713026 0.10861646 -0.50791395 0.25658378 -0.032648895 -0.34890124 -0.535016 0.21522297
-0.07776197 -0.3854953 0.4884291 -0.5041803 -0.3045673 0.47754458 -0.18050808 0.3116122
-0.04405806 0.009218684 0.469656 -0.14950067 0.014495417 0.32537356 0.1841244 -0.070158914
-0.2701253 -0.39006212 -0.0092132175 0.3348928 -0.31074902 -0.30204484 -0.1270124 0.49236938
0.32044825 0.17885923 -0.4980361 0.1396696 0.01710696 0.41040048 -0.18024956 -0.013085525
0.3921015 -0.09671281 0.5245142 0.26375446 -0.006262537 0.47095942 -0.42337513 -0.48979196
-0.38515693 0.38929516 0.58331 0.057343896 0.06237857 0.15996566 -0.43997067 0.21769218
-0.3396795 0.11418085 -0.4515627 0.11843929 0.25420833 0.31594196 -0.14010659 0.35120475

conv_layers.2.bias f4 [64]
00000000: 7cdc d13d cd97 d33d 5377 cc3d e168 d3bc
00000010: 4105 9abd 6f1e a5bc 8b01 aabd e63b d53d
00000020: e594 c83b 71c0 3b3d 0464 4dbd 63e2 fc3d
00000030: 6e01 fd3d ac3f acbc 69a6 e7bd b47c efbc
00000040: 5dc6 70bc eb7c c93d 4d85 9b3d b57f bbbd
00000050: e92f a6bd aca3 8ebc 7892 dcbd 66d0 fe3d
00000060: 1005 9fbd 88cd e73d df77 9e3d d75c 29bd
00000070: 8c1a 0a3e 9037 9a3b 5537 05bd d027 e83b
00000080: 27f6 ce3d eb98 b13d baf6 ae3d 0d70 c7bd
00000090: 8288 9dbd 6e8e ccbd 353e c9bd b2b3 89bd
000000a0: 6369 01bd 55dd 973d 02e0 ae3d 0194 5abc
000000b0: 6953 d4bc b360 d1bd 6329 f03b 8781 98bc
000000c0: 900f 35bd dcea 933c 93c2 3ebd d9e8 b2bd
000000d0: a3d7 9bbd ee85 f9bd 5fba 0abc 583d 0d3e
000000e0: 473c 56bd f383 993d 4d3f 503c 4668 44bd
000000f0: 544a 70bd 5461 ecbd eba3 0bbe 2b26 c0bd
0.10247132 0.10331688 0.09983697 -0.025806846 -0.07520533 -0.020156113 -0.083010755 0.10411815
0.0061212652 0.045837823 -0.05014421 0.12347867 0.12353788 -0.021026455 -0.11311037 -0.029234268
-0.014695731 0.09838279 0.075937845 -0.091552176 -0.08114607 -0.01741203 -0.10770124 0.124420926
-0.077646375 0.11318499 0.07737707 -0.041348305 0.1348669 0.0047063306 -0.03252347 0.007084824
0.101055436 0.08671745 0.08543153 -0.09738169 -0.076920524 -0.09988104 -0.09826318 -0.06723727
-0.031594645 0.074152626 0.0853882 -0.013340951 -0.02591868 -0.10223522 0.0073291524 -0.018616451
-0.044204295 0.018056326 -0.04657228 -0.087358184 -0.07609489 -0.12183748 -0.008467286 0.13792932
-0.05230358 0.074958704 0.012710405 -0.047951005 -0.058664635 -0.11542001 -0.13636748 -0.0938228

conv_layers.2.lin_src.weight f4 [64, 64]
00000000: ad76 aa3e 9b54 45bd e2bb b8be 022b 4bbe
00000010: b99e c13d b475 24be c5e8 4ebe 2491 283d
00000020: 7909 e6bd dff8 61bc ffaa 97be 6f21 3cbe
00000030: 2b55 05bd fa74 ef3c c060 8dbd e174 b6be
00000040: 0ae5 4bbd 150c 3e3e e5fe b2bd 9205 81be
00000050: 62f1 1ebd 7970 853d 11dd a1bd b948 cc3e
00000060: e256 8cbe c801 3a3e acfa 0a3e 9bbc 003f
00000070: 6127 b3bd 2d94 87bd ee5d 4bbe 92db 303e
00000080: 4d6b 323e 785a 66be 9c19 8f3e a6b0 923e
00000090: f3ba 7e3e 03f4 ca3e 4012 c03e c31c 62be
000000a0: b24e dbbd 1a29 083e 3060 a8bd d9fd db3d
000000b0: 9bc5 54be 61f3 02be 880b 10be b356 92bd
000000c0: e962 4d3e 1115 8f3e 982e 7e3e 2fa4 39be
000000d0: c852 82bd db4a 17bd 4d50 f6bd 0685 9a3e
000000e0: 91a3 283c 2c53 04bd 4545 72be 12fd c5bd
000000f0: b211 493e 8b37 493e fdad 91be ab12 a53e
00000100: 134b 97bd 7888 bbbe 3b46 0fbe cd9d 6fbe
00000110: acf8 143e 1eeb a1bd 343a 90be c86b c13e
00000120: ca34 b9be e9f0 9ebb 1467 13bd 06d1 903d
00000130: b9b3 ee3d 7e93 7dbe 5e7c ae3c a38c 85be
00000140: 858f 12be 8368 463e 6338 a8be ee5a a1be
00000150: 81d9 86ba b9a3 44bd cbe6 44be 43de 9a3e
00000160: 4fd3 4c3d 2d5f f13c 5bca 503e e0f8 a93e
00000170: 3050 993d 8be9 58bc c445 7ebe e906 e13c
00000180: 8c2d fe3d f306 143d 9867 413e 7870 b73e
00000190: 6f00 1b3e ace7 1a3e 2b56 a43d 4ff6 4abe
000001a0: bf98 5dbd 9a05 b13e ac22 bd3d 0136 ebbd
000001b0: 5679 953d 6ab8 b93d 0d1d 7fbe f02b 0abd
000001c0: 50e6 b63e 18e3 5ebd c8ce ab3e 1a55 40bd
000001d0: fe8e 63bc d07b 1dbe 3b27 babe 9bc4 173d
000001e0: 7b1c 3ebe ac98 5abe 9874 b3be ad8b 0abe
000001f0: fdd7 d73e 4cfc 8d3e a7d7 b7be b32b a13d
00000200: a9d1 c83d 8812 5fbe c221 a3be d3cd 35be
00000210: 9717 bc3e 13e5 773c c6f3 8ebe 4945 823c
00000220: cc05 8cbe 5913 99bd 7ea5 ccbe 33a9 e93b
00000230: 2bce bc3d 62e8 2abe 9256 a0be 03a2 d3bd
00000240: 853d 5fbe 938f 113f 93f0 a4be 3f8e d4bd
00000250: 7347 a7be 317a b53d 3a98 46be 5c32 4e3e
00000260: bd40 49be 6f6d 513e f909 383e 2430 063f
00000270: e699 813c 7244 823d 13d8 3abd cd3c 1b3e
00000280: 8f89 913d ea1a 59bd 3320 c83d e421 903e
00000290: 4ba1 8e3e f8d3 443d c255 6d3e 8305 afbe
000002a0: 0e0f 2f3e d9f8 603e 1298 efbd f988 04bd
000002b0: df7b 67be dab5 b23d 2c5f 84bc aaf2 84be
000002c0: 9a37 423e 6b03 9a3d 63d1 793e 561c 0c3d
000002d0: ea6e 033e b118 6fbe bf79 93bd e410 5d3e
000002e0: 3579 30be dd20 81bd 412b e7bd 86d2 23be
000002f0: 6072 c03d 1b6a 763e f95f 89be 3015 a03e
00000300: 7b9c 50be bcf7 8ebd 58d0 0a3d 171e 1e3e
00000310: 706d 473d cc2e 303e 0fbe 87bd 8100 353e
00000320: 88f2 a0bd 3bc6 bc3e 596d f93d 107a edbd
00000330: 548f bdbe 3e9d 32be 1177 cdbd d553 643e
00000340: b80b 27bd b145 bebd 943b 3d3e 1538 8b3d
00000350: 6229 b93d 2b43 e5bd 5fc8 0bbf 7a0d 40bc
00000360: 87fd ac3e 2681 76be 476c d9bd e030 0a3d
00000370: 92ad 083e 3018 d33e f31d 0dbe 14a9 163e
00000380: 887a edbe abba 3fbe b203 253d 2be5 c3bc
00000390: 942e 39bd d2ab 8cbd da6b 123e 98b6 86bd
000003a0: 9e4b f3bc 4a29 82be 8925 aebd 0067 ef3e
000003b0: ac87 d03d 512a 1a3f e09b 763e fe36 bc3d
000003c0: fb4f 39be 736d 8e3d 8efa e1bd 4082 8e3d
000003d0: 5a0a 0c3e b826 7c3e c609 e23c 85e2 203e
000003e0: 40c7 3cbf 7f8d f53c bce7 06be 6422 a3be
000003f0: b8a9 f9bd 711c fdbb 18f6 52bc ef94 68be
0.33293667 -0.04817639 -0.36080843 -0.19840625 0.09454102 -0.16060525 -0.20205982 0.041154042
-0.112322755 -0.013792246 -0.29622647 -0.18372129 -0.032551926 0.029230583 -0.06903219 -0.35636047
-0.049778976 0.18559296 -0.087400235 -0.25199562 -0.03880442 0.06515593 -0.07903493 0.39899233
-0.27410036 0.18164742 0.13572186 0.5028779 -0.08747745 -0.06620059 -0.1986005 0.1727126
0.17423744 -0.22495449 0.27949226 0.28650397 0.24876003 0.3963929 0.37513924 -0.22081284
-0.10708369 0.13296929 -0.08221471 0.10741777 -0.20778506 -0.12788154 -0.14066899 -0.07145443
0.20057262 0.2794576 0.24822462 -0.18129037 -0.063634455 -0.036936622 -0.12027035 0.30179614
0.0102929035 -0.03230588 -0.23659237 -0.0966741 0.19635656 0.19650094 -0.28453055 0.32240805
-0.07387366 -0.36627555 -0.13991635 -0.2340004 0.14547986 -0.07906173 -0.28169405 0.37777543
-0.36173087 -0.004850496 -0.035986975 0.07071118 0.11655373 -0.24763295 0.021299537 -0.2608386
-0.14312561 0.19375806 -0.3285552 -0.31514686 -0.001028821 -0.0480077 -0.19228666 0.30247697
0.050006207 0.029464329 0.20389692 0.3319769 0.07485998 -0.013239275 -0.24831301 0.027469115
0.12411031 0.03613944 0.18887174 0.35827994 0.15136884 0.15127438 0.08024248 -0.19820522
-0.05410075 0.34574586 0.09235129 -0.1148491 0.072985336 0.09068377 -0.24913426 -0.03373331
0.3572259 -0.054415792 0.335562 -0.04695616 -0.013889072 -0.15379262 -0.36358055 0.037052732
-0.18565552 -0.21347302 -0.3504989 -0.13529845 0.42156973 0.2773155 -0.35906717 0.07869663
0.098056145 -0.21784413 -0.31861693 -0.17754297 0.36736748 0.015130299 -0.2792036 0.015902178
-0.27348173 -0.074743934 -0.3997001 0.007130766 0.09219011 -0.1669021 -0.31316048 -0.10333636
-0.21800812 0.568597 -0.32214794 -0.10378694 -0.326717 0.08861197 -0.19394007 0.20136398
-0.19653602 0.20451902 0.17972554 0.52417207 0.015820455 0.06360711 -0.04561622 0.15159912
0.07106315 -0.053004183 0.097717665 0.28150856 0.27857432 0.04805371 0.23177245 -0.34183893
0.17095587 0.21969928 -0.11698927 -0.03235719 -0.22605847 0.08726092 -0.016158663 -0.25966388
0.18966523 0.07520183 0.24396281 0.03420671 0.12835279 -0.23349263 -0.072009556 0.21588475
-0.17233737 -0.06305096 -0.11287547 -0.15998277 0.09396815 0.24063914 -0.26831034 0.31266165
-0.20372193 -0.06980845 0.0338901 0.15441166 0.048688352 0.17205352 -0.06628048 0.17675973
-0.07858759 0.36869988 0.121790595 -0.11595547 -0.37023413 -0.17442796 -0.10032476 0.22297604
-0.04078266 -0.09290636 0.18479759 0.06797806 0.09041096 -0.11194452 -0.5460262 -0.011721963
0.33787176 -0.24072704 -0.106163554 0.033738017 0.13347462 0.4122939 -0.13780956 0.14712936
-0.46382546 -0.18723552 0.040286727 -0.023912987 -0.045210436 -0.068687096 0.14298955 -0.06577796
-0.029699143 -0.25422126 -0.08503253 0.4675827 0.10182127 0.6022082 0.24082899 0.091901764
-0.18096916 0.069544695 -0.11034118 0.06958437 0.13675824 0.24624145 0.027592551 0.1571141
-0.7374153 0.029974697 -0.13174337 -0.31862175 -0.121905744 -0.0077243377 -0.012876056 -0.22713064
