embd_16_nHead_4_nlayer_3_Batch_50.pth (torch, 41819 bytes, 16 tensors)

conv_layers.0.att_src f4 [1, 4, 16]
00000000: 5843 a13d 9959 b33e 86b0 633e 4038 8a3e
00000010: cd09 453e ba54 cdbe e439 9cbd 81dd cf3e
00000020: 813f 8ebe a9da f43e a080 043e 9146 133f
00000030: b00e b0be 6e81 b63c 877a 0e3f bda5 0e3e
00000040: 0436 dc3e 1cd6 5f3e c5b8 a63e c3fd 45be
00000050: 9ddf 6ebe 259d d33e f8f2 dd3e 8950 95bd
00000060: 5fa3 f03e 5c23 03bd 7a93 99be 7e76 df3e
00000070: d753 6c3e 3f91 c8be 86d5 2f3b 77cc 103f
00000080: c49a f4bd e2af 9a3d 91dd 9cbe 11d1 a03e
00000090: 19ce b43e df39 eabe 3b68 76be 5ea1 053f
000000a0: 0280 86be 6de0 48be 17b4 19bf 7f03 e0bc
000000b0: 963b bdbe e48f 20bf 5035 a9be a3a9 4abe
000000c0: dab3 04bf f7fe 173e cdc7 13bc 4ce6 2fbe
000000d0: ef27 09be 020b b6be 48e1 a03e 6cf5 b6bd
000000e0: 9704 233b 13b5 11bf 6be3 c53d 779a 9bbe
000000f0: 8678 c6be 170e 8ebe 4a53 ac3e 5641 d43e
0.07874173 0.35029295 0.22235307 0.2699604 0.1924202 -0.40103704 -0.07628229 0.40598682
-0.27782825 0.47823074 0.12939692 0.5752955 -0.34386206 0.022278514 0.5565571 0.13930412
0.4300996 0.2185902 0.32562843 -0.19335084 -0.23327489 0.4133083 0.43349433 -0.072907515
0.46999642 -0.032016143 -0.29995328 0.4364509 0.23078857 -0.39173314 0.002683015 0.5656199
-0.11943582 0.07553078 -0.30637792 0.31409505 0.3531349 -0.45747277 -0.24063198 0.5219935
-0.26269537 -0.19616862 -0.6004042 -0.027345417 -0.36959523 -0.6271956 -0.33048487 -0.19791274
-0.5183693 0.14843355 -0.009019804 -0.17177695 -0.1339414 -0.35555273 0.31421876 -0.08933529
0.0024874562 -0.5691692 0.09662517 -0.30391285 -0.38763827 -0.27745125 0.33657295 0.41456097

conv_layers.0.att_dst f4 [1, 4, 16]
00000000: dc34 bf3e c749 163f e76d ea3d 8aa6 a5be
00000010: 885a 583e 322c 39be 1e2a 2e3e a557 e73b
00000020: 97d4 60be e8ec 36bf cf6f 0fbf bc57 df3e
00000030: d120 273d 876f 2dbe 120c 363d f0ba adbd
00000040: 1c07 aebd 7496 923e a972 343e b085 7abc
00000050: 733e f23c 0783 0cbd 4dcd 82be f8a9 f43e
00000060: e1fe 85be 084e 00bf f189 183e f3fe 21be
00000070: 34c7 15be 01fe 0bbf d43e b2be 4e66 5bbe
00000080: 131b 483c 7526 423e 7e8b f3be a773 d73e
00000090: b68a 5cbe 62d8 eb3e ebec d4be dbed d93e
000000a0: b98f 903e 6166 f53e 9d56 793d 6d32 ee3e
000000b0: f2d5 efbe 4503 11bf 09ad b53e 2bbd b9be
000000c0: ae59 66be 328c 81be 079e b03e 9f3c 65bd
000000d0: fb3f a4bd 6eac 103f 01d8 1c3d 9bf2 99be
000000e0: 0631 8dbe fd35 aabe 879c 4d3e a7f4 3f3e
000000f0: b1c4 783d 300a 8e3d db2a b9be 6d0a 83bd
0.37345016 0.58706325 0.114467435 -0.32353622 0.21128285 -0.18083265 0.17008254 0.0070600086
-0.21956097 -0.7145524 -0.5602998 0.43621624 0.04080278 -0.16937076 0.044445105 -0.08482921
-0.0849745 0.28630412 0.17621864 -0.015290663 0.029570794 -0.034304645 -0.25547257 0.47785926
-0.2617102 -0.50119066 0.1489637 -0.15819912 -0.14626771 -0.54684454 -0.3481356 -0.21425745
0.012213486 0.18959983 -0.47567362 0.42080423 -0.21537289 0.46063524 -0.41587004 0.42564282
0.28234652 0.4792967 0.060873616 0.46522847 -0.46842915 -0.56645614 0.35483578 -0.36277136
-0.22495148 -0.25302273 0.34495565 -0.055966016 -0.08020016 0.56513107 0.038291935 -0.30067906
-0.27576464 -0.33244315 0.20079242 0.18745671 0.060734455 0.06935537 -0.3616551 -0.06398473

conv_layers.0.bias f4 [64]
00000000: 4325 c9bc 55bf dcbd 6de2 0a3e 12f8 753e
00000010: cb4b 80bd a071 ab3d 06ca db3d 49ea a83c
00000020: f1eb 973e 27ff 47bb 628f d53e a38a 5e3e
00000030: 8297 4bbe b090 a33d baaa ccbc 4652 0abe
00000040: f405 c0be e8a9 653e ad1d afbc 198c 04be
00000050: 17f9 77bc f715 01be 25af 0d3b 972e f33d
00000060: a4fb 97bd 6a04 623e e382 e4bd b2af b2be
00000070: 9eca d3be a0e8 7ebc 1d77 03be 327a 023d
00000080: 8b6a 153e 8752 aebd 2550 193e 118c 17be
00000090: b59d 95be 11ca 203e 0cd1 6a3e 5172 393e
000000a0: 3e8f cd3d 1729 de3d 3a35 193e 62c1 6dbe
000000b0: 9556 0e3e 4dd7 6ebd c8eb f2bd d00b 2c3e
000000c0: b764 333d 8437 b6be 31b7 5e3d 659e 9bbe
000000d0: 3bf4 8b3e 359f afbe c37f a8bd 2a57 0e3e
000000e0: 316e 603e 9782 92bd 555e db3c 6daf e33d
000000f0: cc17 293e c250 54be 6451 6bbe 397a 99be
-0.0245539 -0.10778681 0.13562937 0.24020413 -0.06264456 0.083712816 0.10731892 0.020619528
0.29672197 -0.0030517073 0.41710955 0.21732573 -0.19882014 0.07986581 -0.024983753 -0.13507947
-0.37504542 0.22428095 -0.021376455 -0.12944068 -0.015135071 -0.12606035 0.0021619287 0.11874121
-0.074210435 0.22071996 -0.11157777 -0.3489967 -0.41365522 -0.015558392 -0.12838407 0.031854816
0.14591424 -0.085118346 0.14971979 -0.14799525 -0.29221883 0.15702082 0.22931308 0.18110014
0.10037087 0.10847681 0.1496171 -0.23218301 0.13900216 -0.058310796 -0.11861378 0.16801381
0.04379722 -0.3558923 0.054373924 -0.30394283 0.2733477 -0.34301153 -0.082274936 0.13900438
0.21917035 -0.07153814 0.02677838 0.11117444 0.16512984 -0.20733932 -0.22980267 -0.2997606

conv_layers.0.lin_src.weight f4 [64, 4]
00000000: 6887 253d 9ace fbbe cacb 023e be02 aa3e
00000010: e71d ab3d a3f6 6fbf c5b3 873d 3a24 2c3e
00000020: 8ed8 a2bc 19bd 4e3f 7df5 9abd 14dd 9e3d
00000030: 75af b23c 4ce5 49bf 8364 05bf 1223 de3d
00000040: d836 3bbe 7514 31be a852 313e 3d05 bf3e
00000050: e596 573c 5337 1e3f 269e 91bd 2458 c5be
00000060: a5b4 523e 74ad 603f 7fed 89bd 0ac6 6cbe
00000070: df5b b63d 6ac0 d13e 1c8c 00be 483f 473d
00000080: c744 84bd 42bb ab3b 761d a8be 198b 57be
00000090: 60e6 7d3d 6a8a a2be dc86 8f3d 04fc 6a3e
000000a0: a766 d1bd eee3 0dbf 27b1 efbe 79c0 423d
000000b0: 529c 17be 0acd 8abe 1825 553e a35d 133f
000000c0: d22e d2be 474f 1fbf 06ae c23d 5f11 cdbd
000000d0: 275c 81be 49fa 293f 212b bfbd 7769 25be
000000e0: 3f15 77be 951a 0dbf 7c14 bdbd 7eb3 313e
000000f0: e42a 523e 0a1f 4abe 2983 ad3e e387 143e
00000100: c6f2 9cbe f379 20be e954 9c3e cd86 1dbf
00000110: b7b7 adbd fad7 d6bd 1381 72be d4d9 18be
00000120: efe3 14be a329 6abf fc53 143d e306 a03e
00000130: 7c71 6fbd d8a7 87bf b7b9 5d3d a9da f6bd
00000140: 47c5 3a3d e5ce a73e 6aba 80bd 3ead d53d
00000150: a984 e53d 66e9 48bf ec86 723d 341e 4fbe
00000160: 2047 eabd 1aa9 de3e b50b bdbd 950e 84be
00000170: f0ed 9d3e 213f e13e 51a7 c33e 9d6c eabd
00000180: 1ec4 3d3c 98f9 a43d e80b 0a3e a4e4 10bf
00000190: b828 803d 3871 5dbe 4b6d 28be 062b 263e
000001a0: a832 0ebe 181f 8ebf a569 383d 3ae0 bd3d
000001b0: 582e 5dbc 6712 0abe fc8e 82be afcc 50be
000001c0: 65a6 8ebd 6876 163e 9f27 933e 1bb7 efbe
000001d0: 21b0 0b3e 8af8 b73e d495 9ebd 23af 3e3e
000001e0: a7b7 0d3e 86fb 8f3e 3cb5 56be c30f e5bd
000001f0: 5d60 84be cff1 7fbe c66b 823d f217 bfbd
00000200: f7c4 4dbe 7ef8 8d3f 74fd 89bd c2a8 043d
00000210: ed65 d9bd 0a8e 2fbf a5d4 d63d b472 f23d
00000220: 9d99 62be 16c0 483f 0207 b3bd fef3 393e
00000230: 06de b6be db33 6d3e 3966 adbd 83ed 9ebe
00000240: d8f0 8fbe bc4c efbe d4f9 27be d4b7 11be
00000250: b1c6 34be e79b 2c3f 2d15 97bd b910 d53e
00000260: 45c4 1c3e db34 063f de51 1c3e 9d19 a4bd
00000270: f807 93be aaf8 cfbe a952 9f3e 7ee5 773e
00000280: 764d 3c3e 7b3b 643f acc2 93bd ff15 ae3e
00000290: 05bc 533e 7fb0 c7bd 617b 7d3e a3f6 903e
000002a0: 8c69 173e a99a 463f de6b a5bd f61f c43d
000002b0: 42e4 343e 2b47 cc3e 8943 dd3e 7bc0 cc3e
000002c0: 6115 1fbe 4998 4a3f c8dd a0bd 7e4b bd3e
000002d0: c896 f73d 417d 9e3e 88b0 d1bd 2391 083e
000002e0: 5c35 893d 006a 1c3f d750 9c3e f3b0 5c3e
000002f0: 4a51 843e 55df cd3e cb34 873e c3e9 783e
00000300: 3517 b1bd 0ef1 fd3e 828f 4cbd 6770 cbbe
00000310: dabe ccbe fe33 083f 5e3f cc3d b5fc 49bf
00000320: ff05 debd dfa4 f9be b503 e6bd 9e05 093f
00000330: ad67 96bd db5d 533e e7ca 153e 6d9a 5c3d
00000340: 6942 9b3e 5daf 1abe f52f 30be b65b 823e
00000350: ae32 b43d 4800 eb3e 33e4 bc3e 7978 373d
00000360: 994d 8cbe f8a7 9a3e 573c 083e 82e4 cdbe
00000370: 6684 a6bd 5e15 923f 8ca0 23bd 48fa 4bbf
00000380: 08cf 6bbe 6951 3ebe 8fdc 26be 66ac 2e3e
00000390: 7807 a2be df25 6dbf e227 383d b5d8 323d
000003a0: c659 02bd 7113 263e e6c8 923e e68a cbbd
000003b0: df7c fb3d 9fc2 a9be be96 d2bd 9460 d63e
000003c0: 657f 203d 816d 613f a522 69bd e909 9f3d
000003d0: bea1 97bd 2965 38bf 8aa1 4f3d 9936 123e
000003e0: aed4 83be 8568 bfbc b1bc 673e 2959 883d
000003f0: b2b1 043d ef68 c13e b1d8 363e 5595 85be
0.040412337 -0.49181062 0.12773052 0.33205217 0.08355313 -0.9373571 0.06626085 0.16810694
-0.019878652 0.8075729 -0.075663544 0.07757011 0.02181218 -0.78865504 -0.52106494 0.10846533
-0.1828264 -0.1729296 0.17316687 0.37308684 0.013158535 0.6180317 -0.071102425 -0.38543808
0.20576723 0.8776467 -0.06734752 -0.23122421 0.08904242 0.40967113 -0.12553447 0.048644334
-0.06458431 0.0052408287 -0.32834977 -0.21049155 0.06198728 -0.31746227 0.07008144 0.22947699
-0.102246575 -0.5542592 -0.46814844 0.047546837 -0.14805725 -0.27109557 0.20814931 0.57564753
-0.41051346 -0.6223034 0.095058486 -0.10013079 -0.2526562 0.6639753 -0.09334398 -0.16153513
-0.24129198 -0.55118686 -0.09232423 0.17353627 0.20524174 -0.19738403 0.3388913 0.14504962
-0.3065397 -0.1567152 0.3053353 -0.61533815 -0.084823065 -0.10490413 -0.2368205 -0.14926845
-0.14540075 -0.9146978 0.036212906 0.31255254 -0.058457837 -1.0598097 0.05413219 -0.12053425
0.045598295 0.32775036 -0.06285556 0.10433434 0.112069435 -0.7848114 0.059210703 -0.20226365
-0.11439347 0.4348839 -0.092307486 -0.25792375 0.30845594 0.43993476 0.3821359 -0.114464976
0.0115824025 0.08055419 0.13481104 -0.5659888 0.062577665 -0.21625221 -0.16447942 0.1622735
-0.13886511 -1.1103239 0.045022625 0.092712834 -0.013499819 -0.13483582 -0.25499713 -0.2039058
-0.06965331 0.14693606 0.28741166 -0.46819386 0.13641407 0.35931808 -0.07743421 0.18621497
0.13839589 0.28121585 -0.20967573 -0.11184647 -0.2585477 -0.24994586 0.063682124 -0.09330739
-0.20094667 1.1091459 -0.067377955 0.032387502 -0.10615144 -0.6857611 0.104897775 0.11838284
-0.22128911 0.784181 -0.08741571 0.18159482 -0.35716265 0.23164313 -0.08466763 -0.31040582
-0.28113437 -0.4673823 -0.16403896 -0.14230281 -0.1765392 0.6742539 -0.07377086 0.4161432
0.15309246 0.524244 0.15265605 -0.08012698 -0.28717017 -0.40619403 0.31117752 0.24208638
0.18388924 0.8915326 -0.07214865 0.34001157 0.20677193 -0.09750461 0.24754097 0.2831317
0.14786357 0.7757974 -0.08077215 0.095764086 0.17665198 0.39898047 0.43215588 0.399906
-0.15535499 0.7913862 -0.078548014 0.36971658 0.12089306 0.30954936 -0.10238749 0.13336615
0.066996306 0.61099243 0.30530426 0.21551876 0.2584327 0.4020945 0.26407465 0.24307923
-0.086470045 0.49597973 -0.049941547 -0.39734194 -0.39989358 0.53204334 0.09973024 -0.78901225
-0.108409874 -0.487586 -0.11231176 0.53524196 -0.07343993 0.20641272 0.14628182 0.05385821
0.30324104 -0.15105958 -0.17205794 0.25460595 0.08798729 0.45898652 0.36892852 0.044792626
-0.27402952 0.30206275 0.13304268 -0.402134 -0.08130722 1.1412771 -0.03994803 -0.79678774
-0.23028195 -0.18585743 -0.16295074 0.17057952 -0.31646323 -0.9263591 0.04495991 0.0436637
-0.031823896 0.16218354 0.28668898 -0.09938602 0.12279677 -0.33156297 -0.10282658 0.41870558
0.039183993 0.88057715 -0.056917805 0.07765562 -0.07403897 -0.7202936 0.050691165 0.1427864
-0.257482 -0.023365268 0.22630574 0.06657631 0.032396026 0.3777537 0.17856099 -0.26090494

conv_layers.0.lin_dst.weight f4 [64, 4]
00000000: 6887 253d 9ace fbbe cacb 023e be02 aa3e
00000010: e71d ab3d a3f6 6fbf c5b3 873d 3a24 2c3e
00000020: 8ed8 a2bc 19bd 4e3f 7df5 9abd 14dd 9e3d
00000030: 75af b23c 4ce5 49bf 8364 05bf 1223 de3d
00000040: d836 3bbe 7514 31be a852 313e 3d05 bf3e
00000050: e596 573c 5337 1e3f 269e 91bd 2458 c5be
00000060: a5b4 523e 74ad 603f 7fed 89bd 0ac6 6cbe
00000070: df5b b63d 6ac0 d13e 1c8c 00be 483f 473d
00000080: c744 84bd 42bb ab3b 761d a8be 198b 57be
00000090: 60e6 7d3d 6a8a a2be dc86 8f3d 04fc 6a3e
000000a0: a766 d1bd eee3 0dbf 27b1 efbe 79c0 423d
000000b0: 529c 17be 0acd 8abe 1825 553e a35d 133f
000000c0: d22e d2be 474f 1fbf 06ae c23d 5f11 cdbd
000000d0: 275c 81be 49fa 293f 212b bfbd 7769 25be
000000e0: 3f15 77be 951a 0dbf 7c14 bdbd 7eb3 313e
000000f0: e42a 523e 0a1f 4abe 2983 ad3e e387 143e
00000100: c6f2 9cbe f379 20be e954 9c3e cd86 1dbf
00000110: b7b7 adbd fad7 d6bd 1381 72be d4d9 18be
00000120: efe3 14be a329 6abf fc53 143d e306 a03e
00000130: 7c71 6fbd d8a7 87bf b7b9 5d3d a9da f6bd
00000140: 47c5 3a3d e5ce a73e 6aba 80bd 3ead d53d
00000150: a984 e53d 66e9 48bf ec86 723d 341e 4fbe
00000160: 2047 eabd 1aa9 de3e b50b bdbd 950e 84be
00000170: f0ed 9d3e 213f e13e 51a7 c33e 9d6c eabd
00000180: 1ec4 3d3c 98f9 a43d e80b 0a3e a4e4 10bf
00000190: b828 803d 3871 5dbe 4b6d 28be 062b 263e
000001a0: a832 0ebe 181f 8ebf a569 383d 3ae0 bd3d
000001b0: 582e 5dbc 6712 0abe fc8e 82be afcc 50be
000001c0: 65a6 8ebd 6876 163e 9f27 933e 1bb7 efbe
000001d0: 21b0 0b3e 8af8 b73e d495 9ebd 23af 3e3e
000001e0: a7b7 0d3e 86fb 8f3e 3cb5 56be c30f e5bd
000001f0: 5d60 84be cff1 7fbe c66b 823d f217 bfbd
00000200: f7c4 4dbe 7ef8 8d3f 74fd 89bd c2a8 043d
00000210: ed65 d9bd 0a8e 2fbf a5d4 d63d b472 f23d
00000220: 9d99 62be 16c0 483f 0207 b3bd fef3 393e
00000230: 06de b6be db33 6d3e 3966 adbd 83ed 9ebe
00000240: d8f0 8fbe bc4c efbe d4f9 27be d4b7 11be
00000250: b1c6 34be e79b 2c3f 2d15 97bd b910 d53e
00000260: 45c4 1c3e db34 063f de51 1c3e 9d19 a4bd
00000270: f807 93be aaf8 cfbe a952 9f3e 7ee5 773e
00000280: 764d 3c3e 7b3b 643f acc2 93bd ff15 ae3e
00000290: 05bc 533e 7fb0 c7bd 617b 7d3e a3f6 903e
000002a0: 8c69 173e a99a 463f de6b a5bd f61f c43d
000002b0: 42e4 343e 2b47 cc3e 8943 dd3e 7bc0 cc3e
000002c0: 6115 1fbe 4998 4a3f c8dd a0bd 7e4b bd3e
000002d0: c896 f73d 417d 9e3e 88b0 d1bd 2391 083e
000002e0: 5c35 893d 006a 1c3f d750 9c3e f3b0 5c3e
000002f0: 4a51 843e 55df cd3e cb34 873e c3e9 783e
00000300: 3517 b1bd 0ef1 fd3e 828f 4cbd 6770 cbbe
00000310: dabe ccbe fe33 083f 5e3f cc3d b5fc 49bf
00000320: ff05 debd dfa4 f9be b503 e6bd 9e05 093f
00000330: ad67 96bd db5d 533e e7ca 153e 6d9a 5c3d
00000340: 6942 9b3e 5daf 1abe f52f 30be b65b 823e
00000350: ae32 b43d 4800 eb3e 33e4 bc3e 7978 373d
00000360: 994d 8cbe f8a7 9a3e 573c 083e 82e4 cdbe
00000370: 6684 a6bd 5e15 923f 8ca0 23bd 48fa 4bbf
00000380: 08cf 6bbe 6951 3ebe 8fdc 26be 66ac 2e3e
00000390: 7807 a2be df25 6dbf e227 383d b5d8 323d
000003a0: c659 02bd 7113 263e e6c8 923e e68a cbbd
000003b0: df7c fb3d 9fc2 a9be be96 d2bd 9460 d63e
000003c0: 657f 203d 816d 613f a522 69bd e909 9f3d
000003d0: bea1 97bd 2965 38bf 8aa1 4f3d 9936 123e
000003e0: aed4 83be 8568 bfbc b1bc 673e 2959 883d
000003f0: b2b1 043d ef68 c13e b1d8 363e 5595 85be
0.040412337 -0.49181062 0.12773052 0.33205217 0.08355313 -0.9373571 0.06626085 0.16810694
-0.019878652 0.8075729 -0.075663544 0.07757011 0.02181218 -0.78865504 -0.52106494 0.10846533
-0.1828264 -0.1729296 0.17316687 0.37308684 0.013158535 0.6180317 -0.071102425 -0.38543808
0.20576723 0.8776467 -0.06734752 -0.23122421 0.08904242 0.40967113 -0.12553447 0.048644334
-0.06458431 0.0052408287 -0.32834977 -0.21049155 0.06198728 -0.31746227 0.07008144 0.22947699
-0.102246575 -0.5542592 -0.46814844 0.047546837 -0.14805725 -0.27109557 0.20814931 0.57564753
-0.41051346 -0.6223034 0.095058486 -0.10013079 -0.2526562 0.6639753 -0.09334398 -0.16153513
-0.24129198 -0.55118686 -0.09232423 0.17353627 0.20524174 -0.19738403 0.3388913 0.14504962
-0.3065397 -0.1567152 0.3053353 -0.61533815 -0.084823065 -0.10490413 -0.2368205 -0.14926845
-0.14540075 -0.9146978 0.036212906 0.31255254 -0.058457837 -1.0598097 0.05413219 -0.12053425
0.045598295 0.32775036 -0.06285556 0.10433434 0.112069435 -0.7848114 0.059210703 -0.20226365
-0.11439347 0.4348839 -0.092307486 -0.25792375 0.30845594 0.43993476 0.3821359 -0.114464976
0.0115824025 0.08055419 0.13481104 -0.5659888 0.062577665 -0.21625221 -0.16447942 0.1622735
-0.13886511 -1.1103239 0.045022625 0.092712834 -0.013499819 -0.13483582 -0.25499713 -0.2039058
-0.06965331 0.14693606 0.28741166 -0.46819386 0.13641407 0.35931808 -0.07743421 0.18621497
0.13839589 0.28121585 -0.20967573 -0.11184647 -0.2585477 -0.24994586 0.063682124 -0.09330739
-0.20094667 1.1091459 -0.067377955 0.032387502 -0.10615144 -0.6857611 0.104897775 0.11838284
-0.22128911 0.784181 -0.08741571 0.18159482 -0.35716265 0.23164313 -0.08466763 -0.31040582
-0.28113437 -0.4673823 -0.16403896 -0.14230281 -0.1765392 0.6742539 -0.07377086 0.4161432
0.15309246 0.524244 0.15265605 -0.08012698 -0.28717017 -0.40619403 0.31117752 0.24208638
0.18388924 0.8915326 -0.07214865 0.34001157 0.20677193 -0.09750461 0.24754097 0.2831317
0.14786357 0.7757974 -0.08077215 0.095764086 0.17665198 0.39898047 0.43215588 0.399906
-0.15535499 0.7913862 -0.078548014 0.36971658 0.12089306 0.30954936 -0.10238749 0.13336615
0.066996306 0.61099243 0.30530426 0.21551876 0.2584327 0.4020945 0.26407465 0.24307923
-0.086470045 0.49597973 -0.049941547 -0.39734194 -0.39989358 0.53204334 0.09973024 -0.78901225
-0.108409874 -0.487586 -0.11231176 0.53524196 -0.07343993 0.20641272 0.14628182 0.05385821
0.30324104 -0.15105958 -0.17205794 0.25460595 0.08798729 0.45898652 0.36892852 0.044792626
-0.27402952 0.30206275 0.13304268 -0.402134 -0.08130722 1.1412771 -0.03994803 -0.79678774
-0.23028195 -0.18585743 -0.16295074 0.17057952 -0.31646323 -0.9263591 0.04495991 0.0436637
-0.031823896 0.16218354 0.28668898 -0.09938602 0.12279677 -0.33156297 -0.10282658 0.41870558
0.039183993 0.88057715 -0.056917805 0.07765562 -0.07403897 -0.7202936 0.050691165 0.1427864
-0.257482 -0.023365268 0.22630574 0.06657631 0.032396026 0.3777537 0.17856099 -0.26090494

conv_layers.1.att_src f4 [1, 4, 16]
00000000: e23a 91be 67c6 2fbd 5b84 17bf 2a7f d5be
00000010: 7ba4 93bc 68ea 43be a664 03be 8bdd fb3e
00000020: 5cb7 123e 25d6 1d3e 6411 8b3e 8dd7 c73d
00000030: 07e9 92be 11e3 1bbe 1678 01bf 671c b2be
00000040: 1883 a53d cfc7 1a3f 6b03 cdbe 34d9 083f
00000050: c83c 5abe 96d0 0a3e b746 4dbf a2ab 963d
00000060: f4e6 483e 9cb5 fabd 5cec e7bd eef9 a4bd
00000070: 4ba9 2b3f 2e79 243f dc2d 64bf b605 0c3f
00000080: bea0 f6be 10a8 c13e 1cba 463f e382 383f
00000090: cc06 313f 1586 143f 7792 b73d 136e 053e
000000a0: 7f35 5ebf e3e7 bd3e dfc1 4bbe 9f43 9e3c
000000b0: aba3 24be ae17 17bd c204 0bbf 4889 17bd
000000c0: 640f 0a3f 5144 683f c0e7 c63a e114 45bf
000000d0: 0dab 0f3f 2753 443e 572a 933e c0bd 0f3f
000000e0: ad6b 6d3e b6a4 e43c bfd6 babe e9ea 3f3e
000000f0: c78a fbbd f6d0 263e 52c7 5d3e c4f7 aabe
-0.28365237 -0.04291382 -0.59186333 -0.4169858 -0.018022766 -0.19132388 -0.12831363 0.4919246
0.14327759 0.15413721 0.27161705 0.0975791 -0.2869341 -0.15223338 -0.5057386 -0.34787294
0.08081645 0.60461134 -0.4004167 0.53456426 -0.21312249 0.13556132 -0.8018603 0.07356955
0.19619352 -0.122416705 -0.11324379 -0.08055483 0.67055196 0.64247406 -0.89132476 0.54696214
-0.48169512 0.37823534 0.7762773 0.7207472 0.69150996 0.5801709 0.08963483 0.13030271
-0.8680038 0.37090978 -0.19898175 0.019319354 -0.1607806 -0.036887817 -0.54304135 -0.036996156
0.53929734 0.9072924 0.0015175268 -0.76984984 0.5612038 0.19172345 0.2874324 0.5614891
0.23185606 0.027910572 -0.36491963 0.18741955 -0.12282329 0.1629065 0.21658066 -0.33392155

conv_layers.1.att_dst f4 [1, 4, 16]
00000000: 5c4d 843c 4d73 9f3e f392 e0be 280b d9be
00000010: 1ea2 e03e 68e1 c7bd 2212 9e3d b643 693e
00000020: d3c7 e5be 5a84 f3be 9bcf 923e 8cbb fcbd
00000030: 8b81 033f 1973 c8be 6b3e ba3e ea82 cf3e
00000040: 645a f23e 9a02 6a3d c41d 123f 9fb0 36be
00000050: 77db 9b3e 7c63 9f3e e8d8 04bf 9ece ae3e
00000060: 53e4 2ebd df98 c8be 49e1 35bd 2a26 9f3e
00000070: 9178 5b3d 69a0 3a3e c39d a63e f351 8d3e
00000080: 212e de3d c15e b3be 5781 bb3e 9dc3 3f3d
00000090: 3e9c 6b3c bc3c cebe 5119 d5be 27f5 06bf
000000a0: 7bc0 e53e 3b21 f2be 26ad 043f f796 c23e
000000b0: 4fb2 87be 3dbf 06bf 3830 8fbe 5d69 81be
000000c0: 0283 833e 6e4b 47be 4f27 903e 4f77 2a3e
000000d0: 0c1f bdbe bb9c 0ebd f2c4 a63e eecd 74bd
000000e0: 975b 893e bbc1 283e 9da2 353e fd56 43be
000000f0: 9840 a13d 4ec6 063f d0a0 933d 4948 813e
0.01615017 0.31142655 -0.43862113 -0.42391324 0.43873686 -0.0975979 0.07718302 0.22779736
-0.44879016 -0.47561914 0.28674015 -0.12340459 0.5136954 -0.39150313 0.36375746 0.40529567
0.47334588 0.057131387 0.5707667 -0.17840813 0.30440876 0.31130588 -0.5189347 0.3414201
-0.042698216 -0.3917913 -0.0444043 0.31083804 0.053581778 0.18225254 0.32542238 0.27601585
0.10848642 -0.3503323 0.36622116 0.04681741 0.014380513 -0.40280712 -0.41620877 -0.5271782
0.44873413 -0.47290978 0.51826704 0.38005802 -0.26503226 -0.52635556 -0.27966475 -0.25275698
0.2568589 -0.19462368 0.2815499 0.16647075 -0.3693775 -0.03481744 0.32572132 -0.059766702
0.2682769 0.16480152 0.17737813 -0.19076152 0.078736484 0.5264634 0.07208407 0.25250462

conv_layers.1.bias f4 [64]
00000000: 8da2 63bc 2e39 2fbd a5e0 ca3b 381b 1b3e
00000010: 8143 533d fa4f b13c 1853 7c3c 16cd 563d
00000020: 3237 5d3c 8367 a43c d196 1cbd 2c3d c3bc
00000030: d0a6 993c 50d7 673c 22e0 853c 06bc 22bd
00000040: f891 9bbd efb1 2b3e dc6b 2fbd dcc0 2bbc
00000050: b237 1e3d 3885 ac3c 2380 a73b aed7 e93c
00000060: d7c7 02bc 5a20 5b3d 9a63 263d 0e3f 803c
00000070: 3006 063d b4fd d13b d5b7 54bd df66 0abc
00000080: 1696 1ebc 7b93 c4bc ce79 303b 3385 793d
00000090: 8f8a 9cbb 8f3f 873d aa3c 9a3d 5499 73bc
000000a0: b683 7e3d 641a c9bd 3d12 803d 0b2a 8b3c
000000b0: b5cd 143d cd86 14bd 725f f03c de84 a5bc
000000c0: 137f 1c3d 1ed6 5f3d 8600 d8bc 7df8 82bd
000000d0: 2884 7fbd 81af 89bd 6ad7 0e3d f14a a33d
000000e0: a422 a73d 062d 90bc c84d 38bd f53d 5f3d
000000f0: e8a3 56b9 450a 3a3d ffa1 fdbc 9aee 0b3d
-0.013893736 -0.04277914 0.0061913305 0.15147102 0.05157805 0.021644581 0.0154006705 0.05244168
0.013501929 0.02006889 -0.038229767 -0.02383288 0.0187563 0.014150456 0.016342226 -0.039730094
-0.07596201 0.16767095 -0.042827472 -0.010482993 0.038627334 0.021059617 0.0051117106 0.028545227
-0.007982216 0.05349765 0.04062233 0.015655067 0.032720745 0.0064084176 -0.05193313 -0.008447378
-0.009679338 -0.023996105 0.002692807 0.060918044 -0.0047772597 0.0660392 0.07531102 -0.014868099
0.062137328 -0.09819487 0.06253479 0.016987821 0.03632899 -0.03626137 0.029342387 -0.020204958
0.038207125 0.054647557 -0.026367437 -0.06395052 -0.062381893 -0.06722928 0.034873404 0.07973278
0.08160904 -0.017599594 -0.044996053 0.054502446 -0.0002046969 0.04541995 -0.030961035 0.034163095

conv_layers.1.lin_src.weight f4 [64, 64]
00000000: 9585 413c 97c4 10be 948e 0cbe a143 bcbd
00000010: e695 543e 023c 2a3e 0fe0 903d ee4f 9bbd
00000020: bf86 683d 50b0 263e 36f7 d0bd 05b6 803d
00000030: 7def d7bc 9ab8 eebd 804f cebe dd63 c33d
00000040: 9371 713d c633 263e b498 18bd 2f1f f0be
00000050: 15db 26be 8c53 633e 3da4 1a3e 61fb 3e3e
00000060: 6f41 8f3d bbb7 babd 0989 51bd 254a 2cbe
00000070: 9e66 d23d 85ef 51bd 62d3 cf3d 6310 fd3d
00000080: f7d5 50be e831 893d fb3f 46be b447 83bd
00000090: 9084 f43d 9192 d8be 2c6d 973c f423 05be
000000a0: 8400 3bbe 9b5d 2fbe 36c0 443d 224a e93c
000000b0: a196 62be 914b 9dbc 8bdb 803d 5176 223e
000000c0: 652c 21be e4fe 283e 9196 68be f25a 683e
000000d0: 57a0 68bd fe4b 60be b361 1f3d b5c5 0a3d
000000e0: f067 9e3c 302e 6abe 5555 05be f60d 433d
000000f0: 4666 ebbd 63f1 2d3e 5657 043e 026a 3e3e
00000100: 2305 c03d 77f1 e7bd 8f4b 543d 916d 353d
00000110: 848e 54be 5b58 a1bd 74d9 99bd cb64 c7bd
00000120: ff9f 43bd 16fc 143e 7ca9 52bd f865 22bd
00000130: b8fb 123e a99d 123e 56d1 a63d 92af 063e
00000140: fa35 12be 919e c33d d328 8fbc fbd5 f73a
00000150: 3451 1abd 6810 f63d 6000 913e 4a5c 213e
00000160: e548 88be 3319 153e 83b2 5ebd 2303 3e3e
00000170: f16e fd3d fb32 8c3e ea13 113e e576 95be
00000180: 74b9 19be 6267 513d 9c48 a9bd 0dae dabd
00000190: 3023 a9bd 57e0 86bc 8f61 7dbe cf81 abbd
000001a0: 7196 4b3e 4085 d8bd 7881 083e 7c13 2cbd
000001b0: a4c5 9abd 2de0 f5bd 0047 263e c3af 3bbe
000001c0: 9324 103e d23d 82be 3abf bebd 13b5 5dbe
000001d0: da5b 0ebe 7fcb 58be 63bd 6fbe 50cf dabb
000001e0: 48c3 033e b27d 1cbe 965e 00be c132 303e
000001f0: d97b d53d 5b7a 1dbd 09ac 7ebe 8917 67be
00000200: f9d1 383d fba9 92bd ade6 a43d ddfa 8ebd
00000210: a6a3 443d 9d3d 10be 4f9e ab3d 6c67 c3be
00000220: ad0f 81bd ae81 d4bd 2b69 a7bd 685c 09be
00000230: 101d 61bd 4deb 1fbd 210a 98be 1e21 18bd
00000240: 51b1 83be 83e1 4bbd 5f88 d83d 2eb1 e23d
00000250: e4fa d1bd b613 6fbd 8395 123e 5703 ddbd
00000260: d564 8bbe 24f5 d83d fdca b3bc 8b18 243e
00000270: 0b88 6ebe ec47 d23d 803c f3bd ae8f a3bd
00000280: d9dd 013e 1e0e 383e 8d3b 93bd ea16 f9bd
00000290: 2e20 24be 36f8 67be c78c 96bd 489f 94bd
000002a0: af2e aabe 927f eebd a51e c83d f403 53be
000002b0: ad38 76be 97fe f93c 429b 30be 2f5b 9fbc
000002c0: 8109 07be a6ba bdbd 1f47 a13d bcfa 9bbd
000002d0: 6515 3d3e 8400 acbd caa0 b9bd 4538 c53d
000002e0: a8bd 18be 7e62 da3d 651c cb3c 98a5 053e
000002f0: 9926 003e 1490 dcbc 6371 263e fa12 5ebe
00000300: 67c8 953e d034 bfbe a84c c039 3fe9 2e3e
00000310: 19e2 833e b1fb fa3c 9fac 823d c54f d03c
00000320: bdca 66bd aedf 803d 44b3 0cbe e422 b93d
00000330: 7baa 5a3d 836f 0dbe a540 cebc f499 27be
00000340: a675 57be 3778 4e3e af12 29be f647 09bf
00000350: f830 403e d24b bbbe c3bb c73d bbfc 4e3e
00000360: f4e0 95be 59c4 aa3d 8dfa 13be 7199 a23d
00000370: a88d a83d 6b77 a43e c77f d0bd 83f0 533d
00000380: 6a9b 313e fe6d e93d bbeb 22bd e77f 283d
00000390: b24e 36be 6c0f 4a3e 7a83 803d 58f0 603d
000003a0: a618 66be b8f6 3d3e a215 d6bd 7539 ffbd
000003b0: 68f9 37bd 7a4c d4bd ba85 15be 9e11 883e
000003c0: 81ce 9ebc 0555 b6be f734 0a3d bd7f 37be
000003d0: 8b6c d13d 0a2e 17be 8fd3 33be 2a19 563e
000003e0: 05c7 fc3d 6915 06bf b9fd c13d c506 de3c
000003f0: baa4 933e 1d14 9dbd e051 81be 2493 0dbe
0.011811634 -0.14137493 -0.13726264 -0.09192587 0.20760307 0.16624454 0.07073986 -0.07583605
0.05676913 0.16278195 -0.10203402 0.062847175 -0.026359314 -0.11656304 -0.4029503 0.09540532
0.058946203 0.16230687 -0.037255004 -0.4689879 -0.1629451 0.2219984 0.15101714 0.18650581
0.06994902 -0.09117075 -0.051156078 -0.16825159 0.10273479 -0.051253814 0.1014774 0.12356641
-0.20394121 0.06698972 -0.19360344 -0.06410161 0.11939347 -0.4229932 0.018484674 -0.13001996
-0.18261915 -0.17125551 0.04803487 0.028477732 -0.22127773 -0.019201072 0.062918745 0.15865447
-0.15739591 0.16503483 -0.22713687 0.22690943 -0.056793537 -0.21903989 0.038911533 0.033879954
0.01933667 -0.22869182 -0.13020833 0.047620736 -0.114941165 0.16986613 0.12923941 0.18595126
0.0937598 -0.11325353 0.05182987 0.044293944 -0.2075749 -0.078781806 -0.07512179 -0.097360216
-0.047760006 0.14549288 -0.051431164 -0.039648026 0.14353836 0.14317955 0.081453964 0.13152912
-0.14278403 0.095517285 -0.017475521 0.0018908376 -0.037675098 0.12014848 0.283206 0.15757862
-0.26618114 0.14560394 -0.05436946 0.18555884 0.12374676 0.27382645 0.14167753 -0.29192272
-0.15012151 0.051123984 -0.08265802 -0.10677729 -0.082586646 -0.016464395 -0.24744247 -0.083743684
0.19881608 -0.105722904 0.13330638 -0.04201077 -0.07557228 -0.12005649 0.16238022 -0.18328767
0.14076452 -0.2543779 -0.09313817 -0.21651106 -0.13902226 -0.21171378 -0.23412089 -0.0066775456
0.12867463 -0.15282324 -0.12536082 0.17206861 0.10424013 -0.038446765 -0.24870314 -0.22567572
0.04512212 -0.071613275 0.080518104 -0.06981442 0.04800763 -0.14086004 0.08379804 -0.38164842
-0.06301818 -0.10376297 -0.08174356 -0.13414156 -0.054959357 -0.03904276 -0.29695228 -0.037140958
-0.2572122 -0.04977561 0.10572886 0.110689506 -0.10252932 -0.058368407 0.14314847 -0.10791653
-0.27225366 0.10593632 -0.021947378 0.16024987 -0.23294084 0.10267624 -0.11876774 -0.07986389
0.12682284 0.17974135 -0.07189093 -0.12162574 -0.160279 -0.22653279 -0.0735107 -0.07256943
-0.33238742 -0.11645426 0.0977147 -0.20606977 -0.24045058 0.030516906 -0.17246726 -0.01945266
-0.13187219 -0.09264116 0.078748934 -0.07616183 0.18465193 -0.08398536 -0.09063871 0.09629873
-0.14916098 0.10663317 0.024793813 0.1305145 0.12514724 -0.02692417 0.16254191 -0.21686926
0.29254457 -0.3734498 0.00036678207 0.17081164 0.25758436 0.030637594 0.06380581 0.025428662
-0.05634569 0.062926635 -0.1374026 0.09039858 0.05338524 -0.1381207 -0.02517731 -0.16367322
-0.21040973 0.20163046 -0.16511033 -0.5362543 0.1876868 -0.36581284 0.097526096 0.20213597
-0.29273188 0.083382316 -0.14451046 0.07939423 0.08230144 0.3212236 -0.101806216 0.05174304
0.17344442 0.113979325 -0.03977559 0.041137602 -0.17803457 0.19732445 0.06275077 0.05491671
-0.2247034 0.18551147 -0.10453345 -0.12462131 -0.044915587 -0.10366149 -0.14601794 0.2657594
-0.019385578 -0.3561174 0.033741917 -0.17919822 0.10225781 -0.14763656 -0.17561172 0.20908037
0.123426475 -0.5237642 0.09472222 0.027102837 0.28836614 -0.07669852 -0.25257778 -0.13825661

conv_layers.1.lin_dst.weight f4 [64, 64]
00000000: 9585 413c 97c4 10be 948e 0cbe a143 bcbd
00000010: e695 543e 023c 2a3e 0fe0 903d ee4f 9bbd
00000020: bf86 683d 50b0 263e 36f7 d0bd 05b6 803d
00000030: 7def d7bc 9ab8 eebd 804f cebe dd63 c33d
00000040: 9371 713d c633 263e b498 18bd 2f1f f0be
00000050: 15db 26be 8c53 633e 3da4 1a3e 61fb 3e3e
00000060: 6f41 8f3d bbb7 babd 0989 51bd 254a 2cbe
00000070: 9e66 d23d 85ef 51bd 62d3 cf3d 6310 fd3d
00000080: f7d5 50be e831 893d fb3f 46be b447 83bd
00000090: 9084 f43d 9192 d8be 2c6d 973c f423 05be
000000a0: 8400 3bbe 9b5d 2fbe 36c0 443d 224a e93c
000000b0: a196 62be 914b 9dbc 8bdb 803d 5176 223e
000000c0: 652c 21be e4fe 283e 9196 68be f25a 683e
000000d0: 57a0 68bd fe4b 60be b361 1f3d b5c5 0a3d
000000e0: f067 9e3c 302e 6abe 5555 05be f60d 433d
000000f0: 4666 ebbd 63f1 2d3e 5657 043e 026a 3e3e
00000100: 2305 c03d 77f1 e7bd 8f4b 543d 916d 353d
00000110: 848e 54be 5b58 a1bd 74d9 99bd cb64 c7bd
00000120: ff9f 43bd 16fc 143e 7ca9 52bd f865 22bd
00000130: b8fb 123e a99d 123e 56d1 a63d 92af 063e
00000140: fa35 12be 919e c33d d328 8fbc fbd5 f73a
00000150: 3451 1abd 6810 f63d 6000 913e 4a5c 213e
00000160: e548 88be 3319 153e 83b2 5ebd 2303 3e3e
00000170: f16e fd3d fb32 8c3e ea13 113e e576 95be
00000180: 74b9 19be 6267 513d 9c48 a9bd 0dae dabd
00000190: 3023 a9bd 57e0 86bc 8f61 7dbe cf81 abbd
000001a0: 7196 4b3e 4085 d8bd 7881 083e 7c13 2cbd
000001b0: a4c5 9abd 2de0 f5bd 0047 263e c3af 3bbe
000001c0: 9324 103e d23d 82be 3abf bebd 13b5 5dbe
000001d0: da5b 0ebe 7fcb 58be 63bd 6fbe 50cf dabb
000001e0: 48c3 033e b27d 1cbe 965e 00be c132 303e
000001f0: d97b d53d 5b7a 1dbd 09ac 7ebe 8917 67be
00000200: f9d1 383d fba9 92bd ade6 a43d ddfa 8ebd
00000210: a6a3 443d 9d3d 10be 4f9e ab3d 6c67 c3be
00000220: ad0f 81bd ae81 d4bd 2b69 a7bd 685c 09be
00000230: 101d 61bd 4deb 1fbd 210a 98be 1e21 18bd
00000240: 51b1 83be 83e1 4bbd 5f88 d83d 2eb1 e23d
00000250: e4fa d1bd b613 6fbd 8395 123e 5703 ddbd
00000260: d564 8bbe 24f5 d83d fdca b3bc 8b18 243e
00000270: 0b88 6ebe ec47 d23d 803c f3bd ae8f a3bd
00000280: d9dd 013e 1e0e 383e 8d3b 93bd ea16 f9bd
00000290: 2e20 24be 36f8 67be c78c 96bd 489f 94bd
000002a0: af2e aabe 927f eebd a51e c83d f403 53be
000002b0: ad38 76be 97fe f93c 429b 30be 2f5b 9fbc
000002c0: 8109 07be a6ba bdbd 1f47 a13d bcfa 9bbd
000002d0: 6515 3d3e 8400 acbd caa0 b9bd 4538 c53d
000002e0: a8bd 18be 7e62 da3d 651c cb3c 98a5 053e
000002f0: 9926 003e 1490 dcbc 6371 263e fa12 5ebe
00000300: 67c8 953e d034 bfbe a84c c039 3fe9 2e3e
00000310: 19e2 833e b1fb fa3c 9fac 823d c54f d03c
00000320: bdca 66bd aedf 803d 44b3 0cbe e422 b93d
00000330: 7baa 5a3d 836f 0dbe a540 cebc f499 27be
00000340: a675 57be 3778 4e3e af12 29be f647 09bf
00000350: f830 403e d24b bbbe c3bb c73d bbfc 4e3e
00000360: f4e0 95be 59c4 aa3d 8dfa 13be 7199 a23d
00000370: a88d a83d 6b77 a43e c77f d0bd 83f0 533d
00000380: 6a9b 313e fe6d e93d bbeb 22bd e77f 283d
00000390: b24e 36be 6c0f 4a3e 7a83 803d 58f0 603d
000003a0: a618 66be b8f6 3d3e a215 d6bd 7539 ffbd
000003b0: 68f9 37bd 7a4c d4bd ba85 15be 9e11 883e
000003c0: 81ce 9ebc 0555 b6be f734 0a3d bd7f 37be
000003d0: 8b6c d13d 0a2e 17be 8fd3 33be 2a19 563e
000003e0: 05c7 fc3d 6915 06bf b9fd c13d c506 de3c
000003f0: baa4 933e 1d14 9dbd e051 81be 2493 0dbe
0.011811634 -0.14137493 -0.13726264 -0.09192587 0.20760307 0.16624454 0.07073986 -0.07583605
0.05676913 0.16278195 -0.10203402 0.062847175 -0.026359314 -0.11656304 -0.4029503 0.09540532
0.058946203 0.16230687 -0.037255004 -0.4689879 -0.1629451 0.2219984 0.15101714 0.18650581
0.06994902 -0.09117075 -0.051156078 -0.16825159 0.10273479 -0.051253814 0.1014774 0.12356641
-0.20394121 0.06698972 -0.19360344 -0.06410161 0.11939347 -0.4229932 0.018484674 -0.13001996
-0.18261915 -0.17125551 0.04803487 0.028477732 -0.22127773 -0.019201072 0.062918745 0.15865447
-0.15739591 0.16503483 -0.22713687 0.22690943 -0.056793537 -0.21903989 0.038911533 0.033879954
0.01933667 -0.22869182 -0.13020833 0.047620736 -0.114941165 0.16986613 0.12923941 0.18595126
0.0937598 -0.11325353 0.05182987 0.044293944 -0.2075749 -0.078781806 -0.07512179 -0.097360216
-0.047760006 0.14549288 -0.051431164 -0.039648026 0.14353836 0.14317955 0.081453964 0.13152912
-0.14278403 0.095517285 -0.017475521 0.0018908376 -0.037675098 0.12014848 0.283206 0.15757862
-0.26618114 0.14560394 -0.05436946 0.18555884 0.12374676 0.27382645 0.14167753 -0.29192272
-0.15012151 0.051123984 -0.08265802 -0.10677729 -0.082586646 -0.016464395 -0.24744247 -0.083743684
0.19881608 -0.105722904 0.13330638 -0.04201077 -0.07557228 -0.12005649 0.16238022 -0.18328767
0.14076452 -0.2543779 -0.09313817 -0.21651106 -0.13902226 -0.21171378 -0.23412089 -0.0066775456
0.12867463 -0.15282324 -0.12536082 0.17206861 0.10424013 -0.038446765 -0.24870314 -0.22567572
0.04512212 -0.071613275 0.080518104 -0.06981442 0.04800763 -0.14086004 0.08379804 -0.38164842
-0.06301818 -0.10376297 -0.08174356 -0.13414156 -0.054959357 -0.03904276 -0.29695228 -0.037140958
-0.2572122 -0.04977561 0.10572886 0.110689506 -0.10252932 -0.058368407 0.14314847 -0.10791653
-0.27225366 0.10593632 -0.021947378 0.16024987 -0.23294084 0.10267624 -0.11876774 -0.07986389
0.12682284 0.17974135 -0.07189093 -0.12162574 -0.160279 -0.22653279 -0.0735107 -0.07256943
-0.33238742 -0.11645426 0.0977147 -0.20606977 -0.24045058 0.030516906 -0.17246726 -0.01945266
-0.13187219 -0.09264116 0.078748934 -0.07616183 0.18465193 -0.08398536 -0.09063871 0.09629873
-0.14916098 0.10663317 0.024793813 0.1305145 0.12514724 -0.02692417 0.16254191 -0.21686926
0.29254457 -0.3734498 0.00036678207 0.17081164 0.25758436 0.030637594 0.06380581 0.025428662
-0.05634569 0.062926635 -0.1374026 0.09039858 0.05338524 -0.1381207 -0.02517731 -0.16367322
-0.21040973 0.20163046 -0.16511033 -0.5362543 0.1876868 -0.36581284 0.097526096 0.20213597
-0.29273188 0.083382316 -0.14451046 0.07939423 0.08230144 0.3212236 -0.101806216 0.05174304
0.17344442 0.113979325 -0.03977559 0.041137602 -0.17803457 0.19732445 0.06275077 0.05491671
-0.2247034 0.18551147 -0.10453345 -0.12462131 -0.044915587 -0.10366149 -0.14601794 0.2657594
-0.019385578 -0.3561174 0.033741917 -0.17919822 0.10225781 -0.14763656 -0.17561172 0.20908037
0.123426475 -0.5237642 0.09472222 0.027102837 0.28836614 -0.07669852 -0.25257778 -0.13825661

conv_layers.2.att_src f4 [1, 4, 16]
00000000: 3144 633f 0d62 523f d3a4 453f 7f6a 9e3e
00000010: 55c1 7fbe aa47 ca3d 60e0 43bf 66ab 793e
00000020: 6887 1a3e f6d1 e43e a2f0 37be 15f7 2a3f
00000030: b43c 233f b79a 5f3d c4ec 85bf 9fe5 52bf
00000040: d531 96be 4e4c 863f 2c8f 033c 1af7 1cbf
00000050: 7318 c2be 6bb5 6f3e 648d 533d 0d1c 203f
00000060: c29b 5fbf 733f 093f b4d0 043d 2f26 47bd
00000070: 626a 563f 760e 3abf 31f2 cd3e 3468 253d
00000080: 03f4 3d3f 726d d6bc 457e 0c3f 68e1 f3be
00000090: 8af8 39be 8704 b4bd c48a 7abe 0d5b 51be
000000a0: 7ca4 103e 1539 4d3e e2a4 46bd 5cc1 f6be
000000b0: 570d e9be e716 2ebd d6ca 193d c843 b5be
000000c0: 64ec 31bf bab7 f63a fda2 33bf 6f4e f2be
000000d0: 7f6e 38bf 0062 be3e 3d50 a83e 253b bf3e
000000e0: 85e2 783e 8753 dd3e d2cb 08bf 7cfe d2be
000000f0: d306 2ebf 9989 60bf 05c0 14bf 24fb 0d3e
0.88775927 0.82180864 0.77204627 0.30940625 -0.24976094 0.0987695 -0.76514244 0.2438179
0.15090716 0.44691437 -0.17962888 0.6678327 0.637645 0.054590907 -1.046288 -0.82381624
-0.29334894 1.0492036 0.00802974 -0.6131455 -0.37909278 0.23409049 0.051648512 0.625428
-0.8734704 0.5361244 0.032425597 -0.0486204 0.8375608 -0.72678316 0.4022384 0.04038258
0.7420046 -0.026175234 0.5488017 -0.4763291 -0.18161216 -0.08789926 -0.24466997 -0.2044489
0.14125246 0.20041306 -0.04849709 -0.48194396 -0.4551799 -0.04250231 0.037546955 -0.35403275
-0.6950133 0.0018823065 -0.70170575 -0.47325465 -0.72043604 0.37184143 0.32873717 0.3734981
0.2430516 0.4322779 -0.53436005 -0.4120978 -0.6797916 -0.8770996 -0.581055 0.13865334

conv_layers.2.att_dst f4 [1, 4, 16]
00000000: 843a e13e 8e97 9c3d 7e54 09bf e9c5 923e
00000010: 067e 1dbb d519 b1be 4bcf 00bf 4057 3c3e
00000020: e2f7 5dbd 1870 d5be 7417 023f 1651 09bf
00000030: 07a8 abbe 6cac f93e 6db4 19be 8f22 a53e
00000040: 9076 34bd ed00 173c ba76 f03e 9d16 19be
00000050: 1f80 6d3c 6697 a63e 068f 3c3e a0af 8fbd
00000060: c74d 8abe 66b6 c7be d2f5 16bc fe76 ab3e
00000070: d51a 9fbe 9aa5 9abe 940f 02be e017 fc3e
00000080: cb11 a43e e026 373e 96fe febe 8c05 0f3e
00000090: ca23 8c3c 0320 d23e 5793 38be f566 56bc
000000a0: 87c1 c83e 5e11 c6bd 9046 063f d30a 873e
000000b0: 3a36 cdbb 9821 f13e a0c4 d8be 03c6 fabe
000000c0: d934 c8be 24da c43e ccc5 133f ba3c 7e3d
000000d0: ea54 883d adea 283e d3d0 debe 596e 5a3e
000000e0: c064 abbe 838c df3d 9903 eabe a2a2 e83d
000000f0: 1f21 573e e0bc a33e ca9e 0abe 5f39 b63e
0.43989956 0.07646094 -0.5364455 0.28666618 -0.0024031415 -0.3459002 -0.50316304 0.18392658
-0.054191478 -0.41687083 0.50817037 -0.5363935 -0.33526632 0.4876436 -0.15010233 0.3225293
-0.044058383 0.009216529 0.4696558 -0.14950033 0.0144958785 0.32537383 0.18413934 -0.0701592
-0.27012464 -0.39006346 -0.009213882 0.3348922 -0.3107516 -0.3020447 -0.12701255 0.49236965
0.32044825 0.17885923 -0.4980361 0.1396696 0.01710691 0.41040048 -0.18024956 -0.01308607
0.3921015 -0.09671281 0.5245142 0.26375446 -0.006262568 0.47095942 -0.42337513 -0.48979196
-0.3910282 0.38447678 0.5772369 0.062069632 0.06656821 0.16495772 -0.43518695 0.21331157
-0.33475304 0.10915472 -0.4570587 0.11359145 0.21008728 0.31980038 -0.13537136 0.35590646

conv_layers.2.bias f4 [64]
00000000: 6a89 ad3d edf5 a93d 22db 9c3d cf34 e8bc
00000010: 8626 81bd 8cb5 8fbc 2e84 7dbd c743 af3d
00000020: 6346 96bb 0d0e 193d 6c94 26bd 2b29 c53d
00000030: c29a d03d 6d90 bdbc 58c9 b8bd b309 a0bc
00000040: 9be6 92bc 42f4 a63d e77c 813d 1088 95bd
00000050: 85e4 84bd f3eb 77bc c02e bfbd 5bb4 d53d
00000060: beab 86bd 17ed c53d 74c3 803d 53da 20bd
00000070: e237 e43d 03ce 8ebc a175 dabc 7292 da3a
00000080: e933 a33d 9c2e 9e3d 6bd7 983d 9e79 a2bd
00000090: 8404 86bd ab5b adbd 7c90 a8bd d162 5bbd
000000a0: 2f0f ebbc 7c14 813d 2ac7 943d d93a 873a
000000b0: 29d4 e7bc 976b b3bd bd77 8c3b 8a73 9fbc
000000c0: bc96 06bd a31a 833c 5671 10bd 16d1 97bd
000000d0: 3d5a 80bd a0c7 d5bd aa15 80bd 7a19 ea3d
000000e0: d399 2ebd 8e5c 8b3d 7c03 693b 6653 02bd
000000f0: 6fb7 6ebd 7080 b9bd 06e6 f4bd f346 9fbd
0.08473475 0.0829886 0.07658984 -0.028345494 -0.06306176 -0.017542623 -0.061893634 0.085578494
-0.0045860275 0.037366915 -0.04066889 0.09626993 0.10185768 -0.023140157 -0.09022778 -0.019535875
-0.017932227 0.08152057 0.06322651 -0.073013425 -0.06488899 -0.015131938 -0.09335089 0.10434791
-0.06575726 0.09664362 0.0628728 -0.03927071 0.11143471 -0.017432218 -0.026667418 0.0016675724
0.079688855 0.07723734 0.07462963 -0.07933353 -0.0654383 -0.0846475 -0.08230683 -0.053561036
-0.028693764 0.06302735 0.0726455 0.0010317221 -0.028299408 -0.087607555 0.004286735 -0.019464273
-0.032858595 0.016003912 -0.035264336 -0.07412927 -0.062672116 -0.10438466 -0.06254132 0.114306405
-0.042627167 0.06804763 0.0035555055 -0.031817816 -0.058280405 -0.09057701 -0.11957936 -0.07777204

conv_layers.2.lin_src.weight f4 [64, 64]
00000000: 5301 943e 11c7 84bc b826 a3be 52aa b9bd
00000010: 93de 873d fe6a 0fbe c717 30be 5e54 863b
00000020: 5d6a 8ebd 7141 2cbd fd08 7dbe cf89 2dbe
00000030: 83f5 9cbc 25cf 8c3d 372d 473d 5818 a3be
00000040: fa81 dfbc 392e ef3d 8a3b 85bd 9ac1 55be
00000050: 7a38 b83c 8a5e b73d 2300 5c3d 6e2d b03e
00000060: 3997 91be c913 083e a9f1 af3d 2983 913e
00000070: cfa3 0abe fa79 0dbe a988 00be b157 e83d
00000080: bb5b 2d3e 7f5e 2bbe 3f52 833e 1c11 833e
00000090: 42b4 833e 2e32 b43e 4a89 b03e 62ba 41be
000000a0: 7833 27be 861f f63d f687 7dbd 3a6a 793d
000000b0: 3e14 60be 430e 38be b51b f6bd 8b1c 1dbd
000000c0: e2c8 2f3e 7a33 853e 734a 2f3e 22f1 24be
000000d0: 40b5 163c 8b48 d23c 7491 41bc 1b19 8b3e
000000e0: 4205 a73d 0ab0 e43b 8f04 66be 42e4 aebd
000000f0: e8e3 313d d9f4 313e 718e cfbd 4fa3 7f3e
00000100: 7840 cdbd 2aab a9be 81b6 d2bd 6d78 34be
00000110: e52f ea3d 4765 87bd 2ff1 87be 7207 ab3e
00000120: fb83 a9be 9c35 7cbc 5900 0c3c ed83 943d
00000130: fc9f ee3d 8a9b 5ebe 04c7 af3d 10af 61be
00000140: cf5c f1bd 1943 db3d c22c 9bbe 7ad4 8ebe
00000150: e51a 3d3d b9e5 c0bc 3502 c6bd 8f7b 823e
00000160: 89aa 513d a1be c7bc 0d5d 163e b0fd 393e
00000170: 37af 353d 8afe 31bd 7212 50be c6be 3dbc
00000180: f950 db3d c601 933d a4b1 2f3e 5a78 a53e
00000190: c445 203e f0be c93d f548 3d3d 6980 2dbe
000001a0: 0466 bbbd f12a b43e c8f0 f83d eecf 0dbe
000001b0: 4416 843d 5d5c 773d b240 67be 81d7 663b
000001c0: d0b2 a63e a3b2 9cbd d9fc 943e 5bee c2bc
000001d0: c350 743d fc53 d7bd 61cb 98be c005 093b
000001e0: 3673 0dbe e1f4 37be ae18 b7be edba 0cbe
000001f0: 11aa a53e 82e7 803e 63c7 5cbe 8dca ad3c
00000200: da8a 8d3d 2d7e 32be 35e0 8ebe b851 01be
00000210: 4949 a83e 137f f03c 5acf 87be f2a4 08bd
00000220: 62c9 73be 9c92 9ebd e69e adbe 45f5 943b
00000230: a167 b13d e983 08be c1cd 85be bfd3 4ebd
00000240: 2e96 40be 8053 e43e 3472 95be 0860 7ebd
00000250: 0d4b 8abe a652 f13d dcd0 dabd 6f26 113e
00000260: af62 44be 6059 083e 9290 f03d 79b7 bd3e
00000270: 3217 0abc 8810 2b3d d46a e9bb eb05 f43d
00000280: 2949 463d 903b b2bc d46c a03d 8a58 733e
00000290: ed48 913e cad3 b5bc 4ca0 413e 9f0c 9dbe
000002a0: 5e12 063e ccce 6d3e 2b20 a5bd 4037 44bd
000002b0: 58a6 6fbe d634 873d dd7c 373c efdb 57be
000002c0: 50b1 1a3e 6a48 4b3d eeb4 4f3e 8d9e 7a3d
000002d0: 4461 643e 1c8e 37be 318c c0bb c22e 303e
000002e0: 594a 07be c38c bdbc 174f 01be 78fe 2abe
000002f0: 8b7e 73bc 0672 573e 5a9c cbbd dde6 753e
00000300: d424 2ebe 5746 8dbd 83a2 013d 3eb1 093e
00000310: dbc4 403d 3ef0 243e 729e 95bd 0ca2 323e
00000320: e7a9 c5bd eb9b c23e 2604 e03d 5cf7 f3bd
00000330: 7b73 c0be 38c7 3abe bb15 b4bd 12d9 623e
00000340: c7ad 1dbd 6d0b c2bd 7ec2 3f3e f882 843d
00000350: 9562 b63d 7842 e3bd a1d2 01bf 1f5c 48bc
00000360: ed5b ae3e ce1d 78be 5207 ddbd d060 1b3d
00000370: 2de4 0a3e ff26 b23e 185c 13be 149c 1a3e
00000380: cb30 efbe 25bd 4fbe 7e0a 413d 9fb0 d7bc
00000390: b109 16bd fbba 91bd de5b 103e 7dd7 8fbd
000003a0: 4c25 88bc df46 63be 8abc a3bd 6926 e03e
000003b0: b289 903d 2b0f 0a3f 9ee0 783e ab3c b73d
000003c0: 317a 3abe 853b 893d 5f8a d7bd 05b4 933d
000003d0: ee4f 0c3e faa9 773e d0e8 333c 864a 1e3e
000003e0: d5a0 18bf 9ec9 d23c f0c0 0abe 2d61 a4be
000003f0: 3321 e5bd c12a 1ebc d9a0 a6bc 86dc 67be
0.2890726 -0.016208204 -0.31865478 -0.09065689 0.066342495 -0.14005658 -0.1719657 0.004099413
-0.06953881 -0.042054597 -0.2471046 -0.16947101 -0.019160038 0.06875447 0.048627105 -0.3185451
-0.027283657 0.11678738 -0.06505497 -0.20874634 0.022487868 0.08953579 0.053711068 0.3440966
-0.28435686 0.13288797 0.08591015 0.2842038 -0.1353905 -0.13816062 -0.12552132 0.11344851
0.16929524 -0.16735266 0.25648686 0.2559899 0.25723463 0.35194534 0.34479743 -0.18918756
-0.16328228 0.12017731 -0.06189724 0.06089232 -0.21882722 -0.1797419 -0.120170034 -0.0383573
0.17166474 0.26015836 0.17118244 -0.1610761 0.009198487 0.025669357 -0.011814464 0.2716759
0.081553 0.0069789933 -0.22462676 -0.085396305 0.04343024 0.17378558 -0.101345904 0.24964641
-0.10022062 -0.331384 -0.10288716 -0.17624064 0.114349164 -0.06611114 -0.26551196 0.33404118
-0.33108506 -0.015393641 0.008545005 0.07251725 0.11651608 -0.21739021 0.08582881 -0.22039437
-0.1178528 0.10706157 -0.30307585 -0.27896482 0.046168227 -0.02354704 -0.0966839 0.25484893
0.051188026 -0.024382891 0.14683934 0.1816318 0.04435655 -0.043455638 -0.20319536 -0.011581128
0.10708804 0.07178073 0.17157608 0.32318383 0.15651613 0.098508716 0.046212155 -0.16943516
-0.09150317 0.35189012 0.121553004 -0.1384885 0.06449559 0.06039082 -0.22583273 0.0035223665
0.32558298 -0.0765126 0.29099157 -0.023795297 0.059647333 -0.105140656 -0.29842666 0.0020907968
-0.1381348 -0.17964508 -0.35761017 -0.13743182 0.32356313 0.25176626 -0.21560435 0.021214748
0.069112495 -0.17430945 -0.2790543 -0.1262883 0.32868412 0.029357469 -0.26525384 -0.03336043
-0.2380729 -0.07742807 -0.33910292 0.00454584 0.08662344 -0.1333157 -0.2613354 -0.050494906
-0.18807289 0.44594955 -0.29188693 -0.0621033 -0.27010384 0.11783342 -0.10684368 0.14174818
-0.1917827 0.13315344 0.117463246 0.3705404 -0.008428382 0.041763812 -0.0071233306 0.11915191
0.048409615 -0.021756917 0.07833257 0.23764244 0.2837595 -0.022195715 0.18908805 -0.30673692
0.13092944 0.23223418 -0.08062776 -0.047904253 -0.23403299 0.066018745 0.011199203 -0.21079992
0.15106702 0.049629606 0.20283863 0.061186362 0.22302729 -0.17925304 -0.005876087 0.17205337
-0.13211955 -0.02313841 -0.12627827 -0.16698635 -0.014861713 0.2103959 -0.09941931 0.24013849
-0.17006236 -0.06898182 0.031649124 0.13446519 0.047062736 0.1610727 -0.07305612 0.17444628
-0.09651547 0.3800958 0.10938291 -0.119124144 -0.37588105 -0.18240058 -0.08793207 0.22153118
-0.038495805 -0.094748355 0.18726537 0.06470293 0.08905522 -0.11096662 -0.5071202 -0.012228995
0.3405451 -0.2423012 -0.10792412 0.037934124 0.13563605 0.34795377 -0.143906 0.15098602
-0.46716914 -0.20286997 0.047129147 -0.026329337 -0.036630336 -0.07115742 0.14097545 -0.07023523
-0.016619347 -0.22195004 -0.07994945 0.43779305 0.07057513 0.53929394 0.24304435 0.08947118
-0.18210675 0.067008056 -0.10524439 0.072120704 0.13702366 0.24185935 0.0109808 0.15458116
-0.5962041 0.025730904 -0.13550162 -0.3210539 -0.11187973 -0.009653748 -0.02034037 -0.22642717
