embd_16_nHead_4_nlayer_3_Batch_100.pth (torch, 41835 bytes, 16 tensors)

conv_layers.0.att_src f4 [1, 4, 16]
00000000: 5bd3 513b a362 753e 5cde c83e f43f a7ba
00000010: e5e3 abb9 ba13 e1ba 6eeb bcbd 2df2 8039
00000020: 9ade a4be cbdc 67ba 46d5 99bd 704f c03e
00000030: 7d0f 99bd 31e9 883e d008 a5bd db36 74bb
00000040: 619c 223e f229 34be 8eba 24bd 9620 ef3d
00000050: cf23 6cbe a8b0 6939 b372 4d3b 7f5f 0bbe
00000060: fcfd ad3a 00b4 7b3e 0c51 863b 6a94 f2ba
00000070: 912d 413d 2203 0b3b 2d47 5a3a 7b63 963e
00000080: 2a4a 21bf f6ac c33c b6e7 a4be cdca 3cbe
00000090: 0e6e a33d e7c5 82bd d522 6bbe 5889 f3ba
000000a0: 0036 0f3e 95f5 d4b8 aec5 9cbd c655 e3bd
000000b0: 7754 3abe 983d a7bb db68 24be f44b 1b3a
000000c0: 1c2c c8bd 6c65 813d 6817 a939 719b 9639
000000d0: e291 8db8 bb25 1abe 576d 9739 9416 47be
000000e0: 4d89 96be 2b04 59be a58c 0939 a9bd 19be
000000f0: 90bd 65b7 f42d b03d a588 a33e 71e1 333e
0.0032016847 0.23963408 0.39232147 -0.0012760148 -0.00032785456 -0.0017172017 -0.09224592 0.00024594498
-0.32201082 -0.00088448514 -0.07511382 0.37560606 -0.07473657 0.2674041 -0.080583215 -0.0037264142
0.15879966 -0.17594126 -0.040216975 0.11676137 -0.23060535 0.00022286421 0.0031348884 -0.13610648
0.0013274546 0.24580383 0.004099017 -0.0018507366 0.047162596 0.0021211584 0.0008326646 0.29372773
-0.6300379 0.023886185 -0.3220803 -0.18436737 0.07979976 -0.06385403 -0.22962506 -0.001858036
0.13985443 -0.00010154691 -0.07654892 -0.11100344 -0.18196283 -0.005103778 -0.16055624 0.00059240987
-0.09774038 0.06318173 0.0003225163 0.00028726042 -6.750577e-05 -0.15053456 0.0002888243 -0.19442207
-0.29401627 -0.21192996 0.00013117732 -0.15013756 -1.36936e-05 0.08602515 0.3194019 0.17566468

conv_layers.0.att_dst f4 [1, 4, 16]
00000000: 3e6a ed3b c115 df3e 4a54 673e ae87 fc3d
00000010: 56aa 64bd 7a9c b63d 0801 de3d 424d d0bc
00000020: 3ddc 373d 611e 09bc 2c08 80be 28ba eb3e
00000030: 18dd 29be 1366 553d 38b1 d1be 362f 2ebf
00000040: bcc0 98be db60 283f aa1a 4d3e 957f e8be
00000050: 1a34 1f3f 11cc 95bb fd58 ac39 b2a7 253f
00000060: 63e2 d5bb ace7 14bf adc2 2dbe 40aa 2d3b
00000070: 12e9 52be 55b9 13bb dc66 e7ba b0da 6fbf
00000080: 67c4 3c3f 60c7 1a3f 92a2 47bf e1e7 723d
00000090: be88 09bf 6114 3e3f 727c 6bbf ad4f 403b
000000a0: 4be0 233f f975 2a3a 536d af3d 97a8 cb3f
000000b0: 6d66 07be e80d 09bf ec6d 3e3f 63d0 c0ba
000000c0: b0c4 c53d edf8 18be 5786 27bb 531c ce3a
000000d0: e887 7ab7 a471 143e 273b 07bb ee0d d3bd
000000e0: 7126 e73d 8a94 ff3d 5fdc a63b 7efd fb3d
000000f0: 71aa 5dbb 3209 15be f39c 45be cefd a3bd
0.007245331 0.43571284 0.22590747 0.12330566 -0.055826508 0.08916564 0.108400404 -0.025427464
0.04488777 -0.008369059 -0.25006235 0.46040463 -0.16588247 0.0520993 -0.4095552 -0.6804079
-0.29834545 0.6577279 0.20029703 -0.45409837 0.62188876 -0.0045714458 0.00032872698 0.6470901
-0.0065272315 -0.58166003 -0.16968794 0.0026499182 -0.20596722 -0.0022540886 -0.0017654556 -0.93693066
0.73737186 0.6046047 -0.7798244 0.05930317 -0.53724277 0.74249846 -0.91986763 0.0029344365
0.6401412 0.00065025646 0.08565774 1.5910825 -0.13222666 -0.53536844 0.7438648 -0.0014710542
0.09656656 -0.14938708 -0.002556225 0.0015724994 -1.4932804e-05 0.14496475 -0.0020634623 -0.10305391
0.11286629 0.124795035 0.0050921883 0.12304209 -0.0033823515 -0.14554289 -0.19298153 -0.08007394

conv_layers.0.bias f4 [64]
00000000: 3bb9 8dba 0257 5dbe 1ea6 8b3e aec4 6aba
00000010: 9402 b7b9 4cc2 8fb9 bd77 8f3e ef4a 07bb
00000020: 8dd1 c83f d762 19bb c2d7 b63f 02dc 05bf
00000030: ab8a b0be db67 8d3e c295 553f 685d 11bf
00000040: bb4e 20bf a5ca f6bd 4f8a 19bd ad8d e4bd
00000050: ac37 1ebf 289d 1c3a 2947 ceba 601e cbbf
00000060: e8ab eb3a 646c 513f eb05 23be 13cc f939
00000070: 4221 8abe 21c6 9c38 f7e3 8eba 47cb 733e
00000080: 7a60 fabd 307b 46bf 5663 043f 802b 0e3f
00000090: b3c0 253f 51e2 ab3d dae0 debe b30a 083b
000000a0: d417 ddba d972 a23a 55e1 803f b085 33bf
000000b0: 59ff 2ebe 2250 9b3f d61e 98be b831 10ba
000000c0: 4636 ff3e 1cd6 ebbe 362b 8f3a 30ea 0bba
000000d0: c00b 9f38 1cf7 f6be ce92 2fba 3fe9 533e
000000e0: 6fdc 5b3f 0e82 85bd 33ae 2a3b 5177 3a3f
000000f0: 7013 bbba b145 babe 6abc 69bf 4efc 40bf
-0.0010812649 -0.21615222 0.27275175 -0.0008955699 -0.000349064 -0.00027419848 0.2802104 -0.002064403
1.568895 -0.002340486 1.4284594 -0.5228883 -0.34480795 0.27618298 0.8343164 -0.5678315
-0.62620133 -0.1205037 -0.037485417 -0.11159835 -0.618037 0.0005974346 -0.001573776 -1.5868645
0.0017980309 0.81806016 -0.15920226 0.00047645028 -0.269785 7.475564e-05 -0.0010901679 0.23808013
-0.12225433 -0.7753172 0.51714075 0.55535126 0.6474716 0.08392776 -0.43530923 0.002075833
-0.0016868063 0.0012393846 1.0068766 -0.70125866 -0.17089595 1.213383 -0.29711026 -0.0005500573
0.49846095 -0.4606179 0.0010922912 -0.0005337326 7.5838994e-05 -0.48235404 -0.0006697596 0.20694445
0.8588323 -0.065189466 0.0026043772 0.7283831 -0.0014272761 -0.36381295 -0.9130312 -0.75384986

conv_layers.0.lin_src.weight f4 [64, 4]
00000000: e607 03bb 0699 49bb b073 18b9 bbe1 333a
00000010: c980 343e 1a19 02c0 c97c 253e b164 3f3f
00000020: 672b 3bbf b5eb fd3f f6cc 08be 1d94 c7be
00000030: fc00 3b3c 35da 973b 6e0f 3138 b655 abb9
00000040: 9f97 8abb b4b6 2fbb f97f 2cba c13f 01b9
00000050: cdb6 443c e24e f038 ba28 8c3a 453a 2f3a
00000060: 52f7 1f3f 0e8c f13f 6e66 09be 1c6e 84bf
00000070: f028 5cbc 9431 2e3a e9f6 99ba 36ea deb9
00000080: 8ab4 df3f 9044 12c0 6a66 5fbe fcb2 00bf
00000090: 753f 11bb 0580 0e3b a522 b6ba 4fed fdb9
000000a0: 1487 7ac0 cf62 2cc0 34f0 c1be 4a94 ee3e
000000b0: 19e1 1cc0 1a22 1240 c2f7 27bb 521e 2b3f
000000c0: ad1f c3bf ee73 92bf 0a9f b83d 55c4 413f
000000d0: fb32 c5bf 403c e53f 16db c7bd 3caf 2cbf
000000e0: 4bcf fcbf 7aaf 34c0 1c2b cbbc 8476 52bf
000000f0: 2015 a7be 0c69 d9bf c40b 413e 6787 61bf
00000100: 8454 1abf d2f7 0540 051e 153d 7d96 03c1
00000110: 106b 42bf 03ae 1b40 f66b 85bd 3b36 753f
00000120: ecbb 0ebf 5b7e 10c0 d282 b43d 12c9 3b3f
00000130: 1cf9 fb3d 203d 12c0 299a 493e d464 193e
00000140: c7a5 2cbf 3b9e fa3f c747 af3c d4f8 f840
00000150: 8ab0 ff3a 47e3 2a3b 54ae b93a 9201 213b
00000160: 012c c0bb 3360 98bb bce4 28ba fbb1 edba
00000170: 2c39 9b3e 8e5d 3e40 e699 763e a090 8a3f
00000180: 9221 9bba b647 2f39 5c7b c73a 0b83 a03a
00000190: 5585 7fbf fe23 20c0 a2f2 3cbd 96dc 84bf
000001a0: c722 84be 6ebf 1fc0 4ae0 043e 147d a13e
000001b0: ea4f de3a dc15 f1ba 29d7 0139 3e3c 0a3b
000001c0: 2840 53bc f06e 4bbf 88ed f33d 510d 1cc0
000001d0: 170d e73b b08f 55ba af81 183a 1d0f 3b3b
000001e0: 052a 3d3b 1e86 c7ba f9ee b2b8 7a81 97b9
000001f0: 3c70 4bbf d37c 75be 0bd4 813c ed53 d6c0
00000200: 9f12 a03e 7ab6 3940 efab 4ebd a5bd 1d3e
00000210: 968d 553f 95f2 f33f 6b3a 8a3d e517 4b3f
00000220: 10c2 3fbf d97f 2e40 e1cd 32be 39dc 22bf
00000230: c624 5bc0 b962 f83f baa5 2cbe 2e78 1fbf
00000240: a53f 0640 4fe1 1dc0 05a4 0dbd d16f 28bf
00000250: 6c4a 84bf 878d fe3f 5ce8 e4bd f374 613f
00000260: 504d d53f 3c95 2240 ceea 073e c489 f9bc
00000270: ea77 c9bb aad6 22ba 482b fa36 ac3c 393a
00000280: a379 fa3e 4f3a 1340 504b 18be 8212 863f
00000290: 9dbc a6bb 338b 93ba 1a86 e7b8 f876 ad39
000002a0: f519 59bf 175e 8d3f 6804 92be ad8c 77bf
000002b0: cb08 8940 989f 1d40 cedf 9d3f 003f 743d
000002c0: 7872 a6be d05a 2240 1106 febc 1a04 903e
000002d0: 3ff4 813f 6578 afbf 225d 46be f34d 9bbf
000002e0: fd73 e63f 21aa 1f40 af42 2d3f 06f1 c5be
000002f0: 73a1 d1bb 76f8 f9ba 6e1f 3c3a 47bd 14ba
00000300: a864 163d d0fe 98bc f400 acbd 1d3c 26bf
00000310: 3e65 e9bf 9f94 1240 67eb 0a3e 81e0 b7bf
00000320: ac38 1ebb b52e 2b3b 26b2 df39 825a 673a
00000330: 951d c639 146d 49b8 ecb2 6fba 1ba7 4eb9
00000340: 8833 973b d095 9c3a 584e 3c3a 42f1 2dba
00000350: cde3 163f 7b7a 62bf bba3 9b3e 5707 26bf
00000360: 5ea3 00bc ced4 48bb 66b1 d2b9 4c13 1fba
00000370: be0d 113e 3f78 3440 4fa6 76bb 0451 b7bf
00000380: 39dd 02c0 15b0 e8bf df59 71bd b24b 6bbf
00000390: 5d3b 22bf d42d 1bc0 0077 c43d ed8e 4dbc
000003a0: d1cf 36bc d847 8eba dad8 4039 d910 6d3a
000003b0: ff6d 0e40 1d4d 13c0 3d76 f4bc fb40 3ebf
000003c0: 554a ee3b 56c3 df3a 2a69 4aba f356 353a
000003d0: 49e1 063f fd7b 02c0 6f51 023e e893 993e
000003e0: 278d cdbe b0a3 fb3f 4322 903d 12ea 733f
000003f0: 9f44 8cbe 9b35 e93f ea54 4d3d 9552 473f
-0.0019993722 -0.0030761375 -0.00014538947 0.00068619446 0.17627253 -2.032782 0.16160883 0.7476302
-0.731131 1.9837557 -0.13359436 -0.3898019 0.011413809 0.0046341666 4.221446e-05 -0.0003267952
-0.0042295004 -0.002681178 -0.00065803487 -0.00012326149 0.012006474 0.00011458785 0.001069329 0.0006684403
0.62486756 1.8870866 -0.1341798 -1.0346103 -0.013437495 0.0006644961 -0.0011746559 -0.0004251764
1.7476971 -2.2854347 -0.21816412 -0.5027311 -0.0022163067 0.0021743786 -0.0013895823 -0.0004843273
-3.9144945 -2.6935308 -0.37878573 0.4659751 -2.4512389 2.2833314 -0.0025629853 0.6684314
-1.5244042 -1.1441629 0.09014709 0.75690204 -1.5406183 1.7909012 -0.09758584 -0.67454886
-1.9750761 -2.8232102 -0.02480083 -0.8221209 -0.32633305 -1.6985183 0.18852144 -0.8809723
-0.6028521 2.0932508 0.036405582 -8.22424 -0.75944614 2.4324958 -0.065147325 0.95785874
-0.55755496 -2.2577121 0.088140145 0.73353684 0.12303373 -2.2849808 0.19687714 0.14979869
-0.67440456 1.9579538 0.02139653 7.7803745 0.0019507569 0.002607541 0.0014166334 0.0024567586
-0.0058646207 -0.0046501397 -0.00064427755 -0.0018134707 0.30317056 2.9744601 0.24082145 1.0825386
-0.0011835566 0.00016716015 0.0015219259 0.0012246085 -0.99812824 -2.5021968 -0.04612983 -1.0379817
-0.25807783 -2.496059 0.12976184 0.3154074 0.0016961072 -0.0018393355 0.00012382552 0.0021093036
-0.012893714 -0.7946615 0.1191054 -2.4383128 0.007051121 -0.0008146716 0.0005817664 0.0028542944
0.0028864157 -0.0015222465 -8.5322135e-05 -0.00028897432 -0.7946813 -0.23973398 0.01584818 -6.697745
0.31264207 2.9017625 -0.050456937 0.15404375 0.8341917 1.9058405 0.067494236 0.79333335
-0.7490549 2.7265532 -0.17461349 -0.63617283 -3.4241195 1.9405128 -0.16860095 -0.62292755
2.0976346 -2.4668767 -0.03458025 -0.6579562 -1.0335212 1.9886941 -0.111771315 0.88069075
1.6664219 2.5403585 0.13273165 -0.0304612 -0.006148328 -0.0006211797 7.455619e-06 0.0007066231
0.48920926 2.3004339 -0.1487248 1.0474398 -0.0050884024 -0.0011256695 -0.00011039917 0.0003308577
-0.8480523 1.1044339 -0.28518987 -0.9669903 4.2823234 2.4628658 1.2333925 0.059630394
-0.32509208 2.5367928 -0.031008752 0.2812813 1.0152663 -1.3708616 -0.19371465 -1.2133163
1.8004147 2.4947588 0.67679876 -0.3866045 -0.00639742 -0.001907124 0.0007176314 -0.00056739565
0.036717087 -0.018676192 -0.08398619 -0.64935476 -1.8234022 2.290321 0.13566361 -1.4365388
-0.0024142666 0.002612037 0.00042666605 0.00088254374 0.00037787543 -4.802372e-05 -0.0009143788 -0.00019707943
0.0046142973 0.0011946503 0.0007183305 -0.00066353765 0.58941346 -0.8846814 0.30398354 -0.6485495
-0.00785145 -0.003064442 -0.00040186493 -0.0006068244 0.14165398 2.8198392 -0.0037635749 -1.4321599
-2.0447524 -1.8178736 -0.0589236 -0.91912377 -0.6337183 -2.4246721 0.0959301 -0.012546283
-0.011157946 -0.0010855151 0.0001839133 0.0009043343 2.2254636 -2.3015816 -0.029841537 -0.743179
0.0072720447 0.0017071764 -0.0007721359 0.00069175585 0.5268751 -2.0388176 0.12726377 0.29995656
-0.40146753 1.9659328 0.07037785 0.9527904 -0.27396104 1.8219484 0.05012981 0.77860385

conv_layers.0.lin_dst.weight f4 [64, 4]
00000000: e607 03bb 0699 49bb b073 18b9 bbe1 333a
00000010: c980 343e 1a19 02c0 c97c 253e b164 3f3f
00000020: 672b 3bbf b5eb fd3f f6cc 08be 1d94 c7be
00000030: fc00 3b3c 35da 973b 6e0f 3138 b655 abb9
00000040: 9f97 8abb b4b6 2fbb f97f 2cba c13f 01b9
00000050: cdb6 443c e24e f038 ba28 8c3a 453a 2f3a
00000060: 52f7 1f3f 0e8c f13f 6e66 09be 1c6e 84bf
00000070: f028 5cbc 9431 2e3a e9f6 99ba 36ea deb9
00000080: 8ab4 df3f 9044 12c0 6a66 5fbe fcb2 00bf
00000090: 753f 11bb 0580 0e3b a522 b6ba 4fed fdb9
000000a0: 1487 7ac0 cf62 2cc0 34f0 c1be 4a94 ee3e
000000b0: 19e1 1cc0 1a22 1240 c2f7 27bb 521e 2b3f
000000c0: ad1f c3bf ee73 92bf 0a9f b83d 55c4 413f
000000d0: fb32 c5bf 403c e53f 16db c7bd 3caf 2cbf
000000e0: 4bcf fcbf 7aaf 34c0 1c2b cbbc 8476 52bf
000000f0: 2015 a7be 0c69 d9bf c40b 413e 6787 61bf
00000100: 8454 1abf d2f7 0540 051e 153d 7d96 03c1
00000110: 106b 42bf 03ae 1b40 f66b 85bd 3b36 753f
00000120: ecbb 0ebf 5b7e 10c0 d282 b43d 12c9 3b3f
00000130: 1cf9 fb3d 203d 12c0 299a 493e d464 193e
00000140: c7a5 2cbf 3b9e fa3f c747 af3c d4f8 f840
00000150: 8ab0 ff3a 47e3 2a3b 54ae b93a 9201 213b
00000160: 012c c0bb 3360 98bb bce4 28ba fbb1 edba
00000170: 2c39 9b3e 8e5d 3e40 e699 763e a090 8a3f
00000180: 9221 9bba b647 2f39 5c7b c73a 0b83 a03a
00000190: 5585 7fbf fe23 20c0 a2f2 3cbd 96dc 84bf
000001a0: c722 84be 6ebf 1fc0 4ae0 043e 147d a13e
000001b0: ea4f de3a dc15 f1ba 29d7 0139 3e3c 0a3b
000001c0: 2840 53bc f06e 4bbf 88ed f33d 510d 1cc0
000001d0: 170d e73b b08f 55ba af81 183a 1d0f 3b3b
000001e0: 052a 3d3b 1e86 c7ba f9ee b2b8 7a81 97b9
000001f0: 3c70 4bbf d37c 75be 0bd4 813c ed53 d6c0
00000200: 9f12 a03e 7ab6 3940 efab 4ebd a5bd 1d3e
00000210: 968d 553f 95f2 f33f 6b3a 8a3d e517 4b3f
00000220: 10c2 3fbf d97f 2e40 e1cd 32be 39dc 22bf
00000230: c624 5bc0 b962 f83f baa5 2cbe 2e78 1fbf
00000240: a53f 0640 4fe1 1dc0 05a4 0dbd d16f 28bf
00000250: 6c4a 84bf 878d fe3f 5ce8 e4bd f374 613f
00000260: 504d d53f 3c95 2240 ceea 073e c489 f9bc
00000270: ea77 c9bb aad6 22ba 482b fa36 ac3c 393a
00000280: a379 fa3e 4f3a 1340 504b 18be 8212 863f
00000290: 9dbc a6bb 338b 93ba 1a86 e7b8 f876 ad39
000002a0: f519 59bf 175e 8d3f 6804 92be ad8c 77bf
000002b0: cb08 8940 989f 1d40 cedf 9d3f 003f 743d
000002c0: 7872 a6be d05a 2240 1106 febc 1a04 903e
000002d0: 3ff4 813f 6578 afbf 225d 46be f34d 9bbf
000002e0: fd73 e63f 21aa 1f40 af42 2d3f 06f1 c5be
000002f0: 73a1 d1bb 76f8 f9ba 6e1f 3c3a 47bd 14ba
00000300: a864 163d d0fe 98bc f400 acbd 1d3c 26bf
00000310: 3e65 e9bf 9f94 1240 67eb 0a3e 81e0 b7bf
00000320: ac38 1ebb b52e 2b3b 26b2 df39 825a 673a
00000330: 951d c639 146d 49b8 ecb2 6fba 1ba7 4eb9
00000340: 8833 973b d095 9c3a 584e 3c3a 42f1 2dba
00000350: cde3 163f 7b7a 62bf bba3 9b3e 5707 26bf
00000360: 5ea3 00bc ced4 48bb 66b1 d2b9 4c13 1fba
00000370: be0d 113e 3f78 3440 4fa6 76bb 0451 b7bf
00000380: 39dd 02c0 15b0 e8bf df59 71bd b24b 6bbf
00000390: 5d3b 22bf d42d 1bc0 0077 c43d ed8e 4dbc
000003a0: d1cf 36bc d847 8eba dad8 4039 d910 6d3a
000003b0: ff6d 0e40 1d4d 13c0 3d76 f4bc fb40 3ebf
000003c0: 554a ee3b 56c3 df3a 2a69 4aba f356 353a
000003d0: 49e1 063f fd7b 02c0 6f51 023e e893 993e
000003e0: 278d cdbe b0a3 fb3f 4322 903d 12ea 733f
000003f0: 9f44 8cbe 9b35 e93f ea54 4d3d 9552 473f
-0.0019993722 -0.0030761375 -0.00014538947 0.00068619446 0.17627253 -2.032782 0.16160883 0.7476302
-0.731131 1.9837557 -0.13359436 -0.3898019 0.011413809 0.0046341666 4.221446e-05 -0.0003267952
-0.0042295004 -0.002681178 -0.00065803487 -0.00012326149 0.012006474 0.00011458785 0.001069329 0.0006684403
0.62486756 1.8870866 -0.1341798 -1.0346103 -0.013437495 0.0006644961 -0.0011746559 -0.0004251764
1.7476971 -2.2854347 -0.21816412 -0.5027311 -0.0022163067 0.0021743786 -0.0013895823 -0.0004843273
-3.9144945 -2.6935308 -0.37878573 0.4659751 -2.4512389 2.2833314 -0.0025629853 0.6684314
-1.5244042 -1.1441629 0.09014709 0.75690204 -1.5406183 1.7909012 -0.09758584 -0.67454886
-1.9750761 -2.8232102 -0.02480083 -0.8221209 -0.32633305 -1.6985183 0.18852144 -0.8809723
-0.6028521 2.0932508 0.036405582 -8.22424 -0.75944614 2.4324958 -0.065147325 0.95785874
-0.55755496 -2.2577121 0.088140145 0.73353684 0.12303373 -2.2849808 0.19687714 0.14979869
-0.67440456 1.9579538 0.02139653 7.7803745 0.0019507569 0.002607541 0.0014166334 0.0024567586
-0.0058646207 -0.0046501397 -0.00064427755 -0.0018134707 0.30317056 2.9744601 0.24082145 1.0825386
-0.0011835566 0.00016716015 0.0015219259 0.0012246085 -0.99812824 -2.5021968 -0.04612983 -1.0379817
-0.25807783 -2.496059 0.12976184 0.3154074 0.0016961072 -0.0018393355 0.00012382552 0.0021093036
-0.012893714 -0.7946615 0.1191054 -2.4383128 0.007051121 -0.0008146716 0.0005817664 0.0028542944
0.0028864157 -0.0015222465 -8.5322135e-05 -0.00028897432 -0.7946813 -0.23973398 0.01584818 -6.697745
0.31264207 2.9017625 -0.050456937 0.15404375 0.8341917 1.9058405 0.067494236 0.79333335
-0.7490549 2.7265532 -0.17461349 -0.63617283 -3.4241195 1.9405128 -0.16860095 -0.62292755
2.0976346 -2.4668767 -0.03458025 -0.6579562 -1.0335212 1.9886941 -0.111771315 0.88069075
1.6664219 2.5403585 0.13273165 -0.0304612 -0.006148328 -0.0006211797 7.455619e-06 0.0007066231
0.48920926 2.3004339 -0.1487248 1.0474398 -0.0050884024 -0.0011256695 -0.00011039917 0.0003308577
-0.8480523 1.1044339 -0.28518987 -0.9669903 4.2823234 2.4628658 1.2333925 0.059630394
-0.32509208 2.5367928 -0.031008752 0.2812813 1.0152663 -1.3708616 -0.19371465 -1.2133163
1.8004147 2.4947588 0.67679876 -0.3866045 -0.00639742 -0.001907124 0.0007176314 -0.00056739565
0.036717087 -0.018676192 -0.08398619 -0.64935476 -1.8234022 2.290321 0.13566361 -1.4365388
-0.0024142666 0.002612037 0.00042666605 0.00088254374 0.00037787543 -4.802372e-05 -0.0009143788 -0.00019707943
0.0046142973 0.0011946503 0.0007183305 -0.00066353765 0.58941346 -0.8846814 0.30398354 -0.6485495
-0.00785145 -0.003064442 -0.00040186493 -0.0006068244 0.14165398 2.8198392 -0.0037635749 -1.4321599
-2.0447524 -1.8178736 -0.0589236 -0.91912377 -0.6337183 -2.4246721 0.0959301 -0.012546283
-0.011157946 -0.0010855151 0.0001839133 0.0009043343 2.2254636 -2.3015816 -0.029841537 -0.743179
0.0072720447 0.0017071764 -0.0007721359 0.00069175585 0.5268751 -2.0388176 0.12726377 0.29995656
-0.40146753 1.9659328 0.07037785 0.9527904 -0.27396104 1.8219484 0.05012981 0.77860385

conv_layers.1.att_src f4 [1, 4, 16]
00000000: 0cb4 9cbe bab8 f83d 8ab7 1bbf 2c71 bebd
00000010: 037e e0be 61b0 96be b081 dcbe 949e 6dbd
00000020: 51c2 253e b4f9 82bc b5a3 943e 3ff5 d33e
00000030: 2ce5 4a3f 10ee f7bd e06b 97be c0bb 513d
00000040: 3aca e3bd 5069 943f ba94 febe 60ca 043e
00000050: ccba 9cbe 21db 003e 9a5a e8be aed2 523e
00000060: c1df 603f f628 16bf 16b2 abbe c1e9 4bbf
00000070: 6925 2c3e 484a 3a3f 68b8 3fbf 6d63 003e
00000080: 316f c6bc bf04 a43c a607 773e 3313 373e
00000090: 070e 403e 725e d83e c826 c73d 9318 b63d
000000a0: 9047 70be 214f c83d 06b9 d7be adf7 a7bd
000000b0: 65fe 95be d96a 76be 99d1 6dbe f99f 30bd
000000c0: 4d01 583e 68fe 2f3f c8b2 bc3d 2246 5bbf
000000d0: 4906 9cbe 8a9d e5bb daf3 5dbd bb82 293e
000000e0: e33e 2b3e eeae 86bd 6351 39bd 48bb 113e
000000f0: 460f 543c c22c b6bc a377 84be e75d 5e3e
-0.30606115 0.12144609 -0.60826933 -0.092989296 -0.4384614 -0.2943144 -0.43067694 -0.05801256
0.16187407 -0.015988208 0.2903115 0.41398045 0.7925594 -0.12105954 -0.2957449 0.051204443
-0.11122556 1.1594639 -0.49722844 0.12967825 -0.30611265 0.12583591 -0.45381624 0.2058818
0.8784142 -0.5865625 -0.33534306 -0.79653555 0.16811146 0.72769594 -0.74890757 0.12537928
-0.024222942 0.020021794 0.24124011 0.17878418 0.18755351 0.42259556 0.09724194 0.08891406
-0.23464799 0.09780718 -0.4213335 -0.08201537 -0.2929565 -0.24064197 -0.23224486 -0.04312131
0.21094246 0.6874757 0.09213787 -0.8565389 -0.30473545 -0.0070073055 -0.054187633 0.16553776
0.16723208 -0.06576334 -0.045243632 0.14231598 0.012943095 -0.022238139 -0.25872526 0.21715508

conv_layers.1.att_dst f4 [1, 4, 16]
00000000: 0dcf a13f 1975 833e de55 c3be df32 1fbf
00000010: c677 0340 df66 12bd 92c3 b9be b025 9b3f
00000020: f497 f23e 3e7c bfbf f54a 6bbf 5454 adbf
00000030: c951 52c0 65a2 18bf ed9e 27be ad1f eebe
00000040: 9fc9 c63e cb6f 943e 0bb4 bd3f 4da2 bf3e
00000050: ade7 0cbf 26b7 693f c438 e5bf ed83 df3e
00000060: 4e63 4b3f b2e4 b9be 3d72 9b3a 4c5b bd3e
00000070: a855 ae3e c6fb dc3f 33e8 3f40 f4b0 d83e
00000080: 5bcc e9be 7d48 34bf e98b e8be 064c 3d3f
00000090: 95c8 5e40 59a2 a83e b89d 713e 2b7b 343f
000000a0: 025d 6b3f 369e f2bf cffa 07bf c955 86be
000000b0: 183f 9d3c 27d6 18be 3616 19bf 38f9 5cbd
000000c0: 2a2d 73bf 047a adbe 4209 4e3f 759d 233f
000000d0: 3491 debf 472b 343f d6af 02be 8c25 d9bf
000000e0: 7f1e 453e 3888 4ec0 9500 9b3e 8192 d8bd
000000f0: 8ef3 253f 56e7 a03f a85c 1d40 b97a a7c0
1.2641312 0.25675276 -0.3815145 -0.62187 2.0541854 -0.035742637 -0.3628202 1.2120876
0.47381556 -1.4959791 -0.9191125 -1.354136 -3.2862418 -0.59622794 -0.16369219 -0.46508542
0.388257 0.2899154 1.482057 0.37428513 -0.5504101 0.9129509 -1.7907948 0.4365534
0.794484 -0.36307293 0.0011859607 0.36983716 0.34049726 1.7264335 2.9985473 0.42322505
-0.45663723 -0.7042311 -0.45419243 0.7394413 3.4809926 0.3293636 0.23595321 0.7050044
0.91938794 -1.8954532 -0.5311708 -0.26237324 0.019195125 -0.14925443 -0.59799516 -0.05394861
-0.9499079 -0.33882153 0.80482876 0.63912135 -1.7388062 0.70378536 -0.12762389 -1.6964583
0.19249915 -3.2270641 0.30273882 -0.105748184 0.6482476 1.2570598 2.4587803 -5.233731

conv_layers.1.bias f4 [64]
00000000: f110 d3be fbd6 6abf bf32 b3bc ec0f 923d
00000010: f298 c6bd 673d 02bf 3d2b 11bf c065 cebe
00000020: 8884 36bf 5936 6dbf e825 3b3f 0007 9c3d
00000030: 2868 afbe edeb a23d 4393 e9bc cc82 e8be
00000040: e4ad eb3e f35c 483f df7b 233e c9b8 96bd
00000050: 0f7b c0be e8e2 e7be b69d 363e 6f12 a33e
00000060: 5d81 4abe 0df1 4f3e 42cc 993f 4ab3 a33f
00000070: 69cb 283f 062d b7bc 0506 ddbd 130c 8f3f
00000080: 6dca 3cbf 519b 203f bc55 78be 64f3 f7bd
00000090: 179f 973e f4b7 45bf 6804 1bbe b3ba a63e
000000a0: 5c4c 313f d2c3 28bf 4adf abbe cd5a 11be
000000b0: f6bd 0e3f 2035 523d c6cf 823e ed9a 813e
000000c0: 22e2 f73e 3b71 2241 0f61 ab3d 6037 26c0
000000d0: dd3d 96bc 5a4f 3d3e 85d4 9ebe 112b 893e
000000e0: e644 463e 74d8 63bc 65f6 26bf 757c 1bbe
000000f0: 89c3 b23d c241 1e40 40d2 2b3f 0966 483e
-0.41223863 -0.91734284 -0.021874784 0.07131943 -0.09697141 -0.5087494 -0.567066 -0.40312004
-0.71295977 -0.9266105 0.73104715 0.07618523 -0.34259152 0.079551555 -0.028512603 -0.4541229
0.46031106 0.7826683 0.15965222 -0.07359464 -0.37593886 -0.45290303 0.178336 0.3185
-0.1977591 0.20306797 1.201546 1.278909 0.6593538 -0.022360336 -0.10792164 1.117556
-0.7374638 0.62736994 -0.24251455 -0.1210697 0.29613563 -0.77233815 -0.151384 0.32564315
0.6925714 -0.659238 -0.33568794 -0.14194794 0.5575861 0.051320195 0.25549144 0.25313511
0.48414713 10.152644 0.08368122 -2.5971298 -0.018340046 0.18487301 -0.31021515 0.2679067
0.1936222 -0.013906587 -0.6521972 -0.15184195 0.087287016 2.4727635 0.6711769 0.19570173

conv_layers.1.lin_src.weight f4 [64, 64]
00000000: b856 913c 1849 84bf 1c00 9c3f ded0 dcba
00000010: 32c6 bab9 55c7 bb3a d528 913f aa78 16bc
00000020: 53c1 bbbe 129c 07bb 76ac bbbd 2ba3 f33e
00000030: 2448 47bf 8436 193f 6f38 70bf 0118 603e
00000040: b200 3e3f e31e 013e 5909 ae3f 67d5 3b3e
00000050: ef82 763f a67a 863b c16b 2abc 343a 603f
00000060: fa25 edbc f4df 03be 57a8 aa3f 3e49 32bc
00000070: 8859 e23e 6ebf f0bc 008d 1b39 8647 36bf
00000080: a4e0 4c3e 4250 85bf f710 363f a58f d03f
00000090: 31fa fabe f285 c7bf b296 02bf 192c 5b3c
000000a0: ba2e 9bbf 1543 673c 7b6e db3d f21c 1c3f
000000b0: 52a5 49bd 96dd 2bbf 2cdd 6f3c e55e 273c
000000c0: 8984 823e 3971 8c3f 579f 863c abc9 0cba
000000d0: 3458 11ba 4e3e 023f 5728 b2ba cdef 9d3f
000000e0: 54ff febe 9c28 1ec0 5f78 9f3c 637f 0e40
000000f0: 503a 98ba a19e 23bf b1cd 7dbf f554 17bf
00000100: 5ef9 78ba 82d0 febd af89 f43c f0f3 87bb
00000110: e8a0 8cba a2cd 2cbb b06f 79bd 5852 88bb
00000120: 77c9 a1bd dd12 0ebc 70cf 01bf 6b10 dbbe
00000130: d588 dbbd 7c18 cbbe 7dd3 8d3f e4cc 753e
00000140: abb4 14bf ee8f 99be 1122 293f b14e cb3d
00000150: 3199 a23e b180 293b 70a9 77bb 9150 0ebd
00000160: 23c8 0fbc e969 01bf f653 b43f b397 2ebb
00000170: edb3 8a3c aef1 22bb 1ff2 5c3b 2146 97bf
00000180: 3f79 86be 551d a1be 61c0 3dbe 1fd9 c93e
00000190: 2d66 80be 8d22 3dbe fdfe 9ebf f096 79bb
000001a0: e424 6b3e 487a 533b 688c 4c3f f222 333e
000001b0: f494 1cbe 9d4c 073e f67f e13d b1b3 1639
000001c0: 8712 6d3f 4283 c5bd 696a 9f3a 5662 adba
000001d0: 11b5 9cba 6ed4 26bf ff4f b1bb cc24 93be
000001e0: ba44 cc3d e80e a63f 141b ec3b 0935 943e
000001f0: ecf3 203c 7fe1 573f 94c1 a1bf 45f6 14bf
00000200: 1f26 e93a ada0 4bbf bbc8 033f 2752 8ebc
00000210: a647 2d3c 9bb9 363b e4fa 8d3f 0cec e7bb
00000220: ff3e c8bd 23a0 e9bb 1dd9 e63e fb88 96be
00000230: a2a2 0fbc f451 003f ca6c 9dbe 35d1 fd3e
00000240: 24c4 abbc 114a b53e 6cb8 953f d1b3 90bd
00000250: 141f 353f 2f99 aa3c 9b18 19bc 6239 9fbf
00000260: 325c 523c ea0d d63f e554 9c3f 1a47 e43b
00000270: ab7c 36bf 8406 c83c e78e c5ba 7dd8 53bf
00000280: 7ddc 783f 3c3a af3f c7af 60bf d841 85bf
00000290: da61 62bf 9cba 5abf a7fe b0bf a05d 91bc
000002a0: d222 0dbf 3cba 43bc 90bc 1d3f dfc3 a03f
000002b0: 4e05 cd3d 913a 973c 4202 283f 0eb0 153b
000002c0: 3000 183f 20f0 343d 8983 18b9 1baf 613c
000002d0: 6587 643b 6463 1c3f a7b6 20bc 139d 593f
000002e0: 16a9 3c3f 8076 063e 491e a3bc 1a01 c23f
000002f0: c03b 3b3c 7a27 60be 2f28 89bf ee77 48bf
00000300: 2dcf d33c 0c71 e4bf 0c4c ae3f 990a 85bc
00000310: cae0 7dbb 9f3c 863b 942e 093f 54b4 1a3d
00000320: 6fc0 7f3e d48a 703c fa75 bf3f 39b2 493f
00000330: 81b8 7dbe fc79 053e 54af 39bf 1621 56bf
00000340: 729f 6d3e 7709 4c3f bf63 12bf d34d 0ec0
00000350: 924d a53f 394b 08bb 8e55 91bb 025f 8dbf
00000360: 01dd 84bd 327b 2f3f 1e8f 9abf 496d e9bc
00000370: 7845 4dbf 33b4 79bc 223c 11bd 8880 afbf
00000380: 67d3 603e 53d0 27bf 00fd 40be 630c a0bf
00000390: 3340 2040 51df c7be 55c7 b83e 7cf3 bcbb
000003a0: cc68 07bf fbf7 48bd a4c9 8ebf 34e7 34bf
000003b0: f87c 4fbe 09ff 8e3f 83d2 983d b551 64bc
000003c0: 289f 01bf 3182 65bf 0773 03bd fb09 113b
000003d0: fcbf 8fbb af63 28bf 99dd 333c 44d2 00bf
000003e0: da78 11bf 7d7b 09bf b339 a0bc f1a0 7e3f
000003f0: 7ca5 d2bb c022 df3c 6f9b 38bf 8da0 11bf
0.017741546 -1.0334806 1.2187533 -0.0016846915 -0.00035624352 0.0014326373 1.1340586 -0.009184042
-0.36670932 -0.002069239 -0.09163754 0.47585425 -0.7784445 0.5984881 -0.9383611 0.21884157
0.7421981 0.12609439 1.3596603 0.18343125 0.9629354 0.0041039763 -0.010401667 0.8758881
-0.028948773 -0.128784 1.3332623 -0.01088172 0.44208932 -0.029388156 0.00014834478 -0.71202886
0.20007569 -1.0415118 0.71119636 1.6293837 -0.49019006 -1.5587752 -0.5101119 0.013377213
-1.2123635 0.014115115 0.10714432 0.6098167 -0.049229927 -0.6713499 0.014640134 0.010215496
0.2549174 1.0972053 0.016433401 -0.0005370627 -0.00055444543 0.5087632 -0.0013592344 1.2338806
-0.49804175 -2.4712286 0.019466577 2.226525 -0.0011614058 -0.63913924 -0.99141985 -0.5911401
-0.0009497608 -0.124421135 0.029850809 -0.0041489527 -0.0010729106 -0.0026367684 -0.06089753 -0.0041602068
-0.078997545 -0.00867149 -0.5070715 -0.42785963 -0.10719458 -0.39667118 1.1080166 0.24003941
-0.5808818 -0.29992622 0.66067606 0.099271186 0.317575 0.002586406 -0.0037790202 -0.034744803
-0.008775744 -0.5055223 1.4088123 -0.0026640713 0.016931498 -0.002486329 0.0033713651 -1.1818277
-0.26264378 -0.3146769 -0.18530418 0.39423463 -0.25077954 -0.18470211 -1.2421566 -0.003808435
0.22963291 0.003226893 0.7990174 0.174938 -0.15291196 0.1321282 0.11010735 0.00014372055
0.92606395 -0.09644176 0.001216245 -0.0013228159 -0.0011955817 -0.6516789 -0.0054111476 -0.2873901
0.09974046 1.2973299 0.0072053764 0.28946713 0.0098237805 0.84328455 -1.26372 -0.5818828
0.001778785 -0.79542047 0.51478165 -0.017373158 0.010576164 0.0027881626 1.1092191 -0.0070776995
-0.097776406 -0.0071296855 0.4508752 -0.29401383 -0.008766802 0.5012505 -0.30747062 0.49573675
-0.02096755 0.3540807 1.1696906 -0.07065547 0.70750546 0.020824997 -0.009344245 -1.2439387
0.012839364 1.6722996 1.2213408 0.006966484 -0.7128398 0.02441717 -0.0015072495 -0.8275221
0.9721144 1.3689647 -0.87768215 -1.0410719 -0.8843056 -0.85440993 -1.3827714 -0.01774484
-0.55131257 -0.011946257 0.6161585 1.2559775 0.100107774 0.018460544 0.65628445 0.0022840532
0.59375286 0.044174314 -0.0001454485 0.013774659 0.003487074 0.6108916 -0.009809173 0.850053
0.73695505 0.13131142 -0.019911902 1.5156586 0.01142782 -0.21890059 -1.0715388 -0.78308
0.025855625 -1.7846999 1.3616958 -0.016240405 -0.003873872 0.004096582 0.535867 0.03776963
0.24975751 0.014681537 1.4957879 0.7878757 -0.24777414 0.13034815 -0.72533154 -0.83644235
0.23205355 0.7970194 -0.5718345 -2.2235 1.2914298 -0.002079679 -0.0044352477 -1.1044619
-0.06487466 0.68547356 -1.2074926 -0.028494494 -0.80184126 -0.015240717 -0.035457738 -1.37111
0.21955644 -0.6555225 -0.18846512 -1.250378 2.5039184 -0.39037564 0.36089578 -0.0057663303
-0.5289428 -0.049064618 -1.1155286 -0.7066529 -0.20262516 1.117158 0.07462027 -0.013935496
-0.5063348 -0.8965178 -0.03209212 0.0022131193 -0.0043869 -0.65777105 0.010978126 -0.5032084
-0.5682503 -0.53704053 -0.019558763 0.9946433 -0.0064284187 0.02723825 -0.7211217 -0.56885606

conv_layers.1.lin_dst.weight f4 [64, 64]
00000000: b856 913c 1849 84bf 1c00 9c3f ded0 dcba
00000010: 32c6 bab9 55c7 bb3a d528 913f aa78 16bc
00000020: 53c1 bbbe 129c 07bb 76ac bbbd 2ba3 f33e
00000030: 2448 47bf 8436 193f 6f38 70bf 0118 603e
00000040: b200 3e3f e31e 013e 5909 ae3f 67d5 3b3e
00000050: ef82 763f a67a 863b c16b 2abc 343a 603f
00000060: fa25 edbc f4df 03be 57a8 aa3f 3e49 32bc
00000070: 8859 e23e 6ebf f0bc 008d 1b39 8647 36bf
00000080: a4e0 4c3e 4250 85bf f710 363f a58f d03f
00000090: 31fa fabe f285 c7bf b296 02bf 192c 5b3c
000000a0: ba2e 9bbf 1543 673c 7b6e db3d f21c 1c3f
000000b0: 52a5 49bd 96dd 2bbf 2cdd 6f3c e55e 273c
000000c0: 8984 823e 3971 8c3f 579f 863c abc9 0cba
000000d0: 3458 11ba 4e3e 023f 5728 b2ba cdef 9d3f
000000e0: 54ff febe 9c28 1ec0 5f78 9f3c 637f 0e40
000000f0: 503a 98ba a19e 23bf b1cd 7dbf f554 17bf
00000100: 5ef9 78ba 82d0 febd af89 f43c f0f3 87bb
00000110: e8a0 8cba a2cd 2cbb b06f 79bd 5852 88bb
00000120: 77c9 a1bd dd12 0ebc 70cf 01bf 6b10 dbbe
00000130: d588 dbbd 7c18 cbbe 7dd3 8d3f e4cc 753e
00000140: abb4 14bf ee8f 99be 1122 293f b14e cb3d
00000150: 3199 a23e b180 293b 70a9 77bb 9150 0ebd
00000160: 23c8 0fbc e969 01bf f653 b43f b397 2ebb
00000170: edb3 8a3c aef1 22bb 1ff2 5c3b 2146 97bf
00000180: 3f79 86be 551d a1be 61c0 3dbe 1fd9 c93e
00000190: 2d66 80be 8d22 3dbe fdfe 9ebf f096 79bb
000001a0: e424 6b3e 487a 533b 688c 4c3f f222 333e
000001b0: f494 1cbe 9d4c 073e f67f e13d b1b3 1639
000001c0: 8712 6d3f 4283 c5bd 696a 9f3a 5662 adba
000001d0: 11b5 9cba 6ed4 26bf ff4f b1bb cc24 93be
000001e0: ba44 cc3d e80e a63f 141b ec3b 0935 943e
000001f0: ecf3 203c 7fe1 573f 94c1 a1bf 45f6 14bf
00000200: 1f26 e93a ada0 4bbf bbc8 033f 2752 8ebc
00000210: a647 2d3c 9bb9 363b e4fa 8d3f 0cec e7bb
00000220: ff3e c8bd 23a0 e9bb 1dd9 e63e fb88 96be
00000230: a2a2 0fbc f451 003f ca6c 9dbe 35d1 fd3e
00000240: 24c4 abbc 114a b53e 6cb8 953f d1b3 90bd
00000250: 141f 353f 2f99 aa3c 9b18 19bc 6239 9fbf
00000260: 325c 523c ea0d d63f e554 9c3f 1a47 e43b
00000270: ab7c 36bf 8406 c83c e78e c5ba 7dd8 53bf
00000280: 7ddc 783f 3c3a af3f c7af 60bf d841 85bf
00000290: da61 62bf 9cba 5abf a7fe b0bf a05d 91bc
000002a0: d222 0dbf 3cba 43bc 90bc 1d3f dfc3 a03f
000002b0: 4e05 cd3d 913a 973c 4202 283f 0eb0 153b
000002c0: 3000 183f 20f0 343d 8983 18b9 1baf 613c
000002d0: 6587 643b 6463 1c3f a7b6 20bc 139d 593f
000002e0: 16a9 3c3f 8076 063e 491e a3bc 1a01 c23f
000002f0: c03b 3b3c 7a27 60be 2f28 89bf ee77 48bf
00000300: 2dcf d33c 0c71 e4bf 0c4c ae3f 990a 85bc
00000310: cae0 7dbb 9f3c 863b 942e 093f 54b4 1a3d
00000320: 6fc0 7f3e d48a 703c fa75 bf3f 39b2 493f
00000330: 81b8 7dbe fc79 053e 54af 39bf 1621 56bf
00000340: 729f 6d3e 7709 4c3f bf63 12bf d34d 0ec0
00000350: 924d a53f 394b 08bb 8e55 91bb 025f 8dbf
00000360: 01dd 84bd 327b 2f3f 1e8f 9abf 496d e9bc
00000370: 7845 4dbf 33b4 79bc 223c 11bd 8880 afbf
00000380: 67d3 603e 53d0 27bf 00fd 40be 630c a0bf
00000390: 3340 2040 51df c7be 55c7 b83e 7cf3 bcbb
000003a0: cc68 07bf fbf7 48bd a4c9 8ebf 34e7 34bf
000003b0: f87c 4fbe 09ff 8e3f 83d2 983d b551 64bc
000003c0: 289f 01bf 3182 65bf 0773 03bd fb09 113b
000003d0: fcbf 8fbb af63 28bf 99dd 333c 44d2 00bf
000003e0: da78 11bf 7d7b 09bf b339 a0bc f1a0 7e3f
000003f0: 7ca5 d2bb c022 df3c 6f9b 38bf 8da0 11bf
0.017741546 -1.0334806 1.2187533 -0.0016846915 -0.00035624352 0.0014326373 1.1340586 -0.009184042
-0.36670932 -0.002069239 -0.09163754 0.47585425 -0.7784445 0.5984881 -0.9383611 0.21884157
0.7421981 0.12609439 1.3596603 0.18343125 0.9629354 0.0041039763 -0.010401667 0.8758881
-0.028948773 -0.128784 1.3332623 -0.01088172 0.44208932 -0.029388156 0.00014834478 -0.71202886
0.20007569 -1.0415118 0.71119636 1.6293837 -0.49019006 -1.5587752 -0.5101119 0.013377213
-1.2123635 0.014115115 0.10714432 0.6098167 -0.049229927 -0.6713499 0.014640134 0.010215496
0.2549174 1.0972053 0.016433401 -0.0005370627 -0.00055444543 0.5087632 -0.0013592344 1.2338806
-0.49804175 -2.4712286 0.019466577 2.226525 -0.0011614058 -0.63913924 -0.99141985 -0.5911401
-0.0009497608 -0.124421135 0.029850809 -0.0041489527 -0.0010729106 -0.0026367684 -0.06089753 -0.0041602068
-0.078997545 -0.00867149 -0.5070715 -0.42785963 -0.10719458 -0.39667118 1.1080166 0.24003941
-0.5808818 -0.29992622 0.66067606 0.099271186 0.317575 0.002586406 -0.0037790202 -0.034744803
-0.008775744 -0.5055223 1.4088123 -0.0026640713 0.016931498 -0.002486329 0.0033713651 -1.1818277
-0.26264378 -0.3146769 -0.18530418 0.39423463 -0.25077954 -0.18470211 -1.2421566 -0.003808435
0.22963291 0.003226893 0.7990174 0.174938 -0.15291196 0.1321282 0.11010735 0.00014372055
0.92606395 -0.09644176 0.001216245 -0.0013228159 -0.0011955817 -0.6516789 -0.0054111476 -0.2873901
0.09974046 1.2973299 0.0072053764 0.28946713 0.0098237805 0.84328455 -1.26372 -0.5818828
0.001778785 -0.79542047 0.51478165 -0.017373158 0.010576164 0.0027881626 1.1092191 -0.0070776995
-0.097776406 -0.0071296855 0.4508752 -0.29401383 -0.008766802 0.5012505 -0.30747062 0.49573675
-0.02096755 0.3540807 1.1696906 -0.07065547 0.70750546 0.020824997 -0.009344245 -1.2439387
0.012839364 1.6722996 1.2213408 0.006966484 -0.7128398 0.02441717 -0.0015072495 -0.8275221
0.9721144 1.3689647 -0.87768215 -1.0410719 -0.8843056 -0.85440993 -1.3827714 -0.01774484
-0.55131257 -0.011946257 0.6161585 1.2559775 0.100107774 0.018460544 0.65628445 0.0022840532
0.59375286 0.044174314 -0.0001454485 0.013774659 0.003487074 0.6108916 -0.009809173 0.850053
0.73695505 0.13131142 -0.019911902 1.5156586 0.01142782 -0.21890059 -1.0715388 -0.78308
0.025855625 -1.7846999 1.3616958 -0.016240405 -0.003873872 0.004096582 0.535867 0.03776963
0.24975751 0.014681537 1.4957879 0.7878757 -0.24777414 0.13034815 -0.72533154 -0.83644235
0.23205355 0.7970194 -0.5718345 -2.2235 1.2914298 -0.002079679 -0.0044352477 -1.1044619
-0.06487466 0.68547356 -1.2074926 -0.028494494 -0.80184126 -0.015240717 -0.035457738 -1.37111
0.21955644 -0.6555225 -0.18846512 -1.250378 2.5039184 -0.39037564 0.36089578 -0.0057663303
-0.5289428 -0.049064618 -1.1155286 -0.7066529 -0.20262516 1.117158 0.07462027 -0.013935496
-0.5063348 -0.8965178 -0.03209212 0.0022131193 -0.0043869 -0.65777105 0.010978126 -0.5032084
-0.5682503 -0.53704053 -0.019558763 0.9946433 -0.0064284187 0.02723825 -0.7211217 -0.56885606

conv_layers.2.att_src f4 [1, 4, 16]
00000000: 4815 083e 055b e13e 6d09 2b3f 42fe 0c3e
00000010: 0ff7 d43d 5cc2 123e 43f8 48bd 5531 833d
00000020: 499d 313e 6732 903e fc99 02bf 74d8 6a3e
00000030: 26cd 1b3d c5f7 3c3e 678d bdbe b8c3 85be
00000040: d778 3ebe a64c 3b3e 152d 04be 2816 b6bb
00000050: 35f5 8fba 28e0 b03c 8c6b 20ba 28d7 833f
00000060: 5e05 8c3a d653 65ba df0b f33a bfe2 083c
00000070: 1be7 173f 1345 47be 627f 2ebd 9830 83be
00000080: 4e57 713e f9c5 95bd 1db2 8e3d a514 6c3d
00000090: f75f 0c3b 0a14 42bf 526d cfbd 31e2 063d
000000a0: da38 113e 1ab5 883e c006 1f3e f0b4 043e
000000b0: 935c e439 41c3 33be d933 863d 9d7b 0dbe
000000c0: 86ca b6be 1bfe 143e 319b f23d 87e8 aabd
000000d0: acc2 0ebc 32ab 823e af31 3fbc 1007 9f3b
000000e0: 312e 573e d87e 6c3d ec30 2cbe 4c5c f33c
000000f0: 5b74 c83c 279f 6bbf 954f 43be 72bf d03c
0.13289368 0.44014755 0.6681126 0.13768867 0.10398685 0.14331955 -0.049064886 0.06405894
0.17345156 0.28163454 -0.5101621 0.22934133 0.03803744 0.18453892 -0.37021944 -0.26125884
-0.18600784 0.18290958 -0.12907822 -0.0055568404 -0.0010983112 0.021591261 -0.00061195414 1.0300035
0.0010682752 -0.0008748149 0.0018542967 0.008354842 0.59337014 -0.19459943 -0.04260195 -0.25623012
0.2356846 -0.07313151 0.06967566 0.057636876 0.0021419504 -0.7581183 -0.10128273 0.032930557
0.14181843 0.2670067 0.15529919 0.12959647 0.00043556522 -0.17554952 0.06552858 -0.13816686
-0.35701388 0.14550059 0.11846007 -0.08345132 -0.008713406 0.25521237 -0.01166956 0.004853137
0.21013714 0.057738155 -0.16815537 0.029707097 0.024469545 -0.9203972 -0.19073327 0.025481913

conv_layers.2.att_dst f4 [1, 4, 16]
00000000: c692 b43e 237c 3fbe 0ef7 2abf 86ae 3e3d
00000010: 1bc5 4cbf 4776 dc3e e9f4 18c0 e8d2 203d
00000020: 5fd1 8a3f 2b6b 09bf 7351 96bd c15e dd3f
00000030: 3583 83bf 3485 02bf 3b44 243e e927 c63f
00000040: 1b25 91bf 7ff9 aebe a87d 4b3f 34bd aebf
00000050: 78d5 60bf f216 99bf dbf5 58bd 756d 733f
00000060: b8b5 94bf 18c6 0c3f f835 523c 65b7 54bf
00000070: 0ad0 973e 78c9 223f 9db0 343e 4ccc 3a3e
00000080: b9b2 abbd 0a50 e6bd c90f 05be f294 8e3f
00000090: b203 b63b 2a62 603f 798a 81bf f7d5 0abc
000000a0: dcda 903f 3107 123f 74fb ff3e 49b9 193f
000000b0: f782 55be 3525 eb3e e2ac edbe 9c17 e8bf
000000c0: b3d0 453f 06a4 56c0 131a 8f3f d384 5bc0
000000d0: 73ca 85c0 bbed 33bf 9874 1c3f ac84 fc3f
000000e0: bbfe 95bf e82c e040 99c5 c83f c2e1 cabe
000000f0: 324b 823d 0dc9 a1bf e079 dabf 7e26 963e
0.3526823 -0.18699698 -0.66783226 0.046553157 -0.7998826 0.43058988 -2.3899481 0.039263636
1.0845145 -0.5367915 -0.07339754 1.7294542 -1.0274416 -0.509845 0.16041653 1.548093
-1.1339449 -0.34174725 0.7948861 -1.365149 -0.8782573 -1.1960127 -0.05296884 0.95088893
-1.1617956 0.5498977 0.01283025 -0.8309234 0.2965091 0.63588667 0.17645498 0.18241996
-0.08383698 -0.11245735 -0.12994303 1.1139205 0.0055546397 0.87649786 -1.0120384 -0.008473865
1.131679 0.57042223 0.4999653 0.6004835 -0.2085074 0.45926824 -0.46420962 -1.8132205
0.77271575 -3.3537612 1.1179832 -3.429982 -4.180963 -0.7028462 0.6111541 1.9727988
-1.1718363 7.0054817 1.5685302 -0.39625365 0.063619986 -1.2639481 -1.7068443 0.29326242

conv_layers.2.bias f4 [64]
00000000: 53fc 46be 5b0b 2541 b6c4 f640 2921 513d
00000010: 8fd1 94be b813 52be 8e3e 3ac1 5333 8b3f
00000020: 952f 0e3e 8a7d 67bd 856e b23d 4b59 0e40
00000030: dfef 63bb 500e 02be 7a0e b0be 4428 b0bd
00000040: c4a0 01bf 8c9f 0bbb c7b1 2040 e10d 17c1
00000050: fb08 9dc0 c398 7dbf 328d 96c1 d768 e340
00000060: 07f3 b2c0 9f3d c040 4ab5 a141 06b1 37bf
00000070: 29d1 da3e e616 eabe 449c dc3b 619e ddbe
00000080: 7c89 8840 0140 2041 802f d13e 9e8f 18be
00000090: 1f05 21c1 0cbc 43c1 4ca8 24c1 f3d6 23bf
000000a0: 4e09 db3d 6752 003e 9a03 903f 1a41 5f3e
000000b0: dba5 08be 6bb6 6bc0 e60f 43c0 cfd9 b53d
000000c0: 27ca a7be 6ec7 853e 812b b83d a65a b8bf
000000d0: b2ab aec0 b251 3fc1 707f bf3d b63f 2141
000000e0: d7a7 5cbf aeb8 b63f 6b66 e5bd 6260 6abf
000000f0: efac fdbe f739 3bc1 bac4 12c1 f2b9 8ebe
-0.19432192 10.315272 7.7115126 0.051057015 -0.2906613 -0.20515335 -11.640272 1.0875038
0.13885339 -0.056516208 0.08712486 2.2242 -0.0034780425 -0.12700772 -0.34386045 -0.0860143
-0.50635934 -0.0021304814 2.5108507 -9.440888 -4.9073462 -0.9906122 -18.818943 7.106548
-5.5921664 6.007522 20.21352 -0.7175449 0.42737702 -0.45720595 0.0067324955 -0.43284896
4.2667828 10.015626 0.40856552 -0.14898536 -10.06375 -12.23341 -10.291088 -0.6399986
0.10695134 0.12531434 1.1251099 0.21802178 -0.13344519 -3.683009 -3.0478454 0.08879434
-0.32771417 0.26128715 0.08992673 -1.4402664 -5.458459 -11.957445 0.09350479 10.078054
-0.86193603 1.427511 -0.11201175 -0.9155332 -0.49546 -11.701652 -9.173029 -0.2787624

conv_layers.2.lin_src.weight f4 [64, 64]
00000000: b3f3 e9bd 7c8d e83d b377 86be 39e1 fe3d
00000010: da65 473e cbd0 143d 58d0 973e 4ac1 04be
00000020: c6ae ab3e e3ee 3a3e fa2d 96be 07fc ecbe
00000030: e412 6d3f 6667 853e ed88 25bd 307a babe
00000040: f02b 5a3f 91a8 c73c 7edd a4be 1bf9 613e
00000050: 78bd 52bf d8a8 d53e 18dc 3bbf b206 003d
00000060: 6cff 4bbe 3d3f b73e e730 683c 597e 2abe
00000070: da8e 463e 5560 c3bd 876f 103f 7e4f 86be
00000080: dc31 c33e 5741 a33e 29d1 7b3d 17c4 1bbe
00000090: ab5b b53e 731b 803d 3705 583e 66e3 623d
000000a0: 85c6 eabe 72f9 91be f265 a43d dd60 393e
000000b0: a9ad 06be 7c02 b8be 26fa 9b3d c942 ddbb
000000c0: e4ea 7dbe 542a 82bc df67 2fbd 8a40 eb3d
000000d0: 6ed2 56bd 4314 03bf 60c6 efbd 171e 9c3e
000000e0: c548 863e 582b e53d 9392 e13d e8ad e43d
000000f0: 8248 163a 773b 53bd fdd5 92be a6a4 f23e
00000100: c102 c6be 7a92 9dbf ecda 873c 874f 9cbd
00000110: 08ac 23be 0977 cd3e 671b 5d3f 901b 153f
00000120: c90d 71bf 04f9 433d 07f1 c4bc 8b0b a93f
00000130: 0483 043f 75cf 6c3e 5242 043f 739a f4be
00000140: 005e 8abf d8f4 e8be 7987 20bf 6a92 0e3f
00000150: 2f3a 89bf 7d2a b8be ecb4 3dbf 38b6 233e
00000160: 2aa5 bdbe ad6a 043e 0c34 d3be 8b71 253f
00000170: f733 29bf a986 08bf 012e 8ebe b6d3 fcbe
00000180: 5668 1b3e 18bf a33f 85f3 173f 10fe 36bf
00000190: 2214 d23f d44d 1dbe c151 fa3e 0a3c 253f
000001a0: cac0 863e a303 6f3d 9e48 543e 6961 a3bf
000001b0: 6d7c 42bf 148a 8d3f e9ee 863e 13d9 5bbe
000001c0: 3316 363e 206d 42be c8a4 933f 88a9 fc3f
000001d0: ceea df3f 6b7f 113f 9444 e2be 6f1f 60bd
000001e0: d925 39bf 5b11 663d 7992 0bc0 980b 4cbf
000001f0: 05df 9f3f a826 4b3f 375e 22bf ff2b f13e
00000200: 01d9 8fbe 00f9 7fbf 0832 0e3e cf03 133e
00000210: 3faa 1fbc cc10 e23e debc 563f 70e5 663e
00000220: f725 72bf 5712 6a3d 5f3b 89be 7103 9c3f
00000230: a599 f23e cb78 c03e bcc4 ed3d bd2e acbe
00000240: 6c88 99bf 01ca d0bd 675f 24bf 1df4 3c3f
00000250: edc4 aebf 9034 5cbe 0f34 3cbf e057 0a3b
00000260: 8be8 0ebf 51e6 793e 5fea 11bf eb9b 0e3f
00000270: be6c 34bf 3e6d f2be 3072 33bd 631c 5bbf
00000280: 2105 2540 cd30 8a3f 27d3 013f 5646 4dbf
00000290: dd21 cb3f 7b7d 9dbe 0016 1b3f c5bf 0c3f
000002a0: 74cf d43e c670 0d3e f51d 81bd 6c0b 99bf
000002b0: a819 8cbf 750c 903f 79bc bc3e 3de7 cfbe
000002c0: e2eb 8fbe 0fc4 3f40 4528 973f 08cc 3f40
000002d0: 726c 0540 5f02 f03e c18b 42be 7b12 c6bd
000002e0: d9a2 58bf ff9b d23d 6a80 01c0 0965 76bf
000002f0: 7fde 833f c102 d43c d6b1 0abf 4708 f73e
00000300: 3abd 0d3f f1ff 7f3e 8443 05be c065 fc3d
00000310: 2e6d 293f d881 1cbe 8fd0 a33f db57 1cbf
00000320: 5522 c73e 254b 253f 669a 72bf 1f33 30bd
00000330: 355a b3be bb8c 8bbe f263 99bd ad4d d73d
00000340: 724e 6cbf 2651 83bf eb76 6e3f 3322 153e
00000350: 6e6c 853c 2f22 c5be 1e24 a4bf ded3 00be
00000360: e971 9cbd e351 29bf 7a60 29be e459 f93d
00000370: c0c6 883d b886 f23e 64fc cdbd e7ee 633e
00000380: 6543 11bf 7ca4 e1be 8b23 c63c 576b c9be
00000390: 6b7d 0fbe 7125 8b3e 53ec d53d 7060 83bf
000003a0: 99b8 d83e 0bca 38bf 22c1 103b 2724 c93f
000003b0: 5d5f a63d 990a 923f 8d8c df3e 2544 38bf
000003c0: a6f8 163e 50b2 203e 788a 77be 3653 a8bd
000003d0: a939 783f e0ca 2ab9 ab5d 53bf e78f d23e
000003e0: 7982 a4bf 1719 d7be 8436 b0be f741 98be
000003f0: 3692 b7bd b74a 96be 05f7 943f 1202 bd3e
-0.11423435 0.11355111 -0.26263198 0.124453016 0.19472447 0.036331933 0.2965114 -0.12964359
0.3353178 0.1825519 -0.29331952 -0.46286032 0.9260695 0.2605545 -0.040413786 -0.36421347
0.85223293 0.02437237 -0.32200235 0.22067682 -0.82320356 0.4173038 -0.7338271 0.031256385
-0.19921654 0.35790434 0.0141718155 -0.1664976 0.19390431 -0.09539858 0.5642018 -0.26232523
0.38123977 0.31885788 0.061478768 -0.15211521 0.354215 0.062552355 0.2109574 0.055392645
-0.45854583 -0.28510624 0.08027257 0.18103357 -0.13152184 -0.35939395 0.076160714 -0.006752346
-0.24796635 -0.015889324 -0.04282367 0.11486919 -0.052446775 -0.5120279 -0.11707759 0.30491707
0.26227394 0.11189908 0.11014285 0.111659825 0.00057328504 -0.051570382 -0.28678885 0.47391242
-0.38673976 -1.2310326 0.016583882 -0.07632356 -0.15983593 0.4012988 0.8636994 0.5824518
-0.9416166 0.0478449 -0.024040712 1.3206648 0.51762414 0.23126014 0.51663697 -0.47774085
-1.0809937 -0.454993 -0.62706715 0.5569216 -1.0720881 -0.35969916 -0.7410419 0.1598748
-0.37040073 0.12931319 -0.41250646 0.6462638 -0.6609492 -0.53330475 -0.27769473 -0.49380273
0.1517652 1.2792692 0.59355956 -0.7148142 1.6412394 -0.1536172 0.48890498 0.6454474
0.2631896 0.058353078 0.20730826 -1.2764102 -0.7597111 1.1057763 0.2635415 -0.21469526
0.17781906 -0.1898694 1.1534662 1.9739237 1.7493532 0.5683505 -0.44192946 -0.054717477
-0.72323376 0.056168895 -2.180815 -0.7970519 1.2489935 0.7935586 -0.6342501 0.4710388
-0.28095248 -0.9998932 0.13886273 0.14356922 -0.00974518 0.4415344 0.8388194 0.22548461
-0.9458918 0.057146396 -0.2680311 1.218855 0.47382846 0.37592158 0.1160979 -0.33629408
-1.1994758 -0.10194779 -0.6420807 0.7380999 -1.3653847 -0.21504426 -0.73516935 0.0021109506
-0.5582358 0.24404265 -0.56998247 0.5570666 -0.7047843 -0.4734897 -0.04381007 -0.8559019
2.578438 1.0796143 0.5071282 -0.8018545 1.5869709 -0.30759797 0.60580444 0.5498012
0.41564524 0.13812551 -0.06304542 -1.1956611 -1.094533 1.1253802 0.36862543 -0.40606108
-0.28109652 2.9963415 1.1809164 2.996828 2.084744 0.4687681 -0.18998624 -0.096714936
-0.84623486 0.1028366 -2.0234628 -0.9624792 1.0302275 0.02588022 -0.54177606 0.48248503
0.5536686 0.24999978 -0.13014036 0.12324095 0.6618222 -0.15283906 1.2798022 -0.61071557
0.3889338 0.64567786 -0.94766843 -0.043017503 -0.3502976 -0.27255806 -0.07489766 0.10512862
-0.923072 -1.025914 0.93150204 0.14563827 0.016287055 -0.38502643 -1.2823522 -0.12580821
-0.07638914 -0.66140574 -0.16540709 0.121753484 0.066785336 0.47368407 -0.10057905 0.22259103
-0.5674346 -0.44070804 0.02418687 -0.39339706 -0.14012687 0.27177003 0.10445466 -1.0263805
0.42328337 -0.72183293 0.0022087772 1.5714158 0.08123658 1.1409484 0.4366192 -0.7197898
0.1474329 0.15693021 -0.24173915 -0.08218996 0.9696298 -0.0001628804 -0.825648 0.41125414
-1.2852317 -0.4201133 -0.34416592 -0.29737827 -0.089634344 -0.29353878 1.1637884 0.36915642
