embd_32_nHead_4_nlayer_3_Batch_50.pth (torch, 143643 bytes, 16 tensors)

conv_layers.0.att_src f4 [1, 4, 32]
000000 9d 86 08 3e 4a bc cf be b6 e5 0d 3b e1 67 14 be
       0.13332601 -0.4057334 0.002165181 -0.14492752
000010 c8 32 bd 3a c3 ad 09 bb 9f 1b a3 be 6c 84 c2 b9
       0.001443469 -0.002100811 -0.3185701 -0.00037101225
000020 66 b7 9e 3d 6d d7 d2 3a e8 c6 ae 3b 97 d7 cb 3a
       0.07749824 0.001608593 0.00533377 0.0015551922
000030 6b 58 02 3b c1 3d 4f 3e b1 27 d6 bb 63 9d 80 3b
       0.0019889127 0.20238401 -0.0065354933 0.003925012
000040 4e 1b 8f bb d1 66 00 3c 94 ee 67 3b 0d 18 13 39
       -0.0043672686 0.007837013 0.0035390006 0.00014027972
000050 08 81 0c 3f 04 db 0e 3c 36 e4 4f 3b 03 68 17 3a
       0.54884386 0.00871921 0.0031721718 0.0005775692
000060 44 fc 31 3b cb 27 f6 39 ea 00 f7 ba be 0a 5c ba
       0.0027158419 0.00046950424 -0.0018844877 -0.00083939347
000070 95 aa 99 3a 62 dc c6 be 77 3f 7d ba 9e 9f b1 bb
       0.0011723811 -0.38840014 -0.0009660641 -0.005420639
000080 05 85 c7 3a 56 86 03 bc f9 97 44 bf 6d db cf 3b
       0.0015222138 -0.008027634 -0.7679439 0.0063432963
000090 ad ed 7d 3e 91 af 7b 3b e1 f9 d2 ba 45 93 0f 3e
       0.24797697 0.0038404206 -0.0016096198 0.14021023
0000a0 45 74 01 3c 8e 4a c8 bb 95 48 16 3b f6 80 3b ba
       0.007901256 -0.0061124032 0.0022931446 -0.00071527006
0000b0 1d 04 dc 3a 5f 38 d6 bb bd 41 79 3e b8 aa 15 3a
       0.0016785894 -0.0065374817 0.24341483 0.0005709338
0000c0 ac 90 76 bf b1 1e 3b bf 65 f0 88 bf a8 52 ea ba
       -0.963145 -0.73093706 -1.0698363 -0.0017877417
0000d0 92 e8 d8 3b 5b b7 1a bd ce 41 0a 3f 2f 31 b3 be
       0.0066195214 -0.037772518 0.5400666 -0.34998462
0000e0 3f 20 5f 3b 93 52 66 bb 3a 63 92 3d 68 c0 88 bb
       0.003404632 -0.0035144433 0.07147832 -0.0041733272
0000f0 4d 35 26 3f 08 22 85 3e cb ea bc bb 9c 1d 02 ba
       0.6492508 0.26002526 -0.005765294 -0.00049635186
000100 fc fd de b9 25 61 e5 3a 6a 5f 49 bb 26 88 27 3b
       -0.00042532373 0.0017500265 -0.0030727037 0.0025563329
000110 90 e2 76 ba 29 16 1f 39 c5 1e 40 3a 68 ab b0 3e
       -0.0009417916 0.00015171677 0.0007328804 0.34505773
000120 7d e9 e5 3d ab 22 d3 3e e3 99 41 3b 34 c8 a3 ba
       0.11226175 0.41237387 0.0029541187 -0.0012495578
000130 f6 99 61 3a 9b f7 03 3a e3 35 16 bb 65 b0 fa 3a
       0.0008606011 0.00050341495 -0.0022920303 0.0019126056
000140 c6 2b e5 3a 45 4a e8 3b 94 df 87 39 1a 96 43 b9
       0.0017484359 0.0070889317 0.00025915785 -0.00018652566
000150 9c 5f ea 3c 8a 50 10 3b d6 54 75 bb 3a 19 38 3b
       0.028610043 0.0022020661 -0.00374346 0.0028091208
000160 02 27 5b bb 94 fc b7 ba e6 a9 3b 3b 88 30 91 ba
       -0.0033439999 -0.0014037066 0.0028635203 -0.0011077086
000170 9a b1 50 b8 cb 95 01 bb 61 6a 38 3d 18 59 c7 ba
       -4.975647e-05 -0.0019773121 0.045023326 -0.0015209047
000180 65 ba e8 bd 24 99 25 bb ff 4c 93 bb d7 9b bf ba
       -0.11363677 -0.002526828 -0.0044952626 -0.0014618587
000190 32 45 9d 39 f1 a3 82 3e 02 63 18 ba c3 ef 30 3b
       0.00029996928 0.25515702 -0.0005813093 0.0026998378
0001a0 fe 22 98 bb 82 c2 1f 3b b8 54 9a be 93 45 be bb
       -0.0046428433 0.002437741 -0.3014276 -0.0058066337
0001b0 b1 7d 5c bb 8b dc 08 ba e3 99 86 3a db 72 6a bb
       -0.0033644254 -0.0005220852 0.001026925 -0.0035774026
0001c0 83 77 a8 ba 20 c5 22 3c de 47 20 bd db b8 79 3e
       -0.0012853 0.009934694 -0.039131038 0.24386923
0001d0 60 ac d5 be e4 ef c1 be 21 f7 de ba fc 7f 2f 3f
       -0.41733074 -0.37878335 -0.0017010906 0.68554664
0001e0 38 98 a1 3e 82 9c 9f b9 ca e3 13 bb 89 99 08 bb
       0.31561446 -0.0003044345 -0.0022566193 -0.0020843467
0001f0 30 28 48 bb ed 8b 33 bf dc a6 b4 ba b2 f0 a3 3e
       -0.0030541532 -0.70135385 -0.0013782638 0.32019573

conv_layers.0.att_dst f4 [1, 4, 32]
000000 31 dc 3f be a3 49 22 3e 09 6d 80 3a 69 15 62 bb
       -0.1873634 0.15848403 0.000979812 -0.0034497625
000010 8d ea 6f ba da 61 8a 3a 17 bc 14 be 94 0e 1b bb
       -0.0009152077 0.0010557726 -0.14524876 -0.0023659812
000020 29 5a bd 3d c4 8b 13 3b 38 66 52 ba 5c d4 b3 39
       0.09245712 0.0022513727 -0.0008026096 0.0003429976
000030 8e fe 6d bb f4 99 b7 bd d8 fa 0b 3b ed 39 dc 3e
       -0.0036315056 -0.08964911 0.0021359231 0.43012944
000040 f8 86 c0 ba 32 4c cd ba 7f de a9 ba 04 bf 36 bb
       -0.0014688661 -0.0015662967 -0.0012959986 -0.002788485
000050 06 df 20 bf 1e 88 4b bb 53 ec c9 39 0d 2a 39 bb
       -0.62840307 -0.0031056474 0.00038513783 -0.0028253824
000060 6d db 32 3a bb 60 3b bb f3 24 2c 3a 4b 00 f3 3a
       0.0006822858 -0.0028591591 0.0006566785 0.0018539516
000070 6d 8d c5 39 a4 b0 0f bc 7e f1 29 3b 30 8e 85 3a
       0.00037680138 -0.008770142 0.0025931294 0.001018947
000080 09 57 8b bc b9 e6 5d 3d bc e9 82 3e 36 3b c6 bc
       -0.017009275 0.054175112 0.2556895 -0.024198156
000090 4c 48 03 3f a3 50 dd bc 32 48 35 bd de 79 42 be
       0.5128219 -0.02701599 -0.044258304 -0.18991801
0000a0 13 61 8d bd 3a 8a de 3c b0 dc d8 bb d7 ae 26 3c
       -0.06903281 0.027165521 -0.006618105 0.010173521
0000b0 b9 4c 98 3b c0 d9 c7 3c 5f 52 18 3e 8a 2f 51 3d
       0.004647818 0.024395823 0.14875172 0.051070727
0000c0 be cf c3 3f f1 87 5a 3e a0 31 c2 3f 9b e9 1c bd
       1.5297773 0.2134092 1.5171394 -0.03830872
0000d0 31 61 5b ba c8 2c 70 bf 07 ac 47 3e 41 e9 0b bf
       -0.00083686697 -0.9381833 0.19499217 -0.5465279
0000e0 23 80 bf 3b 5d ba 45 3d 19 47 2c 3f 43 00 4a 3c
       0.0058441325 0.048273433 0.67295986 0.012329164
0000f0 ca cf 7e bf f5 8c 6c bf e9 a1 8c 3b 27 bc a5 3c
       -0.9953581 -0.92402583 0.004291762 0.02023132
000100 34 57 58 3b 90 f3 14 3a 87 fc 65 bb 60 46 9a bb
       0.0033010961 0.00056820456 -0.0035093145 -0.0047080964
000110 09 0c 9b bb cd ea bb 3b c3 c7 6c 3b 23 87 4a be
       -0.0047316593 0.0057347775 0.003612981 -0.19778113
000120 36 6f 42 3e 70 50 91 be 98 87 0c 3c 9b 29 1d 3c
       0.18987736 -0.2838168 0.00857725 0.009592439
000130 c1 38 2e 3c f2 19 25 3c 01 44 57 bc e5 e3 95 ba
       0.010633648 0.010076987 -0.013138772 -0.0011435716
000140 27 0e 6d 3b a8 43 02 3d db 38 e7 ba d7 8b 69 3c
       0.0036171766 0.031802803 -0.0017640846 0.014254532
000150 e8 73 ef be 16 79 cf 3b e2 67 fe bb 9c 13 aa 3b
       -0.46768117 0.0063315732 -0.0077638486 0.005190326
000160 83 dd ee bb 8a 35 cf ba ca 54 39 bb 6d a1 ec bb
       -0.00728959 -0.0015808803 -0.0028279298 -0.007221392
000170 44 68 8e bc 16 22 14 ba aa 96 23 3e 7e 72 4a bb
       -0.017383702 -0.0005650831 0.15975443 -0.0030890997
000180 d7 63 34 3f 83 4f 08 3a a5 ed e0 bb 95 96 ad bb
       0.70464844 0.00051998365 -0.006864267 -0.005297492
000190 eb 87 23 3c 65 d5 b0 be 2f 44 68 bb b7 21 9c b9
       0.009981136 -0.34537807 -0.0035441031 -0.00029779758
0001a0 2e ae 96 bb 6e 3c 17 3b 6b 80 e4 be 60 b8 93 bb
       -0.0045984006 0.002307679 -0.44629225 -0.004508063
0001b0 03 a6 ba bb 3b 16 b8 3b 25 98 87 3b 0b 19 f6 bb
       -0.0056960597 0.0056178845 0.00413801 -0.0075103096
0001c0 aa 9b c0 ba a7 ff ba 3d 72 bf cb 3d 9c 93 0c bf
       -0.0014694829 0.09130793 0.09948625 -0.54912734
0001d0 6f 8c 17 3f 36 e3 27 3f 4a 84 c0 bb c0 ff a9 be
       0.5919866 0.6558107 -0.005875145 -0.33202934
0001e0 9e 2c b9 3f 47 da b2 3a de 5a ef ba 16 5e 8d bb
       1.4466741 0.0013645374 -0.0018261333 -0.0043141944
0001f0 dd 12 0b bb 19 5b 1a 3f 17 ca b6 bb 5a 2a e6 be
       -0.002122096 0.60295254 -0.00557829 -0.44954187

conv_layers.0.bias f4 [128]
000000 52 aa ba 3e 1f 15 06 bf 32 90 fc 39 8a d9 d0 be
       0.3645807 -0.5237598 0.0004817262 -0.4079097
000010 33 29 d6 b8 e2 8a b1 3a 34 f3 12 bf f1 f8 a1 39
       -0.00010211989 0.0013545419 -0.5740235 0.0003089379
000020 23 41 fc 3c 60 76 bd b9 fa af b7 3a 58 10 e0 b9
       0.030792778 -0.00036137085 0.0014014237 -0.00042736786
000030 0e 1f 07 bb 5c e4 29 3f 7c 23 36 3a 2a b6 cd bf
       -0.0020617875 0.66364074 0.00069480366 -1.6071217
000040 ab f9 84 3a 8e c2 dc b9 c6 65 15 3b 0c 3f 08 3b
       0.0010145208 -0.00042106624 0.0022796257 0.0020789532
000050 5d 2b 54 3f e4 22 3f 3a 82 1a 0a ba 1c 20 1b ba
       0.8287867 0.0007291271 -0.0005268232 -0.00059175654
000060 3e 92 1c 39 6e ff a7 ba c7 dd a2 ba 1b aa d1 ba
       0.00014931799 -0.0012817213 -0.0012425714 -0.001599613
000070 0a c7 b3 3a 66 37 52 3e 4a 45 06 bb 1c b7 2f 3b
       0.0013715934 0.20528945 -0.0020488077 0.0026812023
000080 56 b4 67 3b 05 c9 3b bb 6c 5a 11 be 96 34 66 3b
       0.0035355291 -0.0028653753 -0.1419465 0.0035126559
000090 e5 a3 71 3e 49 db b1 3b 32 f1 e5 ba e0 87 04 c0
       0.23597677 0.005427752 -0.0017543195 -2.0707932
0000a0 5a d7 42 ba d0 f0 ba ba 7a 93 8d bb d5 1d 9f b9
       -0.00074326026 -0.0014262442 -0.004320559 -0.0003034907
0000b0 b7 84 2e bb 26 83 9f b9 95 32 89 3e f8 0d 72 38
       -0.0026629397 -0.00030424556 0.26796404 5.7710306e-05
0000c0 da 98 20 bf 7b 8c 63 bf b0 5d 33 bf 1b 3b 8a b9
       -0.6273323 -0.8888623 -0.7006483 -0.00026365448
0000d0 6f 1f 31 ba 8e e0 8b be 55 08 fa bf 05 c4 7d be
       -0.0006756698 -0.2731976 -1.9533793 -0.24781807
0000e0 32 f8 88 39 ab 17 1c 39 4d 22 00 c0 c8 81 9e 39
       0.0002612486 0.00014886136 -2.0020936 0.00030232803
0000f0 5d 48 b0 bd 52 85 2f 3d 51 ee 97 ba b1 9b ac 3a
       -0.08607552 0.042851754 -0.001159141 0.0013168958
000100 2c 67 83 3b 40 cd 92 39 0e 00 97 3a ac ec fb ba
       0.004010102 0.00028000213 0.0011520402 -0.0019220314
000110 d0 c6 58 ba 82 90 e6 3a 26 70 3d bb b0 6a d3 bf
       -0.00082693715 0.0017590674 -0.0028905957 -1.6516933
000120 5c 27 91 bf 1e 18 be 3e d6 0c 2b 3a 71 0f 21 bb
       -1.1340137 0.37127775 0.0006525045 -0.0024575854
000130 dc 47 8b 39 d5 e1 2f 39 d4 3e ce 38 d5 13 92 3b
       0.00026565685 0.0001677343 9.834548e-05 0.0044579306
000140 f4 1d cb b9 ee 06 d6 be ca 32 2c 3b 67 c3 2d bb
       -0.00038741494 -0.41802162 0.002627539 -0.0026514174
000150 fc c7 33 be 0e 8d 57 bb 8d ba 63 3b fb 12 2e 3b
       -0.17556757 -0.0032890472 0.0034748644 0.0026561606
000160 84 f6 2a b8 48 23 c5 b8 b8 3b 45 3a eb cb f4 3a
       -4.0760744e-05 -9.400264e-05 0.00075238524 0.0018676495
000170 e8 64 1d bb f4 81 a3 3a 3c 04 a0 3f e5 c2 51 3b
       -0.0024016444 0.0012474642 1.2501292 0.0032007035
000180 ee d7 35 bf 44 52 48 ba da 79 ae 3b c8 ee b4 ba
       -0.7103261 -0.0007641653 0.0053245844 -0.0013804073
000190 c1 ff 91 ba b7 fc 32 3e 49 2a 25 bb f3 e7 71 bb
       -0.0011138843 0.17479216 -0.0025202206 -0.0036911934
0001a0 a3 ab bb ba c0 b6 3c ba a5 91 94 3e 2e d3 5d ba
       -0.001431812 -0.0007198863 0.29017368 -0.0008461949
0001b0 0c 56 b4 ba 9a df 72 b9 7b c1 81 ba 8c 0b af 3a
       -0.0013758554 -0.00023162217 -0.0009899581 0.0013354882
0001c0 1f 1e de ba c8 bd 84 bd d7 79 2d be 3b 3f dc 3f
       -0.0016946233 -0.064815104 -0.1694101 1.7206796
0001d0 e5 ba fd bf a7 51 28 bf c9 82 62 3b ff 3f 42 3d
       -1.9822661 -0.6574959 0.0034562817 0.047424313
0001e0 e3 e1 32 be 57 b2 65 39 26 66 2d ba 03 98 33 3b
       -0.17468981 0.00021905579 -0.00066146476 0.0027403838
0001f0 66 c6 42 3a cc c3 6b bf 94 f8 37 bb ec 0d 88 3e
       0.00074300764 -0.9209564 -0.0028071748 0.26573122

conv_layers.0.lin_src.weight f4 [128, 4]
000000 d0 cd 82 bf fe 78 aa bf ab 9e 89 bc fb 4f a1 be
       -1.0219059 -1.3318174 -0.016799292 -0.31506333
000010 9c a8 1d c0 ac 33 87 40 08 c4 67 bd eb 49 fe 3e
       -2.463416 4.2250576 -0.056583434 0.4966577
000020 c8 a6 cf bc 92 5d 26 bb b5 be 0e 3b 91 4d 58 bb
       -0.025348082 -0.0025385362 0.002178115 -0.0033005218
000030 c2 8f 0a c0 4f 35 e8 3f 3f 15 80 3e 7d b7 13 be
       -2.1650243 1.8141268 0.2501621 -0.14425464
000040 9c b4 19 bc c3 d4 84 ba bc be 20 3b b1 70 af ba
       -0.00938144 -0.0010134209 0.002452775 -0.0013385025
000050 40 f7 8a 3c 59 33 3e bb d5 4d c9 ba a9 c3 29 3b
       0.016963601 -0.0029022305 -0.0015358279 0.0025903976
000060 0d 3b 35 be 40 9b 4c 40 23 66 b3 3e 6d da 07 c0
       -0.17698307 3.1969757 0.35038862 -2.1227067
000070 8b 08 99 bc 5f 62 a8 bb 8e f8 de b8 e4 71 90 37
       -0.018680831 -0.00513868 -0.00010632082 1.7219172e-05
000080 d3 28 17 3d 24 53 14 c0 e7 1d a6 3d 0f dd c6 bc
       0.036904167 -2.3175745 0.08111172 -0.02427533
000090 08 4d 67 3b 0d f3 df bb 0a 61 59 ba 08 cb 69 ba
       0.0035293717 -0.006834394 -0.0008292353 -0.00089184986
0000a0 cf c4 a8 ba fb 56 ca 3b 6d a2 73 3b 50 2c e5 3a
       -0.0012876036 0.0061749197 0.003717567 0.001748452
0000b0 9f 48 b0 bb 79 5d e4 bb 70 6d e3 3a 0f 54 a7 ba
       -0.005379751 -0.0069691506 0.001735134 -0.001276614
0000c0 7a bf 68 3b 4c 97 99 bb 11 41 bd ba 48 12 97 39
       0.003551452 -0.0046872254 -0.0014438947 0.00028814585
0000d0 36 64 13 3e ab 49 57 3e c8 d6 81 bf 20 fa 24 3d
       0.14393696 0.21024196 -1.0143671 0.0402776
0000e0 2d d7 25 3b 01 1b 23 38 dd f2 6e ba 45 f6 c0 3a
       0.0025305257 3.8887378e-05 -0.0009115169 0.0014721832
0000f0 b6 56 44 3f c9 f3 62 3f f9 d7 8f 3e ee 48 bd 3f
       0.7669481 0.88653237 0.28094462 1.4787881
000100 c3 6c 58 3b 0c 87 22 bc 82 bf 8f bb 47 a2 74 3b
       0.0033023811 -0.009919893 -0.004386843 0.003732817
000110 a2 29 87 3b 6d 78 c5 3b 8d b5 1e 3b f7 e8 3f bb
       0.004124836 0.0060263188 0.00242171 -0.0029283145
000120 f1 2e de bb d7 99 01 bc 0d 71 25 b9 51 a0 49 3b
       -0.006780498 -0.007910213 -0.00015777741 0.0030765722
000130 92 ae 69 bc 2d f6 2c 3c f1 b9 ca 3a 66 0e 15 3b
       -0.014262812 0.01055674 0.0015466792 0.0022744178
000140 ea 5d 05 c0 ad a1 50 c0 1c 02 ce bc 7a 91 44 bf
       -2.083857 -3.259868 -0.02514749 -0.7678448
000150 7b 07 92 bb c7 e8 fc 3b 33 6c 27 3b d7 3c 15 bb
       -0.004456458 0.007718179 0.002554667 -0.002277186
000160 76 19 ef 3a d8 a7 63 3c 30 b4 d6 39 59 a8 46 bb
       0.0018241841 0.013894998 0.0004095151 -0.0030312745
000170 ab e6 16 3b 61 ea 2d bb 6f 6c 39 bb 4d 2d 53 3b
       0.0023025672 -0.0026537406 -0.0028293391 0.0032223046
000180 02 5f 19 3c ec 85 e4 b9 0c 7f 03 3a ff e3 2c 3b
       0.0093610305 -0.00043587328 0.0005016185 0.0026381013
000190 9b 9d c1 3c 3d c3 0b 3b 2c eb ff ba 2e 30 e3 3a
       0.023634722 0.0021326088 -0.0019525043 0.0017333084
0001a0 e3 0c cf 3b 7e 63 20 3b d4 ac 8e ba 97 e1 3d 39
       0.006318675 0.0024473364 -0.0010885247 0.00018108483
0001b0 38 81 af 3b 35 ea 57 bc 26 48 02 39 26 53 31 3a
       0.0053559802 -0.013178398 0.00012424644 0.0006764404
0001c0 28 66 1d 3c fd 15 57 3b 16 2a 7a 3b 07 fb 01 3b
       0.0096068755 0.0032819503 0.0038172058 0.0019833462
0001d0 5f 05 3b 40 3f 9f 51 40 5c d0 2d be 39 3c cf bd
       2.9222028 3.2753446 -0.16974014 -0.101189084
0001e0 d9 06 32 bb 04 30 67 bc c1 bf 8a ba 35 3a cb b9
       -0.0027164726 -0.014110569 -0.0010585712 -0.00038762545
0001f0 0c 77 95 bc 64 e4 3f 3c 94 0a 63 3a 2a 6d 13 3b
       -0.018245243 0.011712167 0.0008660939 0.0022495487
000200 8f 67 a9 3b bf 9c 5a 3b 29 22 09 3b 6e 82 1b bc
       0.005169816 0.0033357588 0.0020924902 -0.009491546
000210 19 48 de 3a 9f 83 03 39 b4 c6 21 3a b4 d3 3b 3c
       0.0016958743 0.00012542166 0.00061712717 0.011464048
000220 32 bb f0 3f bd 24 3e c0 b4 79 1b 3e 6f f0 08 40
       1.8807127 -2.9709923 0.15183145 2.139675
000230 30 c3 be 39 ed ea d7 3b 64 65 2c 3b 9a 7e 6c 3c
       0.0003638505 0.0065892846 0.002630555 0.014434481
000240 48 73 a6 bf 88 05 24 c0 43 ee 14 3f ae 64 75 bf
       -1.3003931 -2.5628376 0.5817606 -0.9585675
000250 cb 95 17 ba 3a 5e b5 3a fa ee 87 3a a3 71 a3 3b
       -0.0005782514 0.0013837286 0.0010370903 0.004987912
000260 a8 04 b9 ba 84 32 16 bb 64 9c e5 ba ec a9 dc 3c
       -0.0014115768 -0.0022918293 -0.0017517922 0.026936494
000270 ca c2 41 bf e7 00 80 40 f7 0c 57 3e 76 2d 0d c1
       -0.7568785 4.00011 0.2100104 -8.823599
000280 95 fb 78 3b 41 a1 29 bc 9c a5 f9 ba 51 c3 9a bb
       0.0037991751 -0.010353387 -0.0019046548 -0.0047229906
000290 0f cd 1f 3b 3b e3 f4 3a 6b 77 9f 39 72 5c 15 3c
       0.00243837 0.0018683443 0.00030415817 0.009116279
0002a0 e4 d8 b1 3b e6 64 0c bb 35 de b6 ba d3 99 d7 bb
       0.0054274667 -0.0021422445 -0.0013951721 -0.0065796166
0002b0 cb e8 40 3c b8 0d 24 ba 2d fb 0a bb ae 07 01 bc
       0.011774252 -0.0006258148 -0.0021206841 -0.007875366
0002c0 d5 da 89 3b 30 46 5c 3b d8 79 0a bb 6c 31 9a 3c
       0.004206995 0.003361117 -0.0021129753 0.018822394
0002d0 23 40 78 bc 1d f2 ec b8 78 a4 7c b9 5f b5 f2 bc
       -0.01515201 -0.00011298454 -0.00024093862 -0.0296275
0002e0 c8 ab 08 bf 01 1f 33 40 9b 75 1d be 04 b2 08 40
       -0.5338712 2.7987673 -0.15376894 2.1358652
0002f0 0d b7 21 bb 4c ea bb 3b f8 9a 50 3a 2d b6 1b 3c
       -0.0024675757 0.0057347175 0.00079576625 0.009503883
000300 bd ce 0b 3f 2b dd 1c 40 3d 24 13 bb c9 fa db 3e
       0.5461233 2.450999 -0.002245202 0.4296477
000310 c2 bd c3 bf bb 96 69 40 47 97 16 bc 16 ac c1 bf
       -1.5292284 3.6498249 -0.009191341 -1.5130641
000320 e7 41 1b 3f 05 09 29 40 2f 09 32 3a fd 8d 4d 3f
       0.60647434 2.6411755 0.00067915296 0.8029478
000330 b8 ab 6e 3a 05 fc 71 ba 98 48 12 3a 60 29 81 3c
       0.00091045676 -0.0009230974 0.00055802753 0.0157668
000340 90 b9 42 bb a3 82 79 bb 08 00 55 3a 14 72 78 bb
       -0.0029712655 -0.003807225 0.000812531 -0.0037909793
000350 72 98 d4 be 1a 8f 59 c0 82 85 32 3e 60 6a f4 3d
       -0.41522557 -3.3993592 0.17433742 0.11934352
000360 0a cb b4 bf 3c 3d df bf f5 2a 23 3f 48 61 89 bf
       -1.4124463 -1.7440562 0.6373742 -1.0732813
000370 f5 5c 50 3e f0 62 59 c0 2c 50 38 3e 8f 3b de 3f
       0.2034796 -3.3966637 0.17999333 1.7361926
000380 ec 10 6d bc 37 f2 a9 3b d8 9c 94 38 71 ea 9b 3b
       -0.0144693665 0.005186345 7.0864044e-05 0.004758172
000390 b6 2f 82 bc 81 7a ce 3b 0f 6a 0b ba f8 fb 15 bc
       -0.015891891 0.0063012247 -0.0005318233 -0.009154312
0003a0 74 25 d2 3f c1 2a 84 be 23 24 c9 3e 66 b2 6f 40
       1.641768 -0.2581387 0.39285383 3.7452636
0003b0 85 4a 38 bb ae 6f bf 3a 3e 6a ac ba 89 c7 a4 bb
       -0.002812059 0.0014605427 -0.0013154221 -0.0050286693
0003c0 43 9d 8d 3f 24 d7 32 40 ce 93 bb bd ac 31 92 bf
       1.1063617 2.7943811 -0.09159051 -1.1421409
0003d0 12 46 91 c0 ff 04 f7 bd 86 c1 95 ba 01 88 de bf
       -4.5398035 -0.120615 -0.0011425472 -1.7385255
0003e0 10 51 27 bb 8e f0 8d 3b d2 3d 84 ba 58 db a6 bc
       -0.0025530495 0.004331655 -0.0010089225 -0.020368263
0003f0 de 18 a0 bc dc f4 92 3b cf 09 c3 3a 8e 07 5b 3c
       -0.019543108 0.004484756 0.0014880243 0.0133685

conv_layers.0.lin_dst.weight f4 [128, 4]
000000 d0 cd 82 bf fe 78 aa bf ab 9e 89 bc fb 4f a1 be
       -1.0219059 -1.3318174 -0.016799292 -0.31506333
000010 9c a8 1d c0 ac 33 87 40 08 c4 67 bd eb 49 fe 3e
       -2.463416 4.2250576 -0.056583434 0.4966577
000020 c8 a6 cf bc 92 5d 26 bb b5 be 0e 3b 91 4d 58 bb
       -0.025348082 -0.0025385362 0.002178115 -0.0033005218
000030 c2 8f 0a c0 4f 35 e8 3f 3f 15 80 3e 7d b7 13 be
       -2.1650243 1.8141268 0.2501621 -0.14425464
000040 9c b4 19 bc c3 d4 84 ba bc be 20 3b b1 70 af ba
       -0.00938144 -0.0010134209 0.002452775 -0.0013385025
000050 40 f7 8a 3c 59 33 3e bb d5 4d c9 ba a9 c3 29 3b
       0.016963601 -0.0029022305 -0.0015358279 0.0025903976
000060 0d 3b 35 be 40 9b 4c 40 23 66 b3 3e 6d da 07 c0
       -0.17698307 3.1969757 0.35038862 -2.1227067
000070 8b 08 99 bc 5f 62 a8 bb 8e f8 de b8 e4 71 90 37
       -0.018680831 -0.00513868 -0.00010632082 1.7219172e-05
000080 d3 28 17 3d 24 53 14 c0 e7 1d a6 3d 0f dd c6 bc
       0.036904167 -2.3175745 0.08111172 -0.02427533
000090 08 4d 67 3b 0d f3 df bb 0a 61 59 ba 08 cb 69 ba
       0.0035293717 -0.006834394 -0.0008292353 -0.00089184986
0000a0 cf c4 a8 ba fb 56 ca 3b 6d a2 73 3b 50 2c e5 3a
       -0.0012876036 0.0061749197 0.003717567 0.001748452
0000b0 9f 48 b0 bb 79 5d e4 bb 70 6d e3 3a 0f 54 a7 ba
       -0.005379751 -0.0069691506 0.001735134 -0.001276614
0000c0 7a bf 68 3b 4c 97 99 bb 11 41 bd ba 48 12 97 39
       0.003551452 -0.0046872254 -0.0014438947 0.00028814585
0000d0 36 64 13 3e ab 49 57 3e c8 d6 81 bf 20 fa 24 3d
       0.14393696 0.21024196 -1.0143671 0.0402776
0000e0 2d d7 25 3b 01 1b 23 38 dd f2 6e ba 45 f6 c0 3a
       0.0025305257 3.8887378e-05 -0.0009115169 0.0014721832
0000f0 b6 56 44 3f c9 f3 62 3f f9 d7 8f 3e ee 48 bd 3f
       0.7669481 0.88653237 0.28094462 1.4787881
000100 c3 6c 58 3b 0c 87 22 bc 82 bf 8f bb 47 a2 74 3b
       0.0033023811 -0.009919893 -0.004386843 0.003732817
000110 a2 29 87 3b 6d 78 c5 3b 8d b5 1e 3b f7 e8 3f bb
       0.004124836 0.0060263188 0.00242171 -0.0029283145
000120 f1 2e de bb d7 99 01 bc 0d 71 25 b9 51 a0 49 3b
       -0.006780498 -0.007910213 -0.00015777741 0.0030765722
000130 92 ae 69 bc 2d f6 2c 3c f1 b9 ca 3a 66 0e 15 3b
       -0.014262812 0.01055674 0.0015466792 0.0022744178
000140 ea 5d 05 c0 ad a1 50 c0 1c 02 ce bc 7a 91 44 bf
       -2.083857 -3.259868 -0.02514749 -0.7678448
000150 7b 07 92 bb c7 e8 fc 3b 33 6c 27 3b d7 3c 15 bb
       -0.004456458 0.007718179 0.002554667 -0.002277186
000160 76 19 ef 3a d8 a7 63 3c 30 b4 d6 39 59 a8 46 bb
       0.0018241841 0.013894998 0.0004095151 -0.0030312745
000170 ab e6 16 3b 61 ea 2d bb 6f 6c 39 bb 4d 2d 53 3b
       0.0023025672 -0.0026537406 -0.0028293391 0.0032223046
000180 02 5f 19 3c ec 85 e4 b9 0c 7f 03 3a ff e3 2c 3b
       0.0093610305 -0.00043587328 0.0005016185 0.0026381013
000190 9b 9d c1 3c 3d c3 0b 3b 2c eb ff ba 2e 30 e3 3a
       0.023634722 0.0021326088 -0.0019525043 0.0017333084
0001a0 e3 0c cf 3b 7e 63 20 3b d4 ac 8e ba 97 e1 3d 39
       0.006318675 0.0024473364 -0.0010885247 0.00018108483
0001b0 38 81 af 3b 35 ea 57 bc 26 48 02 39 26 53 31 3a
       0.0053559802 -0.013178398 0.00012424644 0.0006764404
0001c0 28 66 1d 3c fd 15 57 3b 16 2a 7a 3b 07 fb 01 3b
       0.0096068755 0.0032819503 0.0038172058 0.0019833462
0001d0 5f 05 3b 40 3f 9f 51 40 5c d0 2d be 39 3c cf bd
       2.9222028 3.2753446 -0.16974014 -0.101189084
0001e0 d9 06 32 bb 04 30 67 bc c1 bf 8a ba 35 3a cb b9
       -0.0027164726 -0.014110569 -0.0010585712 -0.00038762545
0001f0 0c 77 95 bc 64 e4 3f 3c 94 0a 63 3a 2a 6d 13 3b
       -0.018245243 0.011712167 0.0008660939 0.0022495487
000200 8f 67 a9 3b bf 9c 5a 3b 29 22 09 3b 6e 82 1b bc
       0.005169816 0.0033357588 0.0020924902 -0.009491546
000210 19 48 de 3a 9f 83 03 39 b4 c6 21 3a b4 d3 3b 3c
       0.0016958743 0.00012542166 0.00061712717 0.011464048
000220 32 bb f0 3f bd 24 3e c0 b4 79 1b 3e 6f f0 08 40
       1.8807127 -2.9709923 0.15183145 2.139675
000230 30 c3 be 39 ed ea d7 3b 64 65 2c 3b 9a 7e 6c 3c
       0.0003638505 0.0065892846 0.002630555 0.014434481
000240 48 73 a6 bf 88 05 24 c0 43 ee 14 3f ae 64 75 bf
       -1.3003931 -2.5628376 0.5817606 -0.9585675
000250 cb 95 17 ba 3a 5e b5 3a fa ee 87 3a a3 71 a3 3b
       -0.0005782514 0.0013837286 0.0010370903 0.004987912
000260 a8 04 b9 ba 84 32 16 bb 64 9c e5 ba ec a9 dc 3c
       -0.0014115768 -0.0022918293 -0.0017517922 0.026936494
000270 ca c2 41 bf e7 00 80 40 f7 0c 57 3e 76 2d 0d c1
       -0.7568785 4.00011 0.2100104 -8.823599
000280 95 fb 78 3b 41 a1 29 bc 9c a5 f9 ba 51 c3 9a bb
       0.0037991751 -0.010353387 -0.0019046548 -0.0047229906
000290 0f cd 1f 3b 3b e3 f4 3a 6b 77 9f 39 72 5c 15 3c
       0.00243837 0.0018683443 0.00030415817 0.009116279
0002a0 e4 d8 b1 3b e6 64 0c bb 35 de b6 ba d3 99 d7 bb
       0.0054274667 -0.0021422445 -0.0013951721 -0.0065796166
0002b0 cb e8 40 3c b8 0d 24 ba 2d fb 0a bb ae 07 01 bc
       0.011774252 -0.0006258148 -0.0021206841 -0.007875366
0002c0 d5 da 89 3b 30 46 5c 3b d8 79 0a bb 6c 31 9a 3c
       0.004206995 0.003361117 -0.0021129753 0.018822394
0002d0 23 40 78 bc 1d f2 ec b8 78 a4 7c b9 5f b5 f2 bc
       -0.01515201 -0.00011298454 -0.00024093862 -0.0296275
0002e0 c8 ab 08 bf 01 1f 33 40 9b 75 1d be 04 b2 08 40
       -0.5338712 2.7987673 -0.15376894 2.1358652
0002f0 0d b7 21 bb 4c ea bb 3b f8 9a 50 3a 2d b6 1b 3c
       -0.0024675757 0.0057347175 0.00079576625 0.009503883
000300 bd ce 0b 3f 2b dd 1c 40 3d 24 13 bb c9 fa db 3e
       0.5461233 2.450999 -0.002245202 0.4296477
000310 c2 bd c3 bf bb 96 69 40 47 97 16 bc 16 ac c1 bf
       -1.5292284 3.6498249 -0.009191341 -1.5130641
000320 e7 41 1b 3f 05 09 29 40 2f 09 32 3a fd 8d 4d 3f
       0.60647434 2.6411755 0.00067915296 0.8029478
000330 b8 ab 6e 3a 05 fc 71 ba 98 48 12 3a 60 29 81 3c
       0.00091045676 -0.0009230974 0.00055802753 0.0157668
000340 90 b9 42 bb a3 82 79 bb 08 00 55 3a 14 72 78 bb
       -0.0029712655 -0.003807225 0.000812531 -0.0037909793
000350 72 98 d4 be 1a 8f 59 c0 82 85 32 3e 60 6a f4 3d
       -0.41522557 -3.3993592 0.17433742 0.11934352
000360 0a cb b4 bf 3c 3d df bf f5 2a 23 3f 48 61 89 bf
       -1.4124463 -1.7440562 0.6373742 -1.0732813
000370 f5 5c 50 3e f0 62 59 c0 2c 50 38 3e 8f 3b de 3f
       0.2034796 -3.3966637 0.17999333 1.7361926
000380 ec 10 6d bc 37 f2 a9 3b d8 9c 94 38 71 ea 9b 3b
       -0.0144693665 0.005186345 7.0864044e-05 0.004758172
000390 b6 2f 82 bc 81 7a ce 3b 0f 6a 0b ba f8 fb 15 bc
       -0.015891891 0.0063012247 -0.0005318233 -0.009154312
0003a0 74 25 d2 3f c1 2a 84 be 23 24 c9 3e 66 b2 6f 40
       1.641768 -0.2581387 0.39285383 3.7452636
0003b0 85 4a 38 bb ae 6f bf 3a 3e 6a ac ba 89 c7 a4 bb
       -0.002812059 0.0014605427 -0.0013154221 -0.0050286693
0003c0 43 9d 8d 3f 24 d7 32 40 ce 93 bb bd ac 31 92 bf
       1.1063617 2.7943811 -0.09159051 -1.1421409
0003d0 12 46 91 c0 ff 04 f7 bd 86 c1 95 ba 01 88 de bf
       -4.5398035 -0.120615 -0.0011425472 -1.7385255
0003e0 10 51 27 bb 8e f0 8d 3b d2 3d 84 ba 58 db a6 bc
       -0.0025530495 0.004331655 -0.0010089225 -0.020368263
0003f0 de 18 a0 bc dc f4 92 3b cf 09 c3 3a 8e 07 5b 3c
       -0.019543108 0.004484756 0.0014880243 0.0133685

conv_layers.1.att_src f4 [1, 4, 32]
000000 4b fb 1c bd 40 64 92 bd a6 63 cd 3e a5 0f 2f be
       -0.03832559 -0.071480274 0.40115088 -0.17095812
000010 6c 67 5b 3d 24 d4 99 bc 37 be 2e be e5 b1 eb bc
       0.053565428 -0.018777914 -0.17064749 -0.02877135
000020 d4 bc 11 3d 3a 24 d5 bc 7f 34 2a 3e 7c 99 8c 3d
       0.03558047 -0.02601825 0.16621588 0.06865212
000030 39 59 bf bc 19 d3 0b bb 6d f1 52 3d 30 8b 80 bd
       -0.023357974 -0.002133554 0.051499773 -0.06276548
000040 b9 21 75 bd a2 3d 96 3d 5f 03 07 bd 9b 68 05 3d
       -0.059846614 0.07335974 -0.0329622 0.032570463
000050 9f b5 80 bc 74 66 18 be 02 3f e1 bd ff 1c 1c be
       -0.015711604 -0.14882833 -0.10998346 -0.15245436
000060 f9 08 02 be 16 fd 8a 3d 24 f8 3b bd c5 f0 aa 3d
       -0.12698735 0.067865536 -0.045890942 0.083467044
000070 10 38 ae bd 00 f6 56 3e 26 5b 3d bc 22 0d ae bd
       -0.08506787 0.20992279 -0.011557376 -0.08498599
000080 64 30 40 be 44 05 8b bd 23 4f 71 bd 78 fc 03 3d
       -0.1876846 -0.06788114 -0.05891336 0.032223195
000090 d9 d9 22 bd 9b 2c 14 3e 90 af b5 3d c1 ce 9e bd
       -0.039758537 0.1447014 0.088713765 -0.07754279
0000a0 eb 06 2d be 61 b0 b4 3d e0 6e 8a 3e 8d 82 3f 3e
       -0.1689717 0.08822704 0.27037716 0.18702145
0000b0 a2 2f 7d 3d de 20 aa bd 83 2f 67 bd 7d 81 ca 3d
       0.061813004 -0.0830705 -0.056441795 0.09887979
0000c0 86 ec 2c 3c e9 3a 81 bd 36 41 1a 3e cc 76 ed bd
       0.010554438 -0.06310064 0.15063938 -0.11594924
0000d0 4d f9 6e 3c d6 b3 bf bb f1 f7 42 be d1 71 85 3d
       0.014585805 -0.0058502955 -0.19039895 0.065158494
0000e0 19 e7 6f bc 07 06 3a bd 6d 66 c9 bb 55 2f 67 bd
       -0.0146425 -0.045415904 -0.0061462433 -0.056441624
0000f0 74 02 9a bd 8b 0c 41 ba 60 93 ad bc 83 66 7a bd
       -0.07519999 -0.0007364235 -0.021188438 -0.06113292
000100 64 ce ab bc 0a 95 1a 3e ce f7 e3 bc 46 11 9b 3d
       -0.020972438 0.15095916 -0.027828123 0.07571654
000110 8f 41 a6 3d 1f 32 5a bc 70 15 7a bb 99 76 fa bd
       0.08117973 -0.013317614 -0.003815975 -0.12229652
000120 a6 79 95 bd 31 cd 4e 3d 69 7e 46 3a f8 f3 42 3e
       -0.07298593 0.050488655 0.0007571937 0.19038379
000130 38 69 df 3b 15 3e bc bc 50 41 2f 3c 91 2b db 3c
       0.006817963 -0.022978822 0.010696724 0.026754173
000140 c5 72 ca 3d d0 4b 79 3d d4 19 89 3c c5 16 d0 3d
       0.09885172 0.060863316 0.016735949 0.10160593
000150 04 55 fb bc e2 a5 93 3d 21 54 b1 bd 91 46 2d bc
       -0.030680187 0.07209374 -0.086586244 -0.010575906
000160 f2 02 60 bc 9e 22 83 3d 27 42 c2 3d cf 1c 81 3c
       -0.013672577 0.06403087 0.09485274 0.015760807
000170 6f 67 34 3e 24 f5 60 bc 51 fb 99 3d e9 1a 48 3d
       0.17617582 -0.013730321 0.07518638 0.04885379
000180 04 64 17 bc c0 b5 87 bc fe ac 9a 3c d5 75 9d 3b
       -0.009240154 -0.016566157 0.018881317 0.0048053064
000190 49 35 81 3c e0 1f 80 bc 4b e6 95 3c d4 5c dc bc
       0.015772479 -0.0156402 0.018298289 -0.026899733
0001a0 87 fd 7b 3c d8 d2 8b 3f 83 c2 81 3d 80 17 95 bd
       0.01538027 1.092372 0.06335928 -0.07279873
0001b0 82 f0 01 bd 54 58 10 3d 18 2a 8d bd cd 9a 35 bd
       -0.031723507 0.035240486 -0.06892794 -0.044337083
0001c0 37 59 b3 3c 33 eb d4 bc fe 8b 16 3d 45 9a e5 ba
       0.021893127 -0.025991058 0.0367546 -0.0017517289
0001d0 63 e9 46 3b 23 bb d6 3d 70 9a 22 3d c9 31 b8 bc
       0.0030351512 0.10484912 0.039698064 -0.022484677
0001e0 22 96 07 3d 09 d3 57 3d 62 f5 0c 3c 56 6d c4 3c
       0.033102162 0.052691493 0.008603426 0.023977917
0001f0 7e 79 42 3d 9c d1 51 3b 8c a5 3f 3d 2d 7c 69 bc
       0.047479145 0.0032015806 0.046788737 -0.014250797

conv_layers.1.att_dst f4 [1, 4, 32]
000000 94 ec c2 3e 21 41 12 bf 90 d3 ad 3e a3 24 a5 bf
       0.3807112 -0.5713063 0.33950472 -1.2901806
000010 11 2d bf bf bf 3b 3c 3f 73 3f e0 bd 29 c2 37 c0
       -1.4935628 0.73528665 -0.10949602 -2.8712256
000020 d2 53 8d bf c9 a3 0f c0 e3 3c 97 3e 35 9d 7a 3f
       -1.1041205 -2.2443717 0.2953864 0.9789613
000030 b5 4b 04 3f 97 0a 03 c0 4a 06 ba bf 9b 25 bc 3f
       0.5167802 -2.0475214 -1.4533169 1.4698976
000040 64 5a 89 3c aa 2b c1 bf b4 75 4c c0 07 6d 81 be
       0.016766734 -1.509145 -3.194684 -0.25278494
000050 d5 af 65 3f 3c b5 2b 3e 7a a2 54 be 94 32 6d bf
       0.89721423 0.16768354 -0.20765105 -0.926553
000060 77 6f 09 3f 63 06 2a 3f 5f b3 9d bf ec c6 96 3f
       0.53685707 0.66415995 -1.2320365 1.1779456
000070 b9 08 2c 3f ec 1f c7 bf 6f 2f e3 be d4 f9 0f bf
       0.6720081 -1.5556617 -0.44372126 -0.5624058
000080 f0 10 db 3e aa 03 4b 40 42 a3 0d bf 1a 03 2b 40
       0.4278636 3.1720986 -0.55327237 2.6720643
000090 ae b8 fc bf 36 0c c6 be a9 6d ad 3d 3e 59 c0 3f
       -1.974386 -0.3868119 0.08468182 1.5027235
0000a0 49 5a 48 bf 76 92 3b c0 26 40 ba bf 6f 5e 56 3f
       -0.78262764 -2.9308143 -1.4550827 0.83737844
0000b0 43 99 62 3e d2 86 66 c0 c2 dd ee 3d 61 5e 1a 40
       0.22128777 -3.6019788 0.11663391 2.4120104
0000c0 f2 31 d3 bd a6 8c b1 bc ff de c9 3f 88 c8 b2 bf
       -0.10312261 -0.021673512 1.5771178 -1.3967447
0000d0 90 12 cb be b4 9e bf be dd 9e ce be 02 eb 04 40
       -0.396626 -0.37425768 -0.40355578 2.0768437
0000e0 de 64 1d bf e5 73 da 3f bb f9 ed 3e bc 42 f9 3f
       -0.61482036 1.7066618 0.46479592 1.9473491
0000f0 8b 4f 49 3e 69 70 29 3f 9b 7e 92 bf 0a ad 4a bf
       0.1965925 0.6618715 -1.1444887 -0.79170287
000100 52 9e 0d 3f bc ad 4f 3e be 45 8f 3e 0d bf a2 be
       0.553197 0.20281118 0.27982897 -0.31786385
000110 8f d6 0e be e4 88 c8 bc dd 8d 98 3d a9 99 08 3d
       -0.13949035 -0.024479337 0.07448933 0.033349667
000120 ab 7f 7b 3d c2 45 94 3d d6 50 3b 3e aa f3 47 bd
       0.06140105 0.07239868 0.18292555 -0.04881636
000130 29 8d 00 be ab e4 b4 be ea 9c 12 3d 12 84 98 be
       -0.12553848 -0.3533071 0.035794176 -0.29788262
000140 f8 8d b7 3c 6b 1e 2a bc 5b 61 c2 3d 14 96 42 bd
       0.022406563 -0.010383229 0.09491225 -0.047506407
000150 b9 69 9d 3e 45 3c 13 be 21 0f 05 3e 99 8b 0b 3e
       0.30744722 -0.1437846 0.12994052 0.13627471
000160 76 28 8f 3e 8d a6 b2 be ce 3f 6d be ba 70 1e 3e
       0.27960557 -0.34892693 -0.23168871 0.1547269
000170 4e 41 80 3e 5d 97 5a be 18 ed 93 bd 0f aa 76 3b
       0.25049824 -0.21346803 -0.072229564 0.0037637984
000180 e9 9b c1 be 21 55 a5 bf 03 ff ab bf b9 60 a2 3f
       -0.37814263 -1.2916604 -1.3437198 1.2685767
000190 e5 20 e0 bf 0d 75 34 3f d2 2f dd be 46 e5 bc 3e
       -1.7510039 0.70491105 -0.43200547 0.36893672
0001a0 89 12 88 c0 c1 4a 82 3f 03 ee 7e be 73 06 33 3e
       -4.2522626 1.0179063 -0.24895482 0.17482929
0001b0 ea 75 bd 3f 17 45 37 c0 19 56 d7 bf 44 20 8d be
       1.480161 -2.863592 -1.682315 -0.2756368
0001c0 63 97 6f bf bb 1b 32 c0 b3 f9 c5 3e c4 29 56 3f
       -0.9359037 -2.7829425 0.38667068 0.8365748
0001d0 6d 61 25 bd d5 02 87 40 37 5e 5a bf 04 03 6a c0
       -0.040376116 4.2190957 -0.8530001 -3.656434
0001e0 5e e7 9f bf ae 65 1d be b8 7b 8c 3f da 61 5b 3f
       -1.2492483 -0.15370819 1.0975256 0.85696185
0001f0 79 9a 5a 3f b7 c9 d0 bc a9 7c ec 3f 8e 35 17 bf
       0.85391957 -0.02548681 1.8475543 -0.5906609

conv_layers.1.bias f4 [128]
000000 d2 10 a6 3e 2e 56 ed 3e 30 73 e9 bd 36 28 05 be
       0.32434708 0.46354812 -0.113989234 -0.1300362
000010 1c d0 e0 bf 46 06 0b 3f d9 1f b3 be 1c 2e 0a 3f
       -1.756351 0.5430645 -0.34985235 0.5397661
000020 6a 53 16 bf d6 e4 64 be 91 ce 12 3f 47 4c bb 3f
       -0.5872103 -0.22352919 0.57346445 1.4632653
000030 95 9f ed 3e ae d0 ed be 07 46 b0 3e 8b bb 6b bf
       0.46410814 -0.46448272 0.34428427 -0.9208304
000040 de 03 16 3c 76 9b 82 3f f6 ec 99 3f 92 aa ab bc
       0.009156195 1.0203693 1.202544 -0.020955358
000050 ea e0 d2 be 90 3b 2c 3f 38 78 62 bf ed bb fb 3e
       -0.4118722 0.67278385 -0.8846469 0.49166813
000060 1c e1 a0 bf ca 7d a4 3d 38 69 b1 3e 8d 43 f4 3e
       -1.2568698 0.08031805 0.34650588 0.47707787
000070 30 7b a9 be e4 a9 01 3f 0f b9 09 bf 4d 3c 7b 3f
       -0.33101797 0.5064986 -0.53798 0.98138887
000080 e9 f5 86 3e 62 26 6e bf 23 3a 03 c0 02 46 30 bf
       0.2635949 -0.9302732 -2.0504234 -0.68856823
000090 e1 5c f3 be 03 f8 e6 bd b0 f3 70 3f d7 1b 21 bf
       -0.47531798 -0.11277773 0.9412184 -0.62933105
0000a0 a9 1f 8f 3f d7 34 93 bf 2a b1 03 be dc 1e 3f 3f
       1.1181537 -1.15005 -0.12860551 0.7465646
0000b0 1e c9 d3 3f 51 0b a2 bf 15 72 b8 bf b5 78 36 bf
       1.6545751 -1.2659703 -1.4409815 -0.71277934
0000c0 c2 4f f8 3f 65 c2 11 3f b1 76 0a 3f 76 8b 52 3e
       1.939934 0.5693725 0.5408736 0.20561013
0000d0 13 c0 99 be 4e 39 29 3f 5a 17 97 3f 65 97 e2 bd
       -0.30029353 0.66103065 1.1804001 -0.110640325
0000e0 43 b6 b0 bf b8 e4 0b bf cb d5 58 3c c9 80 63 3f
       -1.3805622 -0.5464587 0.013234566 0.88868386
0000f0 09 e4 5b 3e a4 f9 14 40 c6 72 22 3f 99 14 33 3f
       0.21473707 2.3277369 0.6345638 0.69953305
000100 a9 ae 4b bf c6 b2 2d bf 7d 64 89 3f 73 2e 2e 40
       -0.79563385 -0.6785091 1.0733792 2.721585
000110 e4 7f 57 3d f1 29 05 3f 82 a5 e1 3d 2e 3e c0 3f
       0.0526122 0.5201712 0.11017896 1.5018976
000120 22 c8 b1 3f 7b 57 a9 be b1 5f 16 3f 7d 4e 47 bf
       1.3889201 -0.33074555 0.58739763 -0.7785414
000130 66 90 21 40 9e aa 3d 3e e6 e6 c7 be 29 52 c9 be
       2.5244384 0.18522117 -0.3904335 -0.39320496
000140 a9 99 c0 be 28 a4 8e 3e 51 89 6a 3f e8 d0 27 3f
       -0.37617233 0.27859616 0.9161578 0.6555314
000150 5d 53 f0 3d e2 f5 8a bf e1 15 d7 be e8 06 59 bf
       0.1173465 -1.0856287 -0.4200888 -0.84776163
000160 fe 32 8e 3f 2e a4 42 bf 19 f5 e2 3e 1a f4 f8 3e
       1.1109312 -0.7603177 0.4432762 0.48623735
000170 c9 62 4b 3f 53 72 ff 3d 32 34 9f bc b7 4a b9 3d
       0.7944761 0.124729775 -0.019434068 0.09047454
000180 c5 25 d5 3d 95 69 62 bf c2 b6 7c bf ff e2 20 bd
       0.104075946 -0.88442355 -0.98716366 -0.03927898
000190 5e ba b2 3e bb d1 b1 bf 05 d7 42 3d e7 31 04 c0
       0.34907812 -1.389213 0.04756834 -2.0655458
0001a0 79 6f 2d bf 8b da cb 3f 84 7e 35 3f 4f f6 8b 3e
       -0.6774822 1.5926069 0.7089617 0.27336356
0001b0 7b ea 87 3f 72 53 37 3e cd f9 44 bc a0 ec cf bf
       1.0618433 0.17902926 -0.012022448 -1.6244087
0001c0 1f 4b 63 c0 95 80 5d 3e 78 2a 2b 3f 7a 6a 9e 3f
       -3.55146 0.21631081 0.6686168 1.2376244
0001d0 46 fe ac bf 65 13 a5 3e 83 a6 27 3f a2 a6 47 40
       -1.3515098 0.3224136 0.6548845 3.1195455
0001e0 bd 9f 47 3f 12 b6 40 bd f2 db 63 be 90 01 84 3e
       0.77978116 -0.047048636 -0.22251871 0.25782442
0001f0 9b 5c 7b 3e 5b 16 8b 40 29 87 1d 3f 41 c6 82 3e
       0.24547045 4.346479 0.61534363 0.2554188

conv_layers.1.lin_src.weight f4 [128, 128]
000000 d0 22 58 3e 7c de 93 bd 23 9d 09 bc 27 d5 4d 3d
       0.2110703 -0.0722017 -0.008399281 0.050252106
000010 07 51 c4 bb 6c b0 3f 3b e1 fd 7b 3f 8f a8 46 3b
       -0.0059911045 0.0029249443 0.98434263 0.003031287
000020 00 a8 76 be bf c6 33 3b 91 08 12 bb 59 e4 bf bc
       -0.24087524 0.0027431694 -0.0022282938 -0.023424314
000030 18 ae 6f 3c dc d7 9e 3e db 0c 9c bc 6d 1e f5 be
       0.0146289095 0.31024063 -0.019049099 -0.47874776
000040 36 66 af 3b c2 7f f1 3b 7d b5 23 bb 57 9e a3 3b
       0.0053527607 0.0073699662 -0.0024980002 0.004993241
000050 89 44 74 bd 93 eb d9 3b f7 6a 8c 3a ad 17 26 3c
       -0.059635673 0.006650397 0.001071303 0.010137481
000060 db 37 dd 3a 9a f5 1a 3c 67 03 82 3b 8d c1 c2 bb
       0.0016877608 0.00945797 0.0039676907 -0.005943483
000070 e0 62 1e bc 17 2f 7c 3f e8 8a 74 ba a0 8f 28 bb
       -0.009667128 0.98509353 -0.000932856 -0.0025720373
000080 9d 82 82 3b c7 1b 86 3a 9f 6e 83 be 89 26 41 ba
       0.0039828555 0.0010231667 -0.25670335 -0.0007368108
000090 41 b5 d8 be d6 43 ac 3b c2 2e 32 bc 1e 91 c0 bd
       -0.42325786 0.00525711 -0.010875406 -0.09402679
0000a0 b7 dc b5 3b 26 6b 16 bc a5 4a 0d 3c f3 35 22 3b
       0.005549993 -0.00918082 0.008623754 0.0024751395
0000b0 80 7e 86 3b c4 de 42 3c 29 2a 41 3e 6e 5e 59 bc
       0.0041044354 0.011893932 0.18863739 -0.013267143
0000c0 70 ed 94 be 75 2b 51 be cd 74 a9 be a0 67 80 ba
       -0.290874 -0.20426734 -0.33096924 -0.0009796508
0000d0 c0 16 ad bc 80 1e 8b bf 68 c8 3f bf 34 17 a0 bf
       -0.021129012 -1.0868683 -0.7491517 -1.2507081
0000e0 6c 3e dc 3a 41 c1 24 3b 6b 6a ca be 60 71 0c 3c
       0.0016803271 0.0025139602 -0.39534315 0.008571953
0000f0 27 c1 5a bd f0 b9 a2 3d 4f 08 c3 3b b9 25 4f 3a
       -0.05340686 0.07945621 0.005951918 0.00079020445
000100 3f 74 4e 3b 83 bd 63 3b 90 0e 99 bc 1a 38 b3 bb
       0.0031502394 0.003475041 -0.018683702 -0.0054693343
000110 b8 c0 05 bc 4b 2b 0c bb a7 39 44 3c 99 48 40 be
       -0.0081636235 -0.002138811 0.011976636 -0.18777694
000120 76 06 cc 3e 30 a7 9d 3f a5 b3 26 3c b6 8c 90 bb
       0.3984868 1.2316647 0.0101746665 -0.0044113053
000130 92 87 60 bc a6 f8 f0 37 fd 2c 2e bb 05 64 f0 3b
       -0.0137041975 2.8726015e-05 -0.0026577108 0.007336142
000140 a5 44 6a 3b b2 58 12 be 60 bd 22 bb 8e 9b f7 bb
       0.0035746482 -0.14291647 -0.0024832115 -0.0075563854
000150 bd 9b 03 bf a3 68 01 bc ea c5 cf b9 02 1d 6f 3b
       -0.5140951 -0.0078984825 -0.00039629574 0.0036485796
000160 91 7d 91 bb a3 61 96 bc a7 e8 5a bb dd 34 d5 3b
       -0.0044400175 -0.018357104 -0.0033402832 0.006506546
000170 a9 c3 69 bb 93 13 8a bc fc 14 4f 3e 77 5d 13 3c
       -0.00356696 -0.016855037 0.20222849 0.008994452
000180 e1 e6 e2 3d e9 1f 79 3b 14 52 4c bc f4 1a 3c bb
       0.11079193 0.0038013405 -0.012470741 -0.0028702589
000190 cd 72 ac bc 69 d3 fe bc ab 24 fd bb 35 4b 5f 39
       -0.021050835 -0.031106668 -0.0077253184 0.00021294954
0001a0 70 dd 2a 3c c3 dc ec 38 f0 f0 19 bf ba 6c 85 3b
       0.010428771 0.00011294477 -0.60133266 0.004071799
0001b0 1c 1c ab 3c e7 d9 e7 3b 69 ef 3c bc 0f 6b 0e 3b
       0.020887427 0.0070755365 -0.011531689 0.0021731292
0001c0 fb 06 f3 3b 85 e7 8f 3d db c7 a4 3d 4f 02 6d be
       0.0074166036 0.07026581 0.08045932 -0.23145412
0001d0 a2 75 07 3f 28 80 78 3b 42 fa 44 bc a1 d7 2e 3d
       0.5291387 0.0037918184 -0.012022557 0.04268611
0001e0 d8 69 58 3f f2 82 59 3c b0 e8 22 3c 2e 62 b3 bb
       0.84536505 0.013275849 0.009943172 -0.0054743504
0001f0 e5 c9 61 bb 66 65 b8 bc 3e 43 d6 3a 68 75 e6 3d
       -0.0034452614 -0.022509288 0.0016346944 0.11252862
000200 4f 3b 23 bf 5d 32 fb bf 07 ed e4 3c 62 7a 54 3f
       -0.6376237 -1.9624745 0.027945055 0.8299924
000210 dc c0 ec bb 56 1d a0 3c 64 b3 4b 3f 61 1d 00 3c
       -0.007225139 0.019545238 0.79570603 0.0078195045
000220 9b 9e 38 3f 95 82 cc 3c 53 0d b4 bc 7c dc 7a 3c
       0.7211701 0.02496461 -0.02197901 0.015311357
000230 5d f6 3f bd d3 08 91 bf 8b 36 be 3c bb 17 a1 3f
       -0.04686581 -1.1330818 0.023219367 1.2585367
000240 3d c3 6e 3c 0a 84 a2 bc c1 74 04 3d d7 23 83 bc
       0.014572916 -0.019838352 0.032337908 -0.0160083
000250 0f c8 e9 3e b8 e8 af bc cd 37 cd bc d7 53 fd 3b
       0.45660445 -0.021473274 -0.025051022 0.0077309418
000260 c1 22 1d bd 7b ee c3 bc 11 d4 44 3c bd 10 14 3c
       -0.038363222 -0.023917427 0.012013451 0.009037194
000270 d7 4d 3c 3c dc e6 d5 bf 0d 8b 0c 3b f2 44 a7 3b
       0.011493168 -1.6711078 0.0021445185 0.0051046545
000280 3a 99 56 3c f7 bf 33 bb 77 68 f9 be 49 43 2d 3d
       0.0130980555 -0.0027427652 -0.48712513 0.042300496
000290 f7 d4 12 be 23 e2 0f 3d d9 22 22 bd 26 98 96 3e
       -0.14339052 0.03512777 -0.039584015 0.29412955
0002a0 be 0c c0 3c 45 3f 83 bc e4 f4 3c bc 46 df 7d bc
       0.023443576 -0.01602138 -0.011532996 -0.015495127
0002b0 23 a0 4b bd 3d 93 28 bc ce ab 52 3e 20 e2 34 3c
       -0.049713265 -0.010289011 0.20573351 0.0110402405
0002c0 b6 62 a7 3e 31 dc 5f 3f 6b ee dd 3e dc 30 6c 3c
       0.32692498 0.8744536 0.4334596 0.014415946
0002d0 a8 cb d3 bb 5c a4 85 bf b8 38 29 bf 8e 4e 96 bf
       -0.0064634867 -1.0440784 -0.6610217 -1.1742723
0002e0 7a e1 b9 3b 0a c4 11 3c a7 27 73 bf 89 07 88 3c
       0.005672631 0.008896837 -0.9498238 0.016605156
0002f0 5e 1f 9d 3e bb 10 9f 3c b6 f4 9b bc 2c 3f d9 3c
       0.30687994 0.019417157 -0.019037586 0.02651938
000300 c3 f6 0a bc 6d 05 8a 3c 26 ef 81 bc a0 e1 e1 bc
       -0.008481684 0.01684829 -0.015861105 -0.027573407
000310 62 ff 0b bd 56 06 13 bc f1 89 df bc 67 ad fc 3f
       -0.0341791 -0.008973679 -0.027287455 1.9740418
000320 b4 5a 16 bf 32 94 38 3f 8a d4 13 3d 56 55 09 bc
       -0.5873215 0.7210113 0.036091365 -0.008382162
000330 e6 2e 24 bd 3c 44 60 bc 42 fb 5e bc 15 e1 03 3d
       -0.04008379 -0.013688143 -0.013609709 0.032197077
000340 7c 97 b5 bb bb a4 c0 3f 3f d7 fe 3c 10 ce 2d b7
       -0.00554174 1.5050272 0.031108497 -1.0359581e-05
000350 d2 60 b6 3e ae 81 54 bc ce a3 18 3c ed 12 7a 3c
       0.35620743 -0.012970371 0.009316398 0.015263301
000360 91 6a 1e 3c 42 1f 11 bd 1b 4a 6e 3c 0c 05 99 3b
       0.009668962 -0.0354302 0.014544035 0.004669791
000370 9c 69 cb bc ec 2c 41 bd 3a 75 b2 3e 93 d9 fd ba
       -0.024830632 -0.04716198 0.34855062 -0.001936721
000380 f8 d9 e0 bc d7 32 80 bb 27 68 19 bb a9 0a e9 3c
       -0.027447686 -0.0039123106 -0.0023408027 0.028447466
000390 85 e8 33 3b 7f f1 f0 3e 73 d6 02 3d 94 39 0e 3c
       0.0027451825 0.47059247 0.031942796 0.00868072
0003a0 7a 44 23 3c 2f 1c ae 3c 2a 8a 18 bf 47 f1 c8 3c
       0.009965057 0.021253673 -0.5958582 0.024529113
0003b0 0d a9 bb bb ce 2a 80 3c f0 6b 8a bb 25 3e 83 3b
       -0.0057269395 0.01564541 -0.004224293 0.004005211
0003c0 a8 10 b6 bc 5d a5 0b 3d 2a 97 c6 3e 97 3f fc bf
       -0.02222474 0.03409325 0.38787204 -1.9706906
0003d0 0f 72 15 3f eb 7b 4d 3f 64 7d d6 bc a0 a4 15 3e
       0.58377165 0.8026721 -0.026182838 0.1461358
0003e0 9e 1d 26 bf c0 5e f6 3c 95 08 9b bb 43 37 ad 3c
       -0.6488894 0.030074477 -0.0047312477 0.021144515
0003f0 f6 de d9 3c 4a 44 38 40 12 9e b1 3c 7f c2 ba bf
       0.026595574 2.879168 0.02168182 -1.4590605

conv_layers.1.lin_dst.weight f4 [128, 128]
000000 d0 22 58 3e 7c de 93 bd 23 9d 09 bc 27 d5 4d 3d
       0.2110703 -0.0722017 -0.008399281 0.050252106
000010 07 51 c4 bb 6c b0 3f 3b e1 fd 7b 3f 8f a8 46 3b
       -0.0059911045 0.0029249443 0.98434263 0.003031287
000020 00 a8 76 be bf c6 33 3b 91 08 12 bb 59 e4 bf bc
       -0.24087524 0.0027431694 -0.0022282938 -0.023424314
000030 18 ae 6f 3c dc d7 9e 3e db 0c 9c bc 6d 1e f5 be
       0.0146289095 0.31024063 -0.019049099 -0.47874776
000040 36 66 af 3b c2 7f f1 3b 7d b5 23 bb 57 9e a3 3b
       0.0053527607 0.0073699662 -0.0024980002 0.004993241
000050 89 44 74 bd 93 eb d9 3b f7 6a 8c 3a ad 17 26 3c
       -0.059635673 0.006650397 0.001071303 0.010137481
000060 db 37 dd 3a 9a f5 1a 3c 67 03 82 3b 8d c1 c2 bb
       0.0016877608 0.00945797 0.0039676907 -0.005943483
000070 e0 62 1e bc 17 2f 7c 3f e8 8a 74 ba a0 8f 28 bb
       -0.009667128 0.98509353 -0.000932856 -0.0025720373
000080 9d 82 82 3b c7 1b 86 3a 9f 6e 83 be 89 26 41 ba
       0.0039828555 0.0010231667 -0.25670335 -0.0007368108
000090 41 b5 d8 be d6 43 ac 3b c2 2e 32 bc 1e 91 c0 bd
       -0.42325786 0.00525711 -0.010875406 -0.09402679
0000a0 b7 dc b5 3b 26 6b 16 bc a5 4a 0d 3c f3 35 22 3b
       0.005549993 -0.00918082 0.008623754 0.0024751395
0000b0 80 7e 86 3b c4 de 42 3c 29 2a 41 3e 6e 5e 59 bc
       0.0041044354 0.011893932 0.18863739 -0.013267143
0000c0 70 ed 94 be 75 2b 51 be cd 74 a9 be a0 67 80 ba
       -0.290874 -0.20426734 -0.33096924 -0.0009796508
0000d0 c0 16 ad bc 80 1e 8b bf 68 c8 3f bf 34 17 a0 bf
       -0.021129012 -1.0868683 -0.7491517 -1.2507081
0000e0 6c 3e dc 3a 41 c1 24 3b 6b 6a ca be 60 71 0c 3c
       0.0016803271 0.0025139602 -0.39534315 0.008571953
0000f0 27 c1 5a bd f0 b9 a2 3d 4f 08 c3 3b b9 25 4f 3a
       -0.05340686 0.07945621 0.005951918 0.00079020445
000100 3f 74 4e 3b 83 bd 63 3b 90 0e 99 bc 1a 38 b3 bb
       0.0031502394 0.003475041 -0.018683702 -0.0054693343
000110 b8 c0 05 bc 4b 2b 0c bb a7 39 44 3c 99 48 40 be
       -0.0081636235 -0.002138811 0.011976636 -0.18777694
000120 76 06 cc 3e 30 a7 9d 3f a5 b3 26 3c b6 8c 90 bb
       0.3984868 1.2316647 0.0101746665 -0.0044113053
000130 92 87 60 bc a6 f8 f0 37 fd 2c 2e bb 05 64 f0 3b
       -0.0137041975 2.8726015e-05 -0.0026577108 0.007336142
000140 a5 44 6a 3b b2 58 12 be 60 bd 22 bb 8e 9b f7 bb
       0.0035746482 -0.14291647 -0.0024832115 -0.0075563854
000150 bd 9b 03 bf a3 68 01 bc ea c5 cf b9 02 1d 6f 3b
       -0.5140951 -0.0078984825 -0.00039629574 0.0036485796
000160 91 7d 91 bb a3 61 96 bc a7 e8 5a bb dd 34 d5 3b
       -0.0044400175 -0.018357104 -0.0033402832 0.006506546
000170 a9 c3 69 bb 93 13 8a bc fc 14 4f 3e 77 5d 13 3c
       -0.00356696 -0.016855037 0.20222849 0.008994452
000180 e1 e6 e2 3d e9 1f 79 3b 14 52 4c bc f4 1a 3c bb
       0.11079193 0.0038013405 -0.012470741 -0.0028702589
000190 cd 72 ac bc 69 d3 fe bc ab 24 fd bb 35 4b 5f 39
       -0.021050835 -0.031106668 -0.0077253184 0.00021294954
0001a0 70 dd 2a 3c c3 dc ec 38 f0 f0 19 bf ba 6c 85 3b
       0.010428771 0.00011294477 -0.60133266 0.004071799
0001b0 1c 1c ab 3c e7 d9 e7 3b 69 ef 3c bc 0f 6b 0e 3b
       0.020887427 0.0070755365 -0.011531689 0.0021731292
0001c0 fb 06 f3 3b 85 e7 8f 3d db c7 a4 3d 4f 02 6d be
       0.0074166036 0.07026581 0.08045932 -0.23145412
0001d0 a2 75 07 3f 28 80 78 3b 42 fa 44 bc a1 d7 2e 3d
       0.5291387 0.0037918184 -0.012022557 0.04268611
0001e0 d8 69 58 3f f2 82 59 3c b0 e8 22 3c 2e 62 b3 bb
       0.84536505 0.013275849 0.009943172 -0.0054743504
0001f0 e5 c9 61 bb 66 65 b8 bc 3e 43 d6 3a 68 75 e6 3d
       -0.0034452614 -0.022509288 0.0016346944 0.11252862
000200 4f 3b 23 bf 5d 32 fb bf 07 ed e4 3c 62 7a 54 3f
       -0.6376237 -1.9624745 0.027945055 0.8299924
000210 dc c0 ec bb 56 1d a0 3c 64 b3 4b 3f 61 1d 00 3c
       -0.007225139 0.019545238 0.79570603 0.0078195045
000220 9b 9e 38 3f 95 82 cc 3c 53 0d b4 bc 7c dc 7a 3c
       0.7211701 0.02496461 -0.02197901 0.015311357
000230 5d f6 3f bd d3 08 91 bf 8b 36 be 3c bb 17 a1 3f
       -0.04686581 -1.1330818 0.023219367 1.2585367
000240 3d c3 6e 3c 0a 84 a2 bc c1 74 04 3d d7 23 83 bc
       0.014572916 -0.019838352 0.032337908 -0.0160083
000250 0f c8 e9 3e b8 e8 af bc cd 37 cd bc d7 53 fd 3b
       0.45660445 -0.021473274 -0.025051022 0.0077309418
000260 c1 22 1d bd 7b ee c3 bc 11 d4 44 3c bd 10 14 3c
       -0.038363222 -0.023917427 0.012013451 0.009037194
000270 d7 4d 3c 3c dc e6 d5 bf 0d 8b 0c 3b f2 44 a7 3b
       0.011493168 -1.6711078 0.0021445185 0.0051046545
000280 3a 99 56 3c f7 bf 33 bb 77 68 f9 be 49 43 2d 3d
       0.0130980555 -0.0027427652 -0.48712513 0.042300496
000290 f7 d4 12 be 23 e2 0f 3d d9 22 22 bd 26 98 96 3e
       -0.14339052 0.03512777 -0.039584015 0.29412955
0002a0 be 0c c0 3c 45 3f 83 bc e4 f4 3c bc 46 df 7d bc
       0.023443576 -0.01602138 -0.011532996 -0.015495127
0002b0 23 a0 4b bd 3d 93 28 bc ce ab 52 3e 20 e2 34 3c
       -0.049713265 -0.010289011 0.20573351 0.0110402405
0002c0 b6 62 a7 3e 31 dc 5f 3f 6b ee dd 3e dc 30 6c 3c
       0.32692498 0.8744536 0.4334596 0.014415946
0002d0 a8 cb d3 bb 5c a4 85 bf b8 38 29 bf 8e 4e 96 bf
       -0.0064634867 -1.0440784 -0.6610217 -1.1742723
0002e0 7a e1 b9 3b 0a c4 11 3c a7 27 73 bf 89 07 88 3c
       0.005672631 0.008896837 -0.9498238 0.016605156
0002f0 5e 1f 9d 3e bb 10 9f 3c b6 f4 9b bc 2c 3f d9 3c
       0.30687994 0.019417157 -0.019037586 0.02651938
000300 c3 f6 0a bc 6d 05 8a 3c 26 ef 81 bc a0 e1 e1 bc
       -0.008481684 0.01684829 -0.015861105 -0.027573407
000310 62 ff 0b bd 56 06 13 bc f1 89 df bc 67 ad fc 3f
       -0.0341791 -0.008973679 -0.027287455 1.9740418
000320 b4 5a 16 bf 32 94 38 3f 8a d4 13 3d 56 55 09 bc
       -0.5873215 0.7210113 0.036091365 -0.008382162
000330 e6 2e 24 bd 3c 44 60 bc 42 fb 5e bc 15 e1 03 3d
       -0.04008379 -0.013688143 -0.013609709 0.032197077
000340 7c 97 b5 bb bb a4 c0 3f 3f d7 fe 3c 10 ce 2d b7
       -0.00554174 1.5050272 0.031108497 -1.0359581e-05
000350 d2 60 b6 3e ae 81 54 bc ce a3 18 3c ed 12 7a 3c
       0.35620743 -0.012970371 0.009316398 0.015263301
000360 91 6a 1e 3c 42 1f 11 bd 1b 4a 6e 3c 0c 05 99 3b
       0.009668962 -0.0354302 0.014544035 0.004669791
000370 9c 69 cb bc ec 2c 41 bd 3a 75 b2 3e 93 d9 fd ba
       -0.024830632 -0.04716198 0.34855062 -0.001936721
000380 f8 d9 e0 bc d7 32 80 bb 27 68 19 bb a9 0a e9 3c
       -0.027447686 -0.0039123106 -0.0023408027 0.028447466
000390 85 e8 33 3b 7f f1 f0 3e 73 d6 02 3d 94 39 0e 3c
       0.0027451825 0.47059247 0.031942796 0.00868072
0003a0 7a 44 23 3c 2f 1c ae 3c 2a 8a 18 bf 47 f1 c8 3c
       0.009965057 0.021253673 -0.5958582 0.024529113
0003b0 0d a9 bb bb ce 2a 80 3c f0 6b 8a bb 25 3e 83 3b
       -0.0057269395 0.01564541 -0.004224293 0.004005211
0003c0 a8 10 b6 bc 5d a5 0b 3d 2a 97 c6 3e 97 3f fc bf
       -0.02222474 0.03409325 0.38787204 -1.9706906
0003d0 0f 72 15 3f eb 7b 4d 3f 64 7d d6 bc a0 a4 15 3e
       0.58377165 0.8026721 -0.026182838 0.1461358
0003e0 9e 1d 26 bf c0 5e f6 3c 95 08 9b bb 43 37 ad 3c
       -0.6488894 0.030074477 -0.0047312477 0.021144515
0003f0 f6 de d9 3c 4a 44 38 40 12 9e b1 3c 7f c2 ba bf
       0.026595574 2.879168 0.02168182 -1.4590605
