embd_32_nHead_4_nlayer_2_Batch_50.pth (torch, 75199 bytes, 11 tensors)

conv_layers.0.att_src f4 [1, 4, 32]
00000000: a6af 253e f5ae c5be 79ad 463e 6cbc 46be
00000010: 4035 a33e d2d2 36bd fb96 3cbe 834f 143d
00000020: 3f35 b43e a6e0 813e 5979 f0be ee1f b9be
00000030: 72bd e2be 94ab 373d 50aa e1bd cfa7 383e
00000040: 5a6b be3e 1ec7 873c b3fd 6ebe aa86 f8bb
00000050: 2863 f53d c889 d8be 6f79 10be 5948 bc3e
00000060: 25c6 abbd 6530 87be b722 1e3e 2ff0 87be
00000070: 2377 b03e 0f2f 473d c7ab b0bd bcf8 12bc
00000080: 537e 03bf 70d5 cebe 59d8 91be a1dc 053d
00000090: 8f04 38bc 24f2 4c3c 934e 8abd f99c a93e
000000a0: 2089 1abe 25d6 973e b685 ae3e 3f7c 4a3e
000000b0: d863 d3be ffc8 cf3d 6437 fcbe c03e abbe
000000c0: bf88 3bbd ca91 743e 4853 66be 98c6 263e
000000d0: 1f91 a93e 4819 d23e c8cf 843e f360 cf3d
000000e0: 8203 523d afff 1dbe 0e13 6bbe c9be 75be
000000f0: 0496 783e eec4 b93d 6572 ecbe e68d babe
00000100: 90a7 083e d09b cabe 795a 073e bd89 febe
00000110: bed5 5e3c 40c7 8b3d c040 ec3e affa 583e
00000120: b0cc e73e c624 14bd 23ba f33d 1bf5 593d
00000130: c6d3 443e fbae 2a3d f9b3 b6bd a437 e6be
00000140: 2b51 1bbe 1fbc 37be 1532 31bd 5109 44be
00000150: 784c 453e 57f1 f13e 50bd 143e cbcf dbbe
00000160: b304 8e3d 9778 23be 5b98 e0be 69f4 6abe
00000170: 245d f83e 6bee ccbc 96ce 06bc a2b6 49be
00000180: 2981 21be 9203 1fbe 28cf 0dbe 7293 983e
00000190: 9a72 d13d 3a42 aebe db04 9cbe a6ba 103e
000001a0: 383b d63d 404e d43e edd5 e53b 6f22 083f
000001b0: 6ff5 253e 391d 98be be20 9d3d 7d48 1c3e
000001c0: 1949 02bf 9251 8dbe 20d7 a4be 0c05 31bd
000001d0: 447f d13c 0106 71be 4a16 953e 7ac2 e93e
000001e0: dbca 363e 5a29 c4be 3ee6 86be e1d5 e33e
000001f0: de5c 833e aaab cebe b96b 763e 7895 a53e
0.16180286 -0.38610044 0.19402112 -0.19407815 0.31876564 -0.044634648 -0.1841697 0.03620864
0.35196874 0.25366706 -0.4696758 -0.36157173 -0.4428516 0.044841364 -0.11018813 0.18032764
0.37191278 0.016574439 -0.23338966 -0.0075844126 0.11981803 -0.4229262 -0.14108823 0.36773947
-0.083874024 -0.2640411 0.1544293 -0.26550433 0.34465894 0.048628863 -0.08626514 -0.008970436
-0.5136463 -0.40397215 -0.28485373 0.03268111 -0.011231556 0.012508903 -0.06753268 0.33127573
-0.15091372 0.29655567 0.34086388 0.19773959 -0.41287112 0.10145759 -0.4926101 -0.33446312
-0.045784708 0.23883739 -0.22492707 0.16286695 0.3311853 0.41034913 0.25939775 0.101259135
0.051272877 -0.15429567 -0.22956488 -0.2399856 0.24275976 0.090707645 -0.46181026 -0.36436385
0.1334517 -0.39572 0.13218106 -0.4971446 0.013600765 0.06825113 0.4614315 0.21189378
0.45273352 -0.036167882 0.11900737 0.053212266 0.1922141 0.04167078 -0.08921046 -0.44964325
-0.15167682 -0.17942856 -0.043260653 -0.19144179 0.19267452 0.4725444 0.14525342 -0.4293197
0.0693449 -0.1596397 -0.43866238 -0.22944798 0.4850856 -0.02501603 -0.008227965 -0.19698575
-0.15771927 -0.15528706 -0.13848555 0.29799992 0.10226937 -0.34034902 -0.30472454 0.141337
0.10460514 0.4146595 0.0070140273 0.5317754 0.16206907 -0.29709795 0.07672261 0.15262027
-0.5089279 -0.27601296 -0.32195377 -0.043217704 0.02557338 -0.23537447 0.29118568 0.45656186
0.1785082 -0.383128 -0.26347536 0.44499114 0.2565679 -0.40365344 0.2406453 0.32340598

conv_layers.0.att_dst f4 [1, 4, 32]
00000000: 4e44 543e 0eec 99bd 08f5 1bbe 8e7d ffbc
00000010: f1df 993e 1589 a53e da44 3fbe 1235 b53e
00000020: 5f13 97be 932d a7be 9c46 2cbd f764 383e
00000030: 024e eabd 8094 a9bd 2d5b 5cbe 3fa4 233e
00000040: 3a2a 4abd 2a41 343e f8a4 cfbe cd02 eabd
00000050: 99e7 533e bc92 bbbe 9b92 babe 4d57 a0bd
00000060: 2653 24be c12d 4abc af0a 063e ff77 753e
00000070: bb2d e4bd f1fa ec3d 8b1c b9be 8c1e 9e3e
00000080: 5f80 4dbe 709b 5b3e cf92 83be faa2 aebe
00000090: 5c64 3a3e e13f 9dbe 602a 123e 8b3b 91be
000000a0: 9562 813e 8e09 59be 7bee a1be 0520 78be
000000b0: dfb9 9dbe 4ed1 bf3e 1189 d0bd 8646 903e
000000c0: 6a91 853e 93e0 81be 8f5e 4d3e 7af3 0ebe
000000d0: f563 9bbe 3792 82be d02b 193e 8704 7dbe
000000e0: 7840 23bd 9cef c9be 1506 313e 9ddd 9abc
000000f0: 2b5c 0bbe 66ed bcbe e4a8 9e3e ec6d 57be
00000100: 8d0a e1be 760f 71be c18d 2dbe 12c7 bfbc
00000110: 7e54 f6bd 69bd e2bd 9f4b aebe 59f7 1b3c
00000120: 40b6 1e3e f60b 78be bcaa c1be 4327 afbc
00000130: 1b7d 47bc 84ac 64bc 7a55 9cbe 7308 903e
00000140: efe8 e3bc d84b 14be b7d8 a83d 7908 c2be
00000150: deea a1be 49fd 96be 33bc 9abc 11ad 393e
00000160: ea26 06be e4a4 a83e 27a5 213e 3a28 6cbe
00000170: f2ea 99be 4909 9d3d 337a 163e 8d11 c4be
00000180: 4331 36bd 0bba 8b3e 4212 99bd aa3d 20be
00000190: 6108 c33d b781 0b3e 7359 ad3e e7dc 9abd
000001a0: dea7 0cbe 3182 223e 5928 533e 2d7a 943e
000001b0: 7de6 933e 6604 d63e 2220 0bbe 0e5d 26be
000001c0: 8afd a03e f1e8 6fbe 3f41 d93e 2f2a 62be
000001d0: 3539 4f3e a459 993d f060 d4be 46bc e5bc
000001e0: 308e a4be a415 b23e 04e0 65be bbd2 4b3d
000001f0: fe20 ab3e 154e a63e f192 c03e 4a6d 743d
0.20729181 -0.07515727 -0.15230191 -0.031187799 0.30053666 0.32331148 -0.18678609 0.35392052
-0.29506966 -0.32651958 -0.042059526 0.18007265 -0.1144066 -0.08280277 -0.21519156 0.15980624
-0.049356677 0.17602983 -0.4055555 -0.114263155 0.20693816 -0.36635387 -0.36439976 -0.07829151
-0.16047344 -0.01234001 0.13090013 0.23971556 -0.11141535 0.11571301 -0.3615459 0.3088268
-0.20068501 0.21446013 -0.25697944 -0.34108716 0.18202347 -0.30712798 0.14273977 -0.2836574
0.25270525 -0.21195051 -0.3162726 -0.24230964 -0.3080587 0.37464374 -0.10182393 0.28178805
0.26087505 -0.2536665 0.20055602 -0.13960066 -0.303497 -0.25502178 0.1495812 -0.24708758
-0.039856404 -0.3944062 0.17287476 -0.018904502 -0.13609378 -0.3689987 0.30988228 -0.21038026
-0.43953362 -0.23541054 -0.16948606 -0.023410354 -0.12027834 -0.11071283 -0.3404207 0.0095194215
0.1549921 -0.24223313 -0.37825572 -0.021381026 -0.012175824 -0.013957147 -0.30533963 0.28131446
-0.027821032 -0.14482057 0.0824446 -0.3789709 -0.31624502 -0.29490116 -0.018888569 0.18132426
-0.13100782 0.32938302 0.15785657 -0.2306222 -0.30062062 0.07667787 0.14695053 -0.3829464
-0.044480573 0.27290377 -0.074741855 -0.15648523 0.095230825 0.13623701 0.33857307 -0.07561665
-0.13735911 0.15869977 0.2062086 0.28999463 0.28886786 0.4180023 -0.13586476 -0.16246435
0.31443435 -0.23428704 0.4243259 -0.22086404 0.20236667 0.07487801 -0.41480207 -0.028043877
-0.3213973 0.34782135 -0.22448736 0.049761515 0.3342361 0.32481447 0.37612107 0.05967454

conv_layers.0.bias f4 [128]
00000000: 190f 0bbe d330 0fbe f181 f13d 1d65 d53d
00000010: 051e 0c3e 69e8 e8bd 1e68 233e d053 d33d
00000020: dd35 c23d d3f9 c63d c105 c6bd 077f d1bd
00000030: e367 dfbd ffab 23be afb7 bfbd 94a3 ae3d
00000040: 23fc e53d 4a85 e33d 2cb5 db3d 1cfb 04be
00000050: f8a7 063e 112a fcbd 85ab 63be f2db fb3d
00000060: 07d0 003e 9b02 88be 72d1 20be d53e e3bd
00000070: 4bbc 0dbe 9f17 5ebe fd19 13be 0062 fdbd
00000080: 2026 1dbe 74bd b5be ee40 77be 09f9 e63d
00000090: ca01 0e3e 7874 ee3d 5970 b8bd 4990 c43d
000000a0: f9e7 e43d b1ba f3bd cd33 0f3e 385b c0bd
000000b0: 8187 94bd 704e 133e 3f18 1cbe a875 d8bb
000000c0: b974 b13d 49ca 3e3c de42 b83d 0199 f7bd
000000d0: cded 133e cda9 043e f1ea c33d e760 113e
000000e0: ca0f e43d e786 dcbd 1fec 003e 72e1 efbd
000000f0: 7b37 25be d83c a7bd 415a ffbd eae2 a9be
00000100: 5c6e 19be d7b3 00be 3479 cebd acf6 48bd
00000110: 40e8 0dbe 7824 d1bd e725 123e a8e0 c63d
00000120: 60f9 ad3d ee44 fabd 7bd5 e5bd 27db d9bd
00000130: ee50 0ebe a2a3 b4bd 1792 d83d 9c43 febd
00000140: 1787 c4bd dc91 f43d 964c 073e 6722 ca3d
00000150: e6ae 0d3e 1d06 0f3e 5bb5 bf3c f7b0 0bbe
00000160: 0bb6 afbd 4ac6 043e 7adc bfbd a466 e1bd
00000170: f520 a53d 0b14 e53d 1059 edbd 00d5 27be
00000180: d2b9 2dbe 7864 003e d741 d0bd fe2e ee3d
00000190: 5755 ee3d 7eef 03be 0040 da3d b23c e43d
000001a0: 86b8 28be 5271 c63d 9650 fbbd f6fd fa3d
000001b0: acaa 1a3e 0bc7 b03d 7891 c53d c3ba 1ebe
000001c0: e368 37be 4a28 1cbe b807 12be 18cb 00be
000001d0: 05e6 da3d 6326 f43d 2702 42be 558e 1f3e
000001e0: e0bb d7bd 6e4a aebd 5c5f 0b3e 84e5 053e
000001f0: 1480 a83d ec2c fabd ae78 d03d 8bc9 b13d
-0.13579978 -0.13983469 0.117923625 0.104196765 0.13683327 -0.11372454 0.15957686 0.1031872
0.0948293 0.09715619 -0.09669066 -0.10229307 -0.10908487 -0.1598358 -0.09361207 0.08527294
0.11229732 0.11109407 0.10727915 -0.12986416 0.13150012 -0.12312711 -0.22233398 0.122978106
0.12579356 -0.26564488 -0.15704897 -0.11095969 -0.1384136 -0.21688698 -0.14365382 -0.12372208
-0.15346575 -0.35496104 -0.24145862 0.112779684 0.1386787 0.116433084 -0.090058036 0.09597833
0.11177058 -0.11900843 0.13984604 -0.093923986 -0.07252408 0.1438539 -0.15243624 -0.0066058226
0.08664841 0.011644908 0.08997129 -0.1208973 0.14446183 0.12955399 0.09566296 0.14197122
0.11135824 -0.10767918 0.12590073 -0.11712922 -0.16134445 -0.08165902 -0.124683864 -0.33180934
-0.14983505 -0.12568603 -0.100817114 -0.04906337 -0.13858128 -0.10212034 0.14272271 0.097108185
0.0849483 -0.122201785 -0.11222359 -0.10637503 -0.1389806 -0.08820273 0.105747394 -0.12415239
-0.09596079 0.11941883 0.13212809 0.09869843 0.1383625 0.13967176 0.023401907 -0.13641725
-0.08579644 0.12966266 -0.093682244 -0.11005905 0.08062927 0.111854635 -0.11589253 -0.16389847
-0.16965416 0.12538326 -0.10168808 0.11630057 0.11637371 -0.12884328 0.10656738 0.11144389
-0.1647664 0.09689583 -0.1227123 0.122554705 0.15104169 0.086317144 0.096468866 -0.15500931
-0.17911105 -0.15249744 -0.14260757 -0.12577474 0.10688404 0.11921384 -0.18946134 0.15581639
-0.10533881 -0.0851029 0.13610595 0.13075835 0.08227554 -0.122155994 0.10179268 0.086810194

conv_layers.0.lin_src.weight f4 [128, 4]
00000000: 25a5 a2bc 0b11 9cbe 74f4 82be dbb6 dabd
00000010: 0c6c edbd a352 96be ef6e 63be a3a6 463e
00000020: 7365 8c3e 19c3 a83e 9818 583e 6a68 3a3e
00000030: c61c c73d 1e9d d23c 0ea2 643e d831 d3bc
00000040: bad4 753e 6bd6 c83d a74e 723e 1ee4 763d
00000050: d280 34be a6e8 35bd 1b6b a3bd 4f80 30be
00000060: 31ec 283e 7f44 983e b464 643e ff01 0cbe
00000070: 32bc 393b 9f18 873e ad5d a43e 0d10 27bd
00000080: 704e b33e 44bb 4bbd bb20 8f3e 2bea b73a
00000090: 3bea 5a3e 37e7 633e 4b9d 443e 7129 9c3d
000000a0: ef21 91bd 7255 67be cefe 3ebe 4564 383e
000000b0: e942 64bd f3c7 32be ca81 73be fc21 2f3d
000000c0: 10db 03be dfd5 0fbe 967c 28be 6dde 79bc
000000d0: caa2 21be a47a dbbe ebf0 3dbe 78d6 4ebd
000000e0: 34c4 83be a98a 6cbd 23f8 38be d404 01be
000000f0: 8440 133e 0d7b 33bd 3c12 943e be3f 413e
00000100: 47d7 ac3d a70a d43c 4872 9f3e 93ef 4dbd
00000110: fea9 283e 90e4 78bd 36c1 8f3e 0759 a33c
00000120: 77b9 7f3e 0716 3e3e 59dc 413e a86a 0cbe
00000130: 4d5a 6abe a9f7 e2bd 1d21 93be eb4c f3bb
00000140: f914 ad3d 2fa1 813e 6256 573e c63e ebbb
00000150: 3c29 babe 75dd 84be 1e5c 25be b747 ccbd
00000160: a8ab 18be 9b7e e3bd cffe 6fbe 9b3a 85be
00000170: ae08 673e 04aa 163e e272 8a3e 7831 10bd
00000180: 437a 923d 7584 5e3e 31aa 993e b9a8 813e
00000190: fa1b 4dbe 5117 1ebf 9fa8 93be 56eb febd
000001a0: 97d9 15bd c6c0 6dbe c2ba 1cbe e18d 80be
000001b0: 1991 47be e9f6 0fbe 1bc0 12be 32e7 08be
000001c0: 5dcd 6abe 99a1 243c 3303 33be 50bd 8fbe
000001d0: 949a 8dbe 0128 78be 6377 58be 0d9e 803c
000001e0: a7af 83bd 1433 81be e44b 89be c7d3 2e3e
000001f0: 3331 abbe 6a06 b0be 2fb5 21be f7c5 aa3d
00000200: 9de1 2dbe 618a 49be ed29 03be bb37 233e
00000210: a8d7 98be 146a 32bf ebe7 b5be f860 fa3d
00000220: a776 d6bd b2d3 e2be ed42 40be 2e26 023e
00000230: d8f5 443e 3e82 813e 774c 493e 6e48 c93d
00000240: 6384 4a3e 159d 173e f556 143e 0af8 ad3d
00000250: 8b80 1a3e 70e5 a33e fbdd 0f3e 3ae5 e53c
00000260: ddba 46be 0a72 41be 996d 97be 887b 41be
00000270: 38bb 743e 81a3 413e 77b4 7d3e 8801 73be
00000280: b12f e1bd 0b13 50bd 3f7d 813e 4172 263e
00000290: 848e 65be 14c8 0bbe a331 40be c584 5ebc
000002a0: 9d51 983e 4474 5c3e b4e0 703e 514e 26be
000002b0: 9cff 9ebd fd0f 87be 38e2 9bbe e8e1 adbd
000002c0: 8c3e 75be 2ea1 d93c 5cb5 53be 4c5b 783e
000002d0: 30db 9d3e c975 cf3d 633c 2a3e b643 0a3e
000002e0: 946d bebe cd61 6abd 27d0 04be 0c91 35bd
000002f0: 4321 80be 05a1 efbd bdd4 75be c126 97bd
00000300: 55de 3a3e 95a2 3b3e d271 953e e01c 773e
00000310: f3ef 3e3e bf4c 693e caff 003e e881 50bd
00000320: 330f d93d dd89 163e 359c 6a3e d114 253e
00000330: baaf dabd 6149 00be cbfa afbe aa54 8bbe
00000340: 1fac 173e a096 23bd 51da 643e 4faf 9fbe
00000350: 69d0 023d 376b 3abd 8f34 523e b999 54be
00000360: 0ade 5fbc 0bcd 383e 21ea 883e 47cb 623e
00000370: 295f 283e ac6a afbc 2a61 6e3e 5875 86be
00000380: f5cc d23d 9321 ae3d 0a67 4c3e 5b9c 2a3d
00000390: cbc3 77be 9ec0 a2be 4cec 51be 0435 ce3d
000003a0: 193a 333e ba6f 3b3e bf90 a33e 190c 9bbc
000003b0: 0687 26be f60b 64be d3f5 5abe 30d8 433e
000003c0: 899e b53c eaea 0fbd 5973 61be cb9e 68bd
000003d0: 1c13 3bbe 9dcc 73be f1c8 88be 3e2d 2fbe
000003e0: f9a2 10be 360d 86be 56d2 91be c988 fa3d
000003f0: cf12 f5be 5bbf e2be 2c94 8dbe cbe2 3b3d
-0.019854138 -0.30481753 -0.25577128 -0.10679408 -0.11592874 -0.29359922 -0.22210287 0.19399504
0.2742115 0.32961348 0.21103132 0.18203893 0.09722285 0.025709685 0.22327444 -0.025780603
0.2400693 0.09806522 0.23662816 0.060276143 -0.17627266 -0.044411324 -0.07979413 -0.17236446
0.1649635 0.29739758 0.2230404 -0.13672636 0.0028340933 0.26385972 0.3210272 -0.04078679
0.3502078 -0.049739137 0.2795466 0.001403158 0.21378414 0.2225617 0.19200628 0.07625092
-0.070865504 -0.22591189 -0.18651888 0.18007 -0.055727873 -0.17459087 -0.2377998 0.04275702
-0.12876534 -0.14046429 -0.16453776 -0.015250784 -0.15784755 -0.42867005 -0.18548934 -0.050497502
-0.2573563 -0.057749424 -0.18063407 -0.12599498 0.1438008 -0.043818522 0.28920162 0.18871972
0.084394984 0.025883986 0.31141877 -0.050277304 0.16471097 -0.06076485 0.28077096 0.019939912
0.24973093 0.1856309 0.18931712 -0.13712561 -0.2288601 -0.11082394 -0.287362 -0.007424941
0.08451266 0.25318286 0.21029046 -0.007179114 -0.36359584 -0.25950208 -0.16148421 -0.09974616
-0.14909232 -0.111081325 -0.23437046 -0.26021275 0.22561905 0.14713293 0.27040774 -0.035203427
0.07152226 0.21730216 0.30012658 0.25324038 -0.20030203 -0.6175433 -0.28839585 -0.124472305
-0.036584463 -0.23218068 -0.15305617 -0.25108245 -0.19488944 -0.14059032 -0.14331095 -0.13369444
-0.22929902 0.0100482935 -0.17481689 -0.2807412 -0.27656996 -0.2423401 -0.21139292 0.015700364
-0.064299874 -0.25234282 -0.26815712 0.17072974 -0.33435974 -0.34379894 -0.15791772 0.0833854
-0.16980596 -0.19681694 -0.12808962 0.15939228 -0.29852033 -0.6969311 -0.35528502 0.122255266
-0.1047185 -0.44302136 -0.1877553 0.12709877 0.19234407 0.2529468 0.19658075 0.09828268
0.19777064 0.14806016 0.14486296 0.08494575 0.15088098 0.32010984 0.14049523 0.028063405
-0.1940722 -0.18891159 -0.29575804 -0.1889478 0.23899543 0.18910028 0.24775873 -0.23731053
-0.109954245 -0.05079941 0.25290868 0.16254522 -0.22417647 -0.13650542 -0.18768935 -0.013581459
0.29749766 0.21528727 0.23523217 -0.16240813 -0.07763597 -0.26379386 -0.3044603 -0.08490354
-0.23949641 0.026566114 -0.20674652 0.24253577 0.3083129 0.101298876 0.16624598 0.13502392
-0.37192976 -0.057222176 -0.12970029 -0.04432778 -0.25025377 -0.11700634 -0.24006934 -0.073804386
0.18248875 0.18323739 0.291884 0.24132109 0.18646221 0.22783183 0.12597576 -0.05090514
0.10598602 0.14701028 0.22911151 0.16121222 -0.106780484 -0.12527992 -0.34371027 -0.2721303
0.14811753 -0.03993857 0.22348906 -0.31188437 0.031937037 -0.045512404 0.20527862 -0.20761766
-0.013663778 0.18046968 0.26741126 0.22147857 0.1644255 -0.02141317 0.23279253 -0.262614
0.10292999 0.085024975 0.19961181 0.04165302 -0.24195783 -0.3178758 -0.20500296 0.10068706
0.17502631 0.18304339 0.3194637 -0.018926667 -0.16262445 -0.22270188 -0.21382837 0.19125438
0.022170322 -0.03513614 -0.22016658 -0.05679206 -0.18269008 -0.23808523 -0.26715806 -0.17107102
-0.14124669 -0.26181954 -0.28480786 0.12233121 -0.47865912 -0.44286618 -0.2765211 0.045870584

conv_layers.0.lin_dst.weight f4 [128, 4]
00000000: 25a5 a2bc 0b11 9cbe 74f4 82be dbb6 dabd
00000010: 0c6c edbd a352 96be ef6e 63be a3a6 463e
00000020: 7365 8c3e 19c3 a83e 9818 583e 6a68 3a3e
00000030: c61c c73d 1e9d d23c 0ea2 643e d831 d3bc
00000040: bad4 753e 6bd6 c83d a74e 723e 1ee4 763d
00000050: d280 34be a6e8 35bd 1b6b a3bd 4f80 30be
00000060: 31ec 283e 7f44 983e b464 643e ff01 0cbe
00000070: 32bc 393b 9f18 873e ad5d a43e 0d10 27bd
00000080: 704e b33e 44bb 4bbd bb20 8f3e 2bea b73a
00000090: 3bea 5a3e 37e7 633e 4b9d 443e 7129 9c3d
000000a0: ef21 91bd 7255 67be cefe 3ebe 4564 383e
000000b0: e942 64bd f3c7 32be ca81 73be fc21 2f3d
000000c0: 10db 03be dfd5 0fbe 967c 28be 6dde 79bc
000000d0: caa2 21be a47a dbbe ebf0 3dbe 78d6 4ebd
000000e0: 34c4 83be a98a 6cbd 23f8 38be d404 01be
000000f0: 8440 133e 0d7b 33bd 3c12 943e be3f 413e
00000100: 47d7 ac3d a70a d43c 4872 9f3e 93ef 4dbd
00000110: fea9 283e 90e4 78bd 36c1 8f3e 0759 a33c
00000120: 77b9 7f3e 0716 3e3e 59dc 413e a86a 0cbe
00000130: 4d5a 6abe a9f7 e2bd 1d21 93be eb4c f3bb
00000140: f914 ad3d 2fa1 813e 6256 573e c63e ebbb
00000150: 3c29 babe 75dd 84be 1e5c 25be b747 ccbd
00000160: a8ab 18be 9b7e e3bd cffe 6fbe 9b3a 85be
00000170: ae08 673e 04aa 163e e272 8a3e 7831 10bd
00000180: 437a 923d 7584 5e3e 31aa 993e b9a8 813e
00000190: fa1b 4dbe 5117 1ebf 9fa8 93be 56eb febd
000001a0: 97d9 15bd c6c0 6dbe c2ba 1cbe e18d 80be
000001b0: 1991 47be e9f6 0fbe 1bc0 12be 32e7 08be
000001c0: 5dcd 6abe 99a1 243c 3303 33be 50bd 8fbe
000001d0: 949a 8dbe 0128 78be 6377 58be 0d9e 803c
000001e0: a7af 83bd 1433 81be e44b 89be c7d3 2e3e
000001f0: 3331 abbe 6a06 b0be 2fb5 21be f7c5 aa3d
00000200: 9de1 2dbe 618a 49be ed29 03be bb37 233e
00000210: a8d7 98be 146a 32bf ebe7 b5be f860 fa3d
00000220: a776 d6bd b2d3 e2be ed42 40be 2e26 023e
00000230: d8f5 443e 3e82 813e 774c 493e 6e48 c93d
00000240: 6384 4a3e 159d 173e f556 143e 0af8 ad3d
00000250: 8b80 1a3e 70e5 a33e fbdd 0f3e 3ae5 e53c
00000260: ddba 46be 0a72 41be 996d 97be 887b 41be
00000270: 38bb 743e 81a3 413e 77b4 7d3e 8801 73be
00000280: b12f e1bd 0b13 50bd 3f7d 813e 4172 263e
00000290: 848e 65be 14c8 0bbe a331 40be c584 5ebc
000002a0: 9d51 983e 4474 5c3e b4e0 703e 514e 26be
000002b0: 9cff 9ebd fd0f 87be 38e2 9bbe e8e1 adbd
000002c0: 8c3e 75be 2ea1 d93c 5cb5 53be 4c5b 783e
000002d0: 30db 9d3e c975 cf3d 633c 2a3e b643 0a3e
000002e0: 946d bebe cd61 6abd 27d0 04be 0c91 35bd
000002f0: 4321 80be 05a1 efbd bdd4 75be c126 97bd
00000300: 55de 3a3e 95a2 3b3e d271 953e e01c 773e
00000310: f3ef 3e3e bf4c 693e caff 003e e881 50bd
00000320: 330f d93d dd89 163e 359c 6a3e d114 253e
00000330: baaf dabd 6149 00be cbfa afbe aa54 8bbe
00000340: 1fac 173e a096 23bd 51da 643e 4faf 9fbe
00000350: 69d0 023d 376b 3abd 8f34 523e b999 54be
00000360: 0ade 5fbc 0bcd 383e 21ea 883e 47cb 623e
00000370: 295f 283e ac6a afbc 2a61 6e3e 5875 86be
00000380: f5cc d23d 9321 ae3d 0a67 4c3e 5b9c 2a3d
00000390: cbc3 77be 9ec0 a2be 4cec 51be 0435 ce3d
000003a0: 193a 333e ba6f 3b3e bf90 a33e 190c 9bbc
000003b0: 0687 26be f60b 64be d3f5 5abe 30d8 433e
000003c0: 899e b53c eaea 0fbd 5973 61be cb9e 68bd
000003d0: 1c13 3bbe 9dcc 73be f1c8 88be 3e2d 2fbe
000003e0: f9a2 10be 360d 86be 56d2 91be c988 fa3d
000003f0: cf12 f5be 5bbf e2be 2c94 8dbe cbe2 3b3d
-0.019854138 -0.30481753 -0.25577128 -0.10679408 -0.11592874 -0.29359922 -0.22210287 0.19399504
0.2742115 0.32961348 0.21103132 0.18203893 0.09722285 0.025709685 0.22327444 -0.025780603
0.2400693 0.09806522 0.23662816 0.060276143 -0.17627266 -0.044411324 -0.07979413 -0.17236446
0.1649635 0.29739758 0.2230404 -0.13672636 0.0028340933 0.26385972 0.3210272 -0.04078679
0.3502078 -0.049739137 0.2795466 0.001403158 0.21378414 0.2225617 0.19200628 0.07625092
-0.070865504 -0.22591189 -0.18651888 0.18007 -0.055727873 -0.17459087 -0.2377998 0.04275702
-0.12876534 -0.14046429 -0.16453776 -0.015250784 -0.15784755 -0.42867005 -0.18548934 -0.050497502
-0.2573563 -0.057749424 -0.18063407 -0.12599498 0.1438008 -0.043818522 0.28920162 0.18871972
0.084394984 0.025883986 0.31141877 -0.050277304 0.16471097 -0.06076485 0.28077096 0.019939912
0.24973093 0.1856309 0.18931712 -0.13712561 -0.2288601 -0.11082394 -0.287362 -0.007424941
0.08451266 0.25318286 0.21029046 -0.007179114 -0.36359584 -0.25950208 -0.16148421 -0.09974616
-0.14909232 -0.111081325 -0.23437046 -0.26021275 0.22561905 0.14713293 0.27040774 -0.035203427
0.07152226 0.21730216 0.30012658 0.25324038 -0.20030203 -0.6175433 -0.28839585 -0.124472305
-0.036584463 -0.23218068 -0.15305617 -0.25108245 -0.19488944 -0.14059032 -0.14331095 -0.13369444
-0.22929902 0.0100482935 -0.17481689 -0.2807412 -0.27656996 -0.2423401 -0.21139292 0.015700364
-0.064299874 -0.25234282 -0.26815712 0.17072974 -0.33435974 -0.34379894 -0.15791772 0.0833854
-0.16980596 -0.19681694 -0.12808962 0.15939228 -0.29852033 -0.6969311 -0.35528502 0.122255266
-0.1047185 -0.44302136 -0.1877553 0.12709877 0.19234407 0.2529468 0.19658075 0.09828268
0.19777064 0.14806016 0.14486296 0.08494575 0.15088098 0.32010984 0.14049523 0.028063405
-0.1940722 -0.18891159 -0.29575804 -0.1889478 0.23899543 0.18910028 0.24775873 -0.23731053
-0.109954245 -0.05079941 0.25290868 0.16254522 -0.22417647 -0.13650542 -0.18768935 -0.013581459
0.29749766 0.21528727 0.23523217 -0.16240813 -0.07763597 -0.26379386 -0.3044603 -0.08490354
-0.23949641 0.026566114 -0.20674652 0.24253577 0.3083129 0.101298876 0.16624598 0.13502392
-0.37192976 -0.057222176 -0.12970029 -0.04432778 -0.25025377 -0.11700634 -0.24006934 -0.073804386
0.18248875 0.18323739 0.291884 0.24132109 0.18646221 0.22783183 0.12597576 -0.05090514
0.10598602 0.14701028 0.22911151 0.16121222 -0.106780484 -0.12527992 -0.34371027 -0.2721303
0.14811753 -0.03993857 0.22348906 -0.31188437 0.031937037 -0.045512404 0.20527862 -0.20761766
-0.013663778 0.18046968 0.26741126 0.22147857 0.1644255 -0.02141317 0.23279253 -0.262614
0.10292999 0.085024975 0.19961181 0.04165302 -0.24195783 -0.3178758 -0.20500296 0.10068706
0.17502631 0.18304339 0.3194637 -0.018926667 -0.16262445 -0.22270188 -0.21382837 0.19125438
0.022170322 -0.03513614 -0.22016658 -0.05679206 -0.18269008 -0.23808523 -0.26715806 -0.17107102
-0.14124669 -0.26181954 -0.28480786 0.12233121 -0.47865912 -0.44286618 -0.2765211 0.045870584

conv_layers.1.att_src f4 [1, 4, 32]
00000000: b6b4 edbe ca7c 1ebe 8680 ae3e e411 8ebe
00000010: 4b00 84be 3287 8cbe c003 d13d 1586 c03c
00000020: 9cda b23d c68f 75be c10a b73d fcbd 063e
00000030: 2cf4 1ebd 17d1 4b3d 9cc0 853e d505 b9bd
00000040: a353 acbe fc85 cabe a5f3 1e3e 6d46 633e
00000050: 6cf9 bd3d 374c dcbe 1ebb 9f3e cbbf ddbe
00000060: 7c9e 11be 8f89 8b3e be0b bb3d 9765 ee3e
00000070: 9f1b 36be 73e9 1cbe ab0c 703e 57d6 9dbe
00000080: ec71 41be b41a 52be 0112 d83e 697b 7cbe
00000090: 3490 6cbe 450b a0be c250 d93e cf34 05be
000000a0: be04 9cbe 156e 643d 8d1c ae3e ef6c 013e
000000b0: c3f1 cbbd 7af1 3bbe 6d08 91bd 6dba dd3e
000000c0: a83c 91be 46aa cfbe 89c3 b7bd 7a23 9abe
000000d0: 44e6 5bbe d76e e8be bfac 65bd 4fdf 8cbd
000000e0: d1a0 3a3e 045e 4dbe 7496 103e c806 28bd
000000f0: 7fc0 363e 6437 3fbe 6543 b2be 600d 72be
00000100: 4430 8b3e 9679 bc3e 6ff4 29be be47 b43d
00000110: cd59 1b3e 173d 483e 037c 69be 0524 7dbc
00000120: 5f50 8fbe 6bb8 983e 9acf aa3e 45e6 0f3e
00000130: a91c b8be 3d29 98be 1065 12be fae9 9bbd
00000140: 0d2b b73e 8802 763e f8b5 ffbc b38b b13e
00000150: ab40 ad3c dd3d 213e 283e 843c f34b 4fbe
00000160: e03d c23d d601 40ba 5956 8e3e 238b a93d
00000170: feab 6a3e 6ec8 153e 3b3d 9b3e 5ac7 d1be
00000180: cb9e f5bd 52c9 67be 6e9b c03c 1f00 983c
00000190: 91f9 8a3e 348f 473d bdab 11be 7bfd 7ebe
000001a0: 10e7 dfbd 2bc9 203e 975e cb3e 5b97 bf3a
000001b0: 1fdb 163e 2d5a 34bc fe6b bebe 6993 3dbe
000001c0: 3879 843e 60bf f2be 42cc 383e 2f87 07be
000001d0: 88ec 1b3d 6955 f9bd 6129 83be e9f9 94bd
000001e0: 3727 b03d a958 e83d b3a1 1e3e 9d56 883e
000001f0: 102c 2a3e 2c96 12be d57c 2f3e b9c1 13be
-0.46426934 -0.15477291 0.3408243 -0.27748024 -0.25781474 -0.27446896 0.102057934 0.023501435
0.08733103 -0.23980626 0.08937598 0.13158411 -0.03880708 0.04975995 0.26123512 -0.090343155
-0.3365756 -0.39555347 0.1552263 0.22194834 0.09276089 -0.43026897 0.31197447 -0.4331039
-0.14220613 0.27253386 0.09133099 0.46561882 -0.17783974 -0.15323429 0.23442332 -0.3082759
-0.18891114 -0.20517999 0.42201236 -0.24656452 -0.23101884 -0.31258598 0.42444426 -0.13008426
-0.30472368 0.055769045 0.34006158 0.12639211 -0.09958222 -0.18353835 -0.07081685 0.43306294
-0.2836659 -0.40559596 -0.08972842 -0.3010519 -0.21474558 -0.45397064 -0.056072947 -0.0687853
0.18225409 -0.20055395 0.14119893 -0.041022092 0.17846869 -0.18673474 -0.34817043 -0.23637915
0.2718526 0.36811513 -0.1659715 0.08802746 0.15170975 0.19554554 -0.22801213 -0.015450482
-0.27991006 0.298282 0.33361512 0.14052685 -0.35959366 -0.29718962 -0.14296365 -0.07612987
0.35775033 0.24024403 -0.0312147 0.34676895 0.021149 0.15746255 0.01614292 -0.20243816
0.09484458 -0.00073244923 0.27800253 0.08278491 0.22917172 0.14627239 0.30320153 -0.40972406
-0.11993178 -0.22635391 0.023511615 0.018554745 0.2714353 0.048720554 -0.14225669 -0.24901383
-0.109327435 0.1570174 0.39720604 0.0014617251 0.14732026 -0.011007828 -0.37191767 -0.18513264
0.25873733 -0.47411633 0.18046668 -0.13235162 0.03806737 -0.12174494 -0.25617507 -0.07274229
0.0860123 0.113450356 0.15491371 0.2662858 0.16618371 -0.14315099 0.17137463 -0.14429368

conv_layers.1.att_dst f4 [1, 4, 32]
00000000: aa23 1d3e e8f1 4ebe d200 a33d e4c1 3ebd
00000010: a5f0 c9be 2dd9 3f3e 0208 c0be 4e5a 51bb
00000020: c585 8cbe e653 0c3d be24 33be ca22 dabd
00000030: b9d7 82bd 3bbe b8be 8019 9dbe d7fb a73e
00000040: 611f 15bd fcc3 a8be b4c5 62bc c399 463e
00000050: 3b16 77bd 3be4 91be 689f 40bd 7f9b a73e
00000060: 67c9 823e baac 06be 09bc bbbe ff5f 903d
00000070: 91d8 c63d 657e b93e 6f0a 36bc d33e f83d
00000080: 2346 b5be 87ad 5d3e 7700 493e 5588 933d
00000090: 3185 bebe 6347 8a3e 75c3 94be 19b2 f13d
000000a0: 8fc2 ba3e f5d3 12bd 656c 853e 26e8 d33e
000000b0: 2e24 b0be 0657 183d 0b2d 823d de7d b2be
000000c0: 9ee7 79bc 348d 33be 58ec d33c b562 c03e
000000d0: 36e5 41bb 5dbd 8ebe f3bb 55bb a90e 373e
000000e0: 9447 30be d31f 0abe d244 62be 7730 3fbd
000000f0: c492 9cbe b7d4 283d 43f2 ab3e 7a24 803e
00000100: 80cb 5bbd a168 a03e d099 34bd e51c d6be
00000110: f349 acbe 93cd 833e 4856 bdbe 65bd ab3e
00000120: 6051 01be 3522 123e f9d4 a63e e109 febc
00000130: c9e7 adbe 5638 acbd a201 10be dfae e73d
00000140: 3010 54be 6fd7 91bd b126 a9be 0629 d3bd
00000150: 94dd b63e 9445 01be a20b a03e 4ef4 93be
00000160: 8837 583e 6f0e e13e ff0b 6a3d 7a2b d1be
00000170: 7e13 ad3e 1f8d b5be 047a e4bd 6da5 c53d
00000180: fc8b 9fbe e4be 3fbe a41e 193e 61ed 953e
00000190: 4fd6 54bd c3c6 be3e 5289 c63d aea5 903e
000001a0: 068d 4a3e 9c4e a13e 28eb 8a3e 5576 c5be
000001b0: 749f c53e dd85 ccbe ee2c a2be 3cd2 e83d
000001c0: 46f2 85bd e821 98be d176 1b3e 0e6d 14be
000001d0: 0b4e adbd 8ae1 00be 6bc4 a53d 449d 713d
000001e0: 25bb c73c 2421 76be b8bd 4ebe dc38 cfbe
000001f0: dc83 6abe c837 98bd f55b 8b3d 6686 8dbd
0.15345636 -0.20209467 0.07959141 -0.046571627 -0.3944141 0.1873519 -0.3750611 -0.0031944695
-0.27445808 0.0342597 -0.17494485 -0.10651167 -0.06388802 -0.36082634 -0.30683517 0.32809326
-0.03640688 -0.32962024 -0.013841081 0.19394593 -0.060323935 -0.2849444 -0.04702702 0.32735822
0.25544283 -0.13151827 -0.36666897 0.0704956 0.097092755 0.36229244 -0.011110886 0.12121358
-0.35405073 0.21648227 0.19629084 0.07203738 -0.37210992 0.2700759 -0.29055372 0.118015476
0.3647656 -0.03584667 0.2605926 0.41388053 -0.34402603 0.037192367 0.063562475 -0.34861654
-0.015252976 -0.17534333 0.025869533 0.37575307 -0.0029586083 -0.27878848 -0.0032613247 0.17876686
-0.17214805 -0.13488702 -0.22096565 -0.04667708 -0.30580723 0.041218486 0.3358327 0.2502783
-0.05366087 0.31329826 -0.044092 -0.4181892 -0.3365017 0.25742778 -0.3697989 0.33542934
-0.12628698 0.14270861 0.3258436 -0.03101057 -0.339659 -0.08409183 -0.14063123 0.11312651
-0.207093 -0.07121169 -0.33037332 -0.10310559 0.35715926 -0.12624198 0.31258875 -0.28897327
0.21114933 0.43956324 0.057140347 -0.40853482 0.33803934 -0.3545923 -0.11156085 0.09650693
-0.31161487 -0.18725163 0.14953095 0.29282668 -0.051962193 0.37261018 0.096941605 0.28251404
0.19780359 0.31505287 0.27132535 -0.38566843 0.38598216 -0.3994588 -0.31674904 0.11368224
-0.065403506 -0.29713368 0.15182044 -0.14494726 -0.08462151 -0.12586036 0.080941044 0.05898787
0.02438123 -0.2403608 -0.2018956 -0.40473068 -0.22901863 -0.074325144 0.06804649 -0.069104

conv_layers.1.bias f4 [128]
00000000: 1173 7abd 5f79 643d 4851 393d e629 693d
00000010: e51c 9cbd d756 80bd d6dd 513d 63ac 553d
00000020: 8383 86bd a413 6dbd e134 653d 9ff0 743d
00000030: 1c2e 53bd 9b74 9a3d 04fa 83bd a187 783d
00000040: 285d 5abd 7dd2 63bd ef8d 78bd e51c 71bd
00000050: 2e84 4fbd ed06 75bd 2943 953d 2ea5 84bd
00000060: 9f83 54bd b38b 95bd e7a9 503d 47e2 9c3d
00000070: 6425 67bd ae55 8bbd 52f1 68bd 93cf 49bd
00000080: d5ec 92bd c62f 5a3d 238d 733d 77b0 5b3d
00000090: 082b 8cbd 4ef7 6fbd 9df4 743d f1b0 523d
000000a0: 51bf 59bd 5252 54bd 79f2 653d bc87 773d
000000b0: 7541 48bd 59ae 3b3d 3b3c 67bd a7e1 6d3d
000000c0: f00d 7abd 1909 6cbd 0826 77bd f55a 42bd
000000d0: e1ed 78bd ac85 59bd 0654 813d 1562 71bd
000000e0: 4db3 5bbd f708 97bd 3d34 1f3d cda5 6f3d
000000f0: 21ad 6bbd d59c 6abd 858f 5abd ba64 44bd
00000100: dd03 5dbd b366 5c3d cc68 3e3d ee94 513d
00000110: 3cb6 7abd f814 6ebd 94d2 463d 445e 733d
00000120: 0401 56bd 8b0e 56bd 251e 863d 4080 803d
00000130: bb84 83bd 9357 5a3d 2feb 7bbd 0375 573d
00000140: 085e 5cbd 1a35 60bd c9ee 61bd cd62 87bd
00000150: c6c4 77bd 3ec2 5fbd 6cd4 7f3d 0160 8abd
00000160: 3cd8 42bd 02d5 99bd fb5e 713d 816a 823d
00000170: cf27 45bd a711 68bd a17d 99bd 56ab 3ebd
00000180: 20fa 84bd ffe7 783d 9ba7 823d 802f 943d
00000190: 49d7 7bbd 2107 6ebd f541 513d 7632 703d
000001a0: 49ed 5abd 13f6 68bd 9216 873d 2129 503d
000001b0: 25a9 48bd 986c 643d 36df 60bd d716 693d
000001c0: 65af 46bd f766 54bd 9dd6 5abd 4754 7cbd
000001d0: 7280 63bd 012c 7bbd 067c 623d 505a 80bd
000001e0: d0c7 47bd db4d 96bd 4b33 613d a75e 4f3d
000001f0: 3b0b 83bd ee00 80bd 2a6e 7fbd 115c 77bd
-0.061144892 0.05577981 0.04524353 0.056924723 -0.07622699 -0.062665634 0.05123695 0.052166354
-0.065680526 -0.05788006 0.055958632 0.059799787 -0.051557645 0.07541772 -0.06444171 0.06067622
-0.053311497 -0.05562066 -0.060682233 -0.058865447 -0.050663166 -0.059821058 0.072882004 -0.06476818
-0.051883336 -0.07302036 0.05094328 0.076603465 -0.056432143 -0.068034515 -0.056870766 -0.049270224
-0.071740784 0.053268217 0.05946077 0.053635087 -0.06844145 -0.058585458 0.059803594 0.051438276
-0.05316097 -0.05183632 0.056139443 0.06043218 -0.04889055 0.045820568 -0.056453925 0.058076527
-0.061048448 -0.057625864 -0.060339004 -0.047450025 -0.060773734 -0.053105995 0.06314854 -0.05893143
-0.05363779 -0.07374757 0.038868178 0.05850773 -0.057538155 -0.057278473 -0.053359527 -0.047947623
-0.053958762 0.05380888 0.04648666 0.05116742 -0.06120895 -0.058125466 0.048540667 0.05941607
-0.052247062 -0.052259963 0.06548718 0.06274462 -0.06421801 0.053306174 -0.061503585 0.052601825
-0.053800613 -0.05473814 -0.055159364 -0.06610642 -0.060490392 -0.054628603 0.06245844 -0.067565925
-0.0475695 -0.07511331 0.05892847 0.0636797 -0.048133668 -0.05665746 -0.07494665 -0.046550117
-0.0649302 0.060768124 0.063796245 0.072356224 -0.06148461 -0.058112267 0.051088292 0.058641873
-0.05344895 -0.0568753 0.06596102 0.050820474 -0.048989434 0.055767626 -0.05490037 0.056906547
-0.048507113 -0.051856007 -0.053427327 -0.06160381 -0.055542417 -0.061321262 0.05529406 -0.06267226
-0.04877454 -0.073390685 0.054980557 0.050627377 -0.063986264 -0.06250177 -0.06236092 -0.060390536

conv_layers.1.lin_src.weight f4 [128, 128]
00000000: 47a5 a73d 880d 1f3e be37 d63c a2d6 8c3c
00000010: 1862 afbd a614 5ebc 042f 053d d2ba b8bd
00000020: 0b83 c1bd 442e 58be 5175 f73c 2ad5 133e
00000030: f3a2 973d cc3f 0e3e c7c9 74bd 1233 16be
00000040: 98a4 1c3d c7f3 a83d 9667 103d 454e 193e
00000050: c077 5a3d aca5 733d 45c9 f03d bbb0 443d
00000060: 420f 09be eaf1 053f 485b 683e b229 35bc
00000070: fe49 333e b2d4 5e3d c3ba 083e 575a f23d
00000080: 7276 2b3e 84a3 e23e b5bd a63e c95c 37be
00000090: 147f 1ebe bf73 f03c 64ed 693d a0d3 2abe
000000a0: d37d 013d 2025 15bc 2dcb 20be 3cd2 3d3e
000000b0: cb96 d63c 21fd 7dbe 7bb0 4c3e 1181 523e
000000c0: ee62 2ebe aca4 93bd 92a8 0cbe 2226 853d
000000d0: 47c1 c5bc 528d 3b3b 761a 15be 29aa 10be
000000e0: 8d75 993c 8881 023d dcea c8bc 6ad2 1c3c
000000f0: 89d1 a7bd 2efe 01bd e0cf ab3d 88f4 a43e
00000100: 642d 6d3e dca0 53bb 6287 003d d3bf dfbc
00000110: ae96 fdbc 7862 0a3e 5d68 88bd 8986 14be
00000120: a987 f5bc a9dd 2e3c 826d da3d 5a0d f63d
00000130: 730f 103d e10f 3e3e bcc4 2ebe eff3 bd3d
00000140: 807a ef3d 46f0 5abd dd78 8abe a45c fabd
00000150: 6994 5cbe 4276 17be d894 403c ef17 c33d
00000160: 12a3 b2bc a259 883c a446 313e 912d 353e
00000170: ea0d 29be 7824 2bbe 0d5f 073e 9194 283e
00000180: ad40 b73d 8904 b6bd 3a69 0b3d 3d4d 223b
00000190: ba9d 3ebe 9458 1b3d 4f58 b0bc beaf f43c
000001a0: be3a 533e 3aeb dfbd 3610 38bd 4127 83bd
000001b0: 689c 55be 7661 24bd f706 04be 95e2 b3bc
000001c0: 0d4a 6f3d 5c71 443e 1bdd a13d e68a 453e
000001d0: e0b9 adbc 7a4c 1cbe 2380 f0bc fc93 ec3b
000001e0: dc64 b13d 3c42 b53d 88da 0abe 9d06 2fbe
000001f0: 3c7d 853d aa14 7bbc dff3 a43c f897 28be
00000200: 354e 063d 7d81 0c3d cca9 643d 8aa9 083e
00000210: 3904 47bb 0395 cebd ee83 4dbb c30f 463e
00000220: 1628 5b3e b529 503e 6db2 443d 6295 783d
00000230: 7b7c 6bbe eaeb babd 876e 6c3d 64bd 173d
00000240: cc88 9f3c 6f69 aabc 174d 233d fa8d e8bd
00000250: 6ec0 943d 55af 81be 647e a2be 9bf1 093e
00000260: 7a00 4e3e 8d37 f7be e685 80be 9809 46bc
00000270: 11d1 b9bd f10b 78be b73c 86bd 5c08 03bd
00000280: 57ea a3be 9dbd 07bf d35d 3ebe 0ba3 85bd
00000290: 4c77 983e 6445 973d 394d e03c c46a 9e3d
000002a0: 8884 0c3d ca58 13be eec4 0abc b390 f7bd
000002b0: a68b 71bd 7741 eb3b 931f 84be a3c0 e4bd
000002c0: 7005 623d a088 323e cdeb b0bb 2401 77bb
000002d0: a92e 21bd 4200 3e3e cfb7 86bd 6dfc 4f3d
000002e0: abec 683b d2b7 8abd 394d afbd be31 adbd
000002f0: e9ef d4bd cadd 22be 85ec 26bd 9218 96be
00000300: 134f f9bd 53cc e53b d0a0 2abe b1f3 4ebe
00000310: 0912 3f3d 310b a5bd e7d1 61bd 440f 2a3e
00000320: bd30 643d 2a36 6abe 3e72 633d b445 1fbe
00000330: 9e83 43bc 428a 30be 1b5d 973b 5067 54bc
00000340: 725e a0bd 4bc2 0e3d 4c95 a33d 51b6 253e
00000350: 6af2 ac3c 0cb6 033e 10cb c0bd ced0 58be
00000360: 9198 973d 5512 a13d 1d2b 4bbd ade2 39be
00000370: a205 493e bf1b 5f3e 54a9 43be eb05 c1bd
00000380: d72a 7cbc 64c9 3d3e fd5a 69be d689 0f3e
00000390: 5d45 493e 3271 97bd 8dd0 513e fb1c 9abc
000003a0: f912 02be 4095 c23d 1d87 8abe fb70 283d
000003b0: 7d99 503e 675a 9abd 698d 0f3e 23c6 133c
000003c0: 9c22 0fbd c68e 8f3c dd5d 08be f98b a0bd
000003d0: da1a 543e b224 cd3d 12ae c03c a4ae 343d
000003e0: 96fa ab3d 70dd c4bd 6911 203e 2711 493d
000003f0: 6616 483d b968 993c 8959 233e 20e6 6b3d
0.08185821 0.15532506 0.026149627 0.017192189 -0.08563632 -0.013554728 0.03251554 -0.09020008
-0.094488226 -0.21111399 0.030207308 0.14436784 0.07404127 0.13891524 -0.059762742 -0.1466792
0.038242906 0.08249622 0.035255037 0.14971264 0.05333686 0.05948417 0.11757139 0.048020106
-0.13384727 0.52322257 0.22691071 -0.011057304 0.17508695 0.05440206 0.13352494 0.11833637
0.16744402 0.44265378 0.3256661 -0.17906488 -0.15478164 0.029352067 0.05711116 -0.16682291
0.031614136 -0.00910309 -0.15702505 0.1853723 0.02619495 -0.24803592 0.19989197 0.20557047
-0.17029926 -0.07209143 -0.1373618 0.06501414 -0.024140013 0.002861817 -0.14560875 -0.14127411
0.01873281 0.031861812 -0.024526052 0.009571651 -0.081942625 -0.031736545 0.083892584 0.32217813
0.23161846 -0.0032291925 0.03137911 -0.027313149 -0.030955639 0.13514125 -0.06660531 -0.14504446
-0.029971914 0.010672965 0.10665418 0.12014265 0.035170984 0.18560745 -0.17067236 0.09275042
0.11693287 -0.0534518 -0.27045336 -0.12224701 -0.21540989 -0.14791206 0.011754237 0.09526049
-0.021806274 0.016644303 0.17312104 0.17693163 -0.16509214 -0.1671313 0.13219853 0.16462924
0.08947883 -0.08887584 0.0340359 0.0024765276 -0.18614855 0.03792627 -0.021526484 0.029868957
0.20627877 -0.10933538 -0.044937335 -0.064039715 -0.20860445 -0.04013201 -0.12893282 -0.021958629
0.05842023 0.19183868 0.07903501 0.19291267 -0.021206796 -0.15263548 -0.029357975 0.0072197895
0.086618155 0.08850524 -0.13559926 -0.17092367 0.06518027 -0.015324751 0.020135818 -0.16464221
0.032789428 0.034303177 0.055825993 0.13345924 -0.0030367507 -0.100870155 -0.0031359154 0.1934195
0.2140201 0.2032841 0.048021723 0.060689338 -0.22996704 -0.09127028 0.057722595 0.03704585
0.01947441 -0.020802228 0.03986844 -0.11355205 0.072632656 -0.2532908 -0.31737053 0.13471071
0.2011737 -0.4828457 -0.25102156 -0.012087248 -0.090730794 -0.24223305 -0.06554549 -0.031990394
-0.32014725 -0.530237 -0.18590479 -0.065252386 0.29778516 0.07386282 0.027380573 0.07735208
0.03430608 -0.14389339 -0.008469803 -0.12088146 -0.05897107 0.007179435 -0.2580534 -0.11169555
0.055180967 0.17434931 -0.0053992034 -0.003768989 -0.03935114 0.18554786 -0.065780275 0.05077784
0.0035541456 -0.06773342 -0.08559651 -0.08456753 -0.10397322 -0.15904918 -0.040752906 -0.2931562
-0.12173285 0.0070128827 -0.16662908 -0.20210148 0.04664806 -0.08058775 -0.05513182 0.16607386
0.055710543 -0.22872224 0.05552887 -0.15553933 -0.011933235 -0.17240241 0.0046192533 -0.012964085
-0.07830514 0.03485326 0.079874605 0.1618283 0.021111686 0.12862414 -0.09413731 -0.21173403
0.074021466 0.07864825 -0.049601663 -0.18152876 0.19631055 0.21787928 -0.19107562 -0.09424957
-0.015391073 0.18533856 -0.22788616 0.14017424 0.19655366 -0.07394637 0.20489712 -0.018812647
-0.1270255 0.095011234 -0.27056208 0.04112337 0.20371051 -0.07536774 0.14018787 0.009019407
-0.034945115 0.017524134 -0.13317056 -0.07839198 0.20713368 0.10016765 0.023520503 0.044111863
0.08397405 -0.09612548 0.15631641 0.049088623 0.048849486 0.018726693 0.15952124 0.05759251

conv_layers.1.lin_dst.weight f4 [128, 128]
00000000: 47a5 a73d 880d 1f3e be37 d63c a2d6 8c3c
00000010: 1862 afbd a614 5ebc 042f 053d d2ba b8bd
00000020: 0b83 c1bd 442e 58be 5175 f73c 2ad5 133e
00000030: f3a2 973d cc3f 0e3e c7c9 74bd 1233 16be
00000040: 98a4 1c3d c7f3 a83d 9667 103d 454e 193e
00000050: c077 5a3d aca5 733d 45c9 f03d bbb0 443d
00000060: 420f 09be eaf1 053f 485b 683e b229 35bc
00000070: fe49 333e b2d4 5e3d c3ba 083e 575a f23d
00000080: 7276 2b3e 84a3 e23e b5bd a63e c95c 37be
00000090: 147f 1ebe bf73 f03c 64ed 693d a0d3 2abe
000000a0: d37d 013d 2025 15bc 2dcb 20be 3cd2 3d3e
000000b0: cb96 d63c 21fd 7dbe 7bb0 4c3e 1181 523e
000000c0: ee62 2ebe aca4 93bd 92a8 0cbe 2226 853d
000000d0: 47c1 c5bc 528d 3b3b 761a 15be 29aa 10be
000000e0: 8d75 993c 8881 023d dcea c8bc 6ad2 1c3c
000000f0: 89d1 a7bd 2efe 01bd e0cf ab3d 88f4 a43e
00000100: 642d 6d3e dca0 53bb 6287 003d d3bf dfbc
00000110: ae96 fdbc 7862 0a3e 5d68 88bd 8986 14be
00000120: a987 f5bc a9dd 2e3c 826d da3d 5a0d f63d
00000130: 730f 103d e10f 3e3e bcc4 2ebe eff3 bd3d
00000140: 807a ef3d 46f0 5abd dd78 8abe a45c fabd
00000150: 6994 5cbe 4276 17be d894 403c ef17 c33d
00000160: 12a3 b2bc a259 883c a446 313e 912d 353e
00000170: ea0d 29be 7824 2bbe 0d5f 073e 9194 283e
00000180: ad40 b73d 8904 b6bd 3a69 0b3d 3d4d 223b
00000190: ba9d 3ebe 9458 1b3d 4f58 b0bc beaf f43c
000001a0: be3a 533e 3aeb dfbd 3610 38bd 4127 83bd
000001b0: 689c 55be 7661 24bd f706 04be 95e2 b3bc
000001c0: 0d4a 6f3d 5c71 443e 1bdd a13d e68a 453e
000001d0: e0b9 adbc 7a4c 1cbe 2380 f0bc fc93 ec3b
000001e0: dc64 b13d 3c42 b53d 88da 0abe 9d06 2fbe
000001f0: 3c7d 853d aa14 7bbc dff3 a43c f897 28be
00000200: 354e 063d 7d81 0c3d cca9 643d 8aa9 083e
00000210: 3904 47bb 0395 cebd ee83 4dbb c30f 463e
00000220: 1628 5b3e b529 503e 6db2 443d 6295 783d
00000230: 7b7c 6bbe eaeb babd 876e 6c3d 64bd 173d
00000240: cc88 9f3c 6f69 aabc 174d 233d fa8d e8bd
00000250: 6ec0 943d 55af 81be 647e a2be 9bf1 093e
00000260: 7a00 4e3e 8d37 f7be e685 80be 9809 46bc
00000270: 11d1 b9bd f10b 78be b73c 86bd 5c08 03bd
00000280: 57ea a3be 9dbd 07bf d35d 3ebe 0ba3 85bd
00000290: 4c77 983e 6445 973d 394d e03c c46a 9e3d
000002a0: 8884 0c3d ca58 13be eec4 0abc b390 f7bd
000002b0: a68b 71bd 7741 eb3b 931f 84be a3c0 e4bd
000002c0: 7005 623d a088 323e cdeb b0bb 2401 77bb
000002d0: a92e 21bd 4200 3e3e cfb7 86bd 6dfc 4f3d
000002e0: abec 683b d2b7 8abd 394d afbd be31 adbd
000002f0: e9ef d4bd cadd 22be 85ec 26bd 9218 96be
00000300: 134f f9bd 53cc e53b d0a0 2abe b1f3 4ebe
00000310: 0912 3f3d 310b a5bd e7d1 61bd 440f 2a3e
00000320: bd30 643d 2a36 6abe 3e72 633d b445 1fbe
00000330: 9e83 43bc 428a 30be 1b5d 973b 5067 54bc
00000340: 725e a0bd 4bc2 0e3d 4c95 a33d 51b6 253e
00000350: 6af2 ac3c 0cb6 033e 10cb c0bd ced0 58be
00000360: 9198 973d 5512 a13d 1d2b 4bbd ade2 39be
00000370: a205 493e bf1b 5f3e 54a9 43be eb05 c1bd
00000380: d72a 7cbc 64c9 3d3e fd5a 69be d689 0f3e
00000390: 5d45 493e 3271 97bd 8dd0 513e fb1c 9abc
000003a0: f912 02be 4095 c23d 1d87 8abe fb70 283d
000003b0: 7d99 503e 675a 9abd 698d 0f3e 23c6 133c
000003c0: 9c22 0fbd c68e 8f3c dd5d 08be f98b a0bd
000003d0: da1a 543e b224 cd3d 12ae c03c a4ae 343d
000003e0: 96fa ab3d 70dd c4bd 6911 203e 2711 493d
000003f0: 6616 483d b968 993c 8959 233e 20e6 6b3d
0.08185821 0.15532506 0.026149627 0.017192189 -0.08563632 -0.013554728 0.03251554 -0.09020008
-0.094488226 -0.21111399 0.030207308 0.14436784 0.07404127 0.13891524 -0.059762742 -0.1466792
0.038242906 0.08249622 0.035255037 0.14971264 0.05333686 0.05948417 0.11757139 0.048020106
-0.13384727 0.52322257 0.22691071 -0.011057304 0.17508695 0.05440206 0.13352494 0.11833637
0.16744402 0.44265378 0.3256661 -0.17906488 -0.15478164 0.029352067 0.05711116 -0.16682291
0.031614136 -0.00910309 -0.15702505 0.1853723 0.02619495 -0.24803592 0.19989197 0.20557047
-0.17029926 -0.07209143 -0.1373618 0.06501414 -0.024140013 0.002861817 -0.14560875 -0.14127411
0.01873281 0.031861812 -0.024526052 0.009571651 -0.081942625 -0.031736545 0.083892584 0.32217813
0.23161846 -0.0032291925 0.03137911 -0.027313149 -0.030955639 0.13514125 -0.06660531 -0.14504446
-0.029971914 0.010672965 0.10665418 0.12014265 0.035170984 0.18560745 -0.17067236 0.09275042
0.11693287 -0.0534518 -0.27045336 -0.12224701 -0.21540989 -0.14791206 0.011754237 0.09526049
-0.021806274 0.016644303 0.17312104 0.17693163 -0.16509214 -0.1671313 0.13219853 0.16462924
0.08947883 -0.08887584 0.0340359 0.0024765276 -0.18614855 0.03792627 -0.021526484 0.029868957
0.20627877 -0.10933538 -0.044937335 -0.064039715 -0.20860445 -0.04013201 -0.12893282 -0.021958629
0.05842023 0.19183868 0.07903501 0.19291267 -0.021206796 -0.15263548 -0.029357975 0.0072197895
0.086618155 0.08850524 -0.13559926 -0.17092367 0.06518027 -0.015324751 0.020135818 -0.16464221
0.032789428 0.034303177 0.055825993 0.13345924 -0.0030367507 -0.100870155 -0.0031359154 0.1934195
0.2140201 0.2032841 0.048021723 0.060689338 -0.22996704 -0.09127028 0.057722595 0.03704585
0.01947441 -0.020802228 0.03986844 -0.11355205 0.072632656 -0.2532908 -0.31737053 0.13471071
0.2011737 -0.4828457 -0.25102156 -0.012087248 -0.090730794 -0.24223305 -0.06554549 -0.031990394
-0.32014725 -0.530237 -0.18590479 -0.065252386 0.29778516 0.07386282 0.027380573 0.07735208
0.03430608 -0.14389339 -0.008469803 -0.12088146 -0.05897107 0.007179435 -0.2580534 -0.11169555
0.055180967 0.17434931 -0.0053992034 -0.003768989 -0.03935114 0.18554786 -0.065780275 0.05077784
0.0035541456 -0.06773342 -0.08559651 -0.08456753 -0.10397322 -0.15904918 -0.040752906 -0.2931562
-0.12173285 0.0070128827 -0.16662908 -0.20210148 0.04664806 -0.08058775 -0.05513182 0.16607386
0.055710543 -0.22872224 0.05552887 -0.15553933 -0.011933235 -0.17240241 0.0046192533 -0.012964085
-0.07830514 0.03485326 0.079874605 0.1618283 0.021111686 0.12862414 -0.09413731 -0.21173403
0.074021466 0.07864825 -0.049601663 -0.18152876 0.19631055 0.21787928 -0.19107562 -0.09424957
-0.015391073 0.18533856 -0.22788616 0.14017424 0.19655366 -0.07394637 0.20489712 -0.018812647
-0.1270255 0.095011234 -0.27056208 0.04112337 0.20371051 -0.07536774 0.14018787 0.009019407
-0.034945115 0.017524134 -0.13317056 -0.07839198 0.20713368 0.10016765 0.023520503 0.044111863
0.08397405 -0.09612548 0.15631641 0.049088623 0.048849486 0.018726693 0.15952124 0.05759251

out.weight f4 [1, 96]
00000000: f0f9 94bf f4b6 913f 3a0b 8e3f 3e2f 873f
00000010: 48e7 94bf fc04 88bf 7876 893f 141c 8c3f
00000020: 8477 82bf 0e3b 82bf 3211 973f be50 893f
00000030: ec30 99bf 70a1 993f 5ee4 87bf 8824 973f
00000040: 247f 95bf 6272 81bf 349c 89bf b8bb 9abf
00000050: 0851 90bf f828 88bf f482 823f c2f3 81bf
00000060: 6ef3 81bf 7822 93bf de7e 853f da7c 963f
00000070: f02a 90bf 0a92 88bf 8a17 86bf e202 95bf
00000080: 48cb 98bf b2ce 813f 2685 9a3f e2de 983f
00000090: 3e00 8abf a608 8cbf 6489 933f 0e44 833f
000000a0: 48e1 99bf 538e 7fbf 2634 893f c4d9 8e3f
000000b0: d0cd 84bf ec95 883f 763b 86bf bc57 993f
000000c0: e45a 83bf fc96 8bbf dc72 96bf e231 9bbf
000000d0: 7a8c 85bf 32b0 94bf 285c 8b3f 58ba 8abf
000000e0: 4005 96bf 3475 95bf 4202 9a3f e234 9b3f
000000f0: e2bc 87bf 48ab 93bf 942c 98bf 740f 8fbf
00000100: 11c7 4b3e da55 dbbd b379 17be 1173 39be
00000110: 2595 3a3e 7b36 333e 51c2 26be b41b fcbd
00000120: 0d23 1b3e 7c59 e43d affc 31be 91b6 2dbe
00000130: 3f4b 0e3e 0338 03be fffe 103e f112 15be
00000140: 50bc b73d d688 fb3d 4e2d df3d 99a5 033e
00000150: 7662 d63d 94a6 d03d 9dfa 1abe ff69 193e
00000160: 4966 053e 7127 4b3e d038 cdbd 65be 51be
00000170: bb6f 143e 2311 263e e3c8 ff3d cbc6 043e
-1.1638775 1.1383958 1.1097176 1.0561292 -1.1633081 -1.0626521 1.0739279 1.0946069
-1.0192723 -1.0174272 1.1802123 1.0727766 -1.1968055 1.2002392 -1.0616567 1.1808023
-1.1679425 -1.0113032 -1.0750794 -1.2088537 -1.1274729 -1.0637503 1.0196214 -1.0152514
-1.0152414 -1.1494894 1.0429342 1.1756852 -1.1263103 -1.0669568 -1.0475934 -1.1641505
-1.1937037 1.0141203 1.2071884 1.1943018 -1.0781324 -1.0940139 1.1526303 1.0255144
-1.2021875 -0.99826545 1.071904 1.1160207 -1.0375309 1.0670753 -1.0486896 1.19799
-1.0262113 -1.0905452 -1.1753802 -1.2124598 -1.0433495 -1.161627 1.0887499 -1.0838118
-1.1720352 -1.1676393 1.2031939 1.2125514 -1.0604517 -1.1536646 -1.1888604 -1.1176591
0.19900157 -0.10709734 -0.14792518 -0.181103 0.18220957 0.17501251 -0.16285063 -0.123099715
0.1515009 0.1114988 -0.17381547 -0.16964175 0.13895892 -0.12814336 0.14159773 -0.14558007
0.08971465 0.12281959 0.10897313 0.12856139 0.10467999 0.10188022 -0.15134664 0.1498184
0.130273 0.19839264 -0.10020602 -0.20482786 0.14495747 0.16217475 0.12489488 0.12966458
