embd_32_nHead_4_nlayer_4_Batch_50.pth (torch, 212151 bytes, 21 tensors)

conv_layers.0.att_src f4 [1, 4, 32]
0.003727892 0.0002997959 -0.6341276 -0.0010319205 0.002190757 -0.042203363 0.0016201992 -0.73927087
-0.0015319241 0.00057049 -0.003252367 0.0009626135 0.0013537416 0.0014846587 -0.00045460663 -0.0012797504
-0.0023895155 -0.00021249743 -0.0003484443 -0.0016152959 -0.0032232506 0.00081754476 0.0013211368 0.0012807869
-0.001235025 0.002756685 0.36015818 -0.00020665908 -0.0021581566 -9.177174e-05 0.0015289506 -0.0007372742
-0.000104908984 -0.31759253 0.26971462 -0.0010662322 -0.003293261 -0.05540654 0.0014399374 -0.0033358259
0.30003792 -0.0006102309 0.0011343919 -0.0034280194 0.004070503 0.0050686267 0.22835948 -0.5763753
-0.00093998614 0.00121062 0.0023018068 0.0018967963 0.00032195024 0.17560858 -0.004963737 -0.7117781
-1.0140814 -0.0014106424 0.029607454 0.0020661685 0.6000915 0.003798456 -0.0026734257 0.003765219
-0.00070044014 -0.0061926846 0.0327085 0.0031354437 0.1559048 0.16396937 0.0031592958 -0.0018697364
-0.0022216602 0.0016526133 0.0023452386 0.0048296656 0.64543337 0.001228829 -0.0037367896 0.03661553
0.0013933718 -0.0008222743 -0.0007353809 0.00049937994 0.048531525 -0.06012103 -0.026579313 0.0009439773
-0.0023373829 -0.05184317 0.0049365456 -0.0006847938 0.001305577 0.0017066584 -0.00085573713 0.0004761926
0.0011186309 0.002512965 0.00022466025 -0.0021841007 -0.00043298147 -0.026280537 -0.7577763 0.00097022083
-0.00046847924 -0.007540854 0.0042907093 0.0014604117 0.006408172 0.00097240164 -0.0029482215 0.0067874882
0.0048363796 0.087419346 -0.0021850672 -0.0001805962 -0.9882379 -0.00019250804 0.0015101023 -0.0041786847
0.0022944272 0.0002316689 0.005059553 0.0032184788 -0.0004058943 -0.0017918382 -0.1726314 0.0009791988
00000000: a64f 743b ed2d 9d39 3056 22bf 8241 87ba
00000010: ce92 0f3b 6fdd 2cbd dd5c d43a db40 3dbf
00000020: d8ca c8ba f08c 153a aa25 55bb e657 7c3a
00000030: 0870 b13a e198 c23a 4558 eeb9 4cbd a7ba
00000040: 6b99 1cbb d8d1 5eb9 67af b6b9 56b8 d3ba
00000050: 2c3d 53bb 8050 563a ff29 ad3a 14e0 a73a
00000060: 90e0 a1ba 80a9 343b a766 b83e a0b2 58b9
00000070: dc6f 0dbb 9475 c0b8 1267 c83a a245 41ba
00000080: 9502 dcb8 7d9b a2be 0918 8a3e d1c0 8bba
00000090: c0d3 57bb f8f1 62bd 48bc bc3a df9d 5abb
000000a0: 929e 993e e7f7 1fba e0af 943a 9fa8 60bb
000000b0: db61 853b b916 a63b 11d7 693e 558d 13bf
000000c0: 6769 76ba abad 9e3a e9d9 163b ec9d f83a
000000d0: 6ecb a839 bcd2 333e d8a6 a2bb 1737 36bf
000000e0: 6bcd 81bf 4ee5 b8ba 558b f23c 8e68 073b
000000f0: 999f 193f 84ef 783b a434 2fbb e4c1 763b
00000100: be9d 37ba 01ec cabb 59f9 053d 047c 4d3b
00000110: 82a5 1f3e 96e7 273e 300c 4f3b f111 f5ba
00000120: 4699 11bb 809c d83a 93b2 193b 2c42 9e3b
00000130: 1f3b 253f a910 a13a ede4 74bb 2afa 153d
00000140: cda1 b63a e58d 57ba 94c6 40ba d2e8 023a
00000150: fec8 463d 7841 76bd dcbc d9bc 3f75 773a
00000160: c72e 19bb 8159 54bd bfc2 a13b bc83 33ba
00000170: e51f ab3a f4b1 df3a 8c53 60ba 7da9 f939
00000180: 069f 923a 8eb0 243b c792 6b39 2123 0fbb
00000190: ca01 e3b9 484a d7bc a1fd 41bf 6b56 7e3a
000001a0: 389e f5b9 4519 f7bb 1499 8c3b 496b bf3a
000001b0: a5fb d13b c5e8 7e3a f336 41bb 9469 de3b
000001c0: 7e7a 9e3b ea08 b33d 5833 0fbb 6c5e 3db9
000001d0: 29fd 7cbf fcdb 49b9 a0ee c53a 59ed 88bb
000001e0: 1a5e 163b 26ec 7239 9bca a53b 1ded 523b
000001f0: 36ce d4b9 1ddc eaba 49c6 30be 7658 803a

conv_layers.0.att_dst f4 [1, 4, 32]
0.005253303 -0.0003403518 0.099275805 -0.0023776842 -0.00036878983 0.33927983 0.0029793603 0.57759935
0.0022713542 -0.0012427643 -0.0009579894 -0.0029892337 -0.0008731834 -0.0015741631 -0.00017822611 0.0022976652
-0.0013570979 -0.0016402703 0.0028359648 -0.0025252623 -0.0022894465 -0.0010384695 -0.0019206898 0.00031731688
0.005775562 0.00023743235 0.4564317 -0.00017189763 -0.0020586215 -0.0014278777 0.0020672525 -0.0016187542
0.0025779344 0.14943585 -0.7036794 -0.00140186 -0.0061554797 -0.04548415 0.012671444 0.0017115658
0.4771703 0.00021019984 0.010131688 -0.00027316465 0.0042228783 -0.012002184 -0.46066156 -0.13596638
0.0075992676 0.0029169219 -0.008397603 0.009552581 0.010156952 0.1992176 -0.001324336 -0.11174929
0.17996512 -0.0090092765 0.2006966 0.0060178856 -0.08166854 0.0030266934 0.0068569686 -0.010006138
0.07769023 -0.87313503 -0.685844 -0.13381572 0.6607775 -1.1828517 0.19708298 -0.55293405
0.0994777 -0.32337755 -0.14832255 -0.53106135 -0.37026414 -1.2163391 -0.40143847 -0.27650863
0.6890091 0.076000676 -0.2783222 0.35447 -0.047219068 0.87790585 1.2107371 0.22807327
0.06104252 0.4877706 -0.22043236 -0.24043092 0.03179574 0.37745392 -0.24251595 -0.29398662
0.059635352 0.15249643 -0.028359873 -0.053117838 0.00963948 0.0028123194 -0.16865054 -0.048799608
-0.0025362703 1.8007573 0.044004735 -0.037108034 0.023136845 0.017085956 -0.0009591589 -0.004017733
0.008835856 -1.33788 0.044463564 -0.033869505 2.0960808 0.003951017 -0.051455967 -0.059995983
0.042373143 -0.05128779 -0.049586307 0.07558288 -0.054818567 0.014260676 1.4903723 0.022040863
00000000: e623 ac3b 3f71 b2b9 1d51 cb3d ecd2 1bbb
00000010: 225a c1b9 16b6 ad3e 5f41 433b 8ddd 133f
00000020: 00db 143b 40e4 a2ba 9521 7bba 05e7 43bb
00000030: 59e6 64ba 2654 ceba 35e2 3ab9 6d94 163b
00000040: a6e0 b1ba 57fe d6ba 98db 393b df7e 25bb
00000050: 8a0a 16bb 411d 88ba a8bf fbba 8d5d a639
00000060: ed40 bd3b 43f7 7839 6ab1 e93e 6b3f 34b9
00000070: f0e9 06bb a027 bbba be7a 073b 612c d4ba
00000080: 90f2 283b b605 193e 5524 34bf 9ebe b7ba
00000090: e8b3 c9bb 974d 3abd e39b 4f3c 9e56 e03a
000000a0: aa4f f43e 1769 5c39 61ff 253c 8a37 8fb9
000000b0: 1260 8a3b cfa4 44bc d5db ebbe c53a 0bbe
000000c0: 4703 f93b d429 3f3b 1a96 09bc 6e82 1c3c
000000d0: 5869 263c b3ff 4b3e 5895 adba d0dc e4bd
000000e0: c748 383e a59b 13bc 6983 4d3e af31 c53b
000000f0: d641 a7bd 7d5b 463b 6cb0 e03b c9f0 23bc
00000100: 0e1c 9f3d c785 5fbf 7993 2fbf fd06 09be
00000110: b728 293f af67 97bf 1fd0 493e 168d 0dbf
00000120: f7ba cb3d be91 a5be dee1 17be a3f3 07bf
00000130: 4393 bdbe 00b1 9bbf 5889 cdbe 8a92 8dbe
00000140: e662 303f 3ea6 9b3d 3f80 8ebe 187d b53e
00000150: c868 41bd 70be 603f 6ff9 9a3f 0a8c 693e
00000160: b907 7a3d 11bd f93e 05b9 61be 8633 76be
00000170: 403c 023d a441 c13e 1a56 78be 6a85 96be
00000180: 3344 743d 0628 1c3e f752 e8bc 1792 59bd
00000190: e9ee 1d3c e44e 383b bab2 2cbe 19e2 47bd
000001a0: 8e37 26bb 377f e63f 4f3e 343d 98fe 17bd
000001b0: 7b89 bd3c d9f7 8b3c 1070 7bba 30a7 83bb
000001c0: 44c4 103c a73f abbf 6d1f 363d c0ba 0abd
000001d0: 3026 0640 8877 813b 7ec3 52bd 59be 75bd
000001e0: 768f 2d3d 2513 52bd 031b 4bbd 32cb 9a3d
000001f0: 6f89 60bd 9ca5 693c 85c4 be3f 0a8f b43c

conv_layers.0.bias f4 [128]
-0.0026006226 0.0018652215 -1.5354623 0.0011541178 -0.0015861515 -0.84287065 -0.0014658794 -1.2354406
-0.0015331394 -0.00025379914 -0.0021197586 -0.001992795 0.0012496979 0.0020793201 0.0006394277 0.00086758315
-0.0011580096 0.0009847302 0.00011585877 -0.0027703021 -0.00037815672 0.0037700227 0.0006695057 0.0008391851
0.00084439706 0.0010397937 0.06351778 -0.001177568 -0.001789219 0.0018132058 -0.0015051658 0.0019020173
0.0018963978 -0.33359212 0.7029619 -0.0011885606 -0.0025787428 -0.15169753 -0.004747465 0.0016617622
-1.5909573 -0.0010463804 -0.00044750824 -0.0028609734 0.0016575514 0.0016516342 0.30928913 1.332381
-0.0010498277 -0.0016854894 -0.0022304722 0.0056490633 0.001700671 -0.28448188 0.0009054649 -0.18229242
-1.1052274 0.0007429117 -1.718 0.0013982042 0.2936911 0.0021071045 0.002019768 0.00067408197
0.0012365141 -0.0022781643 -0.08162386 9.8016826e-05 -0.3190757 0.7574831 0.0012547411 0.0029816187
0.00014842913 0.0038807762 -0.00012534286 0.003746595 -0.04880368 0.00064447516 -0.000725379 1.2474462
0.0024082456 0.0009711487 0.00060197 0.0014600313 -0.345529 -0.793498 -0.3105002 0.0032085322
-0.0008310861 -0.26678136 0.00041535776 -2.6281836e-05 0.0016538461 0.0027171466 -0.002437489 -0.0018959179
0.00014664006 -0.00041327882 0.0008466691 -0.0009706778 -0.00025376526 0.10434189 -0.71583825 -0.0029430105
0.0016220297 -0.4416743 0.0022160648 -0.00081339036 3.7336167e-06 -0.00088104326 -0.0028109988 0.0018638747
-0.0008292059 1.1747751 -0.0026477664 0.00013150852 -1.0085261 -0.0017301894 -0.0005057487 0.003098244
-0.0012626585 -0.001165073 -0.0016733201 0.00091623387 0.0011152104 -0.0002225597 -1.0843171 -0.0022037185
00000000: 356f 2abb 737a f43a 078a c4bf c445 973a
00000010: 6ae6 cfba 5fc6 57bf c022 c0ba eb22 9ebf
00000020: 9ff3 c8ba 5810 85b9 a6eb 0abb 8d99 02bb
00000030: e7cc a33a 3445 083b 449f 273a 856e 633a
00000040: 5bc8 97ba 1012 813a 34f9 f238 f58d 35bb
00000050: 5643 c6b9 7c12 773b c481 2f3a c2fc 5b3a
00000060: 875a 5d3a b049 883a 9c15 823d a058 9aba
00000070: 3a84 eaba 17a9 ed3a fc48 c5ba 1c4d f93a
00000080: 8d90 f83a 96cc aabe 50f5 333f 7ac9 9bba
00000090: 2000 29bb 9956 1bbe 9f90 9bbb 7dcf d93a
000000a0: 7da4 cbbf b326 89ba 8a9f eab9 2b7f 3bbb
000000b0: 3242 d93a a67b d83a 255b 9e3e 768b aa3f
000000c0: 5f9a 89ba a4eb dcba 1d2d 12bb c71b b93b
000000d0: 0de9 de3a 9ca7 91be b95c 6d3a ddaa 3abe
000000e0: 1778 8dbf f6bf 423a 6de7 dbbf f343 b73a
000000f0: ae5e 963e 5917 0a3b 165e 043b e0b4 303a
00000100: 8712 a23a 414d 15bb 692a a7bd 628e cd38
00000110: e45d a3be 6aea 413f 2076 a43a 4367 433b
00000120: a4a3 1b39 9f54 7e3b 786e 03b9 6f89 753b
00000130: 5ee6 47bd fff1 283a 5c27 3eba 51ac 9f3f
00000140: a8d3 1d3b b094 7e3a 86cd 1d3a 855e bf3a
00000150: 2de9 b0be af22 4bbf e2f9 9ebe 3d46 523b
00000160: 3edd 59ba 9197 88be 60c4 d939 d077 dcb7
00000170: dec5 d83a 2812 323b 48be 1fbb 7380 f8ba
00000180: 64c3 1939 58ad d8b9 00f3 5d3a 1675 7eba
00000190: cc0b 85b9 33b1 d53d 2d41 37bf 86df 40bb
000001a0: 499a d43a 2223 e2be 663b 113b b439 55ba
000001b0: 0c8f 7a36 d0f5 66ba bc38 38bb 424d f43a
000001c0: 115f 59ba 085f 963f 2686 2dbb 8de5 0939
000001d0: 6217 81bf 86c7 e2ba 3994 04ba e90b 4b3b
000001e0: ca7f a5ba 5db5 98ba 4e53 dbba 6a2f 703a
000001f0: 402c 923a ea5e 69b9 e7ca 8abf 436c 10bb

conv_layers.0.lin_src.weight f4 [128, 4]
-0.0051468485 -0.004825707 -0.0023194572 -0.0016321136 0.0037039437 -0.012140955 0.0022926182 -0.00067358464
0.37345335 1.43111 0.24802858 1.3716481 -0.0075409045 -0.019135643 0.0026433263 -0.00073007756
0.008761764 -0.0033971164 -0.00012270705 -0.0017953911 -0.15508564 2.448936 0.0678253 0.72820324
-0.008229249 -0.014678833 0.0007244012 -0.0016714447 0.584156 1.8544036 0.47628495 0.22150217
0.010988168 -0.020844765 -0.0005498705 0.0005607588 0.012883397 0.024471994 -0.0029742522 0.0013335834
-0.0051850085 -0.004051674 -0.0029389584 0.0002581149 0.0028352 0.008091866 -0.0011565513 -0.0023040366
-0.0016888286 0.018789873 -0.0011473766 0.0006794888 0.0046242485 -0.008623636 0.0020251053 0.00045731
-0.011390119 -0.017530788 0.0020926187 -0.0013340067 0.011913841 0.021569658 -0.0015095923 0.0024918725
-0.010542639 -0.01143706 0.00076139916 -0.00077575876 -0.014065967 -0.01637571 0.0026923087 0.0006556271
-0.0034197038 -0.0144723505 0.0012487913 8.387983e-05 -0.012481198 0.00011031427 -0.0023366928 -0.00033884041
0.01101207 0.009814876 -0.0014872141 0.0016449603 -0.005838093 -0.0028184946 0.002113415 0.0016238911
-0.001802418 0.020206496 -0.00036034465 0.00069357135 -0.01710627 -0.017106563 0.0027843707 -0.00045867797
0.0039630523 -0.0033846567 -0.0015357449 0.0010081107 0.0002706431 0.0063363127 0.0034351575 -0.0011219021
-0.40938047 -0.64156353 0.09523653 -1.1322261 -0.017770834 -0.014151859 0.0012370428 -0.0017058557
-0.007203176 0.013527016 -0.0031088379 0.00019354398 -0.012416191 -0.008852267 0.003482894 0.0015234282
-0.01210818 -0.0097884685 0.0008123872 -0.0022248684 0.01513647 0.01266147 -0.0009371213 0.001997995
-0.03138028 0.007652105 0.0017981895 -0.0017590302 0.06783076 -2.7551396 0.18143727 0.31230798
0.39938852 -2.422796 -0.034604818 3.7274745 0.0051885894 0.010596164 -0.0013812927 0.0018061285
0.017280364 0.014308375 -0.00050213165 -0.0020280266 -1.1383432 0.6476024 -0.0063266293 0.7044559
0.0034539537 -0.01803456 -0.0017476392 0.0033289809 -0.006938987 -0.011360994 0.0022617013 -0.00011326623
0.53924894 -0.26660112 0.5427916 -0.0067237946 0.00026507242 0.006571782 -0.0010517796 -0.0020025985
-0.036916245 -0.00109149 0.0009571152 0.0071098194 -0.021462213 -0.010798327 -0.0014189123 -0.001930102
0.006269002 -0.014342132 -0.0017340909 -0.0011260031 -0.0048198686 -0.0015049375 0.00018232464 0.00080059306
-0.7137074 2.263792 -0.145748 0.6360812 0.62061274 1.0080208 -0.5414251 -0.50651485
0.01145703 0.00721102 -0.00039035227 -0.00090334355 0.004888742 -0.0034563954 0.00085695187 0.004143577
0.0061933147 -0.0016217392 0.001145142 0.0044726795 0.017816028 -0.0017070952 0.0018981653 -0.006857645
-0.023385748 0.009911945 0.0015203058 -0.0027595996 -0.39406055 -2.338685 0.16850096 -1.9414339
0.006976912 0.0031504869 -0.001465854 -0.004921111 0.5583003 -2.6653337 0.13386922 0.050829086
1.2052995 3.4128084 0.0180011 3.0791605 -0.027713945 -0.0020853688 -0.0018282532 -0.0062470767
1.1880001 1.4256979 0.26150247 -0.0430096 -0.021127531 0.0021729008 0.0026934994 0.00077934784
1.8528477 2.4604332 -0.15351409 -0.554224 0.009322442 0.01186386 0.0024756277 -0.002499145
0.018983707 -0.0018462599 0.0007406506 0.0010002308 -0.011650463 0.019371437 -0.0008039648 -0.0027478656
00000000: e5a6 a8bb f720 9ebb 0902 18bb a5ec d5ba
00000010: ddbd 723b dbea 46bc c03f 163b 8093 30ba
00000020: 4735 bf3e 9d2e b73f 34fb 7d3e 2a92 af3f
00000030: b119 f7bb 5ac2 9cbc a83b 2d3b ad62 3fba
00000040: 808d 0f3c 28a2 5ebb ecaa 00b9 5453 ebba
00000050: c5ce 1ebe 5ebb 1c40 fee7 8a3d 876b 3a3f
00000060: f9d3 06bc 7d7f 70bc bee5 3d3a 6114 dbba
00000070: 3f8b 153f 195d ed3f 9fdb f33e 77d1 623e
00000080: b807 343c a4c2 aabc 2f25 10ba e3ff 123a
00000090: e214 533c 7e79 c83c aceb 42bb a2cb ae3a
000000a0: 01e7 a9bb e8c3 84bb 8a9b 40bb 9853 8739
000000b0: c3ce 393b bf93 043c 6c97 97ba 52ff 16bb
000000c0: af5b ddba 38ed 993c 9263 96ba b91f 323a
000000d0: 0287 973b 274a 0dbc a1b7 043b 1cc3 ef39
000000e0: 9f9d 3abc ba9c 8fbc 5124 093b d6d9 aeba
000000f0: 4532 433c dab2 b03c 83dd c5ba af4e 233b
00000100: 08bb 2cbc 8262 3bbc a298 473a 4a5c 4bba
00000110: f174 66bc 5a26 86bc 7271 303b 64de 2b3a
00000120: 1c1d 60bb 701d 6dbc 7cae a33a a4e8 af38
00000130: f07d 4cbc 8658 e738 3323 19bb 64a6 b1b9
00000140: f86b 343c 93ce 203c a0ee c2ba b59b d73a
00000150: 794d bfbb 7eb6 38bb 3881 0a3b bed8 d43a
00000160: 1d3f ecba 1888 a53c a4ec bcb9 c9d0 353a
00000170: 7322 8cbc 1023 8cbc fd79 363b b77a f0b9
00000180: 7edc 813b 1ed1 5dbb 0c4b c9ba 9522 843a
00000190: 1ae5 8d39 d8a0 cf3b 6120 613b ca0c 93ba
000001a0: 519a d1be 823d 24bf 5f0b c33d c9ec 90bf
000001b0: 2494 91bc 33dd 67bc 4524 a23a 0597 dfba
000001c0: 9f08 ecbb 6ba0 5d3c a5bd 4bbb 11f2 4a39
000001d0: 486d 4bbc 1909 11bc 4441 643b c5ad c73a
000001e0: 6361 46bc d05f 20bc 62f6 543a 19cf 11bb
000001f0: f5fe 773c 0e72 4f3c 25a9 75ba cbf0 023b
00000200: 9c88 00bd 82be fa3b 3ab1 eb3a 428f e6ba
00000210: daea 8a3d 3554 30c0 b1ca 393e d5e6 9f3e
00000220: a77c cc3e 170f 1bc0 c8bd 0dbd f18e 6e40
00000230: 0b05 aa3b 889b 2d3c 7e0c b5ba 9ebb ec3a
00000240: 8d8f 8d3c ad6d 6a3c 7ca1 03ba a4e8 04bb
00000250: 3bb5 91bf 45c9 253f 9d4f cfbb 3957 343f
00000260: ba5b 623b 37bd 93bc 0a11 e5ba 082b 5a3b
00000270: 7160 e3bb 7623 3abc 0d39 143b 5889 edb8
00000280: 380c 0a3f f17f 88be 64f4 0a3f 4753 dcbb
00000290: 6bf9 8a39 1a58 d73b dedb 89ba 073e 03bb
000002a0: 7d35 17bd 5410 8fba eae6 7a3a 7df9 e83b
000002b0: 86d1 afbc 77eb 30bc ccfa b9ba 7afb fcba
000002c0: 336c cd3b 43fb 6abc 6f4a e3ba 6596 93ba
000002d0: fdef 9dbb 5341 c5ba 662e 3f39 e4de 513a
000002e0: 87b5 36bf f8e1 1040 f73e 15be 38d6 223f
000002f0: 7ae0 1e3f d306 813f d69a 0abf f5aa 01bf
00000300: 44b6 3b3c 6c4a ec3b 32a8 ccb9 5cce 6cba
00000310: be31 a03b b184 62bb 11a5 603a d8c6 873b
00000320: 4af1 ca3b 8a90 d4ba 9718 963a 8e8f 923b
00000330: ebf2 913c 9cc0 dfba dccb f83a 19b6 e0bb
00000340: 7893 bfbc b665 223c ff44 c73a 66da 34bb
00000350: 4ec2 c9be 04ad 15c0 848b 2c3e e880 f8bf
00000360: 949e e43b 6678 4e3b e621 c0ba 4541 a1bb
00000370: c5ec 0e3f d494 2ac0 0315 093e 2932 503d
00000380: 4147 9a3f 746b 5a40 0b77 933c f710 4540
00000390: 5b08 e3bc afaa 08bb ffa1 efba 47b4 ccbb
000003a0: 6310 983f 457d b63f a7e3 853e d62a 30bd
000003b0: a513 adbc 3a67 0e3b 6c85 303b 264d 4c3a
000003c0: 1d2a ed3f bd77 1d40 cc32 1dbe a0e1 0dbf
000003d0: 28bd 183c a360 423c 243e 223b b2c8 23bb
000003e0: b883 9b3c 34fe f1ba 3828 423a 2d1a 833a
000003f0: 95e1 3ebc d9b0 9e3c 2ac1 52ba 8915 34bb

conv_layers.0.lin_dst.weight f4 [128, 4]
-0.0051468485 -0.004825707 -0.0023194572 -0.0016321136 0.0037039437 -0.012140955 0.0022926182 -0.00067358464
0.37345335 1.43111 0.24802858 1.3716481 -0.0075409045 -0.019135643 0.0026433263 -0.00073007756
0.008761764 -0.0033971164 -0.00012270705 -0.0017953911 -0.15508564 2.448936 0.0678253 0.72820324
-0.008229249 -0.014678833 0.0007244012 -0.0016714447 0.584156 1.8544036 0.47628495 0.22150217
0.010988168 -0.020844765 -0.0005498705 0.0005607588 0.012883397 0.024471994 -0.0029742522 0.0013335834
-0.0051850085 -0.004051674 -0.0029389584 0.0002581149 0.0028352 0.008091866 -0.0011565513 -0.0023040366
-0.0016888286 0.018789873 -0.0011473766 0.0006794888 0.0046242485 -0.008623636 0.0020251053 0.00045731
-0.011390119 -0.017530788 0.0020926187 -0.0013340067 0.011913841 0.021569658 -0.0015095923 0.0024918725
-0.010542639 -0.01143706 0.00076139916 -0.00077575876 -0.014065967 -0.01637571 0.0026923087 0.0006556271
-0.0034197038 -0.0144723505 0.0012487913 8.387983e-05 -0.012481198 0.00011031427 -0.0023366928 -0.00033884041
0.01101207 0.009814876 -0.0014872141 0.0016449603 -0.005838093 -0.0028184946 0.002113415 0.0016238911
-0.001802418 0.020206496 -0.00036034465 0.00069357135 -0.01710627 -0.017106563 0.0027843707 -0.00045867797
0.0039630523 -0.0033846567 -0.0015357449 0.0010081107 0.0002706431 0.0063363127 0.0034351575 -0.0011219021
-0.40938047 -0.64156353 0.09523653 -1.1322261 -0.017770834 -0.014151859 0.0012370428 -0.0017058557
-0.007203176 0.013527016 -0.0031088379 0.00019354398 -0.012416191 -0.008852267 0.003482894 0.0015234282
-0.01210818 -0.0097884685 0.0008123872 -0.0022248684 0.01513647 0.01266147 -0.0009371213 0.001997995
-0.03138028 0.007652105 0.0017981895 -0.0017590302 0.06783076 -2.7551396 0.18143727 0.31230798
0.39938852 -2.422796 -0.034604818 3.7274745 0.0051885894 0.010596164 -0.0013812927 0.0018061285
0.017280364 0.014308375 -0.00050213165 -0.0020280266 -1.1383432 0.6476024 -0.0063266293 0.7044559
0.0034539537 -0.01803456 -0.0017476392 0.0033289809 -0.006938987 -0.011360994 0.0022617013 -0.00011326623
0.53924894 -0.26660112 0.5427916 -0.0067237946 0.00026507242 0.006571782 -0.0010517796 -0.0020025985
-0.036916245 -0.00109149 0.0009571152 0.0071098194 -0.021462213 -0.010798327 -0.0014189123 -0.001930102
0.006269002 -0.014342132 -0.0017340909 -0.0011260031 -0.0048198686 -0.0015049375 0.00018232464 0.00080059306
-0.7137074 2.263792 -0.145748 0.6360812 0.62061274 1.0080208 -0.5414251 -0.50651485
0.01145703 0.00721102 -0.00039035227 -0.00090334355 0.004888742 -0.0034563954 0.00085695187 0.004143577
0.0061933147 -0.0016217392 0.001145142 0.0044726795 0.017816028 -0.0017070952 0.0018981653 -0.006857645
-0.023385748 0.009911945 0.0015203058 -0.0027595996 -0.39406055 -2.338685 0.16850096 -1.9414339
0.006976912 0.0031504869 -0.001465854 -0.004921111 0.5583003 -2.6653337 0.13386922 0.050829086
1.2052995 3.4128084 0.0180011 3.0791605 -0.027713945 -0.0020853688 -0.0018282532 -0.0062470767
1.1880001 1.4256979 0.26150247 -0.0430096 -0.021127531 0.0021729008 0.0026934994 0.00077934784
1.8528477 2.4604332 -0.15351409 -0.554224 0.009322442 0.01186386 0.0024756277 -0.002499145
0.018983707 -0.0018462599 0.0007406506 0.0010002308 -0.011650463 0.019371437 -0.0008039648 -0.0027478656
00000000: e5a6 a8bb f720 9ebb 0902 18bb a5ec d5ba
00000010: ddbd 723b dbea 46bc c03f 163b 8093 30ba
00000020: 4735 bf3e 9d2e b73f 34fb 7d3e 2a92 af3f
00000030: b119 f7bb 5ac2 9cbc a83b 2d3b ad62 3fba
00000040: 808d 0f3c 28a2 5ebb ecaa 00b9 5453 ebba
00000050: c5ce 1ebe 5ebb 1c40 fee7 8a3d 876b 3a3f
00000060: f9d3 06bc 7d7f 70bc bee5 3d3a 6114 dbba
00000070: 3f8b 153f 195d ed3f 9fdb f33e 77d1 623e
00000080: b807 343c a4c2 aabc 2f25 10ba e3ff 123a
00000090: e214 533c 7e79 c83c aceb 42bb a2cb ae3a
000000a0: 01e7 a9bb e8c3 84bb 8a9b 40bb 9853 8739
000000b0: c3ce 393b bf93 043c 6c97 97ba 52ff 16bb
000000c0: af5b ddba 38ed 993c 9263 96ba b91f 323a
000000d0: 0287 973b 274a 0dbc a1b7 043b 1cc3 ef39
000000e0: 9f9d 3abc ba9c 8fbc 5124 093b d6d9 aeba
000000f0: 4532 433c dab2 b03c 83dd c5ba af4e 233b
00000100: 08bb 2cbc 8262 3bbc a298 473a 4a5c 4bba
00000110: f174 66bc 5a26 86bc 7271 303b 64de 2b3a
00000120: 1c1d 60bb 701d 6dbc 7cae a33a a4e8 af38
00000130: f07d 4cbc 8658 e738 3323 19bb 64a6 b1b9
00000140: f86b 343c 93ce 203c a0ee c2ba b59b d73a
00000150: 794d bfbb 7eb6 38bb 3881 0a3b bed8 d43a
00000160: 1d3f ecba 1888 a53c a4ec bcb9 c9d0 353a
00000170: 7322 8cbc 1023 8cbc fd79 363b b77a f0b9
00000180: 7edc 813b 1ed1 5dbb 0c4b c9ba 9522 843a
00000190: 1ae5 8d39 d8a0 cf3b 6120 613b ca0c 93ba
000001a0: 519a d1be 823d 24bf 5f0b c33d c9ec 90bf
000001b0: 2494 91bc 33dd 67bc 4524 a23a 0597 dfba
000001c0: 9f08 ecbb 6ba0 5d3c a5bd 4bbb 11f2 4a39
000001d0: 486d 4bbc 1909 11bc 4441 643b c5ad c73a
000001e0: 6361 46bc d05f 20bc 62f6 543a 19cf 11bb
000001f0: f5fe 773c 0e72 4f3c 25a9 75ba cbf0 023b
00000200: 9c88 00bd 82be fa3b 3ab1 eb3a 428f e6ba
00000210: daea 8a3d 3554 30c0 b1ca 393e d5e6 9f3e
00000220: a77c cc3e 170f 1bc0 c8bd 0dbd f18e 6e40
00000230: 0b05 aa3b 889b 2d3c 7e0c b5ba 9ebb ec3a
00000240: 8d8f 8d3c ad6d 6a3c 7ca1 03ba a4e8 04bb
00000250: 3bb5 91bf 45c9 253f 9d4f cfbb 3957 343f
00000260: ba5b 623b 37bd 93bc 0a11 e5ba 082b 5a3b
00000270: 7160 e3bb 7623 3abc 0d39 143b 5889 edb8
00000280: 380c 0a3f f17f 88be 64f4 0a3f 4753 dcbb
00000290: 6bf9 8a39 1a58 d73b dedb 89ba 073e 03bb
000002a0: 7d35 17bd 5410 8fba eae6 7a3a 7df9 e83b
000002b0: 86d1 afbc 77eb 30bc ccfa b9ba 7afb fcba
000002c0: 336c cd3b 43fb 6abc 6f4a e3ba 6596 93ba
000002d0: fdef 9dbb 5341 c5ba 662e 3f39 e4de 513a
000002e0: 87b5 36bf f8e1 1040 f73e 15be 38d6 223f
000002f0: 7ae0 1e3f d306 813f d69a 0abf f5aa 01bf
00000300: 44b6 3b3c 6c4a ec3b 32a8 ccb9 5cce 6cba
00000310: be31 a03b b184 62bb 11a5 603a d8c6 873b
00000320: 4af1 ca3b 8a90 d4ba 9718 963a 8e8f 923b
00000330: ebf2 913c 9cc0 dfba dccb f83a 19b6 e0bb
00000340: 7893 bfbc b665 223c ff44 c73a 66da 34bb
00000350: 4ec2 c9be 04ad 15c0 848b 2c3e e880 f8bf
00000360: 949e e43b 6678 4e3b e621 c0ba 4541 a1bb
00000370: c5ec 0e3f d494 2ac0 0315 093e 2932 503d
00000380: 4147 9a3f 746b 5a40 0b77 933c f710 4540
00000390: 5b08 e3bc afaa 08bb ffa1 efba 47b4 ccbb
000003a0: 6310 983f 457d b63f a7e3 853e d62a 30bd
000003b0: a513 adbc 3a67 0e3b 6c85 303b 264d 4c3a
000003c0: 1d2a ed3f bd77 1d40 cc32 1dbe a0e1 0dbf
000003d0: 28bd 183c a360 423c 243e 223b b2c8 23bb
000003e0: b883 9b3c 34fe f1ba 3828 423a 2d1a 833a
000003f0: 95e1 3ebc d9b0 9e3c 2ac1 52ba 8915 34bb

conv_layers.1.att_src f4 [1, 4, 32]
-0.4941572 0.12075756 0.0020643026 -0.5217521 0.10615677 -0.18179436 0.0008421673 -0.078555286
0.000898052 -0.0013946337 0.1462035 0.0147681255 -0.1282788 0.09778967 -0.028537763 0.002123774
-0.17942259 -0.19177274 0.16864061 0.07688431 0.06274819 -0.23037055 0.2823561 -0.23700179
-0.3334326 -0.1557527 0.0076437565 -0.002368752 0.23656923 -0.021131633 0.260848 0.1137809
-0.003933298 -0.27225453 0.13862853 -0.00031952985 -0.020308705 -0.014896126 0.27113408 -0.17349637
-0.0030794123 0.15550606 0.22482373 0.24016652 -0.104802765 -0.1823212 -0.036994677 -0.11546413
0.13442813 0.0010497491 0.0444899 0.00040461041 0.12397751 -0.2289229 -0.0762773 -0.20429982
0.18909217 -0.00078098197 0.069025405 -0.1009768 0.36595282 0.16803071 -0.12726387 -0.09514686
-0.07870766 0.09932867 0.023198854 0.098951824 0.29874438 -0.052557 -0.054915916 -0.018467607
-0.07213514 0.108963996 -0.0668686 -0.12127753 0.048109256 -0.086367756 0.08604222 0.06208229
0.050180502 0.06790061 -0.1378213 0.16483323 0.17319755 -0.00031515813 -0.05666576 -0.059925176
0.03922109 0.08404877 -0.002750355 0.0178582 -0.0021762112 0.072889686 -0.0004314439 -0.5065959
-0.041091904 -0.07110099 -0.00638677 -0.25548476 -0.21273081 0.19446488 -0.03517357 -0.10170596
-0.003944769 -0.05391372 0.04590178 -0.02176934 0.0055685597 -0.011806266 0.30481657 0.05922894
-0.008006916 0.0007602405 0.18583825 0.056461927 0.02751803 -0.021471541 0.0061786072 0.04971661
0.11185961 0.009263117 -0.08644654 0.099968426 0.008118133 -0.0030595162 0.12045388 0.00027087567
00000000: 2c02 fdbe bd4f f73d 4049 073b 8c91 05bf
00000010: b868 d93d 4d28 3abe e4c4 5c3a 98e1 a0bd
00000020: 406b 6b3a 24cc b6ba 5fb6 153e 02f6 713c
00000030: 855b 03be f345 c83d 07c8 e9bc 042f 0b3b
00000040: 8eba 37be 1360 44be 20b0 2c3e 8575 9d3d
00000050: 1f82 803d 42e6 6bbe fb90 903e 99b0 72be
00000060: aeb7 aabe a37d 1fbe 7a78 fa3b 103d 1bbb
00000070: 343f 723e 3f1c adbc de8d 853e f605 e93d
00000080: e5e2 80bb f264 8bbe a3f4 0d3e 9286 a7b9
00000090: 715e a6bc e20e 74bc 16d2 8a3e 08a9 31be
000000a0: f7cf 49bb fb3c 1f3e 3138 663e 36ee 753e
000000b0: d5a2 d6bd 69b2 3abe bb87 17bd 7578 ecbd
000000c0: 87a7 093e bc97 893a 0b3b 363d e421 d439
000000d0: ece7 fd3d c46a 6abe 4637 9cbd f933 51be
000000e0: 61a1 413e d0ba 4cba 315d 8d3d edcc cebd
000000f0: 2b5e bb3e 3e10 2c3e 7651 02be 5bdc c2bd
00000100: 7b31 a1bd d46c cb3d 860b be3c 41a7 ca3d
00000110: 06f5 983e 0246 57bd 83ef 60bd 6149 97bc
00000120: 97bb 93bd 8428 df3d 68f2 88bd 5b60 f8bd
00000130: 360e 453d 94e1 b0bd e736 b03d 004a 7e3d
00000140: 128a 4d3d 7a0f 8b3d 0721 0dbe 0bca 283e
00000150: b35a 313e cf3b a5b9 5b1a 68bd 1a74 75bd
00000160: 4ba6 203d c321 ac3d 4d3f 34bb 5c4b 923c
00000170: c49e 0ebb 3047 953d 6c33 e2b9 45b0 01bf
00000180: fc4f 28bd 659d 91bd 1c48 d1bb e6ce 82be
00000190: 1bd6 59be cd21 473e 2912 10bd 374b d0bd
000001a0: 1f43 81bb a2d4 5cbd 8103 3c3d 9d55 b2bc
000001b0: 7778 b63b 126f 41bc eb10 9c3e 0c9a 723d
000001c0: 712f 03bc e04a 473a 624c 3e3e 9f44 673d
000001d0: 7e6d e13c 16e5 afbc ea75 ca3b a5a3 4b3d
000001e0: a716 e53d 54c4 173c e20a b1bd 3fbc cc3d
000001f0: eb01 053c 2a82 48bb 86b0 f63d 5104 8e39

conv_layers.1.att_dst f4 [1, 4, 32]
0.10323431 -0.4730634 0.010715341 -0.12818822 0.39222708 -1.0685217 0.028281078 -0.23425633
0.016830517 -0.7013549 0.07641741 0.39839557 -0.45334366 0.7040408 0.33640438 0.042334367
0.88198274 0.21782666 0.58105004 -0.19737077 -0.7624202 0.15250328 -0.6865633 1.2178516
0.406914 -1.0996588 0.00951196 -0.344861 -0.34399024 -0.060539547 -0.077045314 -0.47974315
-0.11007032 1.2574539 0.801232 0.24243663 0.98771805 -2.6304278 -4.764765 0.12337789
0.31521514 -1.414222 0.54062325 1.5078518 -2.2531188 2.3014567 -0.5896285 -0.65924835
-1.9523898 -0.24502887 0.9877121 -0.08280719 0.051306166 -0.6152302 0.5163017 1.8606439
-0.16292226 0.08706156 1.3679521 -0.8086766 -0.042152755 -2.068214 -0.6195467 2.3280573
1.0366315 0.85219735 -1.7495253 0.6051717 -1.8909476 0.62406915 -0.20735575 -0.035388917
-1.0046465 0.22227983 -0.056807574 -0.22457601 0.19399476 -0.89525944 0.65667135 -0.7127034
-0.100940846 -0.932298 1.2825217 -0.6167502 1.2477201 -0.0015571251 -0.77336365 2.2789419
-1.454819 0.9720565 0.021254346 -2.002779 -0.024642171 -3.2342913 0.01705208 -2.652431
-0.35624644 -0.511521 -0.34413195 -0.096236736 0.6739527 -0.14046331 -0.26359883 -0.6557052
0.14439185 0.7799453 0.5478677 -0.3095365 1.7357038 0.69490993 -1.0724779 -0.6726671
-0.7726071 -2.0271075 0.19348408 0.40702903 -0.2411267 -0.556089 0.90982574 -1.9557558
-0.2383782 -0.4246458 -0.020278653 -0.6335711 -0.96440685 1.4135877 -0.15687215 0.45836094
00000000: 836c d33d 5e35 f2be 668f 2f3c c643 03be
00000010: fdd1 c83e 52c5 88bf b8ad e73c e4e0 6fbe
00000020: 27e0 893c ff8b 33bf bb80 9c3d 81fa cb3e
00000030: a91c e8be 053c 343f 323d ac3e cd66 2d3d
00000040: 9fc9 613f f40d 5f3e b2bf 143f 901b 4abe
00000050: f82d 43bf d229 1c3e 9dc2 2fbf 90e2 9b3f
00000060: 0857 d03e 9fc1 8cbf 0dd8 1b3c 9f91 b0be
00000070: 7d1f b0be 51f8 77bd efc9 9dbd e5a0 f5be
00000080: 8c6c e1bd 40f4 a03f 8a1d 4d3f 4f41 783e
00000090: 17db 7c3f ee58 28c0 f478 98c0 8cad fc3d
000000a0: e163 a13e 3a05 b5bf 4966 0a3f 4a01 c13f
000000b0: 1933 10c0 114b 1340 e5f1 16bf 80c4 28bf
000000c0: e9e7 f9bf d9e8 7abe b3da 7c3f d196 a9bd
000000d0: 6a26 523d ba7f 1dbf 592c 043f 9429 ee3f
000000e0: 18d5 26be 554d b23d 0e19 af3f 6e05 4fbf
000000f0: 5ea8 2cbd 9e5d 04c0 9d9a 1ebf e4fe 1440
00000100: 57b0 843f 9b29 5a3f 72f0 dfbf 88ec 1a3f
00000110: 920a f2bf ffc2 1f3f 1155 54be f8f3 10bd
00000120: 4298 80bf 539d 633e 0faf 68bd 41f7 65be
00000130: 90a6 463e b92f 65bf 9d1b 283f bb73 36bf
00000140: 13ba cebd 15ab 6ebf ac29 a43f 57e3 1dbf
00000150: 4bb5 9f3f 7318 ccba 29fb 45bf 2fda 1140
00000160: 8237 babf b2d8 783f 981d ae3c 882d 00c0
00000170: 61de c9bc a1fe 4ec0 ceb0 8b3c 6ec1 29c0
00000180: ef65 b6be 0af3 02bf 1032 b0be c417 c5bd
00000190: 2a88 2c3f 9dd5 0fbe 6df6 86be 4cdc 27bf
000001a0: 75db 133e 7faa 473f 0f41 0c3f 917b 9ebe
000001b0: 8b2b de3f 9ee5 313f f546 89bf e933 2cbf
000001c0: 94c9 45bf 21bc 01c0 b120 463e 1c66 d03e
000001d0: ebe9 76be d95b 0ebf 57ea 683f 3556 fabf
000001e0: 6a19 74be 2d6b d9be 6b1f a6bc b731 22bf
000001f0: 5ee3 76bf 71f0 b43f 18a3 20be 49ae ea3e

conv_layers.1.bias f4 [128]
-0.28556314 -0.0733553 0.0012181315 -0.6464836 0.13637155 1.5282061 0.009413943 0.47490558
0.0066628633 -0.5734257 -0.76361334 1.4239286 0.7778346 -0.52650243 -0.15247855 0.0055854963
0.39865226 0.50420356 0.22279686 0.23378459 -0.33594635 0.5472305 -1.2410699 0.36789134
-1.3592826 -0.20934325 0.0038773173 -0.19002037 0.6517099 0.47355816 -0.16174102 -0.23919722
-0.025174309 0.45366788 0.37449962 -0.007891627 -0.229081 0.27762908 0.4707425 -0.15897195
-0.029144475 0.15537697 0.100930944 0.6264569 -0.5392467 0.6531528 -0.39733252 -0.9827932
-0.4507407 0.029728584 1.4837735 0.011597181 -0.4722559 -0.2918666 0.13234022 -0.4270042
0.08191276 -0.013049983 -0.14492407 0.2243696 0.8744528 -0.1272578 0.6717729 0.21283923
0.50688446 -0.663919 -0.19229156 -0.49856222 0.21213107 0.642712 0.27112713 -1.4956257
-0.08618425 0.122050494 -0.26151535 -1.3706888 0.027404701 -0.079954885 -0.15685967 0.08382551
0.0890185 -0.44441956 0.7145687 0.056774873 -1.2107346 -0.0005592657 -0.04030081 0.81261426
-0.2339884 0.27743182 0.005721795 -1.1715088 0.0064465073 0.95104104 -0.0008560078 -0.022024188
0.28840327 -0.025094261 0.2339123 -0.22410414 0.5032247 0.2605956 0.61925334 0.04474253
0.0054552737 -0.8966697 -0.26567188 1.1400815 0.029121846 0.007260245 0.46726418 -0.7821229
-0.029403446 -0.006732167 0.087762214 -0.44077086 1.4081043 0.21968432 0.014493748 -0.8273981
0.24573117 0.10007834 0.3418279 0.77120143 0.38907495 0.02089637 0.64550155 0.0010166948
00000000: 5535 92be 4e3b 96bd b6a9 9f3a f37f 25bf
00000010: fca4 0b3e 429c c33f f03c 1a3c d326 f33e
00000020: 2654 da3b 07cc 12bf 2a7c 43bf 4b43 b63f
00000030: 2b20 473f ddc8 06bf 5623 1cbe 8a06 b73b
00000040: 261c cc3e 7c13 013f dc24 643e 3a65 6f3e
00000050: 2901 acbe 4c17 0c3f 61db 9ebf 415c bc3e
00000060: f9fc adbf 145e 56be 971a 7e3b b394 42be
00000070: 76d6 263f 3776 f23e 709f 25be 1ef0 74be
00000080: 5a3a cebc 2847 e83e 6abe bf3e e24b 01bc
00000090: 3694 6abe 6625 8e3e 2905 f13e 8bc9 22be
000000a0: 65c0 eebc 241b 1f3e e2b4 ce3d 7b5f 203f
000000b0: 120c 0abf 0635 273f 2b6f cbbe 5698 7bbf
000000c0: 7cc7 e6be 5c89 f33c 4aec bd3f 1a02 3e3c
000000d0: 86cb f1be 8a6f 95be 3284 073e 4ba0 dabe
000000e0: e1c1 a73d 99cf 55bc fa66 14be 25c1 653e
000000f0: 24dc 5f3f de4f 02be 4ff9 2b3f 87f2 593e
00000100: 2ec3 013f 98f6 29bf 14e8 44be 8c43 ffbe
00000110: e338 593e c688 243f 2dd1 8a3e aa70 bfbf
00000120: 5e81 b0bd 9cf5 f93d 57e5 85be bb72 afbf
00000130: d37f e03c 63bf a3bd d29f 20be b6ac ab3d
00000140: 554f b63d f68a e3be f9ed 363f c58c 683d
00000150: 5af9 9abf b09b 12ba 7612 25bd 7d07 503f
00000160: a89a 6fbe 8b0b 8e3e e57d bb3b 00f4 95bf
00000170: 393d d33b 6d77 733f b665 60ba 126c b4bc
00000180: 98a9 933e 7b92 cdbc b586 6f3e 8e7b 65be
00000190: 55d3 003f c96c 853e 6387 1e3f f143 373d
000001a0: 27c2 b23b 258c 65bf 2506 88be 31ee 913f
000001b0: f090 ee3c 59e7 ed3b 403d ef3e 3539 48bf
000001c0: 7fdf f0bc 8399 dcbb adbc b33d b8ac e1be
000001d0: c33c b43f edf4 603e 2f77 6d3c 5dd0 53bf
000001e0: f4a0 7b3e dff5 cc3d 1104 af3e 756d 453f
000001f0: d534 c73e dd2e ab3c 973f 253f 9e42 853a

conv_layers.1.lin_src.weight f4 [128, 128]
-0.0007774427 -0.00832468 -0.4743485 0.005146103 0.002244403 -0.14450821 -0.0013098245 0.16292666
-0.0024195735 0.001823412 -0.017858317 -0.013061286 0.0037533687 -0.014100554 -0.0017487165 0.011793308
-0.030102843 -0.0070054457 0.0033108331 -0.017676625 -0.00019957087 0.001813674 0.0009773636 -0.005493562
0.020483062 0.013930809 1.3950628 -0.004676403 -0.002916265 -0.0039035084 0.004219885 0.0038704432
0.010658662 0.5979964 0.26132253 -0.009214809 0.015351931 0.03746703 -0.0061439737 0.01595763
-0.38561288 0.014158239 -0.0072864355 0.0006610014 -0.006875832 -0.0142231 -0.22029695 0.4447045
-0.006871466 0.0074328803 0.007285939 -0.0063830055 -0.004919966 -0.03940783 -0.021904135 0.6797198
-0.19918267 0.021248193 -0.4353033 0.0010011675 -0.4336751 0.012700707 -0.0143449595 0.014530619
0.0015556734 -0.0064741215 0.01987112 0.00823743 -0.71191615 0.53385305 0.0072771776 -0.0024151145
-0.0019831848 -0.016061608 -0.0041546146 0.022775553 -1.8776321 0.006989242 0.00022829877 0.6281204
-0.0054671024 -0.0010369649 -0.007489095 0.00075871625 1.0485396 -0.57853305 -0.08241576 -0.015868418
-0.0025400377 1.355619 -0.0014729954 -0.021717586 -0.010003504 -0.014284332 0.006210615 0.00696977
0.0032537822 0.0026330424 0.017695641 -0.007488191 -0.0044321916 -0.43515474 0.83758116 0.0017255703
0.0017325311 -0.2733163 -0.007086005 0.0019428816 -0.004782549 2.3031665e-05 -0.0058354093 -0.009902634
0.016852252 0.1362871 0.007744219 0.02649158 0.7798679 -0.008467061 -0.011147133 -0.0009217012
-0.0025272053 0.0037902112 0.0068221297 -0.0037673481 0.0011646798 0.0087365825 -0.8772293 0.013314955
-0.017974135 -0.035315543 -1.3292751 0.012095862 0.02212507 -1.4200854 -0.013408116 0.6796593
-0.020391457 0.018777374 -0.037928354 -0.008672701 0.018381324 0.0073097376 -0.006191202 0.001293812
-0.047558732 0.044341817 -0.006661454 0.016202483 0.076685645 0.010304781 -0.0013006626 -0.01767103
0.007751235 -0.0076685795 -0.118496254 0.0015000642 0.024131354 -0.022971585 -0.0414942 0.007540782
0.0023667794 0.0983504 0.6096499 0.0063251765 0.038217586 1.0330186 0.010343365 0.024955647
-0.05516757 -0.014278282 0.0010613201 0.016969802 -0.018629571 0.039225366 0.20457414 0.33933854
-0.004433349 0.05335883 0.037987113 -0.020308636 -0.026944287 0.16300248 -0.041404415 -0.14876026
-0.9150486 -0.007262637 0.9730137 0.0026553075 -0.8705505 -0.009660084 -0.023177024 -0.0029876558
-0.030135633 -0.010250126 -0.12929484 0.031281088 -0.037119288 -0.5603475 0.012976377 0.015497253
-0.031272713 0.0027010296 0.03910629 0.00044185095 0.5079736 0.026443677 -0.019808251 0.3759416
-0.005584042 -0.011389131 0.015860312 0.024326067 -0.5274302 0.7476059 0.3926612 -0.0013862813
-0.007621509 -0.62073225 0.05950975 -0.017539429 0.0017790888 -0.0045775613 -0.028863613 -7.594102e-05
0.014290459 -0.0046725534 0.0042626117 0.013788071 0.00871526 -0.2599261 0.23967244 -0.015261236
-0.025345743 1.5183283 0.016787017 -0.0250445 -0.041825503 -0.017127734 -0.016775219 -0.017824104
-0.03409365 1.690905 0.023517476 -0.010276677 -0.0048439223 0.0044309236 0.031725414 0.01421449
-0.020499645 -0.016477386 0.0057992833 -0.04033229 0.020706633 0.019454211 3.120268 -0.011537422
00000000: 4ccd 4bba 3d64 08bc cedd f2be a4a0 a83b
00000010: d516 133b f6f9 13be 6bae abba 3fd6 263e
00000020: b591 1ebb 8eff ee3a 9b4b 92bc 01ff 55bc
00000030: 14fb 753b 0306 67bc 3035 e5ba b838 413c
00000040: 3d9a f6bc f08d e5bb 90fa 583b 92ce 90bc
00000050: e643 51b9 cdb8 ed3a e11a 803a 5703 b4bb
00000060: 18cc a73c 0c3e 643c 6b91 b23f 833c 99bb
00000070: cf1e 3fbb 01d2 7fbb f646 8a3b 43a7 7d3b
00000080: aba1 2e3c 4b16 193f 11cc 853e b6f9 16bc
00000090: aa86 7b3c 0777 193d 6353 c9bb 93b9 823c
000000a0: 0d6f c5be f5f7 673c 0dc3 eebb 0e47 2d3a
000000b0: a94e e1bb 0108 69bc 8695 61be 4fb0 e33e
000000c0: 092a e1bb 858f f33b e3be ee3b 8828 d1bb
000000d0: ab37 a1bb 1b6a 21bd 4d70 b3bc 1e02 2e3f
000000e0: 8bf6 4bbe b110 ae3c 13e0 debe 9b39 833a
000000f0: aa0a debe a016 503c 1f07 6bbc d511 6e3c
00000100: bde7 cb3a de24 d4bb c2c8 a23c 49f6 063c
00000110: 2340 36bf 98aa 083f 6475 ee3b e646 1ebb
00000120: 52f8 01bb a293 83bc 6f23 88bb cc93 ba3c
00000130: 4056 f0bf 0306 e53b 7c63 6f39 80cc 203f
00000140: 6125 b3bb c5ea 87ba 1567 f5bb 96e4 463a
00000150: 8c36 863f be1a 14bf 98c9 a8bd 7cfe 81bc
00000160: c376 26bb ec84 ad3f 8611 c1ba 14e9 b1bc
00000170: bde5 23bc d508 6abc 6a82 cb3b ab62 e43b
00000180: 683d 553b 1f8f 2c3b 73f6 903c 805f f5bb
00000190: eb3b 91bb 9acc debe b86b 563f 882c e23a
000001a0: 1916 e33a 1df0 8bbe b831 e8bb 4aa8 fe3a
000001b0: eeb6 9cbb 2034 c137 f636 bfbb a83e 22bc
000001c0: bc0d 8a3c d88e 0b3e 38c3 fd3b df04 d93c
000001d0: 6ca5 473f 6eb9 0abc 77a2 36bc 529e 71ba
000001e0: 789f 25bb 3165 783b 2c8c df3b 9de5 76bb
000001f0: 2ba8 983a e223 0f3c 1992 60bf f826 5a3c
00000200: 7e3e 93bc 08a7 10bd b025 aabf b92d 463c
00000210: a33f b53c 5cc5 b5bf b7ad 5bbc 27fe 2d3f
00000220: fc0b a7bc 02d3 993c c35a 1bbd f217 0ebc
00000230: 6e94 963c 8686 ef3b 91df cabb 2095 a93a
00000240: f2cc 42bd c49f 353d 5448 dabb 12bb 843c
00000250: 5d0d 9d3d 62d5 283c ff7a aaba d6c2 90bc
00000260: 12fe fd3b b548 fbbb 2aae f2bd cd9d c43a
00000270: 1eaf c53c e82e bcbc d2f5 29bd aa18 f73b
00000280: f81b 1b3b ef6b c93d 0412 1c3f 6d43 cf3b
00000290: 0b8a 1c3d f439 843f 3877 293c c96f cc3c
000002a0: 64f7 61bd 75ef 69bc fe1b 8b3a 4104 8b3c
000002b0: 0b9d 98bc c7aa 203d e27b 513e c8bd ad3e
000002c0: a045 91bb ca8e 5a3d 6098 1b3d 4c5e a6bc
000002d0: 44ba dcbc 1fea 263e ad97 29bd 9c54 18be
000002e0: a040 6abf 6afb edbb 6d17 793f ab04 2e3b
000002f0: 66dc 5ebf 5445 1ebc bedd bdbc 8ccc 43bb
00000300: 01df f6bc 25f0 27bc de65 04be 9920 003d
00000310: 650a 18bd ef72 0fbf df9a 543c 31e8 7d3c
00000320: d117 00bd c203 313b eb2d 203d 3ba8 e739
00000330: 8f0a 023f 69a0 d83c ea44 a2bc 6b7b c03e
00000340: 57fa b6bb 7a99 3abc 7ced 813c 7647 c73c
00000350: aa05 07bf 1a63 3f3f e40a c93e e2b3 b5ba
00000360: dabd f9bb 4fe8 1ebf 7fc0 733d d9ae 8fbc
00000370: 5030 e93a 5eff 95bb 6273 ecbc 8642 9fb8
00000380: 8822 6a3c 381c 99bb 61ad 8b3b 5de7 613c
00000390: 73ca 0e3c 0915 85be b16c 753e 430a 7abc
000003a0: e0a1 cfbc 9558 c23f ed84 893c 202a cdbc
000003b0: 3851 2bbd 764f 8cbc 2f6c 89bc db03 92bc
000003c0: c8a5 0bbd 936f d83f b9a7 c03c 825f 28bc
000003d0: c4b9 9ebb 4831 913b 82f2 013d e4e3 683c
000003e0: dfee a7bc 95fb 86bc ea07 be3b 7933 25bd
000003f0: f5a0 a93c 705e 9f3c 79b2 4740 7507 3dbc

conv_layers.1.lin_dst.weight f4 [128, 128]
-0.0007774427 -0.00832468 -0.4743485 0.005146103 0.002244403 -0.14450821 -0.0013098245 0.16292666
-0.0024195735 0.001823412 -0.017858317 -0.013061286 0.0037533687 -0.014100554 -0.0017487165 0.011793308
-0.030102843 -0.0070054457 0.0033108331 -0.017676625 -0.00019957087 0.001813674 0.0009773636 -0.005493562
0.020483062 0.013930809 1.3950628 -0.004676403 -0.002916265 -0.0039035084 0.004219885 0.0038704432
0.010658662 0.5979964 0.26132253 -0.009214809 0.015351931 0.03746703 -0.0061439737 0.01595763
-0.38561288 0.014158239 -0.0072864355 0.0006610014 -0.006875832 -0.0142231 -0.22029695 0.4447045
-0.006871466 0.0074328803 0.007285939 -0.0063830055 -0.004919966 -0.03940783 -0.021904135 0.6797198
-0.19918267 0.021248193 -0.4353033 0.0010011675 -0.4336751 0.012700707 -0.0143449595 0.014530619
0.0015556734 -0.0064741215 0.01987112 0.00823743 -0.71191615 0.53385305 0.0072771776 -0.0024151145
-0.0019831848 -0.016061608 -0.0041546146 0.022775553 -1.8776321 0.006989242 0.00022829877 0.6281204
-0.0054671024 -0.0010369649 -0.007489095 0.00075871625 1.0485396 -0.57853305 -0.08241576 -0.015868418
-0.0025400377 1.355619 -0.0014729954 -0.021717586 -0.010003504 -0.014284332 0.006210615 0.00696977
0.0032537822 0.0026330424 0.017695641 -0.007488191 -0.0044321916 -0.43515474 0.83758116 0.0017255703
0.0017325311 -0.2733163 -0.007086005 0.0019428816 -0.004782549 2.3031665e-05 -0.0058354093 -0.009902634
0.016852252 0.1362871 0.007744219 0.02649158 0.7798679 -0.008467061 -0.011147133 -0.0009217012
-0.0025272053 0.0037902112 0.0068221297 -0.0037673481 0.0011646798 0.0087365825 -0.8772293 0.013314955
-0.017974135 -0.035315543 -1.3292751 0.012095862 0.02212507 -1.4200854 -0.013408116 0.6796593
-0.020391457 0.018777374 -0.037928354 -0.008672701 0.018381324 0.0073097376 -0.006191202 0.001293812
-0.047558732 0.044341817 -0.006661454 0.016202483 0.076685645 0.010304781 -0.0013006626 -0.01767103
0.007751235 -0.0076685795 -0.118496254 0.0015000642 0.024131354 -0.022971585 -0.0414942 0.007540782
0.0023667794 0.0983504 0.6096499 0.0063251765 0.038217586 1.0330186 0.010343365 0.024955647
-0.05516757 -0.014278282 0.0010613201 0.016969802 -0.018629571 0.039225366 0.20457414 0.33933854
-0.004433349 0.05335883 0.037987113 -0.020308636 -0.026944287 0.16300248 -0.041404415 -0.14876026
-0.9150486 -0.007262637 0.9730137 0.0026553075 -0.8705505 -0.009660084 -0.023177024 -0.0029876558
-0.030135633 -0.010250126 -0.12929484 0.031281088 -0.037119288 -0.5603475 0.012976377 0.015497253
-0.031272713 0.0027010296 0.03910629 0.00044185095 0.5079736 0.026443677 -0.019808251 0.3759416
-0.005584042 -0.011389131 0.015860312 0.024326067 -0.5274302 0.7476059 0.3926612 -0.0013862813
-0.007621509 -0.62073225 0.05950975 -0.017539429 0.0017790888 -0.0045775613 -0.028863613 -7.594102e-05
0.014290459 -0.0046725534 0.0042626117 0.013788071 0.00871526 -0.2599261 0.23967244 -0.015261236
-0.025345743 1.5183283 0.016787017 -0.0250445 -0.041825503 -0.017127734 -0.016775219 -0.017824104
-0.03409365 1.690905 0.023517476 -0.010276677 -0.0048439223 0.0044309236 0.031725414 0.01421449
-0.020499645 -0.016477386 0.0057992833 -0.04033229 0.020706633 0.019454211 3.120268 -0.011537422
00000000: 4ccd 4bba 3d64 08bc cedd f2be a4a0 a83b
00000010: d516 133b f6f9 13be 6bae abba 3fd6 263e
00000020: b591 1ebb 8eff ee3a 9b4b 92bc 01ff 55bc
00000030: 14fb 753b 0306 67bc 3035 e5ba b838 413c
00000040: 3d9a f6bc f08d e5bb 90fa 583b 92ce 90bc
00000050: e643 51b9 cdb8 ed3a e11a 803a 5703 b4bb
00000060: 18cc a73c 0c3e 643c 6b91 b23f 833c 99bb
00000070: cf1e 3fbb 01d2 7fbb f646 8a3b 43a7 7d3b
00000080: aba1 2e3c 4b16 193f 11cc 853e b6f9 16bc
00000090: aa86 7b3c 0777 193d 6353 c9bb 93b9 823c
000000a0: 0d6f c5be f5f7 673c 0dc3 eebb 0e47 2d3a
000000b0: a94e e1bb 0108 69bc 8695 61be 4fb0 e33e
000000c0: 092a e1bb 858f f33b e3be ee3b 8828 d1bb
000000d0: ab37 a1bb 1b6a 21bd 4d70 b3bc 1e02 2e3f
000000e0: 8bf6 4bbe b110 ae3c 13e0 debe 9b39 833a
000000f0: aa0a debe a016 503c 1f07 6bbc d511 6e3c
00000100: bde7 cb3a de24 d4bb c2c8 a23c 49f6 063c
00000110: 2340 36bf 98aa 083f 6475 ee3b e646 1ebb
00000120: 52f8 01bb a293 83bc 6f23 88bb cc93 ba3c
00000130: 4056 f0bf 0306 e53b 7c63 6f39 80cc 203f
00000140: 6125 b3bb c5ea 87ba 1567 f5bb 96e4 463a
00000150: 8c36 863f be1a 14bf 98c9 a8bd 7cfe 81bc
00000160: c376 26bb ec84 ad3f 8611 c1ba 14e9 b1bc
00000170: bde5 23bc d508 6abc 6a82 cb3b ab62 e43b
00000180: 683d 553b 1f8f 2c3b 73f6 903c 805f f5bb
00000190: eb3b 91bb 9acc debe b86b 563f 882c e23a
000001a0: 1916 e33a 1df0 8bbe b831 e8bb 4aa8 fe3a
000001b0: eeb6 9cbb 2034 c137 f636 bfbb a83e 22bc
000001c0: bc0d 8a3c d88e 0b3e 38c3 fd3b df04 d93c
000001d0: 6ca5 473f 6eb9 0abc 77a2 36bc 529e 71ba
000001e0: 789f 25bb 3165 783b 2c8c df3b 9de5 76bb
000001f0: 2ba8 983a e223 0f3c 1992 60bf f826 5a3c
00000200: 7e3e 93bc 08a7 10bd b025 aabf b92d 463c
00000210: a33f b53c 5cc5 b5bf b7ad 5bbc 27fe 2d3f
00000220: fc0b a7bc 02d3 993c c35a 1bbd f217 0ebc
00000230: 6e94 963c 8686 ef3b 91df cabb 2095 a93a
00000240: f2cc 42bd c49f 353d 5448 dabb 12bb 843c
00000250: 5d0d 9d3d 62d5 283c ff7a aaba d6c2 90bc
00000260: 12fe fd3b b548 fbbb 2aae f2bd cd9d c43a
00000270: 1eaf c53c e82e bcbc d2f5 29bd aa18 f73b
00000280: f81b 1b3b ef6b c93d 0412 1c3f 6d43 cf3b
00000290: 0b8a 1c3d f439 843f 3877 293c c96f cc3c
000002a0: 64f7 61bd 75ef 69bc fe1b 8b3a 4104 8b3c
000002b0: 0b9d 98bc c7aa 203d e27b 513e c8bd ad3e
000002c0: a045 91bb ca8e 5a3d 6098 1b3d 4c5e a6bc
000002d0: 44ba dcbc 1fea 263e ad97 29bd 9c54 18be
000002e0: a040 6abf 6afb edbb 6d17 793f ab04 2e3b
000002f0: 66dc 5ebf 5445 1ebc bedd bdbc 8ccc 43bb
00000300: 01df f6bc 25f0 27bc de65 04be 9920 003d
00000310: 650a 18bd ef72 0fbf df9a 543c 31e8 7d3c
00000320: d117 00bd c203 313b eb2d 203d 3ba8 e739
00000330: 8f0a 023f 69a0 d83c ea44 a2bc 6b7b c03e
00000340: 57fa b6bb 7a99 3abc 7ced 813c 7647 c73c
00000350: aa05 07bf 1a63 3f3f e40a c93e e2b3 b5ba
00000360: dabd f9bb 4fe8 1ebf 7fc0 733d d9ae 8fbc
00000370: 5030 e93a 5eff 95bb 6273 ecbc 8642 9fb8
00000380: 8822 6a3c 381c 99bb 61ad 8b3b 5de7 613c
00000390: 73ca 0e3c 0915 85be b16c 753e 430a 7abc
000003a0: e0a1 cfbc 9558 c23f ed84 893c 202a cdbc
000003b0: 3851 2bbd 764f 8cbc 2f6c 89bc db03 92bc
000003c0: c8a5 0bbd 936f d83f b9a7 c03c 825f 28bc
000003d0: c4b9 9ebb 4831 913b 82f2 013d e4e3 683c
000003e0: dfee a7bc 95fb 86bc ea07 be3b 7933 25bd
000003f0: f5a0 a93c 705e 9f3c 79b2 4740 7507 3dbc

conv_layers.2.att_src f4 [1, 4, 32]
0.026917325 0.08190086 -0.014177184 -0.0273594 0.10915326 -0.04148828 -0.048474517 0.006724784
0.0041342205 -0.008575048 0.06227188 -0.107773386 0.055188525 0.058089975 -0.07943855 -0.28357688
-0.1829227 -0.01265834 0.045247026 -0.22821046 0.117764264 0.06871074 -0.048189495 0.09551379
-0.20989439 -0.04691439 0.06331934 0.1351412 0.043629605 -0.10821865 -0.02099172 0.0030542915
-0.06259084 -0.10273553 0.04255336 0.044649657 0.029967695 -0.012276257 0.0050175563 -0.06767652
0.073312156 -0.04433764 -0.0077238684 -0.015948487 -0.022838872 0.024575224 -0.006464602 0.2808769
0.32902277 -0.0038741813 0.016997876 0.0055091702 0.0052512097 0.03673032 -0.013022827 0.021529939
-0.015934808 0.050814096 -0.028273944 -0.024179483 -0.08723666 0.010167706 -0.010320664 -0.07108706
0.7365036 0.30723438 0.40069968 0.63888127 -0.44400546 0.3400675 -0.101025745 0.19601847
-0.106275335 0.40541795 0.4929972 0.19755821 0.22389926 -0.7483527 0.2578304 -0.40777007
-0.6121832 -0.049613103 0.23634875 -0.052867483 -0.07620035 -0.45572078 -0.4254881 0.1809359
0.24653551 0.16489635 0.50243825 0.3502594 0.21292259 -0.05119267 0.0032149786 -0.4052486
-0.008382461 -0.09051257 0.0067852535 0.0037630547 0.05050172 0.01813565 -0.022661062 0.004042523
-0.0068092146 -0.011165799 -0.036843516 -0.009257915 -0.033744607 -0.06221648 0.01237696 -0.40842208
-0.0021293766 0.027355421 0.004789643 -0.007983329 0.0019965633 0.012495156 0.01687368 0.002324795
0.0694039 -0.030756656 0.011145693 0.015570448 0.0028372915 0.061408512 -0.020724177 -0.0564473
00000000: b981 dc3c a3bb a73d 6b47 68bc d220 e0bc
00000010: bf8b df3d 9def 29bd 378d 46bd 945b dc3b
00000020: 5b78 873b 5c7e 0cbc cd10 7f3d 4bb8 dcbd
00000030: 5d0d 623d c1ef 6d3d aeb0 a2bd fd30 91be
00000040: 1750 3bbe ed64 4fbc f254 393d 01b0 69be
00000050: 642e f13d 37b8 8c3d 5962 45bd bc9c c33d
00000060: 8eee 56be 4e29 40bd 92ad 813d 7462 0a3e
00000070: f5b4 323d bda1 ddbd d4f6 abbc 822a 483b
00000080: a02f 80bd 0167 d2bd 6f4c 2e3d 8fe2 363d
00000090: d07e f53c 5b22 49bc 506a a43b fd99 8abd
000000a0: af24 963d 639b 35bd 8118 fdbb 67a6 82bc
000000b0: 9618 bbbc fb51 c93c 03d5 d3bb 19cf 8f3e
000000c0: ac75 a83e fae5 7dbb 213f 8b3c 4586 b43b
000000d0: 5712 ac3b 8872 163d b25d 55bc 8e5f b03c
000000e0: b789 82bc 7122 503d c29e e7bc 0d14 c6bc
000000f0: 22a9 b2bd 7396 263c 0118 29bc 1896 91bd
00000100: 808b 3c3f d34d 9d3e 8228 cd3e b98d 233f
00000110: af54 e3be 541d ae3e 96e6 cebd 11b9 483e
00000120: e2a6 d9bd f192 cf3e 216a fc3e b34c 4a3e
00000130: d945 653e 0b94 3fbf 5902 843e 3dc7 d0be
00000140: 0ab8 1cbf 1c37 4bbd 6805 723e 938b 58bd
00000150: ee0e 9cbd 3c54 e9be 94d9 d9be 4347 393e
00000160: ce73 7c3e 97da 283e cb9f 003f 3355 b33e
00000170: 6108 5a3e 68af 51bd 64b2 523b bf7c cfbe
00000180: 9756 09bc a85e b9bd d556 de3b 959d 763b
00000190: e4da 4e3d 3791 943c b1a3 b9bc 2477 843b
000001a0: d51f dfbb c1f0 36bc 3ae9 16bd 83ae 17bc
000001b0: c937 0abd b5d6 7ebd bcc8 4a3c b31c d1be
000001c0: 038d 0bbb 7a18 e03c 70f2 9c3b 82cc 02bc
000001d0: c6d8 023b 7cb8 4c3c ac3a 8a3c 965b 183b
000001e0: a223 8e3d 62f5 fbbc 6d9c 363c 311b 7f3c
000001f0: daf1 393b 7e87 7b3d c0c5 a9bc 4935 67bd
