embd_16_nHead_4_nlayer_3_Batch_5000.pth (torch, 41851 bytes, 16 tensors)

conv_layers.0.att_src f4 [1, 4, 16]
0	0xbca11803	-0.01966477
1	0x3ed5ad17	0.4173362
2	0x3e1e1169	0.15436329
3	0x3e875dd5	0.26438776
4	0x3e5bb026	0.21453914
5	0xbea30b96	-0.31844777
6	0xbcd424cb	-0.02589645
7	0x3ed7409a	0.42041475
8	0xbe82e273	-0.25563392
9	0x3ed07677	0.40715382
10	0x3df7465b	0.12073966
11	0x3f18a386	0.59624517
12	0xbea16494	-0.31522048
13	0x3d3c39bb	0.045953494
14	0x3f220432	0.6328765
15	0x3defa870	0.11702049
16	0x3ecb7a68	0.39741826
17	0x3e48c138	0.19604957
18	0x3ea90875	0.33014265
19	0xbf64c8dd	-0.89368993
20	0xbe034161	-0.12817909
21	0x3dd60d32	0.104517356
22	0x3f133992	0.5750972
23	0xbd521a2f	-0.051294502
24	0x3ef76c75	0.48324934
25	0xbd88d6c1	-0.06681586
26	0xbf806684	-1.0031285
27	0x3ee695ed	0.4503626
28	0x3e510bdc	0.2041468
29	0xbea0f58a	-0.3143733
30	0x3d84901a	0.06472798
31	0x3eed6d52	0.46372467
32	0xbe2491d8	-0.1607126
33	0x3ec4773b	0.38372216
34	0xbf05e72f	-0.52305883
35	0xbc2c7b64	-0.0105274655
36	0x3ebea25b	0.37233242
37	0xbed60633	-0.41801605
38	0xbe8fafff	-0.28063962
39	0x3f4763ed	0.7788685
40	0xbe8e3b69	-0.277797
41	0xbe30ce74	-0.17266256
42	0xbf24b9cc	-0.64346004
43	0x3c979cdc	0.018507414
44	0xbedcccf4	-0.43125117
45	0xbf47c08d	-0.78028184
46	0xbeca9816	-0.39569157
47	0xbe66c664	-0.22536618
48	0xbf2501b0	-0.644557
49	0x3e7ccfeb	0.2468869
50	0xbe4fcbaf	-0.20292543
51	0xbde950a7	-0.11392336
52	0xbe3c0958	-0.1836294
53	0xbe9a5989	-0.30146435
54	0x3edda035	0.4328629
55	0xbd5ee25a	-0.054415084
56	0xbd91b42e	-0.07114445
57	0xbef35600	-0.4752655
58	0x3e2d2106	0.16907129
59	0xbec37a5d	-0.38179293
60	0xbefe5af5	-0.4967877
61	0xbe13703b	-0.14398281
62	0x3ebfa308	0.3742907
63	0x3efb9b1e	0.49141783

conv_layers.0.att_dst f4 [1, 4, 16]
0	0x3e251bcb	0.16123883
1	0xbe3b6990	-0.18301988
2	0x3f3303f9	0.69927937
3	0xbdbe7469	-0.09299547
4	0xbafc3847	-0.0019242846
5	0x3e5ae2a5	0.2137552
6	0x3f3ae95f	0.73012346
7	0x3f0daa14	0.55337644
8	0xbe1c8a3e	-0.1528711
9	0xbeb37c13	-0.350556
10	0xbea1425a	-0.31495935
11	0x3e70323a	0.2345666
12	0xbed71e82	-0.42015463
13	0x3eb4f44d	0.35342637
14	0x3e57d4ae	0.21077225
15	0xbe1d75dc	-0.15376991
16	0xbdf8e7b9	-0.121535726
17	0x3ea6adee	0.32554573
18	0xbec7a095	-0.38989702
19	0xbf1caae6	-0.6119827
20	0x3e560c7c	0.209032
21	0xbec242f7	-0.37941715
22	0xbd1b05e2	-0.037847407
23	0x3f24e35c	0.6440942
24	0xbcaf4cbc	-0.021398894
25	0xbf31aa5f	-0.6940059
26	0xbe6a7073	-0.22894458
27	0xbe2d9084	-0.1694966
28	0xbe26bbc7	-0.16282569
29	0xbf27923b	-0.65457505
30	0xbeb2a608	-0.34892297
31	0x3c4fbf31	0.012679861
32	0x3e67561e	0.22591445
33	0xbe0bddfe	-0.13658902
34	0x3ea6b085	0.3255655
35	0x3f1e544b	0.6184737
36	0xbe5d0814	-0.21585113
37	0x3f0dc658	0.55380774
38	0xbf4257f3	-0.7591545
39	0x3dd7abae	0.10530792
40	0x3f09471f	0.5362415
41	0x3ed69903	0.41913614
42	0x3eee6457	0.46560928
43	0x3ecc1313	0.39858302
44	0xbe3d5ed3	-0.18493204
45	0x3d263815	0.040580828
46	0x3ed48fc4	0.41515934
47	0xbef54578	-0.47904563
48	0x3db13afc	0.086538285
49	0xbed11c9d	-0.40842143
50	0x3f2e426a	0.6807009
51	0xbec344b4	-0.38138354
52	0x3e264466	0.1623703
53	0x3e711614	0.23543578
54	0xbe6472dd	-0.22309442
55	0x3d5b7cb5	0.053585727
56	0x3de345fd	0.110973336
57	0xbf09fdbc	-0.5390279
58	0xbd951a33	-0.07280388
59	0x3edf8cba	0.43662053
60	0x3e0eced7	0.1394609
61	0xbe1794fd	-0.14802928
62	0xbf48151c	-0.7815721
63	0xbea6c211	-0.32569936

conv_layers.0.bias f4 [64]
0	0xbd87f41c	-0.06638357
1	0xbe08de9d	-0.1336617
2	0x3e35f85f	0.17770527
3	0x3f0c1043	0.54712313
4	0x3d9653e8	0.073402226
5	0x3d85393f	0.065050595
6	0x3dfcbc52	0.12340607
7	0x3d3eed62	0.046613105
8	0x3f0c5e2d	0.548312
9	0xbe802855	-0.2503077
10	0x3e952a04	0.29133618
11	0xbf076e66	-0.5290283
12	0xbe70034a	-0.23438755
13	0x3dd35b1f	0.10320114
14	0x3d4f5fa9	0.050628338
15	0xbed9f320	-0.42568302
16	0x3f22c08e	0.63575065
17	0x3eb9670a	0.36211425
18	0x3cbd6981	0.023121597
19	0xbd565817	-0.052330103
20	0x3cc1de97	0.02366571
21	0xbd9d39ee	-0.07677065
22	0x3ce21e73	0.02760241
23	0xbeba7d38	-0.3642366
24	0xbf70913f	-0.9397163
25	0x3e670cb8	0.22563446
26	0xbd5d8b2f	-0.054087814
27	0x3ec0d6f4	0.37663996
28	0xbe24949c	-0.16072315
29	0xbd8590f3	-0.065217875
30	0x3e56daf5	0.20981963
31	0xbeaddb20	-0.33956242
32	0x3e3326e2	0.17495301
33	0xbe2faa48	-0.17154801
34	0xbd6fc1b6	-0.058534347
35	0xbd4492b5	-0.047991473
36	0xbe6499a8	-0.2232424
37	0x3e282560	0.16420507
38	0xbee1cdd6	-0.44102353
39	0xbe32235f	-0.17396306
40	0x3daf5c01	0.0856247
41	0x3eb037f6	0.34417695
42	0x3e1cc803	0.15310673
43	0xbe45ec51	-0.19328429
44	0x3e154a9d	0.14579244
45	0x3df9bfa4	0.12194756
46	0xbe0dde32	-0.13854292
47	0xbe814e52	-0.25255066
48	0xbd7aec16	-0.061260305
49	0xbf0bcb5a	-0.54607165
50	0x3e18e30e	0.14930364
51	0xbf096023	-0.5366232
52	0xbe8039e1	-0.25044158
53	0xbf495be8	-0.7865586
54	0xbe0f3459	-0.13984813
55	0x3db78bc8	0.08962208
56	0x3ec438bc	0.38324535
57	0x3cd6e65d	0.026232893
58	0x3f3e4240	0.7431984
59	0x3f125d41	0.57173544
60	0x3eade779	0.33965662
61	0xbdcca826	-0.09993009
62	0xbd96dbcd	-0.073661424
63	0x3e7f8edf	0.24956845

conv_layers.0.lin_src.weight f4 [64, 4]
0	0xbca21265	-0.019784162
1	0xbf907fd7	-1.1289014
2	0x3e6d4b9a	0.23173371
3	0xbf0d2501	-0.5513459
4	0x3d42e9cb	0.047586244
5	0xbf7c6f6c	-0.98607516
6	0x3de2e64b	0.11079081
7	0x3f034145	0.5127147
8	0xbd4685f5	-0.048467595
9	0x3f61ade4	0.8815596
10	0xbddea3ee	-0.10871111
11	0xbf1925d3	-0.5982334
12	0xbecd64dc	-0.40116012
13	0xbe97cbd8	-0.29647708
14	0xbef5f10a	-0.4803546
15	0xbe03e21b	-0.12879221
16	0xbdeda0bf	-0.116029255
17	0x3e7ecb47	0.24882232
18	0x3e9e2ca9	0.30893448
19	0x3e0f3e88	0.13988698
20	0xbe114b50	-0.14188886
21	0x3f32a951	0.69789606
22	0xbdd315c7	-0.10306888
23	0xbed395c9	-0.41325215
24	0x3d989aef	0.07451426
25	0x3f72f04f	0.9489793
26	0xbdeddb8e	-0.11614142
27	0xbf667bb2	-0.90032494
28	0x3da63c04	0.08116916
29	0x3f1d5c99	0.6146942
30	0xbdcdda5e	-0.10051416
31	0xbf2877dc	-0.6580789
32	0xbe7ebf8a	-0.24877754
33	0xbf14c756	-0.5811666
34	0xbe3b665e	-0.18300769
35	0x3f475ff7	0.77880806
36	0xbf51ff76	-0.8203043
37	0xbddde8cc	-0.10835418
38	0x3de37018	0.111053646
39	0xbf965fd2	-1.1747992
40	0xbf272e49	-0.65305
41	0xbee22126	-0.44165915
42	0xbed6daf5	-0.41963926
43	0xbda62002	-0.08111574
44	0xbe1826a3	-0.14858489
45	0x3e125784	0.14291197
46	0x3e82a175	0.25513807
47	0x3f0926bf	0.53574747
48	0xbec5bac1	-0.38619044
49	0xbf40efbe	-0.7536582
50	0x3dc7ac38	0.09749645
51	0x3f2adc7b	0.66742676
52	0xbef1ceba	-0.47228032
53	0x3f431538	0.7620425
54	0xbdf2df19	-0.11858959
55	0xbf208050	-0.6269579
56	0xbf2dc5ad	-0.67879754
57	0xbe1d93de	-0.15388438
58	0xbd1cd535	-0.038289268
59	0x3da1ff0c	0.079099745
60	0xbd653951	-0.055962864
61	0x3ec2455a	0.37943536
62	0x3e11d37d	0.14240833
63	0xbf46974c	-0.7757461
64	0x3f1dd774	0.6165688
65	0x3e9db0b6	0.30798882
66	0x3ebbc262	0.3667174
67	0xbeac785c	-0.33685577
68	0xbf929fa4	-1.1454968
69	0x3f03a2ab	0.51420087
70	0xbd98dbd1	-0.07463802
71	0x3eba3acd	0.36372986
72	0xbbf0424a	-0.007332121
73	0xbf84fd78	-1.0389853
74	0x3c4edbd9	0.012625658
75	0x3f85c1ba	1.0449746
76	0xbafbcee1	-0.0019211435
77	0xbf982e43	-1.1889118
78	0x3d8f16ac	0.06986746
79	0x3e9afd90	0.30271578
80	0xbe1b3e95	-0.15160592
81	0x3ef15fe8	0.47143483
82	0xbd916084	-0.07098487
83	0xbb674b59	-0.0035292713
84	0x3e7fe7c0	0.2499075
85	0xbf56c5a1	-0.8389531
86	0x3dafda69	0.0858658
87	0x3ebcbeac	0.3686422
88	0xbe4a15d7	-0.19734894
89	0x3f1228bb	0.570934
90	0xbd972d59	-0.07381696
91	0xbed7d99d	-0.42158213
92	0xbea7039d	-0.32619944
93	0x3f090afb	0.5353238
94	0x3e1df514	0.15425521
95	0xbf63f581	-0.89046484
96	0x3eeea504	0.46610272
97	0x3f3b9e7a	0.7328869
98	0x3d75b294	0.05998476
99	0xbf1bfa70	-0.6092901
100	0xbecdb63b	-0.40178093
101	0xbeebfa9f	-0.46089646
102	0xbdaf5c60	-0.08562541
103	0x3f20fb21	0.6288319
104	0xbe6ce802	-0.23135379
105	0xbf9da9f1	-1.2317487
106	0x3d948235	0.072513975
107	0x3e2f3158	0.17108667
108	0x3d4f9856	0.05068239
109	0x3e6a040d	0.22853108
110	0xbe1bfb35	-0.15232547
111	0x3ec9a956	0.39387006
112	0x3e72f597	0.23726498
113	0x3f2e2137	0.6801943
114	0x3ea806f8	0.32817817
115	0xbf122019	-0.5708023
116	0xbdfd2254	-0.12360063
117	0x3e93a078	0.28833365
118	0xbe6b4352	-0.229749
119	0x3f4cb2c3	0.7996027
120	0x3f8f34ea	1.1188023
121	0x3dc6346a	0.09677966
122	0xbe28fb5d	-0.16502137
123	0x3ea78eb9	0.32726076
124	0xbf63ce85	-0.88987
125	0x3f19a44b	0.60016316
126	0x3d1194d2	0.035542317
127	0xbe549db2	-0.20763281
128	0x3dc1d147	0.094637446
129	0x3fab353a	1.3375618
130	0x3c005aca	0.007834146
131	0x3f071ed7	0.5278143
132	0xbf91c82f	-1.1389216
133	0xbf46ca6d	-0.7765263
134	0x3e21515c	0.15753692
135	0x3ecab985	0.39594665
136	0xbf2c5205	-0.6731265
137	0x3fdbe380	1.7178802
138	0x3c203aa7	0.009779609
139	0xbec36f1e	-0.38170713
140	0xbb1303e0	-0.002243273
141	0x3f9f083c	1.2424388
142	0x3de418b9	0.11137528
143	0xbd2fc8d5	-0.042916138
144	0x3ea18d27	0.31553003
145	0xbf223089	-0.6335531
146	0xbe845b98	-0.2585113
147	0x3e60c3e5	0.21949728
148	0x3d69b2cc	0.05705528
149	0x3f489de0	0.783659
150	0xbd7464c7	-0.05966642
151	0x3f531dbb	0.8246724
152	0x3f513880	0.8172684
153	0x3ebe57a5	0.37176242
154	0x3f1c1aad	0.60978204
155	0xbf2c378d	-0.67272264
156	0x3da1d3de	0.079017386
157	0xbe7b46ad	-0.2453868
158	0x3e8bbbd0	0.27291727
159	0x3ece9fc7	0.40356275
160	0x3f32e95b	0.6988732
161	0x3f862fc8	1.0483332
162	0xb9466b60	-0.00018922752
163	0x3f1f3028	0.62182856
164	0x3d2dee25	0.04246344
165	0x3fb2874e	1.3947542
166	0x3f0cd3ba	0.5501057
167	0xbe5fd38b	-0.21858041
168	0x3e097b66	0.13425979
169	0x3f7cf2ee	0.9880818
170	0xbd718fc4	-0.058974996
171	0x3e25eae5	0.16202886
172	0x3d0959d0	0.033532917
173	0x3fcba528	1.5909777
174	0x3f32875e	0.69737804
175	0xbe75bd99	-0.23998107
176	0xbf13b748	-0.5770154
177	0x3f6c2b38	0.92253447
178	0xbdd18fcc	-0.10232505
179	0x3eab4941	0.33454326
180	0xbf4c5dff	-0.79830927
181	0x3e98b47d	0.29825202
182	0xbe0ac986	-0.13553438
183	0xbe22f765	-0.15914686
184	0xbf410256	-0.7539419
185	0x3f33f756	0.7029928
186	0x3f01821e	0.5058917
187	0xbf42f102	-0.76149
188	0xbf39c2c8	-0.7256284
189	0x3f1c17b1	0.6097365
190	0x3ea5fa5a	0.32417566
191	0xbeb0e924	-0.34552872
192	0x3e2a65c1	0.16640379
193	0x3f35b18c	0.7097404
194	0x3d07ef6c	0.033187315
195	0xbee7e909	-0.4529498
196	0xbee0c6ce	-0.43901676
197	0x3f6ec8cb	0.93275136
198	0x3db65b37	0.089041166
199	0xbfb00c80	-1.3753815
200	0xbec97b5d	-0.3935193
201	0xbf2005cf	-0.62508863
202	0xbd94aac6	-0.07259135
203	0x3e7c04df	0.24611233
204	0xbfc017f5	-1.5007311
205	0x3e9df2f4	0.3084942
206	0x3e184845	0.14871319
207	0xbf65abc1	-0.897152
208	0x3eb706b5	0.35747305
209	0x3db0aee1	0.086271055
210	0xbdd5f0c8	-0.10446316
211	0xbe334ce7	-0.17509805
212	0x3eec21e2	0.461196
213	0x3ef6f626	0.4823467
214	0x3e235cdb	0.1595339
215	0xbee29e80	-0.4426155
216	0xbe23e270	-0.16004348
217	0x3eda3082	0.42615134
218	0x3de972dd	0.113988616
219	0x3e383350	0.17988324
220	0xbe82be80	-0.25535965
221	0x3f1422d2	0.5786563
222	0xbeb7558d	-0.35807458
223	0x3fd36f5a	1.6518357
224	0x3f241c89	0.6410604
225	0xbed098db	-0.4074162
226	0xbdf15c70	-0.11785209
227	0xbf18a7ba	-0.5963093
228	0xbe711350	-0.23542523
229	0xbf83b48b	-1.0289472
230	0xbcb6a44c	-0.02229514
231	0xbdad56ba	-0.084638074
232	0xbe5d6d8b	-0.21623819
233	0x3e710816	0.23538241
234	0x3ed1e5bf	0.40995595
235	0x3e429a6b	0.19004218
236	0xbed4b52b	-0.4154447
237	0xbdfe7e59	-0.12426443
238	0xbda68c73	-0.08132257
239	0x3f2f75b7	0.68538994
240	0x3f9d4435	1.228644
241	0x3faec518	1.3653898
242	0xbdecc5d1	-0.11561168
243	0x3ec51a5c	0.38496673
244	0xbd9b39b3	-0.07579365
245	0xbf7135b8	-0.94222593
246	0xbd82ae5f	-0.06380915
247	0x3f12b472	0.5730659
248	0x3f655ed9	0.8959785
249	0xbdf3aa7e	-0.11897753
250	0x3d8d1a06	0.06889729
251	0x3f34f460	0.70685387
252	0xbe49426a	-0.19654241
253	0x3f32de11	0.69870096
254	0x3e6d23aa	0.23158136
255	0xbe272bb5	-0.16325267

conv_layers.0.lin_dst.weight f4 [64, 4]
0	0xbca21265	-0.019784162
1	0xbf907fd7	-1.1289014
2	0x3e6d4b9a	0.23173371
3	0xbf0d2501	-0.5513459
4	0x3d42e9cb	0.047586244
5	0xbf7c6f6c	-0.98607516
6	0x3de2e64b	0.11079081
7	0x3f034145	0.5127147
8	0xbd4685f5	-0.048467595
9	0x3f61ade4	0.8815596
10	0xbddea3ee	-0.10871111
11	0xbf1925d3	-0.5982334
12	0xbecd64dc	-0.40116012
13	0xbe97cbd8	-0.29647708
14	0xbef5f10a	-0.4803546
15	0xbe03e21b	-0.12879221
16	0xbdeda0bf	-0.116029255
17	0x3e7ecb47	0.24882232
18	0x3e9e2ca9	0.30893448
19	0x3e0f3e88	0.13988698
20	0xbe114b50	-0.14188886
21	0x3f32a951	0.69789606
22	0xbdd315c7	-0.10306888
23	0xbed395c9	-0.41325215
24	0x3d989aef	0.07451426
25	0x3f72f04f	0.9489793
26	0xbdeddb8e	-0.11614142
27	0xbf667bb2	-0.90032494
28	0x3da63c04	0.08116916
29	0x3f1d5c99	0.6146942
30	0xbdcdda5e	-0.10051416
31	0xbf2877dc	-0.6580789
32	0xbe7ebf8a	-0.24877754
33	0xbf14c756	-0.5811666
34	0xbe3b665e	-0.18300769
35	0x3f475ff7	0.77880806
36	0xbf51ff76	-0.8203043
37	0xbddde8cc	-0.10835418
38	0x3de37018	0.111053646
39	0xbf965fd2	-1.1747992
40	0xbf272e49	-0.65305
41	0xbee22126	-0.44165915
42	0xbed6daf5	-0.41963926
43	0xbda62002	-0.08111574
44	0xbe1826a3	-0.14858489
45	0x3e125784	0.14291197
46	0x3e82a175	0.25513807
47	0x3f0926bf	0.53574747
48	0xbec5bac1	-0.38619044
49	0xbf40efbe	-0.7536582
50	0x3dc7ac38	0.09749645
51	0x3f2adc7b	0.66742676
52	0xbef1ceba	-0.47228032
53	0x3f431538	0.7620425
54	0xbdf2df19	-0.11858959
55	0xbf208050	-0.6269579
56	0xbf2dc5ad	-0.67879754
57	0xbe1d93de	-0.15388438
58	0xbd1cd535	-0.038289268
59	0x3da1ff0c	0.079099745
60	0xbd653951	-0.055962864
61	0x3ec2455a	0.37943536
62	0x3e11d37d	0.14240833
63	0xbf46974c	-0.7757461
64	0x3f1dd774	0.6165688
65	0x3e9db0b6	0.30798882
66	0x3ebbc262	0.3667174
67	0xbeac785c	-0.33685577
68	0xbf929fa4	-1.1454968
69	0x3f03a2ab	0.51420087
70	0xbd98dbd1	-0.07463802
71	0x3eba3acd	0.36372986
72	0xbbf0424a	-0.007332121
73	0xbf84fd78	-1.0389853
74	0x3c4edbd9	0.012625658
75	0x3f85c1ba	1.0449746
76	0xbafbcee1	-0.0019211435
77	0xbf982e43	-1.1889118
78	0x3d8f16ac	0.06986746
79	0x3e9afd90	0.30271578
80	0xbe1b3e95	-0.15160592
81	0x3ef15fe8	0.47143483
82	0xbd916084	-0.07098487
83	0xbb674b59	-0.0035292713
84	0x3e7fe7c0	0.2499075
85	0xbf56c5a1	-0.8389531
86	0x3dafda69	0.0858658
87	0x3ebcbeac	0.3686422
88	0xbe4a15d7	-0.19734894
89	0x3f1228bb	0.570934
90	0xbd972d59	-0.07381696
91	0xbed7d99d	-0.42158213
92	0xbea7039d	-0.32619944
93	0x3f090afb	0.5353238
94	0x3e1df514	0.15425521
95	0xbf63f581	-0.89046484
96	0x3eeea504	0.46610272
97	0x3f3b9e7a	0.7328869
98	0x3d75b294	0.05998476
99	0xbf1bfa70	-0.6092901
100	0xbecdb63b	-0.40178093
101	0xbeebfa9f	-0.46089646
102	0xbdaf5c60	-0.08562541
103	0x3f20fb21	0.6288319
104	0xbe6ce802	-0.23135379
105	0xbf9da9f1	-1.2317487
106	0x3d948235	0.072513975
107	0x3e2f3158	0.17108667
108	0x3d4f9856	0.05068239
109	0x3e6a040d	0.22853108
110	0xbe1bfb35	-0.15232547
111	0x3ec9a956	0.39387006
112	0x3e72f597	0.23726498
113	0x3f2e2137	0.6801943
114	0x3ea806f8	0.32817817
115	0xbf122019	-0.5708023
116	0xbdfd2254	-0.12360063
117	0x3e93a078	0.28833365
118	0xbe6b4352	-0.229749
119	0x3f4cb2c3	0.7996027
120	0x3f8f34ea	1.1188023
121	0x3dc6346a	0.09677966
122	0xbe28fb5d	-0.16502137
123	0x3ea78eb9	0.32726076
124	0xbf63ce85	-0.88987
125	0x3f19a44b	0.60016316
126	0x3d1194d2	0.035542317
127	0xbe549db2	-0.20763281
128	0x3dc1d147	0.094637446
129	0x3fab353a	1.3375618
130	0x3c005aca	0.007834146
131	0x3f071ed7	0.5278143
132	0xbf91c82f	-1.1389216
133	0xbf46ca6d	-0.7765263
134	0x3e21515c	0.15753692
135	0x3ecab985	0.39594665
136	0xbf2c5205	-0.6731265
137	0x3fdbe380	1.7178802
138	0x3c203aa7	0.009779609
139	0xbec36f1e	-0.38170713
140	0xbb1303e0	-0.002243273
141	0x3f9f083c	1.2424388
142	0x3de418b9	0.11137528
143	0xbd2fc8d5	-0.042916138
144	0x3ea18d27	0.31553003
145	0xbf223089	-0.6335531
146	0xbe845b98	-0.2585113
147	0x3e60c3e5	0.21949728
148	0x3d69b2cc	0.05705528
149	0x3f489de0	0.783659
150	0xbd7464c7	-0.05966642
151	0x3f531dbb	0.8246724
152	0x3f513880	0.8172684
153	0x3ebe57a5	0.37176242
154	0x3f1c1aad	0.60978204
155	0xbf2c378d	-0.67272264
156	0x3da1d3de	0.079017386
157	0xbe7b46ad	-0.2453868
158	0x3e8bbbd0	0.27291727
159	0x3ece9fc7	0.40356275
160	0x3f32e95b	0.6988732
161	0x3f862fc8	1.0483332
162	0xb9466b60	-0.00018922752
163	0x3f1f3028	0.62182856
164	0x3d2dee25	0.04246344
165	0x3fb2874e	1.3947542
166	0x3f0cd3ba	0.5501057
167	0xbe5fd38b	-0.21858041
168	0x3e097b66	0.13425979
169	0x3f7cf2ee	0.9880818
170	0xbd718fc4	-0.058974996
171	0x3e25eae5	0.16202886
172	0x3d0959d0	0.033532917
173	0x3fcba528	1.5909777
174	0x3f32875e	0.69737804
175	0xbe75bd99	-0.23998107
176	0xbf13b748	-0.5770154
177	0x3f6c2b38	0.92253447
178	0xbdd18fcc	-0.10232505
179	0x3eab4941	0.33454326
180	0xbf4c5dff	-0.79830927
181	0x3e98b47d	0.29825202
182	0xbe0ac986	-0.13553438
183	0xbe22f765	-0.15914686
184	0xbf410256	-0.7539419
185	0x3f33f756	0.7029928
186	0x3f01821e	0.5058917
187	0xbf42f102	-0.76149
188	0xbf39c2c8	-0.7256284
189	0x3f1c17b1	0.6097365
190	0x3ea5fa5a	0.32417566
191	0xbeb0e924	-0.34552872
192	0x3e2a65c1	0.16640379
193	0x3f35b18c	0.7097404
194	0x3d07ef6c	0.033187315
195	0xbee7e909	-0.4529498
196	0xbee0c6ce	-0.43901676
197	0x3f6ec8cb	0.93275136
198	0x3db65b37	0.089041166
199	0xbfb00c80	-1.3753815
200	0xbec97b5d	-0.3935193
201	0xbf2005cf	-0.62508863
202	0xbd94aac6	-0.07259135
203	0x3e7c04df	0.24611233
204	0xbfc017f5	-1.5007311
205	0x3e9df2f4	0.3084942
206	0x3e184845	0.14871319
207	0xbf65abc1	-0.897152
208	0x3eb706b5	0.35747305
209	0x3db0aee1	0.086271055
210	0xbdd5f0c8	-0.10446316
211	0xbe334ce7	-0.17509805
212	0x3eec21e2	0.461196
213	0x3ef6f626	0.4823467
214	0x3e235cdb	0.1595339
215	0xbee29e80	-0.4426155
216	0xbe23e270	-0.16004348
217	0x3eda3082	0.42615134
218	0x3de972dd	0.113988616
219	0x3e383350	0.17988324
220	0xbe82be80	-0.25535965
221	0x3f1422d2	0.5786563
222	0xbeb7558d	-0.35807458
223	0x3fd36f5a	1.6518357
224	0x3f241c89	0.6410604
225	0xbed098db	-0.4074162
226	0xbdf15c70	-0.11785209
227	0xbf18a7ba	-0.5963093
228	0xbe711350	-0.23542523
229	0xbf83b48b	-1.0289472
230	0xbcb6a44c	-0.02229514
231	0xbdad56ba	-0.084638074
232	0xbe5d6d8b	-0.21623819
233	0x3e710816	0.23538241
234	0x3ed1e5bf	0.40995595
235	0x3e429a6b	0.19004218
236	0xbed4b52b	-0.4154447
237	0xbdfe7e59	-0.12426443
238	0xbda68c73	-0.08132257
239	0x3f2f75b7	0.68538994
240	0x3f9d4435	1.228644
241	0x3faec518	1.3653898
242	0xbdecc5d1	-0.11561168
243	0x3ec51a5c	0.38496673
244	0xbd9b39b3	-0.07579365
245	0xbf7135b8	-0.94222593
246	0xbd82ae5f	-0.06380915
247	0x3f12b472	0.5730659
248	0x3f655ed9	0.8959785
249	0xbdf3aa7e	-0.11897753
250	0x3d8d1a06	0.06889729
251	0x3f34f460	0.70685387
252	0xbe49426a	-0.19654241
253	0x3f32de11	0.69870096
254	0x3e6d23aa	0.23158136
255	0xbe272bb5	-0.16325267

conv_layers.1.att_src f4 [1, 4, 16]
0	0xbebdd75a	-0.37078363
1	0xbf52f982	-0.8241197
2	0xbfedc245	-1.8574911
3	0xc01309ce	-2.2974734
4	0x3f06ba9f	0.5262851
5	0xbf20c79c	-0.6280458
6	0x3c11b002	0.008892061
7	0x3f6d95c7	0.9280667
8	0xc0124824	-2.285653
9	0x3cdfd7e4	0.027324624
10	0xbcf243a6	-0.029573273
11	0x3edbfb45	0.4296514
12	0xbed2feac	-0.41209924
13	0xbfeb43b9	-1.8380042
14	0xbf6b8590	-0.92000675
15	0xbf802045	-1.0009848
16	0x3e610e80	0.21978188
17	0x3f620751	0.88292414
18	0xbf24857d	-0.64266187
19	0x3ed1b17d	0.40955725
20	0xbea19ed5	-0.31566492
21	0x3d08733d	0.033313025
22	0xbf50a8c3	-0.8150751
23	0x3e84c5f5	0.2593228
24	0xbe969127	-0.29407617
25	0x3da663bf	0.08124494
26	0x3dcc1c4a	0.09966333
27	0xbd80f172	-0.06296052
28	0x3f4b8b3b	0.79509324
29	0x3f22cc77	0.6359324
30	0xbf5081fe	-0.8144835
31	0x3f8dbb9f	1.1072882
32	0xbf4bb608	-0.7957463
33	0xbf08c43c	-0.5342443
34	0x3f027c12	0.50970566
35	0x3fa2b220	1.271061
36	0x3feb1afc	1.836761
37	0x3fd63452	1.6734717
38	0x3ec1a26e	0.37819237
39	0xbcff9aa8	-0.031201676
40	0xbfb0c361	-1.3809625
41	0x3f56994d	0.8382767
42	0xbe85afad	-0.26110592
43	0x3ba4bb50	0.005027212
44	0xbf4c0ec0	-0.79710007
45	0x3e845cc7	0.25852033
46	0xbfa656bb	-1.2995218
47	0xbe8c74b4	-0.27432787
48	0x3fc6393a	1.5486214
49	0x3fd69dc5	1.6766897
50	0x3e94b66a	0.2904542
51	0xbf81e66f	-1.0148448
52	0x3f385924	0.7201102
53	0x3dd2fc5d	0.10302041
54	0x3db7505c	0.08950874
55	0x3f9e38fc	1.236114
56	0x3dddfa12	0.10838713
57	0xbeb221a2	-0.34791285
58	0xbe90ebdc	-0.28304946
59	0x3dc7bc7e	0.09752749
60	0x3eac6554	0.33671057
61	0x3f19c0d9	0.6005989
62	0x3e927fca	0.2861312
63	0x3e8520e7	0.26001665

conv_layers.1.att_dst f4 [1, 4, 16]
0	0xbe22e41e	-0.15907332
1	0xbee7f65d	-0.45305148
2	0xbf31952a	-0.6936823
3	0xbf81ba80	-1.013504
4	0x3eb065d7	0.34452698
5	0xbf207de9	-0.62692124
6	0x3b2269a5	0.0024782207
7	0x3e2c4f3a	0.16827098
8	0xbed3db1c	-0.41378105
9	0xbf1f8a10	-0.6232004
10	0x3f0b1b6b	0.5433871
11	0xbe95983c	-0.29217708
12	0x40224724	2.535592
13	0xc075b3ee	-3.839107
14	0x3f9ab751	1.2087194
15	0x3eb02455	0.3440272
16	0x3f010c3d	0.504093
17	0x3d5a944c	0.053364083
18	0x3f157a0c	0.58389354
19	0xbed8daf7	-0.42354557
20	0x3ea0a5c1	0.3137646
21	0x3e3a6dfa	0.18206015
22	0xbf280298	-0.6562896
23	0x3eacdafb	0.3376082
24	0x3deb0284	0.11475089
25	0xbf2fbb33	-0.6864502
26	0xbbbbe271	-0.005733781
27	0x3ee924a4	0.45535767
28	0x3dfe2061	0.124085195
29	0x3e8200e4	0.25391304
30	0x3d98e39e	0.074652895
31	0x3eea34fa	0.45743543
32	0x3ead1979	0.33808497
33	0xbdde5aef	-0.10857188
34	0x3ed1cebc	0.40978038
35	0xbbb509ea	-0.0055248635
36	0x3d74656e	0.059667043
37	0xbe964320	-0.29348087
38	0xbf0816a2	-0.53159535
39	0xbf063825	-0.5242942
40	0x3e47cd6a	0.19511953
41	0xbedaf816	-0.427674
42	0x3e89839e	0.26858228
43	0x3ec1925f	0.37806985
44	0xbe3f53f1	-0.18684365
45	0xbf015525	-0.50520545
46	0xbf22b946	-0.63563955
47	0xbf1b3a75	-0.60636073
48	0xbcc70cc4	-0.02429808
49	0xbebda7f8	-0.37042212
50	0x3eb8e420	0.36111546
51	0x3eeea472	0.46609837
52	0x3dacbe79	0.08434767
53	0xbf02f7cd	-0.51159364
54	0x3db222b6	0.08698027
55	0xbe99f896	-0.3007247
56	0xbeace695	-0.3376967
57	0x3eb2aef8	0.34899116
58	0xbd3fd6af	-0.046835598
59	0x3ed5a7dc	0.4172963
60	0x3f1ab79a	0.60436404
61	0x3de20eda	0.11037989
62	0xbca6085e	-0.020267662
63	0x3e146739	0.14492501

conv_layers.1.bias f4 [64]
0	0x3d82b73b	0.06382605
1	0xbe9f0ee4	-0.31066048
2	0xbd7d2984	-0.06180717
3	0xbdf1ebad	-0.1181253
4	0x3e0fcbbf	0.14042567
5	0xbc40e07d	-0.011772272
6	0xbe613aa0	-0.2199502
7	0xbdfa67ab	-0.12226804
8	0xbf5a608c	-0.8530357
9	0x3d720e1f	0.0590955
10	0xbb1fb073	-0.0024366647
11	0xbd6efb8b	-0.05834536
12	0x3d597d53	0.053098034
13	0xbe4cdbd0	-0.20005727
14	0x3d3a7450	0.04552108
15	0xbdc3d793	-0.09562602
16	0x3e61c3f0	0.220474
17	0x3fb33c9d	1.4002873
18	0xbeb6cf47	-0.35705015
19	0x3d550ef1	0.052016202
20	0xbd130b25	-0.0358993
21	0x3d042689	0.032263312
22	0x3c434528	0.011918344
23	0x3e6eef0d	0.23333378
24	0x3d848a56	0.06471698
25	0x3bc17b06	0.005904558
26	0x3ce69036	0.028144937
27	0xbe15d9fc	-0.14633936
28	0x3da15dbc	0.078792065
29	0x3e37336c	0.1789071
30	0xbcb3fae8	-0.021970227
31	0xbd4aba32	-0.049493976
32	0xbdab6f0a	-0.083707884
33	0xbe8cfb97	-0.27535698
34	0xbd6709f1	-0.056405965
35	0x3e6b5430	0.22981334
36	0x3d927bca	0.07152517
37	0x3d9944bc	0.07483813
38	0x3d7c35b1	0.06157464
39	0x3bbcd76e	0.005762986
40	0x3dd2810c	0.1027852
41	0xbd71322d	-0.058885742
42	0x3d75ea3a	0.06003783
43	0xbce46b0f	-0.02788308
44	0xbfb65cfb	-1.4247125
45	0xbc30eaaa	-0.010798136
46	0xbf3ecf4a	-0.7453505
47	0xbca1fc7c	-0.019773714
48	0x3d48e9ea	0.049051203
49	0x3fcbcdc7	1.5922173
50	0xbcf93e1e	-0.030425128
51	0xbf5c8c5d	-0.8615168
52	0x3d3ba609	0.04581264
53	0xbdd043d7	-0.101691894
54	0xbe44d1d5	-0.1922067
55	0xbdc21ef2	-0.094785586
56	0xbbb12810	-0.005406387
57	0xbe1bb0d9	-0.15204181
58	0x3c2a5400	0.010396004
59	0x3a765580	0.0009396896
60	0xbc9586cb	-0.01825275
61	0xbe947931	-0.28998712
62	0x3d0ff7b8	0.035148352
63	0x3e18fbe8	0.14939845

conv_layers.1.lin_src.weight f4 [64, 64]
0	0xbcdaa56d	-0.02669021
1	0xbf1d4a48	-0.6144147
2	0x3f220b78	0.6329875
3	0xbe25412d	-0.16138144
4	0x3e251eef	0.16125081
5	0x3eb73fcc	0.3579086
6	0x3eb659ea	0.35615474
7	0x3eb8fa80	0.36128616
8	0x3d3bcac5	0.045847673
9	0x3b7a577e	0.0038199122
10	0xbe1ee7e0	-0.15518141
11	0x3d2bbb7f	0.041926857
12	0xbebae4b9	-0.36502627
13	0x3e18a77f	0.14907645
14	0xbd54ac3e	-0.051922075
15	0x3dc3f9cf	0.095691316
16	0x3e055024	0.13018852
17	0x3e960c56	0.29306287
18	0xbe57780a	-0.21041885
19	0xbf048dd3	-0.51778907
20	0x3affbd78	0.0019511422
21	0x3d0e98fc	0.034813866
22	0x3ee7dbf2	0.45284992
23	0x3e823a8d	0.25435296
24	0xbdb8dad5	-0.09026114
25	0xbd0d99a1	-0.03457034
26	0xbd9b8955	-0.075945534
27	0xbe3278e1	-0.17428924
28	0x3e19f0c7	0.15033256
29	0x3daf2fc6	0.08554034
30	0x3da42672	0.08015145
31	0x3efe82f4	0.49709284
32	0xbe37871e	-0.17922637
33	0x3da6e8a7	0.08149844
34	0xbe6346bd	-0.22194953
35	0x3d6d4376	0.057925664
36	0x3da3a2ce	0.07990037
37	0xbea2f5f5	-0.31828275
38	0x3ca2622a	0.019822199
39	0xbdba13de	-0.090858206
40	0xbdaceae9	-0.08443243
41	0xbdfe4e72	-0.12417306
42	0x3e42948b	0.19001977
43	0x3dccb466	0.09995346
44	0x3e9b7194	0.3036009
45	0x3dd2d01a	0.102935985
46	0x3e27f5cf	0.16402362
47	0x3e7275bd	0.23677726
48	0xbe8ceecd	-0.2752594
49	0xba974757	-0.0011541647
50	0xbe048864	-0.12942654
51	0x3de05a57	0.10954731
52	0xbd725a8d	-0.059168387
53	0xbea43214	-0.32069457
54	0xba77e6b3	-0.0009456679
55	0x3d2be13e	0.041962855
56	0x3cf4cade	0.02988189
57	0xbdb08afe	-0.08620261
58	0xbd8961a5	-0.06708077
59	0x3e838dcc	0.2569412
60	0xbd2a0045	-0.041504163
61	0x3e48ae03	0.1959763
62	0x3dec041b	0.115242206
63	0x3e3bc365	0.18336256
64	0x3e131d26	0.14366588
65	0xbe68045b	-0.22657911
66	0x3e02ebe5	0.12785299
67	0x3db6a1c1	0.08917571
68	0xbeb0602f	-0.34448382
69	0x3d8ede90	0.06976044
70	0xbe6e1e9e	-0.23253867
71	0x3d2968a1	0.041359548
72	0xbdd540f7	-0.10412782
73	0xbe69c9af	-0.22830842
74	0x3ca629d4	0.020283617
75	0x3e508938	0.20364845
76	0x3e9eb3d4	0.30996573
77	0x3e322af8	0.17399204
78	0x3f864767	1.049054
79	0xbd9f1521	-0.07767702
80	0xbeb5f493	-0.35538158
81	0xbd1e0b6d	-0.038585115
82	0x3eb9fb66	0.36324614
83	0x3f7020b8	0.93799925
84	0xbe8ac684	-0.2710458
85	0x3f096e1a	0.53683627
86	0x3e9f6c8a	0.31137496
87	0x3e86d60a	0.26335174
88	0x3bfc1a9b	0.0076936013
89	0xbd48cf49	-0.049025808
90	0x3f911a44	1.1336141
91	0xbeecad48	-0.46225953
92	0x3dde4f0d	0.108549215
93	0x3e9f15fc	0.3107146
94	0x3c1f9064	0.009739015
95	0x3f459059	0.7717338
96	0xbeec6853	-0.46173343
97	0xbd22d9ed	-0.03975861
98	0xbef56fd0	-0.4793687
99	0x3ce09bbd	0.027418012
100	0x3d71dce8	0.059048563
101	0xbdfb4cc3	-0.122705005
102	0xbedb95a6	-0.4288761
103	0xbdf16f5a	-0.11788817
104	0xbb86afd0	-0.004110314
105	0xbee9380e	-0.4555058
106	0xbe0f0c07	-0.13969432
107	0xbef6269f	-0.4807634
108	0xbc8f64e6	-0.017504167
109	0x3d927bfd	0.07152555
110	0x3e291680	0.1651249
111	0xbd934dd4	-0.07192579
112	0xbf2563bd	-0.64605314
113	0xbf85f17f	-1.0464324
114	0x3e94782b	0.2899793
115	0xbf435d5d	-0.76314336
116	0x3c01560b	0.007894049
117	0xbf0f37e4	-0.5594466
118	0xbd079b79	-0.033107255
119	0xbe0d707a	-0.13812438
120	0xbe1fd24a	-0.15607563
121	0xbe2dbf99	-0.1696762
122	0xbeb3df51	-0.35131314
123	0x3ec87fde	0.39160055
124	0xbdf51c9c	-0.119683474
125	0x3f12e610	0.573823
126	0x3f070062	0.5273496
127	0xbeb80bcb	-0.35946497
128	0xbcfc5da0	-0.030806363
129	0xbe4542af	-0.19263719
130	0x3e6efe7a	0.23339263
131	0xbdc7ce43	-0.09756138
132	0xbd555ef3	-0.052092504
133	0xbd8cddd4	-0.06878248
134	0xbdf17503	-0.11789896
135	0xbe4da8ee	-0.20083973
136	0xbe0b80d8	-0.13623369
137	0xbf37cb9c	-0.7179506
138	0xbdd49bae	-0.10381256
139	0xbdd2da6d	-0.10295568
140	0xbc93f990	-0.018063337
141	0x3c39a4f9	0.011330836
142	0x3eb6384c	0.35589826
143	0xbdd582b4	-0.1042532
144	0xbe885fc1	-0.26635554
145	0xbc12aac8	-0.00895185
146	0x3f4bf41d	0.7966936
147	0x3f1cabcd	0.6119965
148	0x3b38cc6e	0.0028198021
149	0x3da8099b	0.08204957
150	0x3e9b144e	0.3028893
151	0xbeedd37d	-0.46450415
152	0xbecfb42e	-0.40567154
153	0x3eb4f8b6	0.35346
154	0x3e7e388b	0.24826257
155	0x3e931d7e	0.28733438
156	0xbe7677f5	-0.24069197
157	0x3ea917ec	0.33026063
158	0xbc7535fc	-0.014966484
159	0xbe8fe977	-0.28107807
160	0x3df377eb	0.11888107
161	0x3dc935e0	0.09824729
162	0xbefdb688	-0.49553323
163	0x3e763168	0.24042284
164	0xbe07f453	-0.13276796
165	0xbe8b4851	-0.2720361
166	0xbea25d8e	-0.31712002
167	0xba98cef2	-0.0011658354
168	0xbe5c17e7	-0.21493493
169	0xbe361b2f	-0.17783807
170	0x3e6b037a	0.22950545
171	0xbe9ef0f6	-0.31043214
172	0x3d0aeba7	0.03391614
173	0x3db23c1f	0.087028734
174	0xbe830030	-0.2558608
175	0x3d1e3ab9	0.03863022
176	0xbe61812e	-0.22021934
177	0x3db81d4e	0.089899644
178	0xbd45816c	-0.04821913
179	0x3e8a7733	0.27044067
180	0x3e03317b	0.12811844
181	0x3ec417fe	0.38299555
182	0x3e51140d	0.20417805
183	0x3dd5831c	0.10425398
184	0xbebd10df	-0.36926934
185	0x3d7ce0f8	0.061737984
186	0x3c02e5be	0.007989345
187	0xbf024aba	-0.50895274
188	0xbec3b97b	-0.38227448
189	0xbd08b4de	-0.033375613
190	0x3eed7de7	0.46385118
191	0xbe0d01bc	-0.13770193
192	0x3e4930b1	0.1964748
193	0xbf4d634d	-0.80229646
194	0x3f05a549	0.5220533
195	0xbd8a32e7	-0.0674799
196	0x3dd8a62e	0.10578571
197	0x3f20258f	0.6255731
198	0xbe4dea51	-0.20108916
199	0x3ec4c8c2	0.38434416
200	0xbe87b443	-0.26504716
201	0xbf5959a3	-0.849024
202	0xbea959d9	-0.3307636
203	0x3f1e7f6a	0.6191317
204	0xbe0421d7	-0.12903534
205	0xbc9176fa	-0.017756928
206	0x3fdb62f0	1.7139568
207	0xbec72bec	-0.38900697
208	0xbeaddfdc	-0.33959854
209	0xbf087675	-0.5330575
210	0x3f0aaadf	0.5416698
211	0x3f20296e	0.62563217
212	0x3f1ff070	0.62476254
213	0x3e4388da	0.19095173
214	0x3ee84453	0.45364627
215	0xbf3c1e06	-0.7348331
216	0xbf291e96	-0.66062295
217	0x3f1d77bd	0.6151083
218	0x3f4950de	0.7863902
219	0x3ed0dbdc	0.4079274
220	0xbd68edd5	-0.05686744
221	0x3f86313d	1.0483776
222	0x3e46c40a	0.1941072
223	0xbf8d6888	-1.1047525
224	0xbec8a404	-0.39187634
225	0x3ecd132e	0.40053695
226	0xbefa1d69	-0.48850563
227	0x3f85025c	1.0391345
228	0xbeb2ee96	-0.34947652
229	0xbe4203b4	-0.18946725
230	0x3cedf075	0.029045323
231	0x3eddae6d	0.4329714
232	0xbf195a79	-0.59903675
233	0x3d149afc	0.036280617
234	0xbee124b0	-0.43973303
235	0xbf0c6c66	-0.548529
236	0xbe2d036a	-0.16895834
237	0xbee1e2e7	-0.44118425
238	0xbc8c4172	-0.01712105
239	0x3f1d81dc	0.61526275
240	0xbf10cd46	-0.5656322
241	0xbee0d4d0	-0.43912363
242	0x3e0dc0f6	0.1384314
243	0x3e375eb0	0.17907214
244	0xbdb3c7c4	-0.08778337
245	0x3e74e917	0.23917042
246	0x3f262e09	0.64913994
247	0x3f5a5a64	0.85294175
248	0xbf6f750e	-0.93537986
249	0xbeb30aba	-0.3496912
250	0x3d5a29f6	0.053262673
251	0x3e5188ce	0.20462343
252	0x3e2b63fd	0.16737361
253	0x3eb27f2e	0.34862655
254	0x3f497f6e	0.7871007
255	0x3eacdf6d	0.3376421

conv_layers.1.lin_dst.weight f4 [64, 64]
0	0xbcdaa56d	-0.02669021
1	0xbf1d4a48	-0.6144147
2	0x3f220b78	0.6329875
3	0xbe25412d	-0.16138144
4	0x3e251eef	0.16125081
5	0x3eb73fcc	0.3579086
6	0x3eb659ea	0.35615474
7	0x3eb8fa80	0.36128616
8	0x3d3bcac5	0.045847673
9	0x3b7a577e	0.0038199122
10	0xbe1ee7e0	-0.15518141
11	0x3d2bbb7f	0.041926857
12	0xbebae4b9	-0.36502627
13	0x3e18a77f	0.14907645
14	0xbd54ac3e	-0.051922075
15	0x3dc3f9cf	0.095691316
16	0x3e055024	0.13018852
17	0x3e960c56	0.29306287
18	0xbe57780a	-0.21041885
19	0xbf048dd3	-0.51778907
20	0x3affbd78	0.0019511422
21	0x3d0e98fc	0.034813866
22	0x3ee7dbf2	0.45284992
23	0x3e823a8d	0.25435296
24	0xbdb8dad5	-0.09026114
25	0xbd0d99a1	-0.03457034
26	0xbd9b8955	-0.075945534
27	0xbe3278e1	-0.17428924
28	0x3e19f0c7	0.15033256
29	0x3daf2fc6	0.08554034
30	0x3da42672	0.08015145
31	0x3efe82f4	0.49709284
32	0xbe37871e	-0.17922637
33	0x3da6e8a7	0.08149844
34	0xbe6346bd	-0.22194953
35	0x3d6d4376	0.057925664
36	0x3da3a2ce	0.07990037
37	0xbea2f5f5	-0.31828275
38	0x3ca2622a	0.019822199
39	0xbdba13de	-0.090858206
40	0xbdaceae9	-0.08443243
41	0xbdfe4e72	-0.12417306
42	0x3e42948b	0.19001977
43	0x3dccb466	0.09995346
44	0x3e9b7194	0.3036009
45	0x3dd2d01a	0.102935985
46	0x3e27f5cf	0.16402362
47	0x3e7275bd	0.23677726
48	0xbe8ceecd	-0.2752594
49	0xba974757	-0.0011541647
50	0xbe048864	-0.12942654
51	0x3de05a57	0.10954731
52	0xbd725a8d	-0.059168387
53	0xbea43214	-0.32069457
54	0xba77e6b3	-0.0009456679
55	0x3d2be13e	0.041962855
56	0x3cf4cade	0.02988189
57	0xbdb08afe	-0.08620261
58	0xbd8961a5	-0.06708077
59	0x3e838dcc	0.2569412
60	0xbd2a0045	-0.041504163
61	0x3e48ae03	0.1959763
62	0x3dec041b	0.115242206
63	0x3e3bc365	0.18336256
64	0x3e131d26	0.14366588
65	0xbe68045b	-0.22657911
66	0x3e02ebe5	0.12785299
67	0x3db6a1c1	0.08917571
68	0xbeb0602f	-0.34448382
69	0x3d8ede90	0.06976044
70	0xbe6e1e9e	-0.23253867
71	0x3d2968a1	0.041359548
72	0xbdd540f7	-0.10412782
73	0xbe69c9af	-0.22830842
74	0x3ca629d4	0.020283617
75	0x3e508938	0.20364845
76	0x3e9eb3d4	0.30996573
77	0x3e322af8	0.17399204
78	0x3f864767	1.049054
79	0xbd9f1521	-0.07767702
80	0xbeb5f493	-0.35538158
81	0xbd1e0b6d	-0.038585115
82	0x3eb9fb66	0.36324614
83	0x3f7020b8	0.93799925
84	0xbe8ac684	-0.2710458
85	0x3f096e1a	0.53683627
86	0x3e9f6c8a	0.31137496
87	0x3e86d60a	0.26335174
88	0x3bfc1a9b	0.0076936013
89	0xbd48cf49	-0.049025808
90	0x3f911a44	1.1336141
91	0xbeecad48	-0.46225953
92	0x3dde4f0d	0.108549215
93	0x3e9f15fc	0.3107146
94	0x3c1f9064	0.009739015
95	0x3f459059	0.7717338
96	0xbeec6853	-0.46173343
97	0xbd22d9ed	-0.03975861
98	0xbef56fd0	-0.4793687
99	0x3ce09bbd	0.027418012
100	0x3d71dce8	0.059048563
101	0xbdfb4cc3	-0.122705005
102	0xbedb95a6	-0.4288761
103	0xbdf16f5a	-0.11788817
104	0xbb86afd0	-0.004110314
105	0xbee9380e	-0.4555058
106	0xbe0f0c07	-0.13969432
107	0xbef6269f	-0.4807634
108	0xbc8f64e6	-0.017504167
109	0x3d927bfd	0.07152555
110	0x3e291680	0.1651249
111	0xbd934dd4	-0.07192579
112	0xbf2563bd	-0.64605314
113	0xbf85f17f	-1.0464324
114	0x3e94782b	0.2899793
115	0xbf435d5d	-0.76314336
116	0x3c01560b	0.007894049
117	0xbf0f37e4	-0.5594466
118	0xbd079b79	-0.033107255
119	0xbe0d707a	-0.13812438
120	0xbe1fd24a	-0.15607563
121	0xbe2dbf99	-0.1696762
122	0xbeb3df51	-0.35131314
123	0x3ec87fde	0.39160055
124	0xbdf51c9c	-0.119683474
125	0x3f12e610	0.573823
126	0x3f070062	0.5273496
127	0xbeb80bcb	-0.35946497
128	0xbcfc5da0	-0.030806363
129	0xbe4542af	-0.19263719
130	0x3e6efe7a	0.23339263
131	0xbdc7ce43	-0.09756138
132	0xbd555ef3	-0.052092504
133	0xbd8cddd4	-0.06878248
134	0xbdf17503	-0.11789896
135	0xbe4da8ee	-0.20083973
136	0xbe0b80d8	-0.13623369
137	0xbf37cb9c	-0.7179506
138	0xbdd49bae	-0.10381256
139	0xbdd2da6d	-0.10295568
140	0xbc93f990	-0.018063337
141	0x3c39a4f9	0.011330836
142	0x3eb6384c	0.35589826
143	0xbdd582b4	-0.1042532
144	0xbe885fc1	-0.26635554
145	0xbc12aac8	-0.00895185
146	0x3f4bf41d	0.7966936
147	0x3f1cabcd	0.6119965
148	0x3b38cc6e	0.0028198021
149	0x3da8099b	0.08204957
150	0x3e9b144e	0.3028893
151	0xbeedd37d	-0.46450415
152	0xbecfb42e	-0.40567154
153	0x3eb4f8b6	0.35346
154	0x3e7e388b	0.24826257
155	0x3e931d7e	0.28733438
156	0xbe7677f5	-0.24069197
157	0x3ea917ec	0.33026063
158	0xbc7535fc	-0.014966484
159	0xbe8fe977	-0.28107807
160	0x3df377eb	0.11888107
161	0x3dc935e0	0.09824729
162	0xbefdb688	-0.49553323
163	0x3e763168	0.24042284
164	0xbe07f453	-0.13276796
165	0xbe8b4851	-0.2720361
166	0xbea25d8e	-0.31712002
167	0xba98cef2	-0.0011658354
168	0xbe5c17e7	-0.21493493
169	0xbe361b2f	-0.17783807
170	0x3e6b037a	0.22950545
171	0xbe9ef0f6	-0.31043214
172	0x3d0aeba7	0.03391614
173	0x3db23c1f	0.087028734
174	0xbe830030	-0.2558608
175	0x3d1e3ab9	0.03863022
176	0xbe61812e	-0.22021934
177	0x3db81d4e	0.089899644
178	0xbd45816c	-0.04821913
179	0x3e8a7733	0.27044067
180	0x3e03317b	0.12811844
181	0x3ec417fe	0.38299555
182	0x3e51140d	0.20417805
183	0x3dd5831c	0.10425398
184	0xbebd10df	-0.36926934
185	0x3d7ce0f8	0.061737984
186	0x3c02e5be	0.007989345
187	0xbf024aba	-0.50895274
188	0xbec3b97b	-0.38227448
189	0xbd08b4de	-0.033375613
190	0x3eed7de7	0.46385118
191	0xbe0d01bc	-0.13770193
192	0x3e4930b1	0.1964748
193	0xbf4d634d	-0.80229646
194	0x3f05a549	0.5220533
195	0xbd8a32e7	-0.0674799
196	0x3dd8a62e	0.10578571
197	0x3f20258f	0.6255731
198	0xbe4dea51	-0.20108916
199	0x3ec4c8c2	0.38434416
200	0xbe87b443	-0.26504716
201	0xbf5959a3	-0.849024
202	0xbea959d9	-0.3307636
203	0x3f1e7f6a	0.6191317
204	0xbe0421d7	-0.12903534
205	0xbc9176fa	-0.017756928
206	0x3fdb62f0	1.7139568
207	0xbec72bec	-0.38900697
208	0xbeaddfdc	-0.33959854
209	0xbf087675	-0.5330575
210	0x3f0aaadf	0.5416698
211	0x3f20296e	0.62563217
212	0x3f1ff070	0.62476254
213	0x3e4388da	0.19095173
214	0x3ee84453	0.45364627
215	0xbf3c1e06	-0.7348331
216	0xbf291e96	-0.66062295
217	0x3f1d77bd	0.6151083
218	0x3f4950de	0.7863902
219	0x3ed0dbdc	0.4079274
220	0xbd68edd5	-0.05686744
221	0x3f86313d	1.0483776
222	0x3e46c40a	0.1941072
223	0xbf8d6888	-1.1047525
224	0xbec8a404	-0.39187634
225	0x3ecd132e	0.40053695
226	0xbefa1d69	-0.48850563
227	0x3f85025c	1.0391345
228	0xbeb2ee96	-0.34947652
229	0xbe4203b4	-0.18946725
230	0x3cedf075	0.029045323
231	0x3eddae6d	0.4329714
232	0xbf195a79	-0.59903675
233	0x3d149afc	0.036280617
234	0xbee124b0	-0.43973303
235	0xbf0c6c66	-0.548529
236	0xbe2d036a	-0.16895834
237	0xbee1e2e7	-0.44118425
238	0xbc8c4172	-0.01712105
239	0x3f1d81dc	0.61526275
240	0xbf10cd46	-0.5656322
241	0xbee0d4d0	-0.43912363
242	0x3e0dc0f6	0.1384314
243	0x3e375eb0	0.17907214
244	0xbdb3c7c4	-0.08778337
245	0x3e74e917	0.23917042
246	0x3f262e09	0.64913994
247	0x3f5a5a64	0.85294175
248	0xbf6f750e	-0.93537986
249	0xbeb30aba	-0.3496912
250	0x3d5a29f6	0.053262673
251	0x3e5188ce	0.20462343
252	0x3e2b63fd	0.16737361
253	0x3eb27f2e	0.34862655
254	0x3f497f6e	0.7871007
255	0x3eacdf6d	0.3376421

conv_layers.2.att_src f4 [1, 4, 16]
0	0x3fe95399	1.8228637
1	0x3f6e13f7	0.92999214
2	0x3f89a59f	1.0753669
3	0x3e1eb689	0.15499319
4	0xbedf4d2a	-0.4361356
5	0xbe1e5f92	-0.15466145
6	0xbfa1b270	-1.263258
7	0x3ebe20a0	0.37134266
8	0x3e25739e	0.16157386
9	0x3fa1afdc	1.2631793
10	0xbd0e7f8a	-0.0347896
11	0x3fc30871	1.5236951
12	0x3f4dcc49	0.8038984
13	0x3b132c8a	0.0022456967
14	0xc0172b01	-2.3619998
15	0xbfa19b3a	-1.2625496
16	0xbe95a1b4	-0.29224932
17	0x405823b4	3.3771791
18	0xbea62c5d	-0.32455721
19	0xbff6b92d	-1.9275261
20	0xbfad60b0	-1.3545132
21	0x3e47bf89	0.19506659
22	0x3fd13641	1.6344682
23	0x405c2d29	3.4402564
24	0xc0119bce	-2.2751346
25	0x3f3034eb	0.68830746
26	0x3eee82e8	0.4658425
27	0x3e56f0ae	0.2099025
28	0x401b25b6	2.4241767
29	0x3ca1f791	0.01977137
30	0x3eb4f38d	0.35342064
31	0x3e072b9a	0.13200226
32	0x40241e51	2.5643504
33	0x3fb438c8	1.4079828
34	0x3ec5c0b0	0.3862357
35	0xbe8d3925	-0.2758266
36	0xbf2adfca	-0.66747725
37	0xbfd2d7ff	-1.6472167
38	0xbefb7f7d	-0.49120703
39	0x3e901e9a	0.28148347
40	0x3ee28547	0.44242308
41	0x402f3c5a	2.7380586
42	0xbf8f638f	-1.1202258
43	0xc02aa6fe	-2.6664424
44	0x3e945e8e	0.2897839
45	0x3e9d5eee	0.30736488
46	0xbf720fa6	-0.9455513
47	0xbd3676a4	-0.04454674
48	0xbf76bdd6	-0.96383417
49	0x3e3b3a8c	0.18284053
50	0xbf8c3a7f	-1.0955352
51	0xc022c1b3	-2.5430725
52	0xc00ff1ca	-2.2491326
53	0x3f2df4d4	0.67951703
54	0x3fd17b3d	1.6365734
55	0x3f99fb0a	1.2029736
56	0x3f876a1b	1.0579256
57	0x3fad9928	1.3562365
58	0xbebf80dd	-0.37403002
59	0xbdbdb53f	-0.092630856
60	0xbf446aaa	-0.76725256
61	0xbf808615	-1.0040919
62	0xbf723722	-0.94615376
63	0x3e0674fb	0.13130562

conv_layers.2.att_dst f4 [1, 4, 16]
0	0x3eb270b7	0.3485162
1	0x3c63a145	0.01389343
2	0xbf1e859c	-0.6192262
3	0x3eac95dd	0.33708087
4	0x3d685703	0.056723606
5	0xbe92b477	-0.2865331
6	0xbee8a64e	-0.4543938
7	0x3e33f0ec	0.17572373
8	0xbcf5f1a8	-0.030022457
9	0xbef7090f	-0.482491
10	0x3ee9ab11	0.45638326
11	0xbf52775c	-0.8221338
12	0xbed344c8	-0.41263413
13	0x3efa3753	0.48870334
14	0xbda64edd	-0.08120511
15	0x3e95550b	0.29166445
16	0xbd360c6b	-0.044445436
17	0x3de325d6	0.11091201
18	0x3f1e7a9f	0.61905855
19	0xbea28046	-0.3173849
20	0xbe52a618	-0.20571172
21	0x3ecd36f3	0.40080985
22	0xbd83b4fa	-0.06431003
23	0x3e194713	0.14968519
24	0xbef83b8d	-0.48482934
25	0xbeae2346	-0.34011286
26	0x3d828697	0.06373327
27	0x3eb91f10	0.3615651
28	0xbd973d7a	-0.073847726
29	0xbec7581e	-0.38934416
30	0xbdd49093	-0.10379138
31	0x3f2be42e	0.6714505
32	0xbe775b2a	-0.2415587
33	0x3f2fff2f	0.68748754
34	0xbf3b1062	-0.73071873
35	0x3f364517	0.7119917
36	0xbf14363b	-0.5789525
37	0xbf269d70	-0.6508398
38	0xbf07c966	-0.53041685
39	0xbccbec7d	-0.02489304
40	0x400ffc8a	2.2497888
41	0x3c3b3b87	0.011427767
42	0x3e66f7e4	0.225555
43	0xbebf3f92	-0.37353188
44	0xbf912fd0	-1.1342716
45	0x3f4d4a29	0.80191284
46	0xbe84b4ed	-0.25919285
47	0xbf1affe9	-0.6054674
48	0xbee3a747	-0.4446356
49	0x3ecc7fca	0.39941245
50	0x3f1617b0	0.58629894
51	0xbda1555d	-0.0787761
52	0xbda18d96	-0.078883335
53	0x3d64ab1d	0.05582725
54	0xbf380f28	-0.71898127
55	0x3edace02	0.42735296
56	0xbf1cdbc9	-0.61272866
57	0x3e8be6d0	0.27324533
58	0xbe9f14d1	-0.3107057
59	0xbc2844bd	-0.010270295
60	0xbd8b2bf5	-0.067954935
61	0x3dd2292a	0.10261758
62	0xbe90f3d7	-0.28311035
63	0x3e52d1c3	0.2058783

conv_layers.2.bias f4 [64]
0	0x3f02e764	0.51134324
1	0x3e8a433c	0.2700442
2	0x3e5a67d2	0.21328667
3	0xbd31c1c8	-0.043397695
4	0xbe33a06d	-0.17541666
5	0xbd1b706a	-0.037949003
6	0xbec6e071	-0.3884311
7	0x3d5e8432	0.05432529
8	0xbb903fea	-0.0044021504
9	0x3e2698dc	0.16269249
10	0x3c9993f9	0.018747317
11	0x3fc49fc5	1.5361258
12	0x3ec4ff19	0.38475874
13	0xbc986fe0	-0.018608034
14	0xbf41123d	-0.75418454
15	0xbcd43312	-0.025903258
16	0xbd4365b5	-0.047704417
17	0x3dec6b2b	0.11543878
18	0x3d0433d7	0.032276
19	0xbe84794f	-0.258738
20	0xbf001676	-0.5003427
21	0x3b24130d	0.002503577
22	0xbe559bc4	-0.20860201
23	0x3ed9225e	0.42409033
24	0xbebcaf9f	-0.36852738
25	0x3ddb53f2	0.10709371
26	0x3cd980ee	0.026550736
27	0x3cc96852	0.024585877
28	0x3ef053a2	0.46938807
29	0xbcd1ff34	-0.025634386
30	0xbc000800	-0.007814407
31	0x3be5a80a	0.007008557
32	0x3e1e1980	0.15439415
33	0x3e8b5b1c	0.27217948
34	0x3a815423	0.0009866994
35	0xbcd35c60	-0.025800884
36	0x3d93919e	0.07205509
37	0xbdb5ea8c	-0.08882627
38	0x3d1fcfff	0.03901672
39	0xbb1d5b0d	-0.002401057
40	0xbc8bd5bf	-0.017069696
41	0x3d68c324	0.056826726
42	0x3e2434b1	0.16035725
43	0x3d0d6902	0.03452397
44	0xbd801492	-0.062539235
45	0xbc9edde0	-0.019392908
46	0xbddf7e04	-0.109127074
47	0xbd213a19	-0.039362047
48	0xbda110f0	-0.07864559
49	0x3cf92dc1	0.030417325
50	0xbda06d8a	-0.07833393
51	0x3e808a50	0.25105524
52	0x3cf898e1	0.030346336
53	0xbd98f2b3	-0.07468166
54	0xbec33fc9	-0.38134602
55	0x3efc070e	0.49224132
56	0xbee3fca8	-0.445287
57	0x3e29e10d	0.16589756
58	0x3d1c0d1d	0.038098443
59	0x3bb53e97	0.005531143
60	0xbe8f4e80	-0.27989578
61	0xbd6ea0c2	-0.05825878
62	0xbd8db432	-0.06919135
63	0xbc131275	-0.0089765685

conv_layers.2.lin_src.weight f4 [64, 64]
0	0x3e550f26	0.2080656
1	0xbed36a74	-0.41292155
2	0xbf14bb76	-0.5809854
3	0x3e10fe68	0.14159548
4	0x3e526f0d	0.20550175
5	0xbe21be54	-0.1579526
6	0xbddf200f	-0.108947866
7	0xbfa02f5a	-1.251445
8	0x3eaedf70	0.34154844
9	0xbed76ecc	-0.4207672
10	0xbebba3df	-0.3664846
11	0xbd26e0eb	-0.040741842
12	0xbd26907b	-0.04066513
13	0x3cf72270	0.030167788
14	0x3edb8dd9	0.4288166
15	0xbeef74eb	-0.4676889
16	0xbe0eb157	-0.13934837
17	0x3ebbfeb9	0.36717775
18	0xbe9e6823	-0.30938825
19	0x3add27db	0.001687284
20	0xbe2622e2	-0.16224244
21	0xbbbc2df8	-0.0057427846
22	0xbe33233a	-0.17493907
23	0xbc0093ee	-0.007847769
24	0x3e056710	0.13027596
25	0x3ea95793	0.33074626
26	0xbd1e02c1	-0.038576845
27	0x3e26ddcc	0.16295546
28	0xbed55e9b	-0.4167374
29	0xbd886d88	-0.066615164
30	0xbe51af21	-0.20476963
31	0x3e0181dc	0.12647194
32	0x3f1292f8	0.57255507
33	0x3f29f28d	0.6638573
34	0x3ed7673f	0.42070958
35	0x3e585bbb	0.21128742
36	0x3e1a934a	0.15095249
37	0xbd134425	-0.03595366
38	0x3e97cc2d	0.2964796
39	0xbe8937ab	-0.26800284
40	0xbe160a62	-0.14652398
41	0xbea574cd	-0.32315674
42	0xbea5f2b8	-0.32411742
43	0xbd9f006a	-0.07763751
44	0xbe4736cf	-0.19454502
45	0xbf1f491f	-0.6222095
46	0xbe6b8fd5	-0.23004086
47	0xbe49aa2d	-0.19693823
48	0x3f534496	0.8252653
49	0x3f26108a	0.64868987
50	0x3e9e6b5f	0.30941293
51	0xbec5fd1d	-0.38669673
52	0x3e8ef5d1	0.27921918
53	0x3e569895	0.20956643
54	0xbae32be5	-0.0017331807
55	0x3f0ca76e	0.5494298
56	0xbd2d1632	-0.042257495
57	0xbd7b820c	-0.06140332
58	0x3e310898	0.17288435
59	0xbdd2cd17	-0.10293024
60	0x3e2d0044	0.16894633
61	0x3daab87b	0.08335968
62	0xbdd24a0a	-0.10268028
63	0x3ed64f08	0.4185717
64	0xbe84f389	-0.25967053
65	0xbf16f108	-0.58961535
66	0xbed110fa	-0.40833265
67	0xbdcf54ca	-0.10123594
68	0x3e575403	0.21028142
69	0xbd19e40b	-0.037570994
70	0xbe423fcc	-0.18969649
71	0xbf57eb55	-0.84343463
72	0x3db84671	0.08997811
73	0xbe92e539	-0.28690508
74	0xbcaa7105	-0.020805845
75	0x3ddfc03c	0.10925338
76	0x3e32494a	0.1741077
77	0xbe706d5f	-0.23479222
78	0x3ec580b1	0.38574746
79	0xbe98af4c	-0.2982124
80	0xbe4947df	-0.19656323
81	0x3e7caf92	0.2467635
82	0xbefc2fbb	-0.49255165
83	0xbdf3b851	-0.1190039
84	0xbe0d0409	-0.1377107
85	0xbde86a7b	-0.113484345
86	0xbe4ffbdf	-0.20310925
87	0xbda55961	-0.08073688
88	0x3ecc6a4b	0.39924845
89	0x3e1d2343	0.15345483
90	0x3d73f51e	0.059559934
91	0x3d3b5267	0.045732882
92	0xbe1f377f	-0.15548514
93	0x3c83b149	0.016075747
94	0xbe83f1dc	-0.25770462
95	0xbda95c96	-0.082696125
96	0x3edce43a	0.43142873
97	0x3f3aa900	0.72914124
98	0x3e9529ed	0.2913355
99	0x3e88fc42	0.26754957
100	0x3d9a75f6	0.075420305
101	0xbeb53ec7	-0.35399458
102	0xbd8dd80d	-0.06925974
103	0xbe70c0d2	-0.23511055
104	0x3d0bde21	0.034147386
105	0x3cafbb52	0.021451626
106	0xbd57452e	-0.05255621
107	0xbe684b7d	-0.22685046
108	0x3db1ee1e	0.086879954
109	0xbe4cebc1	-0.20011808
110	0xbe98f1f0	-0.29872084
111	0xbde6c8fc	-0.112688035
112	0x3f0f5a76	0.5599741
113	0x3dd71301	0.105016716
114	0x3e9f9891	0.31171086
115	0xbe1d6eb5	-0.15374263
116	0x3e8a5808	0.27020288
117	0x3df4df89	0.119566984
118	0xbe651d14	-0.22374374
119	0x3e1d7ad1	0.15378882
120	0xbe96019f	-0.29298112
121	0xbe6d9797	-0.23202358
122	0xba13c698	-0.0005637198
123	0xbebda45f	-0.37039468
124	0x3ec85265	0.39125362
125	0x3e0fe789	0.14053167
126	0xbe38173a	-0.1797761
127	0x3e2b7418	0.16743505
128	0xbd9c7a62	-0.0764053
129	0xbf07c67f	-0.53037256
130	0xbf03cc4a	-0.51483595
131	0x3e06e411	0.13172938
132	0x3edd478f	0.43218657
133	0x3d1b2041	0.037872557
134	0xbe47c516	-0.19508776
135	0xbf983e0e	-1.1893938
136	0x3e706dd4	0.23479396
137	0xbe96808f	-0.29394957
138	0xbeb1f804	-0.34759533
139	0xbd61cb90	-0.055125773
140	0x3e0cba1e	0.13742873
141	0xbe285be7	-0.16441308
142	0x3abe61f8	0.0014525047
143	0xbdef41bb	-0.11682459
144	0x39073980	0.00012896024
145	0x3f1c09f6	0.609527
146	0xbf00426e	-0.50101364
147	0x3ddb5947	0.10710388
148	0xbee395af	-0.44450137
149	0x3d31d281	0.043413643
150	0xbe6b0fa5	-0.22955187
151	0xbe628f3c	-0.22124952
152	0x3e4108e4	0.18851048
153	0x3e9310df	0.2872381
154	0x3b2a49de	0.002598397
155	0x3e73551b	0.23762934
156	0xbdd30265	-0.10303191
157	0x3ddc2ada	0.10750361
158	0xbd8f177a	-0.069869
159	0x3d9d8b56	0.07692592
160	0x3ea0cf67	0.31408235
161	0x3f5af48b	0.8552939
162	0x3e61593e	0.220067
163	0x3d9a0d6e	0.07522093
164	0x3c88676c	0.016650878
165	0xbee6deeb	-0.45091948
166	0x3dc57217	0.096409015
167	0xbeb1c925	-0.34723774
168	0x3e854987	0.2603266
169	0xbe4a06b9	-0.19729127
170	0xbe72ac39	-0.2369851
171	0xbdf3661e	-0.11884712
172	0xbd80208c	-0.06256208
173	0xbdc8ee61	-0.09811092
174	0xbb2ba8cd	-0.0026193142
175	0xbe9c0e28	-0.3047955
176	0x3f2a2df9	0.664764
177	0x3e17770a	0.14791504
178	0x3e70ee70	0.23528457
179	0x3dfa8072	0.1223153
180	0x3ee6a480	0.4504738
181	0x3d95b524	0.073099405
182	0x3dc21a4c	0.09477672
183	0x3ea6a4a0	0.32547474
184	0xbe98a84c	-0.298159
185	0x3ce6234b	0.028093
186	0x3e644ff8	0.2229613
187	0xbe7db448	-0.24775803
188	0x3cc94c77	0.024572594
189	0x3d9de8fa	0.077104524
190	0xbd22fcd7	-0.039791908
191	0x3eab8935	0.33503118
192	0xbe681b76	-0.22666726
193	0xbd9e86ca	-0.07740553
194	0x3c391091	0.011295454
195	0x3e274c93	0.16337804
196	0x3bce96cf	0.006304599
197	0x3e1702ac	0.14747113
198	0xbea1be66	-0.31590575
199	0x3f209be1	0.6273785
200	0xbda4367c	-0.080182046
201	0x3e989fd8	0.2980945
202	0xbdf0c7d7	-0.117568664
203	0xbdb1cf3e	-0.086821064
204	0xbe8c57df	-0.2741079
205	0xbe54070f	-0.20705818
206	0xbcff98cb	-0.031200787
207	0x3e412a89	0.18863882
208	0xbc94f66d	-0.018183911
209	0xbdcdff95	-0.10058514
210	0x3e96ada2	0.29429346
211	0xbd37150b	-0.044697803
212	0xbea76433	-0.32693633
213	0xbe1db76c	-0.15402001
214	0xbf82efa5	-1.0229384
215	0xbc75c70d	-0.015001071
216	0xbe2d9008	-0.16949475
217	0xbed6c14a	-0.41944343
218	0xbe7ac5da	-0.24489537
219	0x3c9b0329	0.018922405
220	0x3c25f7b0	0.010129854
221	0x3e7cc01e	0.24682662
222	0xbf384b25	-0.7198966
223	0x3ce93bdf	0.028470932
224	0xbec76a22	-0.3894816
225	0xbde4ec95	-0.11177937
226	0x3c1c60bf	0.00954455
227	0xbd16fda0	-0.03686297
228	0xbd8842a3	-0.06653335
229	0xbdbbd276	-0.091710016
230	0x3de842cc	0.113408655
231	0xbdd573ca	-0.10422476
232	0xbe2f854b	-0.17140691
233	0xbf141f24	-0.57860017
234	0x3ed6b9f4	0.41938746
235	0x3f07cd15	0.53047305
236	0x3d9d32d4	0.0767571
237	0x3f189cd9	0.5961433
238	0x3e85b455	0.26114145
239	0x3c178a5a	0.009249294
240	0xbe517c13	-0.20457487
241	0x3d53e869	0.051735315
242	0xbd36bc68	-0.044613272
243	0x3db2f206	0.087375686
244	0x3f041d71	0.51607424
245	0x3cb227c9	0.021747487
246	0xbe5f00d9	-0.21777667
247	0x3e0d381d	0.13790937
248	0xbee5245c	-0.44754303
249	0x3d1269c4	0.035745397
250	0xbf6502c2	-0.89457333
251	0xbe82f429	-0.25576904
252	0xbf208956	-0.6270956
253	0xbd2df970	-0.04247421
254	0x3eb98fc4	0.36242497
255	0xbe6bede2	-0.23039964
