embd_16_nHead_4_nlayer_2_Batch_50.pth (torch, 23295 bytes, 11 tensors)

conv_layers.0.att_src f4 [1, 4, 16]
000000 f7 70 8b 3d 2b 48 c5 be e1 24 4d 3f 5f 93 48 3e
       0.06808656 -0.38531622 0.801344 0.19587468
000010 2c ba 50 3e be c6 9b be 72 ed 12 3f af a8 91 3e
       0.20383519 -0.30425066 0.5739356 0.28449008
000020 ee d9 bd be ff fa 15 3f 40 c7 86 3d 13 09 18 3f
       -0.3708033 0.58586115 0.06580973 0.59388846
000030 92 22 99 be ff 7e 65 3c 5b 9e 27 bc d9 05 56 3e
       -0.29909188 0.014007329 -0.010230626 0.20900668
000040 14 df f9 3e 67 1f 2e 3e 3d d4 c3 3e 1b 2c 54 be
       0.48803008 0.17004167 0.38247862 -0.2071995
000050 f0 18 a5 be fc 18 d1 3e d7 87 7f 3e 7f 46 82 3b
       -0.32245588 0.40839374 0.24954163 0.003975689
000060 bc 56 0e 3f ab 4d 0b be 6d 66 ba be 4c e2 c6 3e
       0.55601096 -0.13603847 -0.3640627 0.38844526
000070 f3 ac 9d 3e a7 07 ec be 7d c4 67 bd f1 62 2e 3f
       0.30796012 -0.46099588 -0.05658387 0.6811972
000080 ec 63 e7 bc 92 51 b6 3d c4 69 a2 be d6 a3 f3 bc
       -0.028245889 0.08902277 -0.31721318 -0.029741209
000090 81 63 5e 3e 63 2a 11 bf ce 2c 82 bd cb 34 17 3f
       0.21717645 -0.567053 -0.06356202 0.5906493
0000a0 e4 fc 8b be 87 5b 06 be f2 e6 19 bf c2 fb 43 3d
       -0.27341378 -0.13120852 -0.6011802 0.047847517
0000b0 86 62 e6 be fd c7 4d bf 6f cc 98 be 16 03 fa bd
       -0.44997042 -0.8038328 -0.2984347 -0.1220762
0000c0 9a 0a 19 bf 7d 7b 90 3e a1 2b 4a be 95 5b 8b bd
       -0.597818 0.28219214 -0.19743206 -0.06804577
0000d0 3e 2b 86 be 48 2c 81 be 70 ac f1 3e e5 0d 39 bd
       -0.26204866 -0.25229096 0.47201872 -0.045179266
0000e0 e7 79 01 be 4a 0b 7c be b9 d9 57 3e 61 71 e4 be
       -0.12644158 -0.24613681 0.21079148 -0.4461775
0000f0 62 e2 17 bf 9d b1 e5 bd 23 3f ef 3e d9 58 0b 3f
       -0.5932981 -0.11215518 0.46727857 0.54432446

conv_layers.0.att_dst f4 [1, 4, 16]
000000 d9 b7 1a 3e 36 ff e4 3d d8 24 7a 3e 54 b5 33 be
       0.15109195 0.1118149 0.24428117 -0.1754964
000010 54 c9 d9 3d fa 01 13 bd 25 ae b0 3e b4 11 03 3e
       0.106341034 -0.035890557 0.34507862 0.12799722
000020 7f 9d c1 bd 1c af 25 bf 50 c9 cd be 40 05 96 3e
       -0.09453868 -0.6472032 -0.40192652 0.2930088
000030 29 de 46 bd a3 7c 13 bd 27 fe 6a 3e 14 63 54 be
       -0.048551712 -0.036007535 0.22948514 -0.2074092
000040 7b cd 47 be bb 9e bc 3e c0 92 50 3e 0d de c8 bd
       -0.19511978 0.36839852 0.2036848 -0.09807978
000050 be 8c db 3d 8f ba 13 be 22 fc 8d be c3 df c0 3e
       0.10720204 -0.14426635 -0.27731425 0.37670717
000060 68 f3 b8 be f1 46 e1 be 41 ce bd 3d e1 26 7c bd
       -0.36123204 -0.43999436 0.092678554 -0.061560515
000070 a4 d9 68 be 76 0c e4 be 95 4c 83 be 8b 80 7a be
       -0.22739273 -0.44540757 -0.25644365 -0.24463098
000080 66 72 c2 3d 8d 37 4d 3e 97 b1 db be 4a 1f db 3e
       0.09494476 0.20040722 -0.42908928 0.4279731
000090 a6 72 53 be 9d 1c ed 3e f6 a5 db be a7 b5 e0 3e
       -0.20649204 0.46310893 -0.42900056 0.4388859
0000a0 97 83 b8 3e e0 52 f2 3e 46 7f 84 3d 79 b3 eb 3e
       0.36037895 0.47328854 0.06469588 0.46035364
0000b0 6f 07 db be 85 a5 16 bf 43 5d b2 3e 8c 65 be be
       -0.4277911 -0.5884631 0.34836778 -0.3718685
0000c0 29 7e 51 be af 1a 7e be 9a 61 b1 3e 07 a2 8f bd
       -0.20458283 -0.24814866 0.34644777 -0.07013326
0000d0 93 64 af bd 86 0b 09 3f cf 7c 40 3d b3 65 94 be
       -0.08564105 0.5353321 0.046994027 -0.2898384
0000e0 60 56 83 be f1 82 af be df e0 93 3e 9d e2 3d 3e
       -0.25651836 -0.34279588 0.288825 0.18543477
0000f0 4c 34 6f 3d 9b cc 94 3d 4a 5d bd be 07 de 65 bd
       0.058399484 0.07265588 -0.36985236 -0.056119945

conv_layers.0.bias f4 [64]
000000 d8 52 20 3a 72 25 74 be ec ce 6c 3e 48 bc 0a be
       0.00061158603 -0.23842409 0.2312581 -0.13548386
000010 c3 47 21 3e 96 94 1a be 09 af d6 3e d1 db 6d be
       0.15750031 -0.15095744 0.41930416 -0.23228385
000020 be 1e 4f bd b4 75 36 3e 10 13 18 be 5d fc 44 3e
       -0.050566427 0.17818338 -0.14851022 0.19236894
000030 c3 aa 24 3e 45 39 3b be bd 8d 9d be e4 0f 4b 3e
       0.16080765 -0.18283565 -0.307722 0.1983028
000040 ce 0e 40 3b b8 b3 8f be 39 e2 47 3e ea 51 40 3e
       0.00293057 -0.28066802 0.19519891 0.18781248
000050 df e1 15 be 82 04 3b 3e 2d d6 58 be 3c c0 cd 3d
       -0.14636944 0.18263438 -0.21175452 0.100464314
000060 44 88 17 3e 34 57 5b be 29 0a 16 3e 5f eb 43 be
       0.14798075 -0.21419984 0.14652313 -0.19132756
000070 54 56 08 3e d7 8a 28 be b2 c1 04 be 99 05 1e 3e
       0.13314182 -0.16459213 -0.12964514 0.15431823
000080 08 a0 23 be d9 16 11 3e 80 e0 32 bd 3c 13 52 be
       -0.15979016 0.14168872 -0.04367113 -0.2051515
000090 7d 4d 43 be 07 fa 91 be f4 37 67 3e 7e d8 0d 3e
       -0.19072528 -0.28511068 0.22579938 0.13852116
0000a0 87 4b 3a be 1d 0d 11 3e a6 5d 3a be e8 0f 18 3e
       -0.18192874 0.14165159 -0.18199787 0.14849818
0000b0 57 e4 62 be 52 7c ea bd c8 42 73 3d e8 ae fc 3d
       -0.22157417 -0.114494935 0.05938986 0.12338048
0000c0 6f 7d 63 be ad bd 32 3e bd 09 87 be ae b8 1f 3e
       -0.22215818 0.17455168 -0.26374617 0.15597793
0000d0 66 b4 40 be 5b 35 26 3e 5c 66 d8 3d 70 4f 36 be
       -0.18818817 0.16231291 0.105663985 -0.1780374
0000e0 e4 28 52 be cd 33 17 3e 85 fe 1e 3e 95 7f 17 be
       -0.20523411 0.14765854 0.15526779 -0.14794762
0000f0 48 49 31 be 0d 13 27 3e 16 ca 3d 3e 37 46 31 3e
       -0.17313111 0.16315861 0.18534121 0.17311941

conv_layers.0.lin_src.weight f4 [64, 4]
000000 44 66 08 bd c1 4a 3c 3e de 59 86 3e 8e ef cb bc
       -0.033300653 0.18387891 0.26240438 -0.024894502
000010 f6 b0 9b be 9d 51 06 bf e6 81 4e be 0c 80 68 bc
       -0.30408448 -0.5246828 -0.2016674 -0.014190685
000020 34 ff 88 3e 1c 7a b2 3e 39 e9 4b 3e 2d 1a ef 3c
       0.26757205 0.34858787 0.19913186 0.029187286
000030 7d f5 cb 3d 76 28 91 be c8 dc c5 be ee f7 35 be
       0.099589325 -0.28351182 -0.38645005 -0.17770359
000040 7b 6c 70 3a 5c c7 aa 3d c9 7d af 3e 47 06 7f 3e
       0.0009171438 0.08338806 0.34275654 0.24904738
000050 3b 63 53 be 82 74 93 be f7 50 83 be 3f 2f 68 be
       -0.20643322 -0.28799826 -0.2564771 -0.22674273
000060 5b 38 17 3f ca 73 24 3f 07 d1 b3 3e 4b d3 54 be
       0.59070367 0.6423918 0.35120413 -0.20783727
000070 41 69 81 be 39 05 1a bf f1 38 9a be 5c 46 fc bd
       -0.25275615 -0.6016422 -0.30121568 -0.123181075
000080 9d 8c 7f be 08 ae b3 be 2d e0 e9 be 4e 98 b1 bb
       -0.24955983 -0.35093713 -0.45678845 -0.0054197675
000090 1b 0c bd 3e 10 8b eb 3e 9b e8 91 3e 58 a7 b4 be
       0.36923298 0.46004534 0.28497776 -0.35283923
0000a0 57 74 11 3d 8e 22 1a be ab 34 c5 be 26 90 24 be
       0.03551134 -0.15052244 -0.38516745 -0.16070613
0000b0 98 b8 0c 3e 40 74 b1 3e 67 18 b7 3e 15 7c 6e 3d
       0.13742292 0.34659004 0.35760805 0.058223803
0000c0 18 ec be bd 6d b0 ed 3e 68 ba c8 3e fa 0d 68 3e
       -0.09322375 0.46423665 0.39204717 0.22661582
0000d0 a5 6f 04 bf a0 35 a0 be e0 f8 99 be 8a ce 46 be
       -0.51732856 -0.31290913 -0.3007269 -0.19414726
0000e0 1c 87 ce be 8e 9b 35 bf ed 31 c6 be c3 6f 62 bd
       -0.40337455 -0.7094048 -0.38709965 -0.055282366
0000f0 aa 4f ec 3e 36 f7 b2 3d 76 93 f7 3e c3 73 3a bd
       0.4615453 0.08738558 0.4835469 -0.045520555
000100 69 9b 9c bd a6 44 7a 3e 48 16 c6 3e 25 c2 bf be
       -0.0764683 0.2444025 0.38688874 -0.37452808
000110 44 84 e8 3c 24 b1 17 3e af 6f a6 be b0 f6 05 bb
       0.028383382 0.14813668 -0.32507083 -0.0020441227
000120 b2 eb 91 3d 46 77 6f 3c 1c c0 80 3e 25 d5 04 3e
       0.071250334 0.014615839 0.25146568 0.12971933
000130 e2 8d ae 3e 2d d2 80 bc 81 f3 6e 3e ba 06 31 be
       0.34092623 -0.01572522 0.23335077 -0.17287722
000140 76 c8 6d be 64 82 da be 3d 58 65 be b2 28 a9 3c
       -0.23221001 -0.42677605 -0.22396941 0.020649288
000150 19 c2 c0 3e ba 32 36 3e 9b 1a 86 3e 6d df a5 be
       0.37648085 0.17792788 0.26192173 -0.32397023
000160 a2 0d c3 be 56 5f 11 bf a4 27 80 be 1a d8 51 bd
       -0.3809634 -0.56786096 -0.25030243 -0.05123148
000170 47 2b 82 3e 98 de ca 3e e4 23 b1 3e 84 94 32 be
       0.25423643 0.3962295 0.34597695 -0.17439467
000180 2c 32 88 3e 9f ca 2c 3e ca 80 8b 3e e9 c5 cb be
       0.26600778 0.16874169 0.27246696 -0.3979943
000190 ac 97 05 bd c9 10 63 be e0 68 9b be 37 c2 bd bd
       -0.03261535 -0.22174372 -0.3035345 -0.09265559
0001a0 71 75 88 3c b1 68 2c be bb 6c 47 3e 28 50 cd bd
       0.016657563 -0.16836812 0.19475071 -0.10025054
0001b0 03 76 23 3d 4a 65 38 bd dc 3d b8 be 73 f1 c2 ba
       0.039907467 -0.04501847 -0.35984695 -0.0014872983
0001c0 4f 5d 90 3d 73 48 d6 3e 6b ab e1 3e 7e 24 95 be
       0.07049047 0.4185215 0.44076094 -0.29129404
0001d0 57 40 76 be 79 47 e2 be d2 20 65 be 0b ac d5 3b
       -0.24047981 -0.44195154 -0.22375801 0.0065207533
0001e0 3e 6e 88 bd 88 c9 e2 be 50 22 b1 be 1c fc 73 3d
       -0.06661652 -0.4429438 -0.3459649 0.059566602
0001f0 0d 63 7f 3d e9 28 d5 3e 3d 68 30 3e 1b 31 dd 3d
       0.06235032 0.41632774 0.17227264 0.10800382
000200 d4 0b 06 bf b5 cf f0 3b 5b 9f 91 be c1 2e f9 bd
       -0.523618 0.0073489794 -0.2844189 -0.12167121
000210 6a 87 70 3d 80 2a ab 3e 11 ee b0 3e fc bb 4e 3e
       0.05872289 0.33430862 0.3455663 0.20188898
000220 4e 34 d1 be 97 1d fe bd 12 a6 99 be b8 3d 78 3d
       -0.40860218 -0.124079876 -0.30009514 0.060605735
000230 64 6c f4 be 7c 09 5b be 57 c9 c8 be cf 71 98 be
       -0.47738945 -0.21390337 -0.3921611 -0.2977433
000240 dc 2b 91 bd 6b b9 dd be 63 6b ea be cb d6 0e be
       -0.07088444 -0.43305525 -0.45785055 -0.13949125
000250 b5 d6 ff be 8f 5c c5 be 8e c1 91 be ea dd 7e 3e
       -0.49968496 -0.3854718 -0.28467983 0.24889341
000260 93 6c b1 3e 8b 94 21 3f e1 ca 98 3e 1d e6 26 be
       0.34653148 0.63117284 0.29842284 -0.16298719
000270 fc a2 35 3e 83 45 6d 3e 9b 66 d9 3e be 15 a5 3d
       0.17737955 0.23171048 0.42461094 0.080607876
000280 36 be 17 be eb b0 d1 bd f9 d8 8a be 8b d4 7a bd
       -0.14818653 -0.102388225 -0.27118662 -0.061237853
000290 a6 93 90 3e dc fe f4 3e 2f 5c b2 3e 53 97 95 3e
       0.28237647 0.47850692 0.34835956 0.29217014
0002a0 c6 42 3f be 1c 97 61 be c6 c0 8a be b6 73 48 bd
       -0.18677816 -0.220303 -0.271002 -0.048938476
0002b0 a6 6d c2 3d 0b b0 d9 3d 4a 33 00 3f 42 8f a9 3e
       0.0949357 0.10629281 0.5007826 0.3311711
0002c0 8a fa 03 bf 77 62 84 be 79 e5 93 be f0 26 78 bd
       -0.5155417 -0.25856373 -0.2888601 -0.06058401
0002d0 fb bc dd be b2 a9 00 bf 6b 18 68 be db 95 54 3e
       -0.43308243 -0.50258934 -0.22665565 0.2076029
0002e0 0d 66 f5 bd 5e 26 c7 bb c0 e9 42 3e 2d ad 32 3e
       -0.11982355 -0.006077572 0.19034481 0.17448874
0002f0 e0 b6 5c 3e e8 91 2c 3e 0f 5c be 3e 73 41 41 3e
       0.21554136 0.16852534 0.3717961 0.18872623
000300 ed f5 90 be 97 3f bc be df 4b 61 be 1c 7c 19 be
       -0.28312626 -0.36767265 -0.22001599 -0.1498875
000310 fc c1 9f bd 6d 57 f3 3e be 7d d4 3e 4d 3c 83 be
       -0.078006715 0.47527638 0.41502184 -0.25631943
000320 03 33 ba be d2 1f 67 be 94 3a 86 be 47 5c e8 3d
       -0.36367044 -0.22570732 -0.26216567 0.113457255
000330 99 a4 12 be 0a 92 8c 3e 5a de e2 3e 24 31 d6 3d
       -0.14320602 0.2745517 0.44310266 0.104585916
000340 78 80 7f 3d 6d 9a 34 be fa 67 df be dd e1 69 3e
       0.062378377 -0.17637034 -0.43634015 0.22840066
000350 23 e4 1b 3e 2d 05 fb 3e ac a8 ea 3e 77 0f 4a 3c
       0.15223746 0.49027386 0.4583181 0.012332789
000360 77 5b b2 bd 6a 66 63 3d 19 02 84 3e 63 8f 4c bd
       -0.08708852 0.05551759 0.2578285 -0.04994143
000370 ce e3 d3 bd c6 76 aa 3d 02 32 d2 be f1 67 85 be
       -0.10346185 0.083234355 -0.41053778 -0.26055863
000380 89 bb 39 be 1e 41 ab bd 47 1f ec be df a6 9a bd
       -0.18137945 -0.083620295 -0.46117613 -0.075513594
000390 34 ac 7d bd 7c 19 72 bd 7e a0 21 3e 76 ba 4e be
       -0.061931804 -0.059106335 0.15783879 -0.20188317
0003a0 ae 9c eb 3d ed 79 6f 3d d1 f4 d8 3e a5 41 98 3d
       0.11504494 0.058465887 0.4237428 0.07434396
0003b0 0b 96 be bd 1b 0b f6 bd 38 6f 98 be 7c 59 92 3e
       -0.09305962 -0.12013837 -0.29772353 0.28583896
0003c0 ff 7e bf 3d 31 b8 c6 bd 31 47 cf be 5c 10 9c 3e
       0.093503945 -0.097031005 -0.40484002 0.3048123
0003d0 54 39 45 3e ab ec aa 3e 2e dc af 3e 6b fd e5 bd
       0.1926015 0.33383688 0.3434767 -0.11229976
0003e0 3c ec 98 bd e5 0f 61 bd 7a fe d2 3e e2 08 3e 3e
       -0.07466933 -0.0549468 0.41209775 0.18558076
0003f0 ce 38 29 3e a7 01 e3 3e f6 c5 ca 3e c2 85 19 be
       0.16525576 0.44337198 0.39604157 -0.14992431

conv_layers.0.lin_dst.weight f4 [64, 4]
000000 44 66 08 bd c1 4a 3c 3e de 59 86 3e 8e ef cb bc
       -0.033300653 0.18387891 0.26240438 -0.024894502
000010 f6 b0 9b be 9d 51 06 bf e6 81 4e be 0c 80 68 bc
       -0.30408448 -0.5246828 -0.2016674 -0.014190685
000020 34 ff 88 3e 1c 7a b2 3e 39 e9 4b 3e 2d 1a ef 3c
       0.26757205 0.34858787 0.19913186 0.029187286
000030 7d f5 cb 3d 76 28 91 be c8 dc c5 be ee f7 35 be
       0.099589325 -0.28351182 -0.38645005 -0.17770359
000040 7b 6c 70 3a 5c c7 aa 3d c9 7d af 3e 47 06 7f 3e
       0.0009171438 0.08338806 0.34275654 0.24904738
000050 3b 63 53 be 82 74 93 be f7 50 83 be 3f 2f 68 be
       -0.20643322 -0.28799826 -0.2564771 -0.22674273
000060 5b 38 17 3f ca 73 24 3f 07 d1 b3 3e 4b d3 54 be
       0.59070367 0.6423918 0.35120413 -0.20783727
000070 41 69 81 be 39 05 1a bf f1 38 9a be 5c 46 fc bd
       -0.25275615 -0.6016422 -0.30121568 -0.123181075
000080 9d 8c 7f be 08 ae b3 be 2d e0 e9 be 4e 98 b1 bb
       -0.24955983 -0.35093713 -0.45678845 -0.0054197675
000090 1b 0c bd 3e 10 8b eb 3e 9b e8 91 3e 58 a7 b4 be
       0.36923298 0.46004534 0.28497776 -0.35283923
0000a0 57 74 11 3d 8e 22 1a be ab 34 c5 be 26 90 24 be
       0.03551134 -0.15052244 -0.38516745 -0.16070613
0000b0 98 b8 0c 3e 40 74 b1 3e 67 18 b7 3e 15 7c 6e 3d
       0.13742292 0.34659004 0.35760805 0.058223803
0000c0 18 ec be bd 6d b0 ed 3e 68 ba c8 3e fa 0d 68 3e
       -0.09322375 0.46423665 0.39204717 0.22661582
0000d0 a5 6f 04 bf a0 35 a0 be e0 f8 99 be 8a ce 46 be
       -0.51732856 -0.31290913 -0.3007269 -0.19414726
0000e0 1c 87 ce be 8e 9b 35 bf ed 31 c6 be c3 6f 62 bd
       -0.40337455 -0.7094048 -0.38709965 -0.055282366
0000f0 aa 4f ec 3e 36 f7 b2 3d 76 93 f7 3e c3 73 3a bd
       0.4615453 0.08738558 0.4835469 -0.045520555
000100 69 9b 9c bd a6 44 7a 3e 48 16 c6 3e 25 c2 bf be
       -0.0764683 0.2444025 0.38688874 -0.37452808
000110 44 84 e8 3c 24 b1 17 3e af 6f a6 be b0 f6 05 bb
       0.028383382 0.14813668 -0.32507083 -0.0020441227
000120 b2 eb 91 3d 46 77 6f 3c 1c c0 80 3e 25 d5 04 3e
       0.071250334 0.014615839 0.25146568 0.12971933
000130 e2 8d ae 3e 2d d2 80 bc 81 f3 6e 3e ba 06 31 be
       0.34092623 -0.01572522 0.23335077 -0.17287722
000140 76 c8 6d be 64 82 da be 3d 58 65 be b2 28 a9 3c
       -0.23221001 -0.42677605 -0.22396941 0.020649288
000150 19 c2 c0 3e ba 32 36 3e 9b 1a 86 3e 6d df a5 be
       0.37648085 0.17792788 0.26192173 -0.32397023
000160 a2 0d c3 be 56 5f 11 bf a4 27 80 be 1a d8 51 bd
       -0.3809634 -0.56786096 -0.25030243 -0.05123148
000170 47 2b 82 3e 98 de ca 3e e4 23 b1 3e 84 94 32 be
       0.25423643 0.3962295 0.34597695 -0.17439467
000180 2c 32 88 3e 9f ca 2c 3e ca 80 8b 3e e9 c5 cb be
       0.26600778 0.16874169 0.27246696 -0.3979943
000190 ac 97 05 bd c9 10 63 be e0 68 9b be 37 c2 bd bd
       -0.03261535 -0.22174372 -0.3035345 -0.09265559
0001a0 71 75 88 3c b1 68 2c be bb 6c 47 3e 28 50 cd bd
       0.016657563 -0.16836812 0.19475071 -0.10025054
0001b0 03 76 23 3d 4a 65 38 bd dc 3d b8 be 73 f1 c2 ba
       0.039907467 -0.04501847 -0.35984695 -0.0014872983
0001c0 4f 5d 90 3d 73 48 d6 3e 6b ab e1 3e 7e 24 95 be
       0.07049047 0.4185215 0.44076094 -0.29129404
0001d0 57 40 76 be 79 47 e2 be d2 20 65 be 0b ac d5 3b
       -0.24047981 -0.44195154 -0.22375801 0.0065207533
0001e0 3e 6e 88 bd 88 c9 e2 be 50 22 b1 be 1c fc 73 3d
       -0.06661652 -0.4429438 -0.3459649 0.059566602
0001f0 0d 63 7f 3d e9 28 d5 3e 3d 68 30 3e 1b 31 dd 3d
       0.06235032 0.41632774 0.17227264 0.10800382
000200 d4 0b 06 bf b5 cf f0 3b 5b 9f 91 be c1 2e f9 bd
       -0.523618 0.0073489794 -0.2844189 -0.12167121
000210 6a 87 70 3d 80 2a ab 3e 11 ee b0 3e fc bb 4e 3e
       0.05872289 0.33430862 0.3455663 0.20188898
000220 4e 34 d1 be 97 1d fe bd 12 a6 99 be b8 3d 78 3d
       -0.40860218 -0.124079876 -0.30009514 0.060605735
000230 64 6c f4 be 7c 09 5b be 57 c9 c8 be cf 71 98 be
       -0.47738945 -0.21390337 -0.3921611 -0.2977433
000240 dc 2b 91 bd 6b b9 dd be 63 6b ea be cb d6 0e be
       -0.07088444 -0.43305525 -0.45785055 -0.13949125
000250 b5 d6 ff be 8f 5c c5 be 8e c1 91 be ea dd 7e 3e
       -0.49968496 -0.3854718 -0.28467983 0.24889341
000260 93 6c b1 3e 8b 94 21 3f e1 ca 98 3e 1d e6 26 be
       0.34653148 0.63117284 0.29842284 -0.16298719
000270 fc a2 35 3e 83 45 6d 3e 9b 66 d9 3e be 15 a5 3d
       0.17737955 0.23171048 0.42461094 0.080607876
000280 36 be 17 be eb b0 d1 bd f9 d8 8a be 8b d4 7a bd
       -0.14818653 -0.102388225 -0.27118662 -0.061237853
000290 a6 93 90 3e dc fe f4 3e 2f 5c b2 3e 53 97 95 3e
       0.28237647 0.47850692 0.34835956 0.29217014
0002a0 c6 42 3f be 1c 97 61 be c6 c0 8a be b6 73 48 bd
       -0.18677816 -0.220303 -0.271002 -0.048938476
0002b0 a6 6d c2 3d 0b b0 d9 3d 4a 33 00 3f 42 8f a9 3e
       0.0949357 0.10629281 0.5007826 0.3311711
0002c0 8a fa 03 bf 77 62 84 be 79 e5 93 be f0 26 78 bd
       -0.5155417 -0.25856373 -0.2888601 -0.06058401
0002d0 fb bc dd be b2 a9 00 bf 6b 18 68 be db 95 54 3e
       -0.43308243 -0.50258934 -0.22665565 0.2076029
0002e0 0d 66 f5 bd 5e 26 c7 bb c0 e9 42 3e 2d ad 32 3e
       -0.11982355 -0.006077572 0.19034481 0.17448874
0002f0 e0 b6 5c 3e e8 91 2c 3e 0f 5c be 3e 73 41 41 3e
       0.21554136 0.16852534 0.3717961 0.18872623
000300 ed f5 90 be 97 3f bc be df 4b 61 be 1c 7c 19 be
       -0.28312626 -0.36767265 -0.22001599 -0.1498875
000310 fc c1 9f bd 6d 57 f3 3e be 7d d4 3e 4d 3c 83 be
       -0.078006715 0.47527638 0.41502184 -0.25631943
000320 03 33 ba be d2 1f 67 be 94 3a 86 be 47 5c e8 3d
       -0.36367044 -0.22570732 -0.26216567 0.113457255
000330 99 a4 12 be 0a 92 8c 3e 5a de e2 3e 24 31 d6 3d
       -0.14320602 0.2745517 0.44310266 0.104585916
000340 78 80 7f 3d 6d 9a 34 be fa 67 df be dd e1 69 3e
       0.062378377 -0.17637034 -0.43634015 0.22840066
000350 23 e4 1b 3e 2d 05 fb 3e ac a8 ea 3e 77 0f 4a 3c
       0.15223746 0.49027386 0.4583181 0.012332789
000360 77 5b b2 bd 6a 66 63 3d 19 02 84 3e 63 8f 4c bd
       -0.08708852 0.05551759 0.2578285 -0.04994143
000370 ce e3 d3 bd c6 76 aa 3d 02 32 d2 be f1 67 85 be
       -0.10346185 0.083234355 -0.41053778 -0.26055863
000380 89 bb 39 be 1e 41 ab bd 47 1f ec be df a6 9a bd
       -0.18137945 -0.083620295 -0.46117613 -0.075513594
000390 34 ac 7d bd 7c 19 72 bd 7e a0 21 3e 76 ba 4e be
       -0.061931804 -0.059106335 0.15783879 -0.20188317
0003a0 ae 9c eb 3d ed 79 6f 3d d1 f4 d8 3e a5 41 98 3d
       0.11504494 0.058465887 0.4237428 0.07434396
0003b0 0b 96 be bd 1b 0b f6 bd 38 6f 98 be 7c 59 92 3e
       -0.09305962 -0.12013837 -0.29772353 0.28583896
0003c0 ff 7e bf 3d 31 b8 c6 bd 31 47 cf be 5c 10 9c 3e
       0.093503945 -0.097031005 -0.40484002 0.3048123
0003d0 54 39 45 3e ab ec aa 3e 2e dc af 3e 6b fd e5 bd
       0.1926015 0.33383688 0.3434767 -0.11229976
0003e0 3c ec 98 bd e5 0f 61 bd 7a fe d2 3e e2 08 3e 3e
       -0.07466933 -0.0549468 0.41209775 0.18558076
0003f0 ce 38 29 3e a7 01 e3 3e f6 c5 ca 3e c2 85 19 be
       0.16525576 0.44337198 0.39604157 -0.14992431

conv_layers.1.att_src f4 [1, 4, 16]
000000 93 aa 51 be d9 b6 7b 3e 5a 83 0a bf 8c 40 b6 3c
       -0.20475225 0.2458147 -0.54106677 0.022247575
000010 d7 75 62 bc 69 5d d4 3d 6d 1a 9a 3e 72 74 eb 3d
       -0.0138220405 0.10369379 0.30098286 0.114968196
000020 4d 03 dd 3e c2 88 3a be f2 a0 fe 3e c2 a5 b5 3c
       0.4316658 -0.18216231 0.49732167 0.022173766
000030 ae 09 6b bc 41 a7 fc 3d 3e 33 12 bf ec 3b d3 bd
       -0.01434557 0.12336589 -0.5710944 -0.103141636
000040 78 42 df 3e 81 66 a2 3e b8 ac 9d be 68 fe 2a 3f
       0.436054 0.3171883 -0.30795836 0.66794443
000050 06 24 dc 3d 27 f5 03 3f 35 45 4a be 51 a2 97 be
       0.107490584 0.5154595 -0.19752963 -0.29616025
000060 66 b6 29 3f 1f 12 0a bf 8e c1 c2 be ee 31 02 bf
       0.6629394 -0.539339 -0.38038296 -0.50857437
000070 ec 18 d3 3e c8 cb 08 3f 7e c3 26 bf 39 2b ce 3e
       0.4122995 0.53435946 -0.6514205 0.4026735
000080 bc e9 fd bd 4e 49 f2 3e e4 b5 84 3e 68 c3 2b 3f
       -0.12398097 0.47321552 0.25920022 0.6709504
000090 b1 c0 a6 3e 36 09 8d 3e d3 df af 3d e1 3d 95 3d
       0.32568887 0.2754609 0.08587613 0.07287193
0000a0 e9 ab c6 be 7a 61 f1 bd 22 71 7d be db 27 81 be
       -0.38803032 -0.1178617 -0.24750188 -0.2522572
0000b0 8c 85 3f 3e 10 98 75 3d 8c 26 cd be f7 c4 1f 3e
       0.18703288 0.05995947 -0.4006847 0.1560248
0000c0 15 e8 04 3e aa 97 01 3f c1 ee 76 be 9a 29 71 be
       0.12979157 0.50622046 -0.24114515 -0.23551026
0000d0 f2 23 3e 3e 19 a3 b5 3e f9 ee da 3e af b4 d7 3d
       0.185684 0.35475996 0.42760447 0.105325095
0000e0 af aa 02 3f 5d 1c 9d 3e 51 63 6a 3d 97 d9 f3 3e
       0.5104169 0.30685702 0.05722362 0.47626945
0000f0 c4 67 b5 be 51 a6 67 be 52 78 e1 3e a5 7c 09 bf
       -0.3543073 -0.22622038 0.4403711 -0.5370582

conv_layers.1.att_dst f4 [1, 4, 16]
000000 9d 22 72 3d 70 c7 59 3e 79 e3 f3 be 79 c3 06 bf
       0.05911504 0.21267486 -0.47634485 -0.5264202
000010 f8 11 f5 3e 9d 64 45 be 83 78 b4 bc f8 3b a1 3e
       0.47865272 -0.19276662 -0.02203012 0.31491065
000020 7b 0e 0c bf f8 58 e8 be e2 62 48 3e b3 be e8 bd
       -0.54709595 -0.45380378 0.19568971 -0.11364498
000030 ef a3 f7 3e bc b4 fa be 39 2a a4 3e 6c b2 a2 3e
       0.4836726 -0.48966014 0.32063463 0.3177675
000040 f7 c4 a5 3e 5a dc 68 3e 49 72 d1 3e 72 fb aa be
       0.32376835 0.22740307 0.40907505 -0.33394963
000050 78 66 32 3e 8f 10 28 3e 1d 81 c0 be 5b 70 f0 3e
       0.17421901 0.16412567 -0.37598506 0.4696072
000060 ad 30 d9 bd 70 53 82 be 80 62 d4 3d 35 b7 e0 3e
       -0.10604987 -0.25454283 0.1037035 0.43889776
000070 80 b6 d3 bc e6 cb 9f 3e 40 46 43 3e 1e e8 de 3e
       -0.025843859 0.3121025 0.19069767 0.43536466
000080 a7 f1 21 3e ca 88 93 be 14 fd 9a 3e 33 2c 83 3d
       0.1581484 -0.288153 0.30271208 0.06404915
000090 ea 64 6a 3d f7 15 c2 be e3 ae cc be 88 0e 0f bf
       0.057225145 -0.37907383 -0.39977178 -0.5588155
0000a0 6e c5 0b 3f 1b c7 fd be ef d6 01 3f 06 e5 ce 3e
       0.5459813 -0.49565968 0.5071859 0.40409106
0000b0 b5 c9 75 be 74 1b 01 bf cc 0b 98 be 93 9d 51 be
       -0.24002726 -0.50432515 -0.296965 -0.20470266
0000c0 f6 b6 30 3e fd f4 8b be f7 52 a1 3e 04 1e 2b 3e
       0.17257294 -0.2733535 0.3150861 0.16710669
0000d0 d4 7b e8 be 50 16 95 bd 25 b6 96 3e ac fd 03 bd
       -0.45406973 -0.072796464 0.2943584 -0.032224342
0000e0 82 5a 7e 3e 14 df 7a 3e f4 4d 17 3e b4 59 d8 bd
       0.24839213 0.2449916 0.1477583 -0.105639845
0000f0 f7 d8 87 bb b6 f7 e4 3e e6 65 20 3e d1 a6 2c 3e
       -0.0041457373 0.44720238 0.15663871 0.1686051

conv_layers.1.bias f4 [64]
000000 02 65 c9 3d 88 07 d0 3d ec 33 d5 bd f0 26 ef 3d
       0.09833719 0.101576865 -0.10410294 0.116773486
000010 ac a6 ac 3d 63 e0 ea 3d e3 90 e3 3d fe 8a e5 bd
       0.08430228 0.114685796 0.11111619 -0.11208151
000020 38 70 d5 3d 18 55 a9 bd bf d4 c3 3d 23 a1 b8 bd
       0.10421795 -0.082681835 0.095620625 -0.090151094
000030 a7 25 ef 3d b5 52 cd 3d 4b 34 c4 bd a8 9b c3 3d
       0.116771035 0.10025541 -0.095802866 0.095511734
000040 25 f4 08 3e 6e 69 ab 3d 03 55 b0 bd 3d 59 e2 3d
       0.13374384 0.083697185 -0.08609965 0.11052177
000050 49 08 c3 3d dd 5d f1 3d b4 ad ca 3d 82 d8 c5 bd
       0.09523065 0.11785481 0.098964125 -0.09660436
000060 17 66 e8 3d 7f d0 c5 bd 43 9e ab 3d 32 44 d1 bd
       0.11347597 -0.09658908 0.083797954 -0.10218085
000070 cf b6 f7 3d d4 35 ac 3d 8a 41 ef bd 99 e0 9f 3d
       0.12095415 0.084087044 -0.116824225 0.078065105
000080 80 78 ce 3d 40 cf c1 3d de 2d db bd 02 9a be 3d
       0.10081577 0.09463358 -0.10702108 0.093067184
000090 21 6f 94 3d 31 0c dd 3d a5 f3 b7 3d c3 2a ac bd
       0.07247759 0.10793341 0.089820184 -0.08406594
0000a0 a5 bb bc 3d 60 8f e5 bd 0c 86 c4 3d e5 74 f2 bd
       0.09215478 -0.11208987 0.0959588 -0.11838702
0000b0 e4 e5 e9 3d 28 dd b1 3d 44 79 e8 bd b3 8f c2 3d
       0.11420801 0.0868476 -0.113512546 0.09500065
0000c0 e4 5f d6 3d 68 93 9e 3d b5 e5 f8 bd b2 0f f9 3d
       0.104675084 0.07742959 -0.12153188 0.12161197
0000d0 d1 80 c2 3d 2a 33 f7 3d df 25 d7 3d 9e 11 cf bd
       0.09497226 0.12070306 0.1050527 -0.10110782
0000e0 ef 34 ff 3d b5 1b af bd 73 87 c5 3d 63 b6 bf bd
       0.12461268 -0.085502066 0.096449755 -0.093609594
0000f0 32 26 ad 3d 78 3e 9d 3d c8 d2 ec bd 65 26 d0 3d
       0.08454551 0.076779306 -0.11563641 0.10163573

conv_layers.1.lin_src.weight f4 [64, 64]
000000 72 e4 bd 3c 1e 89 e0 be 35 38 b0 3e 0f 6a 55 be
       0.02318022 -0.43854612 0.34417883 -0.2084124
000010 79 76 6f 3e c6 a3 a8 3d 2a 8e e7 3e 49 3f f0 bd
       0.23385037 0.08234362 0.4522565 -0.11730821
000020 8a d0 4d bc 45 18 28 3e 6f af 53 be d2 ee 0e 3e
       -0.012561927 0.16415508 -0.20672391 0.1395829
000030 71 e4 6f bd 4f 7e 19 be a8 f3 06 bf 98 51 32 3e
       -0.058567468 -0.14989589 -0.5271554 0.17413938
000040 27 a2 30 3e 75 cc 9d 3d 26 97 42 3e 3a 47 6f 3d
       0.17249356 0.07705013 0.19002971 0.058417536
000050 bd fb 8c be a6 cf b2 3e 85 58 b7 bd 58 6a a3 3e
       -0.2753581 0.34924048 -0.08952431 0.3191707
000060 c8 19 22 3e fd 9a 2b be 9c 81 8d 3d 47 4d 91 be
       0.15830147 -0.16758342 0.06909487 -0.2837927
000070 c0 f7 4d 3e 15 78 28 be f4 5b 06 bc 5c 1b 7e 3e
       0.2011404 -0.16452058 -0.008200634 0.24815124
000080 af 68 94 be 6c 03 ed 3d 4c 56 45 be 31 3d 61 be
       -0.28986117 0.11572918 -0.19271201 -0.21995999
000090 75 26 43 3c 38 ca 17 bf a2 ec 0a 3e 0a 65 41 bc
       0.011911024 -0.59292936 0.13566831 -0.011803875
0000a0 95 53 5a be 89 c6 9b bd 31 e4 bd 3c 31 98 22 3e
       -0.21320947 -0.07606227 0.0231801 0.15878369
0000b0 c7 83 82 be 6b 7e 85 bd c1 c9 21 3e c4 4b 8c 3e
       -0.25491163 -0.06518253 0.1579962 0.27401555
0000c0 9a 58 90 be 1d 9c 13 3e c2 79 88 be 94 a9 84 3e
       -0.28192598 0.14415021 -0.26655394 0.25910628
0000d0 9a 05 da bd f3 db e5 bd 0c ae 9a 3d f4 2f aa bd
       -0.106456 -0.112235926 0.07552728 -0.083099276
0000e0 28 77 ca bc 75 5f 98 bc fd be e0 bc 0d d9 d4 3c
       -0.024715021 -0.018600205 -0.02743482 0.025982404
0000f0 e5 4d 39 be ea 76 72 3e 1f c1 52 3e f9 84 71 3e
       -0.1809612 0.23678175 0.20581482 0.23585881
000100 e6 ed 76 3e f0 99 b8 be d9 1a 76 3e 0e ec f2 bd
       0.24114189 -0.36054945 0.24033679 -0.1186143
000110 3a 7a 39 bd ce 0b 77 be 39 11 f0 3e f6 ff d3 be
       -0.04528258 -0.24125597 0.4688814 -0.4140622
000120 cc f1 54 be 1c 60 a6 3e 6c c3 60 be da d6 f9 3d
       -0.20795363 0.324952 -0.21949548 0.12199183
000130 40 54 9f 3e 48 45 13 bd 90 13 d8 be f7 3c 97 3e
       0.31118965 -0.035954744 -0.42202425 0.295387
000140 18 b7 a9 3c 4e 1e 75 bd 1e 98 50 3e ba 06 86 3e
       0.020717189 -0.059843354 0.20370528 0.26177007
000150 fb 9a 6f be 1c fd b1 3e 28 a8 c8 bd 55 54 a1 3e
       -0.23398964 0.3476342 -0.09797698 0.31509653
000160 28 e0 42 bd d5 77 4f bd 3f 96 df 3d 37 32 11 3d
       -0.047577053 -0.05065139 0.10917329 0.03544828
000170 1d 1d 92 3e ce ef 5a 3d fc 7f a9 bc c6 15 09 bd
       0.28537837 0.05345135 -0.02069091 -0.03346803
000180 30 c4 b8 be 98 15 69 3e 6b be 84 be 3d c2 c8 be
       -0.3608718 0.22762144 -0.25926527 -0.39210692
000190 b9 99 87 be 3d ba 06 bf a7 c7 ae 3d 4a 2e a4 3d
       -0.2648447 -0.5262793 0.085341744 0.080166414
0001a0 dd d1 29 bd 66 6d 61 3d 85 47 f4 bd eb 3c f8 3d
       -0.041459907 0.05503597 -0.11927704 0.12120994
0001b0 35 68 c8 be ba 23 e7 be 62 10 9c 3e cf 0c c7 bc
       -0.39142004 -0.45144445 0.3048125 -0.0242981
0001c0 a2 21 86 bd 4f 4a bc bd 7a 0e a5 be ea c9 78 bd
       -0.06549384 -0.09193861 -0.32237607 -0.060739435
0001d0 47 92 98 be 7d f2 81 bd a5 d1 9e bd 18 5f 2a be
       -0.297991 -0.06345079 -0.0775483 -0.16637838
0001e0 90 f3 f0 bc 3a e7 eb 3c 18 1f cd 3c 22 83 0d 3c
       -0.029413015 0.02879678 0.02503924 0.0086372215
0001f0 82 2a 6f bd c5 04 fb 3d 67 0a bf bd 19 d5 8c bd
       -0.058390148 0.12256769 -0.09328156 -0.06876583
000200 ff 03 c4 bd 7b 04 6e 3e c3 84 0a be f4 3a 83 bc
       -0.09571075 0.23243897 -0.13527207 -0.016019322
000210 4f a8 e4 bd 01 27 4f bb 7e 9a d7 be 0c e3 8b 3d
       -0.11164915 -0.0031608941 -0.42110056 0.06830415
000220 ac 2d 08 3c 5b 1c 91 be 5d 3a fc bc 50 17 93 be
       0.00831167 -0.28341946 -0.030789549 -0.28728724
000230 dd 4a 67 be 66 e3 26 3e bd e7 b6 3e cf 53 f3 bd
       -0.22587152 0.16297683 0.35723677 -0.118812196
000240 7a 13 9e be 22 b2 ce 3c fe 87 c3 bc 68 96 af bc
       -0.30874234 0.025231425 -0.023868557 -0.021434024
000250 be 13 00 ba ac 44 1d be 20 63 c8 3e 7f ca 54 be
       -0.00048857543 -0.15358227 0.39138126 -0.20780371
000260 5a 89 b0 be fa 42 41 3e b9 bf a5 bd 5b 6f 86 3e
       -0.3447979 0.18873206 -0.08093209 0.26256832
000270 cf 2e 8f be 53 76 55 3e c3 67 80 bc af 47 49 be
       -0.279654 0.20845918 -0.015674477 -0.19656251
000280 67 d3 95 3e d8 81 09 3d c2 61 93 3d ac b6 93 3e
       0.2926285 0.033571094 0.0719638 0.28850305
000290 7c 07 62 3c c9 2b 47 3e 2f 4f c1 be 4d c2 45 be
       0.01379573 0.19450296 -0.37755725 -0.19312401
0002a0 bd 1b 04 bd 2e 2b 7a be 8c e8 b1 3e c6 bc a4 be
       -0.032253016 -0.24430534 0.34747732 -0.32175273
0002b0 51 be ce 3d 7d 3b d3 3e bb 96 85 be 5b a6 0a be
       0.10094894 0.41256323 -0.2609156 -0.13540022
0002c0 85 2f 5b bb 77 f7 05 be 35 12 26 3e a5 4f 0a be
       -0.0033445072 -0.13082682 0.16217883 -0.13506944
0002d0 12 e6 71 3e cb ca 26 be 08 57 0b be 46 ca 35 3e
       0.23622921 -0.16288297 -0.13607419 0.17752942
0002e0 03 44 b1 bd 90 d8 8d 3c 15 c3 52 bd 57 79 3e 3e
       -0.0865555 0.01731518 -0.051455576 0.18600975
0002f0 79 1b 40 3e 14 31 bf bd 4d eb bc 3d 6a 9d 87 be
       0.1876048 -0.09335533 0.092245676 -0.26487285
000300 0c 99 76 3e 57 50 ee be ea ff 8b 3e e7 0b 1f bc
       0.2408182 -0.4654567 0.27343684 -0.009707428
000310 78 ef 8f 3e 1e b0 aa bd e0 aa c5 3e 48 29 db bd
       0.28112388 -0.08334373 0.3860693 -0.10701233
000320 fb b9 7a be 3f cd 87 3d 6e 9f aa be 19 a5 d5 3d
       -0.24485008 0.066309445 -0.3332476 0.104318805
000330 df 8f 28 3d 42 b0 34 be 45 5a aa be 98 3c 95 ba
       0.04115283 -0.17645362 -0.33271995 -0.0011385856
000340 93 63 95 3c 48 ed 33 3d 17 b0 88 3e 27 0e bf 3d
       0.018235957 0.04392746 0.26696846 0.09328871
000350 f5 88 bc bd 8d fb b1 3d e7 a8 aa be 05 2b 9c 3e
       -0.0920581 0.08690558 -0.33331987 0.3050157
000360 d0 2a 76 b8 1f dd 37 be ab b4 8e 3e 99 f1 82 3b
       -5.8690843e-05 -0.17955445 0.27872214 0.003996086
000370 57 d7 a6 3e 91 6a 13 3d 5c 33 64 be 67 cb b6 3e
       0.32586166 0.0359903 -0.22285217 0.3570206
000380 90 0a f8 bd d8 7f 4b 3e 90 fd fd bd ea 4e cc bd
       -0.1211139 0.19872987 -0.12401879 -0.09975989
000390 1f dd 5a be 8f a0 0d be f0 42 93 3e 87 5d eb 3d
       -0.21373414 -0.1383078 0.28762007 0.11492448
0003a0 95 11 c6 be 66 69 5c 3e a5 62 97 be 75 14 96 bd
       -0.3868529 0.21524581 -0.29567447 -0.073281206
0003b0 b6 cf 70 be e8 d2 9e be e0 ae 9d bd c6 c5 a4 3e
       -0.23516735 -0.31020284 -0.076993704 0.3218214
0003c0 6b 5c 9a be 3c d4 5a bd 58 54 7a be b1 62 6d 3d
       -0.30148634 -0.05342506 -0.24446237 0.057955448
0003d0 e9 a5 f1 bd 4f b2 38 bd 40 6c 1b 3d c3 ea 9f bd
       -0.11799223 -0.045091923 0.037945032 -0.07808449
0003e0 af dd b5 bd f0 04 c3 bb c1 28 6b 3e 49 ff 31 be
       -0.088801734 -0.0059515163 0.22964765 -0.1738254
0003f0 91 6c b4 bd c7 d9 98 3e 00 c3 a1 bd 04 53 ab 3d
       -0.0880977 0.2985365 -0.078985214 0.08365443

conv_layers.1.lin_dst.weight f4 [64, 64]
000000 72 e4 bd 3c 1e 89 e0 be 35 38 b0 3e 0f 6a 55 be
       0.02318022 -0.43854612 0.34417883 -0.2084124
000010 79 76 6f 3e c6 a3 a8 3d 2a 8e e7 3e 49 3f f0 bd
       0.23385037 0.08234362 0.4522565 -0.11730821
000020 8a d0 4d bc 45 18 28 3e 6f af 53 be d2 ee 0e 3e
       -0.012561927 0.16415508 -0.20672391 0.1395829
000030 71 e4 6f bd 4f 7e 19 be a8 f3 06 bf 98 51 32 3e
       -0.058567468 -0.14989589 -0.5271554 0.17413938
000040 27 a2 30 3e 75 cc 9d 3d 26 97 42 3e 3a 47 6f 3d
       0.17249356 0.07705013 0.19002971 0.058417536
000050 bd fb 8c be a6 cf b2 3e 85 58 b7 bd 58 6a a3 3e
       -0.2753581 0.34924048 -0.08952431 0.3191707
000060 c8 19 22 3e fd 9a 2b be 9c 81 8d 3d 47 4d 91 be
       0.15830147 -0.16758342 0.06909487 -0.2837927
000070 c0 f7 4d 3e 15 78 28 be f4 5b 06 bc 5c 1b 7e 3e
       0.2011404 -0.16452058 -0.008200634 0.24815124
000080 af 68 94 be 6c 03 ed 3d 4c 56 45 be 31 3d 61 be
       -0.28986117 0.11572918 -0.19271201 -0.21995999
000090 75 26 43 3c 38 ca 17 bf a2 ec 0a 3e 0a 65 41 bc
       0.011911024 -0.59292936 0.13566831 -0.011803875
0000a0 95 53 5a be 89 c6 9b bd 31 e4 bd 3c 31 98 22 3e
       -0.21320947 -0.07606227 0.0231801 0.15878369
0000b0 c7 83 82 be 6b 7e 85 bd c1 c9 21 3e c4 4b 8c 3e
       -0.25491163 -0.06518253 0.1579962 0.27401555
0000c0 9a 58 90 be 1d 9c 13 3e c2 79 88 be 94 a9 84 3e
       -0.28192598 0.14415021 -0.26655394 0.25910628
0000d0 9a 05 da bd f3 db e5 bd 0c ae 9a 3d f4 2f aa bd
       -0.106456 -0.112235926 0.07552728 -0.083099276
0000e0 28 77 ca bc 75 5f 98 bc fd be e0 bc 0d d9 d4 3c
       -0.024715021 -0.018600205 -0.02743482 0.025982404
0000f0 e5 4d 39 be ea 76 72 3e 1f c1 52 3e f9 84 71 3e
       -0.1809612 0.23678175 0.20581482 0.23585881
000100 e6 ed 76 3e f0 99 b8 be d9 1a 76 3e 0e ec f2 bd
       0.24114189 -0.36054945 0.24033679 -0.1186143
000110 3a 7a 39 bd ce 0b 77 be 39 11 f0 3e f6 ff d3 be
       -0.04528258 -0.24125597 0.4688814 -0.4140622
000120 cc f1 54 be 1c 60 a6 3e 6c c3 60 be da d6 f9 3d
       -0.20795363 0.324952 -0.21949548 0.12199183
000130 40 54 9f 3e 48 45 13 bd 90 13 d8 be f7 3c 97 3e
       0.31118965 -0.035954744 -0.42202425 0.295387
000140 18 b7 a9 3c 4e 1e 75 bd 1e 98 50 3e ba 06 86 3e
       0.020717189 -0.059843354 0.20370528 0.26177007
000150 fb 9a 6f be 1c fd b1 3e 28 a8 c8 bd 55 54 a1 3e
       -0.23398964 0.3476342 -0.09797698 0.31509653
000160 28 e0 42 bd d5 77 4f bd 3f 96 df 3d 37 32 11 3d
       -0.047577053 -0.05065139 0.10917329 0.03544828
000170 1d 1d 92 3e ce ef 5a 3d fc 7f a9 bc c6 15 09 bd
       0.28537837 0.05345135 -0.02069091 -0.03346803
000180 30 c4 b8 be 98 15 69 3e 6b be 84 be 3d c2 c8 be
       -0.3608718 0.22762144 -0.25926527 -0.39210692
000190 b9 99 87 be 3d ba 06 bf a7 c7 ae 3d 4a 2e a4 3d
       -0.2648447 -0.5262793 0.085341744 0.080166414
0001a0 dd d1 29 bd 66 6d 61 3d 85 47 f4 bd eb 3c f8 3d
       -0.041459907 0.05503597 -0.11927704 0.12120994
0001b0 35 68 c8 be ba 23 e7 be 62 10 9c 3e cf 0c c7 bc
       -0.39142004 -0.45144445 0.3048125 -0.0242981
0001c0 a2 21 86 bd 4f 4a bc bd 7a 0e a5 be ea c9 78 bd
       -0.06549384 -0.09193861 -0.32237607 -0.060739435
0001d0 47 92 98 be 7d f2 81 bd a5 d1 9e bd 18 5f 2a be
       -0.297991 -0.06345079 -0.0775483 -0.16637838
0001e0 90 f3 f0 bc 3a e7 eb 3c 18 1f cd 3c 22 83 0d 3c
       -0.029413015 0.02879678 0.02503924 0.0086372215
0001f0 82 2a 6f bd c5 04 fb 3d 67 0a bf bd 19 d5 8c bd
       -0.058390148 0.12256769 -0.09328156 -0.06876583
000200 ff 03 c4 bd 7b 04 6e 3e c3 84 0a be f4 3a 83 bc
       -0.09571075 0.23243897 -0.13527207 -0.016019322
000210 4f a8 e4 bd 01 27 4f bb 7e 9a d7 be 0c e3 8b 3d
       -0.11164915 -0.0031608941 -0.42110056 0.06830415
000220 ac 2d 08 3c 5b 1c 91 be 5d 3a fc bc 50 17 93 be
       0.00831167 -0.28341946 -0.030789549 -0.28728724
000230 dd 4a 67 be 66 e3 26 3e bd e7 b6 3e cf 53 f3 bd
       -0.22587152 0.16297683 0.35723677 -0.118812196
000240 7a 13 9e be 22 b2 ce 3c fe 87 c3 bc 68 96 af bc
       -0.30874234 0.025231425 -0.023868557 -0.021434024
000250 be 13 00 ba ac 44 1d be 20 63 c8 3e 7f ca 54 be
       -0.00048857543 -0.15358227 0.39138126 -0.20780371
000260 5a 89 b0 be fa 42 41 3e b9 bf a5 bd 5b 6f 86 3e
       -0.3447979 0.18873206 -0.08093209 0.26256832
000270 cf 2e 8f be 53 76 55 3e c3 67 80 bc af 47 49 be
       -0.279654 0.20845918 -0.015674477 -0.19656251
000280 67 d3 95 3e d8 81 09 3d c2 61 93 3d ac b6 93 3e
       0.2926285 0.033571094 0.0719638 0.28850305
000290 7c 07 62 3c c9 2b 47 3e 2f 4f c1 be 4d c2 45 be
       0.01379573 0.19450296 -0.37755725 -0.19312401
0002a0 bd 1b 04 bd 2e 2b 7a be 8c e8 b1 3e c6 bc a4 be
       -0.032253016 -0.24430534 0.34747732 -0.32175273
0002b0 51 be ce 3d 7d 3b d3 3e bb 96 85 be 5b a6 0a be
       0.10094894 0.41256323 -0.2609156 -0.13540022
0002c0 85 2f 5b bb 77 f7 05 be 35 12 26 3e a5 4f 0a be
       -0.0033445072 -0.13082682 0.16217883 -0.13506944
0002d0 12 e6 71 3e cb ca 26 be 08 57 0b be 46 ca 35 3e
       0.23622921 -0.16288297 -0.13607419 0.17752942
0002e0 03 44 b1 bd 90 d8 8d 3c 15 c3 52 bd 57 79 3e 3e
       -0.0865555 0.01731518 -0.051455576 0.18600975
0002f0 79 1b 40 3e 14 31 bf bd 4d eb bc 3d 6a 9d 87 be
       0.1876048 -0.09335533 0.092245676 -0.26487285
000300 0c 99 76 3e 57 50 ee be ea ff 8b 3e e7 0b 1f bc
       0.2408182 -0.4654567 0.27343684 -0.009707428
000310 78 ef 8f 3e 1e b0 aa bd e0 aa c5 3e 48 29 db bd
       0.28112388 -0.08334373 0.3860693 -0.10701233
000320 fb b9 7a be 3f cd 87 3d 6e 9f aa be 19 a5 d5 3d
       -0.24485008 0.066309445 -0.3332476 0.104318805
000330 df 8f 28 3d 42 b0 34 be 45 5a aa be 98 3c 95 ba
       0.04115283 -0.17645362 -0.33271995 -0.0011385856
000340 93 63 95 3c 48 ed 33 3d 17 b0 88 3e 27 0e bf 3d
       0.018235957 0.04392746 0.26696846 0.09328871
000350 f5 88 bc bd 8d fb b1 3d e7 a8 aa be 05 2b 9c 3e
       -0.0920581 0.08690558 -0.33331987 0.3050157
000360 d0 2a 76 b8 1f dd 37 be ab b4 8e 3e 99 f1 82 3b
       -5.8690843e-05 -0.17955445 0.27872214 0.003996086
000370 57 d7 a6 3e 91 6a 13 3d 5c 33 64 be 67 cb b6 3e
       0.32586166 0.0359903 -0.22285217 0.3570206
000380 90 0a f8 bd d8 7f 4b 3e 90 fd fd bd ea 4e cc bd
       -0.1211139 0.19872987 -0.12401879 -0.09975989
000390 1f dd 5a be 8f a0 0d be f0 42 93 3e 87 5d eb 3d
       -0.21373414 -0.1383078 0.28762007 0.11492448
0003a0 95 11 c6 be 66 69 5c 3e a5 62 97 be 75 14 96 bd
       -0.3868529 0.21524581 -0.29567447 -0.073281206
0003b0 b6 cf 70 be e8 d2 9e be e0 ae 9d bd c6 c5 a4 3e
       -0.23516735 -0.31020284 -0.076993704 0.3218214
0003c0 6b 5c 9a be 3c d4 5a bd 58 54 7a be b1 62 6d 3d
       -0.30148634 -0.05342506 -0.24446237 0.057955448
0003d0 e9 a5 f1 bd 4f b2 38 bd 40 6c 1b 3d c3 ea 9f bd
       -0.11799223 -0.045091923 0.037945032 -0.07808449
0003e0 af dd b5 bd f0 04 c3 bb c1 28 6b 3e 49 ff 31 be
       -0.088801734 -0.0059515163 0.22964765 -0.1738254
0003f0 91 6c b4 bd c7 d9 98 3e 00 c3 a1 bd 04 53 ab 3d
       -0.0880977 0.2985365 -0.078985214 0.08365443

out.weight f4 [1, 48]
000000 2d 53 13 40 8d 4e 0e 40 46 59 05 c0 3d c7 10 40
       2.3019516 2.2235444 -2.0835738 2.2621605
000010 3a a4 02 40 83 29 05 40 a9 45 12 40 0f 91 13 c0
       2.0412736 2.0806587 2.2855017 -2.3057287
000020 ec 3e 06 40 cb 18 12 c0 16 ef 06 40 ff b9 0c c0
       2.0975904 -2.2827632 2.1083426 -2.1988523
000030 a1 03 0c 40 b5 53 11 40 9f e9 01 c0 1d ab 04 40
       2.1877215 2.270734 -2.029884 2.072944
000040 a8 ee 09 40 0f 50 13 40 23 23 10 c0 f3 f8 02 40
       2.1551914 2.3017614 -2.2521446 2.0464447
000050 d9 24 0c 40 9b b9 11 40 d3 63 0d 40 e7 4a 11 c0
       2.189749 2.2769535 2.2092178 -2.2701967
000060 9b 8d 03 40 23 8e 07 c0 4f 1c 10 40 10 23 05 c0
       2.055518 -2.1180503 2.2517278 -2.080265
000070 bd bb 0d 40 7b 4a 0b 40 ab a7 0c c0 43 e1 0b 40
       2.2145836 2.176421 -2.1977336 2.185624
000080 2f ef b9 be d1 f7 9a be 25 f6 9d 3e 17 e5 99 be
       -0.36315295 -0.30267194 0.30851856 -0.30057594
000090 9f d0 8e be 1d 6d a7 be 95 22 94 be ff 52 5c 3e
       -0.2789354 -0.32700434 -0.28932634 0.21516035
0000a0 bf bb 82 be 3d 54 8b 3e a7 15 8f be 3d 79 9d 3e
       -0.25533864 0.27212706 -0.27946207 0.3075656
0000b0 c9 51 95 be 07 22 5c be ad f3 a2 3e 47 48 79 be
       -0.2916396 -0.21497355 0.31826535 -0.24343978
