trained_model_1.pth (torch, 809935 bytes, 21 tensors)

initial_conv.att_src f4 [1, 4, 64]
000000 db b6 45 bc f4 ee be 3c 34 8d a2 3d 24 24 9f bd
       -0.012067522 0.023307301 0.079370886 -0.07770565
000010 ae a3 03 3d cf ea 2b 3e 43 e4 f4 bc cf 91 a8 be
       0.03213852 0.16788791 -0.029894 -0.32923743
000020 ea 54 16 3c 71 ee 70 3b 38 ed 89 3c 08 1b 06 ba
       0.0091755185 0.0036763216 0.016836748 -0.00051157223
000030 85 8c 4b 3c 15 ab 01 3f 5e e5 42 bc 6f 67 85 3d
       0.012423639 0.50651675 -0.011895506 0.06513869
000040 24 5a d0 be df 3b 84 3d 76 f6 21 bd 17 58 d3 3e
       -0.40693772 0.06456732 -0.039541684 0.41278145
000050 a8 02 dd bc 14 b9 34 3c 24 40 cd 3a d3 07 96 bc
       -0.026978806 0.011030454 0.0015659374 -0.018314278
000060 9e 47 14 3d e5 9d 07 bd 9c 7c b1 bd c0 28 af 3c
       0.036201112 -0.033109564 -0.086663455 0.021381736
000070 a0 60 af bb b9 61 5c bd 86 da a4 bc ac 50 d7 3c
       -0.005352095 -0.053804133 -0.020123731 0.026283585
000080 71 6d 01 bd d6 7a ca 3c 0a 05 76 3e 00 83 bc ba
       -0.031598512 0.024716776 0.2402536 -0.0014382303
000090 05 37 43 bd f8 46 54 bd af 1e bf 3e 1b c1 a7 bc
       -0.047659893 -0.051825494 0.37328097 -0.020477822
0000a0 c9 35 02 bd 90 1a 63 3e e4 68 19 bd c2 a9 22 bd
       -0.031789575 0.22178102 -0.037453547 -0.039712675
0000b0 d9 0e 96 3c dc 57 b0 3d 87 90 25 bf 85 1b 62 bd
       0.018317627 0.08610508 -0.64673656 -0.055202026
0000c0 9c 28 27 bc 56 f5 89 bc 47 5a 5d bd e6 87 54 3c
       -0.010202553 -0.016840618 -0.054041173 0.012971854
0000d0 81 76 fb 3c bd e7 6f 3d 99 d1 c1 3e 09 46 53 3d
       0.030696156 0.058570612 0.37855223 0.051580463
0000e0 b4 b0 45 bd 6a 52 3a bc 49 c0 bf bd 64 ad 49 bd
       -0.04826422 -0.011372188 -0.09362847 -0.049237624
0000f0 34 f8 f3 3a 73 be 1e bd 4e e6 6b bc f9 4f 89 bc
       0.0018613399 -0.038755845 -0.014398171 -0.016761767
000100 42 a9 d5 bc ef f3 42 3d 74 7c d8 3a d8 e8 3c 3d
       -0.026081685 0.047595914 0.0016516582 0.046120495
000110 a3 9e 21 bb ac b5 c9 b7 a1 f0 0d 3d 03 a2 2f bd
       -0.0024661205 -2.4045665e-05 0.03465331 -0.042879116
000120 0d bf 40 3d c1 63 20 bc ab e0 35 bc cd 14 66 bd
       0.0470572 -0.009789408 -0.011100928 -0.05617218
000130 57 8f 61 3c 4a 36 b7 bc 9e 02 39 bc 73 79 16 bc
       0.013767085 -0.022364754 -0.011292128 -0.009184229
000140 2b 94 c5 3b a2 90 8e 3c 9f 71 00 bd 11 46 bd 3b
       0.006029626 0.01740295 -0.031358358 0.005776175
000150 79 8d 95 3a 65 85 e6 3b 8e 9f 4f 3f f2 d7 d8 3c
       0.001140996 0.007034945 0.81102836 0.026470158
000160 08 6c 8d 3c ec 1b 12 bc 80 c0 39 bb 65 70 c5 bb
       0.017263427 -0.00891779 -0.0028343499 -0.0060253614
000170 ad fc ce bc 92 5d fc 3a 34 75 bb bc 4f 6a 2b 3b
       -0.02526697 0.001925396 -0.022883035 0.0026155894
000180 9a 37 61 bc 8d 91 7f 3a d5 0a 36 bc 26 93 84 3c
       -0.013746167 0.0009749167 -0.011110981 0.016183447
000190 36 ee ea 3c fc 43 d3 3c 81 31 ab 3c 24 f1 ad bc
       0.028678041 0.025789253 0.020897629 -0.021233149
0001a0 47 de 32 3d 5d 22 cf bc d5 27 23 bb 3a 6e 10 bd
       0.04366901 -0.02528494 -0.0024895568 -0.03526137
0001b0 76 a5 33 bf b2 0e 91 3c cc 0b 55 be 94 86 ec bc
       -0.7017435 0.017707203 -0.20805281 -0.028872766
0001c0 f8 bd a7 3c c1 c5 b1 bc 58 53 b5 3c 2a 51 bc 3c
       0.020476326 -0.021700742 0.022134468 0.02298792
0001d0 59 84 96 3e 0b c1 8d bc c6 71 52 bc b4 0d 28 3d
       0.29397848 -0.017303964 -0.0128445085 0.041028693
0001e0 66 2c df 3c 32 15 46 bd 17 9d 2e bb 8a f8 3c bd
       0.02724285 -0.048360057 -0.0026643926 -0.046135463
0001f0 32 f7 83 bc ff 12 76 3c d6 4c 6d bd 40 4d f5 bc
       -0.016109083 0.015019177 -0.057934605 -0.029944062
000200 d0 f4 74 36 f3 c0 3d 3d b8 a6 0d 3d 5f 11 97 3c
       3.6501333e-06 0.04632659 0.034582824 0.0184409
000210 f1 6d 55 3c 27 1d 20 3d 97 49 1b bd 3e 7e db 3c
       0.0130267 0.0390903 -0.037911978 0.026793595
000220 86 61 ab be aa 66 7f 3d ea ff 1a bd 70 4d 56 bd
       -0.33472842 0.062353767 -0.037841715 -0.052319944
000230 cf 35 61 3f c5 f8 40 bc df a8 68 3d d0 68 04 3d
       0.8797273 -0.011778061 0.056801673 0.03232652
000240 01 03 5a bc 86 d7 39 3c 73 60 20 bc 8f b2 a5 bc
       -0.01330638 0.011342889 -0.00978862 -0.020226745
000250 b4 80 a7 bc 4b a7 f1 bb 36 43 50 bd e1 7c 88 3a
       -0.020447113 -0.007374679 -0.050845347 0.0010413193
000260 76 5d 89 bc f8 d5 fa 3c c5 46 b9 bc 1e 8b 89 bb
       -0.016768198 0.030619606 -0.022616753 -0.0041974923
000270 9b 8c 94 3e 22 42 04 3b 9e 15 60 bd be cc 0e bd
       0.29013523 0.002018102 -0.054708116 -0.034863226
000280 4c f1 5b bc 9b a9 b9 bc 38 d0 f1 ba 34 6c cb 3c
       -0.013424229 -0.022663882 -0.0018448895 0.024831869
000290 37 4f fb 3a 9e e4 9e bb 08 5b 02 3d 9d 47 59 3d
       0.0019173388 -0.0048490306 0.031825095 0.05304681
0002a0 79 5c 7a 3d 8b a0 8e 3a 3b 11 b1 bb 8e aa fe 3c
       0.061123345 0.0010881586 -0.0054036654 0.031087186
0002b0 64 39 38 bc b7 cc 53 bd e0 5c 96 bb 1f ae 70 3c
       -0.011244152 -0.051708903 -0.0045887083 0.014689951
0002c0 bb 1e 39 3d 41 9a a9 bd 78 13 07 3d d6 6e 8f 3d
       0.045195322 -0.08281375 0.03297755 0.07003562
0002d0 a1 93 b0 be db 7a 20 3b b6 b5 94 3c d2 a5 74 3d
       -0.34487632 0.002448729 0.018153053 0.05972845
0002e0 90 5d dc bc 5f 9a fa 3c 7f b6 35 3d f6 ce 22 bd
       -0.026900083 0.030591188 0.044363495 -0.039748155
0002f0 e5 5f c7 3a e4 6c 22 3d 53 23 35 3d da 41 22 bd
       0.0015211074 0.039654627 0.04422314 -0.039613582
000300 20 18 8a 3c b9 45 5a bb a4 0a 80 3b 6d ef 00 bd
       0.016857207 -0.0033305718 0.0039075185 -0.031478334
000310 bb 72 b1 3b f6 86 c2 bc 9e b5 ae 3c 6c d9 9e 3c
       0.0054152883 -0.023745995 0.021326836 0.019390784
000320 71 b7 4e 3c 95 a0 38 3c 4b ef 82 bc dd dc d9 bb
       0.012616978 0.0112687545 -0.015983244 -0.0066486434
000330 7d ee ab bc ce 83 4e 3f f4 44 20 bd 4f 2a 25 3d
       -0.020987744 0.8066987 -0.03912826 0.04032355
000340 8c e0 b9 3c 58 a2 f0 be ac 02 6f 3b dd e2 16 bd
       0.02269008 -0.46998858 0.0036470098 -0.036837447
000350 9e 57 ac bc c7 05 39 bc 6f 1f 87 bc 6e de 8f bc
       -0.021037873 -0.011292881 -0.01649448 -0.017562117
000360 62 bb 02 3c 5d 5a ac bc 21 65 22 bc ce 19 36 be
       0.007979246 -0.021039182 -0.009911806 -0.17783281
000370 37 70 36 be 7e 60 4c 3c 57 10 1b bc 24 57 1d 3c
       -0.17816244 0.012474177 -0.009464345 0.0096032955
000380 84 57 91 3c 0d 24 0e bf e2 19 b0 be 06 80 f3 be
       0.017741926 -0.5552376 -0.34394747 -0.47558612
000390 06 57 5a 3b 1a 81 a1 3c 81 c4 f2 3a 2d 7d 88 39
       0.003331603 0.01971488 0.0018521697 0.00026033205
0003a0 48 92 62 bc 9a 42 09 3b c9 e9 bd 3e 9a d8 02 bd
       -0.0138288215 0.0020944239 0.37092426 -0.03194485
0003b0 7a 98 b2 3c 71 e7 8d bc ae 4a 5b bc 09 08 92 bc
       0.021801222 -0.017322274 -0.013384504 -0.017826097
0003c0 28 f9 d4 bc bc ee 37 bc d9 52 a1 bc 9c 48 48 3c
       -0.025997713 -0.011226352 -0.019692825 0.012224343
0003d0 bd 7e 31 bc 7f 53 b0 bb 08 cf 37 3c 0e 9d 00 bd
       -0.010833439 -0.0053810473 0.011218794 -0.03139978
0003e0 8d 6f 2d 3c 27 b3 51 3c 7e d0 22 3b 6c 49 10 3c
       0.010585678 0.012799061 0.002484351 0.008806568
0003f0 f4 2a 2d 3d 13 68 cf bc 09 58 17 3f 44 f3 2b 3c
       0.04227729 -0.025318181 0.59118706 0.010495011

initial_conv.att_dst f4 [1, 4, 64]
000000 2b 3b 27 be ec b3 60 3e 99 75 ee bc 3d f8 85 be
       -0.16331165 0.21943635 -0.02910881 -0.26165953
000010 64 17 af 3d 2e d0 08 3e 30 93 5e bd 2a 9b 15 3e
       0.08549383 0.13360664 -0.054339588 0.14609972
000020 7a c3 28 3e 39 a1 66 3e 31 70 00 3e 34 1a 1e 3e
       0.16480818 0.22522439 0.12542798 0.15439683
000030 3c 1f 35 be 70 31 12 3f 2a 6f 3d c0 96 be cf 3d
       -0.17687696 0.57106686 -2.95991 0.10143773
000040 87 8d f9 3c 69 92 82 be 2a 08 6b be cb 0a 30 be
       0.030462993 -0.25502327 -0.22952333 -0.17191617
000050 f0 ff 68 bd 28 9d c3 3d ba ab 23 be 30 f7 33 3f
       -0.056884706 0.095514596 -0.15983477 0.70299053
000060 50 1e 92 3e 76 a5 c2 3d 08 2b 2f 3e f6 b1 d6 bd
       0.28538752 0.095042154 0.17106259 -0.10483162
000070 e9 41 83 3e 71 d3 8f 3d d7 ec ad bd 75 5d ea bb
       0.25636223 0.07022751 -0.08492439 -0.007152254
000080 23 cd ab 3e 89 80 71 3d ae 6f d0 3e c1 dd 35 bd
       0.33554944 0.05896047 0.40710205 -0.044400934
000090 35 d6 f2 3d 7b 5d 5e 3f 84 81 a7 bf 7b 26 54 3d
       0.11857263 0.8686139 -1.30864 0.05179451
0000a0 4a 9d 74 be 6e 83 95 bf b1 af 81 bd c2 f1 e8 bd
       -0.23888126 -1.1680734 -0.063323386 -0.11374237
0000b0 e6 6c 87 3c a1 18 04 3e b8 07 77 3d ca 8f 11 bd
       0.016531419 0.1290002 0.060310096 -0.03553752
0000c0 3e 45 a1 3d 34 09 b6 bd fd f1 57 bd 98 dc 1b be
       0.07874535 -0.08888474 -0.052721012 -0.15220869
0000d0 0a 21 f5 3c a0 32 0d be 88 7a 00 bf a4 96 cb 3d
       0.02992298 -0.13788843 -0.5018697 0.09940842
0000e0 be 68 ed 3b e9 83 2e be ef e7 79 3d 39 c9 1e be
       0.0072451523 -0.17042507 0.061012205 -0.15506448
0000f0 7a a4 5b 3e 7f f7 18 3d cf 48 e1 3c 13 72 95 3c
       0.21449462 0.037345406 0.027500538 0.018242871
000100 34 cc 77 3c a5 d8 c6 bc d1 cd e7 3b 85 e0 82 bd
       0.015124369 -0.024273226 0.007074096 -0.0639048
000110 60 b4 f7 bb 16 7c 28 bd 1e 9d 5c bd 12 28 dc 3c
       -0.007559344 -0.041133963 -0.053860776 0.026874576
000120 11 a1 fc bb aa eb c6 3c d0 1c d7 bc a3 9c d8 bc
       -0.0077096303 0.024282295 -0.026258856 -0.026441878
000130 07 ba 25 bd 7a c0 a7 bc de 7c 0f 3d 06 05 af 3c
       -0.040460613 -0.020477522 0.035031192 0.0213647
000140 2c bd f5 3c f3 ec 43 bc 49 00 b3 bb 78 b8 89 bc
       0.02999743 -0.011958349 -0.0054626805 -0.016811594
000150 9f 1a a4 bb 05 01 13 3d 93 66 c6 be 9b dd db bc
       -0.0050080563 0.035889644 -0.38750133 -0.026839068
000160 74 9c c7 3c a6 20 a9 bc 55 5f 09 bd 45 87 1e bd
       0.024366595 -0.02064545 -0.03353818 -0.03870322
000170 61 7a a3 bc 8c e0 87 3b f8 d2 cc bb 04 79 08 3d
       -0.019955816 0.004146641 -0.0062507354 0.033318534
000180 04 8e 4e 3d 20 37 51 bd 74 58 12 3d ce cf ae bc
       0.050428405 -0.051077962 0.035728887 -0.021339323
000190 6a f5 69 bc 2a 69 8a 3c 66 7f 40 3c ee 65 b5 3a
       -0.014279703 0.01689585 0.011749124 0.0013839582
0001a0 10 ab 0a bc 41 98 a3 3c bc 55 22 bd c8 db f2 3c
       -0.008463636 0.019970061 -0.039632544 0.029645815
0001b0 04 e1 05 3f 9f 15 20 bd 22 e2 40 3f 1c 4b 91 3c
       0.5229647 -0.03908312 0.7534505 0.01773601
0001c0 02 62 b2 3c 99 b9 2d 3d 06 30 fe 3c c3 9f 4e bd
       0.02177525 0.042413328 0.031028759 -0.05044533
0001d0 3a 49 3b bf 3b f2 84 3c c7 7d 72 3c dc f7 1e ba
       -0.7315861 0.016228786 0.0148004955 -0.00060641556
0001e0 2d 3a 5d bc 26 d1 17 3d 5e 88 1b bb dd 62 e8 3c
       -0.01350264 0.037064694 -0.0023732404 0.028367454
0001f0 8b 8f 71 bc 89 99 e2 3c de e9 3c bc a6 84 3b 3c
       -0.014743696 0.027661102 -0.011530368 0.0114452
000200 be 0d 18 3d 6d da 4a 3c c1 15 81 bc 36 d9 fa 3c
       0.03712248 0.012381178 -0.015757443 0.030621152
000210 35 7d e0 bc ad 17 03 bd f6 be ec 3c 74 4c 26 bd
       -0.027403453 -0.032005 0.028899651 -0.040600255
000220 c2 f1 89 3e 00 bc 21 bc 0d 77 91 3d 65 8f 12 3c
       0.2694226 -0.009871483 0.07102785 0.008945321
000230 6d 87 6b bf 44 c4 96 3b 74 80 36 3d 79 fd ae bc
       -0.9200352 0.0046010334 0.044556096 -0.0213611
000240 5f 84 f9 3c b6 dd ad 3c 65 2f 1a bc 0f 71 f5 3c
       0.030458627 0.021223884 -0.009410714 0.029961137
000250 5c 7d b4 3c c1 92 e8 bb cd 85 2e 3d 13 5e ae 3a
       0.022032432 -0.0070975726 0.04260807 0.0013303183
000260 22 c4 7f bb dd 14 69 3d 7c 93 28 bd db a2 cd 3c
       -0.0039026816 0.056904662 -0.041156277 0.02510207
000270 01 8d ce be 4a d4 04 bd 42 56 09 bd 04 da 01 bb
       -0.40341952 -0.032429017 -0.033529527 -0.0019813785
000280 99 c4 1f 3d 79 5e 80 bd cf ca 7e 3d a0 69 3f 3c
       0.03900585 -0.06268019 0.062205132 0.011682898
000290 ef d1 0a bd 95 6b ed bc 06 39 0e 3d c4 e0 ec 3b
       -0.033891615 -0.028981963 0.03472235 0.0072289426
0002a0 e4 fc c1 3c 14 bf 75 bc 9f b4 7e bd 45 16 ab bc
       0.023680158 -0.01499917 -0.062183972 -0.020884642
0002b0 42 55 03 bd c9 b0 eb 3c 5b 91 40 bd ba 37 82 bc
       -0.03206373 0.028770821 -0.04701362 -0.015895713
0002c0 55 cc 18 bc 7e 20 d2 3d e5 93 91 bd 4a 83 4f 3c
       -0.00932606 0.10260104 -0.07108287 0.012665579
0002d0 d8 35 20 bf 41 98 89 3c 93 7e d7 3c b6 9e ac bc
       -0.6258216 0.016796233 0.026305472 -0.021071773
0002e0 28 68 5f 3d 94 d9 99 3b 42 18 ba bc d2 17 d2 3b
       0.05454269 0.004695127 -0.022716645 0.006411531
0002f0 24 06 96 bd ba 9e 01 3d 84 71 b6 bc 3e 71 74 bd
       -0.0732539 0.031645514 -0.022270925 -0.05967831
000300 dc 49 c3 bc 96 76 bf bc 0f 6e 1d bb c9 0a 07 3d
       -0.02383893 -0.023371976 -0.00240219 0.03296927
000310 eb c8 c8 bc d9 ad fb bc d2 a7 ee 3c 0c 44 09 bd
       -0.024509868 -0.030722545 0.029132757 -0.03351216
000320 5d 7e ea bc a3 dc 9c 3a 5c a5 43 bd 95 8a 7c bb
       -0.028624708 0.001196761 -0.04776512 -0.003853475
000330 be 58 9c bb f7 72 e9 be 38 75 3a bb d0 0b 8c bd
       -0.004771321 -0.45595524 -0.0028451215 -0.068381906
000340 20 18 32 bd 4e 96 f6 3e 5f 45 93 3c 0d 37 1b 3d
       -0.04348004 0.48161548 0.017977415 0.037894297
000350 f5 4c 55 3c 19 db 0a 3c ba 07 ee bc be 39 fa bc
       0.013018836 0.0084750885 -0.029056419 -0.030545112
000360 ae f8 03 bd 02 34 e3 bc 69 be b1 3b ce 30 8d bf
       -0.03221958 -0.02773476 0.00542431 -1.1030519
000370 9d aa 5b be 62 bf 91 bd 14 b6 28 3d bb 7c 05 bd
       -0.21451803 -0.071165815 0.04118927 -0.032589655
000380 d2 28 4b 3b 83 fc eb 3e 55 34 7d 3e 49 55 df 3e
       0.0030999673 0.4609109 0.24726994 0.43619755
000390 0f c0 a2 3b 0a 54 6c 3d 78 28 40 bd f8 eb 5b 39
       0.004966743 0.057697333 -0.046913594 0.00020973373
0003a0 b5 2d 1c 3c 88 b8 66 bd 66 ef 4a bf 75 1d 7c 3d
       0.009532382 -0.056328326 -0.79271543 0.06155153
0003b0 a2 ac 8c 3c b3 e7 75 bc ae 2a 75 37 df 48 43 bd
       0.017172161 -0.015008855 1.4613075e-05 -0.047676917
0003c0 0a 48 d0 bc d8 43 45 3c f3 63 af 3b 74 54 8a bb
       -0.025424976 0.012040101 0.005352491 -0.0042214934
0003d0 01 60 b8 bc c6 3f ef 3c d6 80 20 bd ca e8 6c 3d
       -0.022506716 0.029205214 -0.039185368 0.057839192
0003e0 22 8b af bd e9 80 73 bd e6 d0 86 3d dc fd cf bc
       -0.08571459 -0.05944911 0.06582813 -0.025389604
0003f0 ea f7 dc bb 80 d4 1b bd c6 db 9e be ad 27 83 bd
       -0.006743421 -0.038044453 -0.3102705 -0.06404052

initial_conv.bias f4 [256]
000000 6d 21 dc bb 9f 7f ce 3b 12 2f a2 3c 1e 90 8e bd
       -0.006717852 0.0063018347 0.019797835 -0.06961082
000010 ba f3 01 3d db 77 57 bf 4f c6 24 bc 0e 24 97 3f
       0.031726576 -0.8416726 -0.010057046 1.1807878
000020 62 74 76 3b 40 f6 3a 3c f2 8c fe 3b 69 92 0a 3c
       0.003760599 0.01141125 0.007768267 0.008457758
000030 d9 55 62 3c 39 aa dd bf 66 cd cc 3e 80 b2 4c 3d
       0.013814413 -1.7317573 0.40000457 0.04997492
000040 32 32 ca be 37 e6 04 3c ad b2 da bc c7 bd b9 3d
       -0.3949142 0.008111528 -0.026696527 0.090694
000050 0e 73 a1 bc f8 4e ad 3c 4a cc 37 bc ef 84 c4 be
       -0.019708183 0.02115582 -0.01121814 -0.3838267
000060 f4 00 0e 3d 66 b2 a8 bc eb 58 28 bf ef a5 e9 3b
       0.034668878 -0.02059288 -0.6576068 0.0071303765
000070 8e 1d 69 3c e3 28 40 bc fa 97 d6 bc 68 95 df 3c
       0.014228238 -0.011728498 -0.026195515 0.027292922
000080 0d 35 d3 bc 70 9f f4 3c ab 9d e1 3e ed 87 a8 bc
       -0.025782133 0.029861182 0.44065604 -0.020572627
000090 fa 7a dc bb 3b 55 3a 3f db d7 a3 3f 5e 90 10 3c
       -0.006728527 0.727863 1.2800249 0.008823482
0000a0 2b 04 86 3b 7f ff 89 3f 59 48 c6 bc 8b 92 c6 bc
       0.0040898523 1.0781096 -0.02420442 -0.024239799
0000b0 0b 92 f6 3c 47 58 32 3d 39 2b 90 bf 6b af 53 bd
       0.030098936 0.04354122 -1.126319 -0.051680963
0000c0 6b 39 5b 3c ab bb 87 bb 3f 57 be bc b2 b2 7e bb
       0.013380389 -0.004142245 -0.023234962 -0.0038863835
0000d0 fd bb 05 bc 53 d1 2c 3d a0 8e b6 3e d7 42 e7 3c
       -0.008162496 0.042191815 0.3565569 0.028230114
0000e0 9e 49 a6 bc a8 36 00 bc a6 48 b2 bc 4b a7 e8 bc
       -0.020298775 -0.007825531 -0.021763157 -0.028400084
0000f0 b6 24 26 3c 4b 6a a5 bc 68 3f 0b 3b 7d ca 55 bc
       0.0101405885 -0.020192286 0.002124751 -0.013048765
000100 c0 b2 53 3c 46 f0 6f 3c 05 c6 f6 bb 45 4c cb 3b
       0.012921035 0.014644688 -0.00753093 0.0062041604
000110 d6 58 1d bc 5c ce 6b 3b 65 02 20 bb 41 34 a1 3b
       -0.0096037 0.0035981154 -0.002441549 0.004919559
000120 c4 7f 13 bc 6e 48 20 bc 60 ec fb 3c e9 ea 1e 3d
       -0.00900263 -0.009782894 0.03075236 0.038798247
000130 f7 e0 8f 3c 13 ad 9f 3c a1 b0 37 b9 e1 89 2e bb
       0.017563326 0.019491708 -0.0001751804 -0.0026632475
000140 44 05 0c ba 46 c0 82 3c dc d0 00 bc a5 5f 3a bb
       -0.0005341361 0.015960824 -0.007862296 -0.0028438356
000150 89 f1 fc 3c 96 65 00 bc 6e 3d 3c 3f be 97 41 3c
       0.030876892 -0.00783672 0.73531234 0.011815963
000160 5b e2 8f bc 77 89 01 3c f0 52 c2 3b fb 08 4c 3c
       -0.01756399 0.007906309 0.005930297 0.012453313
000170 7c 74 a1 3d d7 1d 13 bc 23 27 75 3c 44 bc 8a bc
       0.07883546 -0.008979282 0.014962944 -0.016935475
000180 92 a9 48 bc d0 2c 30 3c 3c bb 02 bc 43 f6 b4 bc
       -0.01224746 0.010752872 -0.0079792105 -0.022090083
000190 a3 31 a1 3c 89 53 04 3c 3d 0d e2 bb 86 64 35 3b
       0.019676989 0.008076557 -0.006898551 0.0027678325
0001a0 3a 77 94 3c df 5f 75 bc 9d 4a 75 3c d1 f5 49 bc
       0.018123258 -0.014976471 0.0149714025 -0.012326674
0001b0 75 9c 91 bf d8 cd 1a 3c 6c b6 e8 bd a9 8f f4 3c
       -1.1375872 0.009448491 -0.11362919 0.029853659
0001c0 17 19 6a bc fd 74 1b 3b bf 31 f7 bc f7 87 bf 3b
       -0.014288208 0.0023720853 -0.030175088 0.0058450657
0001d0 8e cf e4 3f ed 19 ab bb 6c 6a 37 3c 9a d3 b7 bb
       1.7875841 -0.0052215965 0.011194807 -0.0056099417
0001e0 4e db 96 bc 69 5f dc 3a 07 e0 df 3b 7a ce 62 bb
       -0.01841512 0.0016813102 0.006832126 -0.0034607933
0001f0 c8 7d b3 bb 23 15 36 bc e8 43 37 3c f7 b8 bc bb
       -0.005477641 -0.011113438 0.011185624 -0.005759354
000200 1f 1f 15 bc 5b 04 01 bc 52 27 b7 bb 8e 43 86 ba
       -0.009101658 -0.007874574 -0.005589404 -0.0010243522
000210 d6 37 68 bb 18 7c 99 bc 44 64 f0 bb ef c9 0c 3c
       -0.0035433671 -0.01873593 -0.0073361713 0.008593067
000220 8d 2f 03 bf 11 35 77 bc 85 68 a8 3b 2d e1 3d bb
       -0.5124443 -0.015088336 0.005139413 -0.0028973327
000230 ff 22 af 3f 8c 47 27 3a 04 b1 93 bc fd 31 8c bc
       1.3682555 0.0006381206 -0.018028744 -0.01711368
000240 90 2a bf 3c 9d 39 73 bb 02 03 8f bb 3e 1e 05 bc
       0.023335725 -0.0037113198 -0.004364372 -0.008124886
000250 14 2f 1d bc b5 49 9a 3a 8a 20 87 3c d7 f2 91 bb
       -0.009593744 0.0011771234 0.016495008 -0.0044539976
000260 9b e7 20 bc d8 1f 19 bc 48 fa 2d 3c 94 05 ab bb
       -0.009820844 -0.009345971 0.010618754 -0.005219171
000270 38 fc 34 3f 3d df c1 3b 17 6b 84 3c 26 63 d4 3b
       0.70697355 0.0059165047 0.016164346 0.006481546
000280 d5 bf 31 3b c9 8d dd bb a6 40 6b 3b 36 82 88 bc
       0.0027122397 -0.006761287 0.0035896688 -0.016663652
000290 ff 88 27 3c e8 26 6a 3b 6a ce a6 ba ae 2b 3c bb
       0.0102255335 0.0035728756 -0.0012726311 -0.0028712559
0002a0 62 ea 55 bc 8c 19 55 3c 04 f4 51 bb 18 fd f1 bb
       -0.0130563695 0.013006579 -0.0032036314 -0.0073849075
0002b0 81 1d 45 bc 91 81 bd ba ed 3d 17 3c 2d 0e c6 bb
       -0.01203096 -0.001445817 0.009231073 -0.0060441704
0002c0 33 4b 20 3c 6d 3f 38 bf 3d 44 4c 3c d6 f8 86 3a
       0.009783554 -0.7197178 0.012467441 0.0010297548
0002d0 be 81 8f 3f 97 4a b8 ba 3e 07 1b bc f8 6b d4 39
       1.1211469 -0.0014060315 -0.009462176 0.00040516234
0002e0 1e 16 75 3b 27 4b 4d bb 5a 2d 5f bb f4 c7 31 39
       0.0037397216 -0.0031325312 -0.0034054131 0.00016954524
0002f0 42 6d 3d 3b e5 88 15 bc ea 64 a9 bc 5e 9c 35 3c
       0.0028904234 -0.0091268765 -0.020678002 0.011084644
000300 4c 7b c0 bb 1a 05 b7 3c 23 8c 4c 3b 98 20 c9 bc
       -0.005874073 0.0223413 0.0031211458 -0.024551675
000310 a8 37 40 bb 6e 19 e0 3a c6 d0 58 3c 62 f0 27 3c
       -0.0029330049 0.0017097422 0.013233369 0.010250183
000320 36 78 12 ba 67 57 b6 3b e9 20 91 3c 8c f2 51 3c
       -0.0005587371 0.0055646184 0.017715888 0.012814175
000330 be 91 67 3c 75 ca b8 bf ac 81 f8 3b 52 a5 97 b8
       0.014133869 -1.4436785 0.0075838175 -7.2310344e-05
000340 d8 7a 07 3b bc 61 43 3e 6c cf 20 3b 9d 45 f1 bb
       0.0020672586 0.19080251 0.0024537696 -0.007363035
000350 56 a2 31 3b bd 75 08 3a d3 ca 2c bc ac 58 05 3c
       0.0027104816 0.00052055327 -0.010546404 0.008138817
000360 b1 bd b4 3c 73 83 02 bb d5 93 e2 3a 09 32 eb be
       0.022063108 -0.0019914776 0.0017286489 -0.4593661
000370 e1 fb 97 3f da 82 c7 3c 6b 58 62 3b d3 15 7a 3b
       1.1873742 0.024354387 0.0034537564 0.003815998
000380 05 88 3b 3b bb 7f 08 be a8 bd 1d 3e 61 59 8c 3e
       0.002861501 -0.13329975 0.1540438 0.2741194
000390 64 f1 02 bc 41 53 84 3a 32 b6 60 3b 93 1a c0 bc
       -0.007992122 0.0010095612 0.0034288284 -0.023450172
0003a0 f3 a2 d2 bb 9d 5b c4 3b e6 a1 21 bf 92 94 a9 bc
       -0.0064281165 0.0059923665 -0.6313766 -0.020700727
0003b0 54 4b 98 3b 90 8c d2 3b 9b 21 89 3c c8 a4 42 3b
       0.0046476517 0.0064254478 0.016739657 0.0029700268
0003c0 8e f0 cc 3c 12 45 32 3c f8 ec 1b bc 3a 3d 30 bc
       0.02501705 0.010880725 -0.009516947 -0.010756785
0003d0 dc b2 7e b9 19 53 ac 3c bd d0 6d 3b 63 55 be bb
       -0.00024289958 0.021035718 0.0036287748 -0.0058085187
0003e0 3c fe a2 bb 18 79 38 3c a9 e1 b7 bb 70 72 ac 3a
       -0.0049741548 0.01125934 -0.0056116176 0.0013156664
0003f0 39 74 01 bb 9d 48 01 3c b7 22 b1 bf 01 ed 8a 3c
       -0.0019753112 0.0078908475 -1.3838719 0.016958715

initial_conv.lin_src.weight f4 [256, 4]
000000 01 3c da bb 8f 3e 91 3c 7d 51 8a 3b 13 b2 0e 3d
       -0.006659985 0.017730026 0.00422114 0.034837794
000010 95 7b bd 3b 1c 80 a6 3c e4 c3 69 3b 17 ed b2 bb
       0.0057825544 0.02032476 0.0035669738 -0.005460392
000020 a7 a8 3f bb fa 13 45 3c 01 87 9f bc 12 4b 44 bd
       -0.0029244812 0.012028689 -0.019473555 -0.047923155
000030 b9 a3 33 3d 8a f1 81 3a f6 09 9b 3b 90 98 a5 3c
       0.04385731 0.0009913903 0.004731412 0.020214349
000040 96 35 71 3d 5c d6 ba 3c ed 18 31 3b 0a 75 20 bd
       0.058888994 0.022807293 0.0027022914 -0.039174117
000050 b8 5e 32 bf 19 30 6f 40 66 ba 99 bc 9b 4c f7 bf
       -0.6967578 3.7373106 -0.01876564 -1.9320253
000060 dc 7b 2d bd 57 8e 9e bc bf 1d 3f 39 ad a8 08 3c
       -0.04235445 -0.019354982 0.0001822626 0.008340997
000070 ab 12 02 3f 28 89 1f 40 ac 41 15 bf 32 5e aa bf
       0.50809735 2.4927464 -0.5830333 -1.3309996
000080 4b b0 25 3d 38 fc 19 3d 02 69 75 39 c1 1d 07 bd
       0.04045133 0.03759405 0.00023404139 -0.03298736
000090 6b 25 23 3d bf 22 99 3c dd c3 24 3c a7 2a bc b8
       0.039830606 0.018693326 0.010056463 -8.972483e-05
0000a0 39 de 4a bc 89 9e d7 bb 9a e3 e8 bb c7 30 40 bd
       -0.012382084 -0.006580178 -0.0071072103 -0.046921518
0000b0 5e f5 ae 3c 26 e1 9f 3c b5 d0 26 3c b1 09 84 3a
       0.021357235 0.019516539 0.010181596 0.0010073689
0000c0 19 f2 b2 3c 2d e8 b9 3c 80 d4 90 bb 0a f2 1a 3c
       0.021843957 0.022693718 -0.004419863 0.009457121
0000d0 b1 c7 89 bf 2e e7 f0 be f6 cb 0e 3f 85 59 b3 bf
       -1.0764066 -0.47051376 0.5577997 -1.4011694
0000e0 86 86 ec 3f 71 80 41 c0 4d 53 8a 3d 37 c2 b0 3d
       1.8478553 -3.0234644 0.067541696 0.086307935
0000f0 15 4c 0e 3d 7b 88 8c 3c 27 1e a7 bb 29 95 41 bd
       0.034740526 0.017154923 -0.00510003 -0.04726139
000100 65 cc 4a 3d 42 38 00 c0 e0 08 1a 3e c5 dc 97 3f
       0.049511332 -2.0034337 0.15042448 1.1864249
000110 01 f8 5e bc 94 6d 89 3c 1b 77 4c bc 46 5a 19 bd
       -0.013608933 0.016775884 -0.012479569 -0.037439607
000120 9c 34 41 3d b8 38 ab bc 38 41 ee bb 6d e0 55 3c
       0.047169313 -0.020901069 -0.0072709583 0.013053996
000130 86 37 a7 bf 35 6f 34 40 b5 e8 01 be 6f 25 4f bf
       -1.306382 2.8192875 -0.12686427 -0.80916494
000140 8e 5a 4b 3d 92 14 32 bd e8 a6 c9 3a 52 41 f4 bb
       0.049646907 -0.04347665 0.0015384825 -0.007454076
000150 71 5b a1 3c 6a ca c3 3c 8c 08 b2 3b 70 94 77 3b
       0.019696923 0.02390023 0.005433148 0.0037777685
000160 f9 3a a0 3c 19 80 8e 3c 18 63 d9 3a da e1 0a 3d
       0.01955937 0.017395066 0.0016585318 0.033906795
000170 79 5a 26 40 d0 74 9f 3f 15 66 cf 3a 9c 70 ac c0
       2.599272 1.2457523 0.001582327 -5.3887463
000180 a8 3c ab bc 49 2d 9c 3c 95 f9 a1 ba 1e f6 72 bd
       -0.020902947 0.019064562 -0.0012357706 -0.059316747
000190 4a e4 51 bd 9a 1d 96 bc b2 79 ca ba 9b 53 f4 3c
       -0.051243104 -0.018324662 -0.0015447645 0.029825022
0001a0 af 78 15 3c 68 4c 1d c0 4d 68 82 3e 03 c4 b3 3e
       0.0091230115 -2.4577885 0.254702 0.35110483
0001b0 4f b8 e9 bd 0e 22 52 bb 4c f7 e5 bb 45 94 de bc
       -0.11412107 -0.0032063755 -0.0070180055 -0.02717031
0001c0 1c 3b ae bd 30 ff 11 3d d0 f5 53 3c e2 e2 c2 bc
       -0.08507368 0.035643756 0.012937024 -0.023789827
0001d0 18 88 af 3d fc c8 04 3d c2 cd 14 3c 8b 9d 66 3d
       0.0857088 0.032418236 0.00908226 0.05630259
0001e0 d9 b8 21 bd 80 9c 14 bd 84 54 0e b7 66 48 21 3b
       -0.039482925 -0.036282063 -8.483537e-06 0.0024609803
0001f0 ed a2 cc 3d ea c6 28 3d e6 f3 2a 3b ea a4 5f bd
       0.09992013 0.041205324 0.0026085316 -0.054600634
000200 a7 f2 b0 3c fb a4 5f 3c b2 f9 06 3c 1d e0 23 3d
       0.02160008 0.013650174 0.008238243 0.040008653
000210 32 26 ec 3c d7 a3 7b 3d 98 61 6b 3a 7d 79 5f bd
       0.028826807 0.061435547 0.0008979081 -0.05455922
000220 d8 d4 b6 3e 8b af 43 40 bb 01 5b be 6a 53 38 3e
       0.35709262 3.0575893 -0.21387379 0.1800057
000230 08 ee 56 3d 32 d9 90 bc 8f f0 89 3b b7 7c 05 bb
       0.052473098 -0.017681692 0.004209585 -0.0020368525
000240 cc 07 fe 3c 61 98 ce 3c 6b 32 3f 3b 31 bb 38 3c
       0.031009577 0.025219144 0.0029174339 0.011275099
000250 01 87 c0 3f a0 a0 ad 3f 59 10 3e be a4 3e 3c 3f
       1.50412 1.3564644 -0.18560924 0.7353308
000260 ec e0 94 bf 96 21 79 c0 a5 21 3d bd 15 f6 66 be
       -1.1631141 -3.892675 -0.046174664 -0.2255481
000270 4c 80 dd bc 1e 32 49 3a da 2e 00 bc ab b1 05 3c
       -0.027038716 0.00076750095 -0.00782367 0.008160035
000280 e3 83 7b bc f0 5d e3 bc eb ce 62 bb b8 33 82 3d
       -0.015351268 -0.027754754 -0.0034608196 0.06357521
000290 03 c6 18 be 83 6d 6b c0 90 eb 6b bc d5 b6 3c bd
       -0.14919285 -3.678559 -0.014399424 -0.0460728
0002a0 27 87 00 3d a1 8a 01 ba ae 6e 29 3c 72 68 5a 3d
       0.03137889 -0.0004941617 0.0103413295 0.053322263
0002b0 16 43 b2 3b 43 9a 89 bc 54 28 9a bb 82 67 82 bb
       0.005440126 -0.01679719 -0.0047045145 -0.0039796242
0002c0 d8 a3 7d 3c 6c 9c 2e 3d 7c 7f 15 3b c7 16 f9 bc
       0.015480958 0.042629644 0.0022811582 -0.030406369
0002d0 13 ec c7 ba 4e de 01 bc e9 4a 8c bc 90 5c 67 bd
       -0.0015252851 -0.007926537 -0.017125564 -0.05648476
0002e0 a5 60 f4 be 25 67 58 40 f8 73 1a 3d 6e 2a 3c 40
       -0.47729984 3.3812954 0.037708253 2.9400897
0002f0 5a 52 8c bc 58 3f 10 3c 5e 83 25 3c 7d 7f 7a 3d
       -0.017129112 0.008804165 0.010102121 0.06115674
000300 05 40 fc 3c 0a 5e 80 bc 47 42 f0 ba 2c c5 21 bc
       0.030792246 -0.015669841 -0.0018330299 -0.00987367
000310 de 26 c5 bd 1f 8b 5b 3c 64 68 a1 3a 07 e2 2d 3d
       -0.09626554 0.013399868 0.0012314436 0.042451885
000320 a3 68 cf 3b 4f 49 95 bc ba 9a 7a bb db 71 05 3d
       0.0063296123 -0.018223433 -0.0038239197 0.032579284
000330 3e 6f 97 bc c1 c8 a2 bc 64 75 92 bb 4a 6d 02 3a
       -0.018485662 -0.019871118 -0.0044695605 0.0004975392
000340 4b 60 f2 bc 48 9b e4 3c 87 4c a2 3b 5c 96 f1 bc
       -0.029586932 0.027906075 0.0049529704 -0.029490642
000350 2e 8e b4 ba 61 fb 96 bc 40 8a 30 bc 4f 96 73 bc
       -0.0013775283 -0.018430414 -0.010775149 -0.014867379
000360 ba 27 fc be bd 7f 46 40 67 f2 3f be 26 b5 04 3e
       -0.4924906 3.1015465 -0.18744813 0.12959728
000370 77 c5 81 39 66 c6 f3 3c da 07 89 3a ee f5 2a bd
       0.0002475192 0.02975769 0.001045461 -0.041738443
000380 0f 14 b4 3c 81 3b 8b 3c 0a 3e 6e b9 9e 8d 74 3c
       0.021982221 0.016996147 -0.0002272056 0.014926342
000390 88 dc ca b9 17 77 8b bc 43 61 bb 3a 34 2b 42 3d
       -0.0003869275 -0.01702456 0.0014295954 0.047404483
0003a0 44 1f 26 ba c6 7f 1a bc b0 82 5e 3c aa 93 e1 3d
       -0.00063370564 -0.009429878 0.013580963 0.11014493
0003b0 9c 5a 59 3d e5 53 cb 3b dc 59 63 3b ed 6c 2e 3d
       0.053064927 0.0062050694 0.0034691012 0.04258435
0003c0 53 72 4a 3c cf c3 a0 3c f5 5c 22 3c 2b bb 7b 3c
       0.012356359 0.019624619 0.009909858 0.015364449
0003d0 e4 df a6 3c da 3e 19 bd 2b 5a b1 bb 55 9d 34 3d
       0.020370431 -0.037413456 -0.00541236 0.044095356
0003e0 e8 2d fe bd 0a e8 c6 3c f4 48 86 3b 8b 23 56 3c
       -0.124111 0.024280567 0.004098052 0.013069998
0003f0 6c 43 24 be 77 15 f9 bb 9d f2 9b ba ef 17 76 bc
       -0.16041344 -0.0076014358 -0.0011897866 -0.015020355

initial_conv.lin_dst.weight f4 [256, 4]
000000 01 3c da bb 8f 3e 91 3c 7d 51 8a 3b 13 b2 0e 3d
       -0.006659985 0.017730026 0.00422114 0.034837794
000010 95 7b bd 3b 1c 80 a6 3c e4 c3 69 3b 17 ed b2 bb
       0.0057825544 0.02032476 0.0035669738 -0.005460392
000020 a7 a8 3f bb fa 13 45 3c 01 87 9f bc 12 4b 44 bd
       -0.0029244812 0.012028689 -0.019473555 -0.047923155
000030 b9 a3 33 3d 8a f1 81 3a f6 09 9b 3b 90 98 a5 3c
       0.04385731 0.0009913903 0.004731412 0.020214349
000040 96 35 71 3d 5c d6 ba 3c ed 18 31 3b 0a 75 20 bd
       0.058888994 0.022807293 0.0027022914 -0.039174117
000050 b8 5e 32 bf 19 30 6f 40 66 ba 99 bc 9b 4c f7 bf
       -0.6967578 3.7373106 -0.01876564 -1.9320253
000060 dc 7b 2d bd 57 8e 9e bc bf 1d 3f 39 ad a8 08 3c
       -0.04235445 -0.019354982 0.0001822626 0.008340997
000070 ab 12 02 3f 28 89 1f 40 ac 41 15 bf 32 5e aa bf
       0.50809735 2.4927464 -0.5830333 -1.3309996
000080 4b b0 25 3d 38 fc 19 3d 02 69 75 39 c1 1d 07 bd
       0.04045133 0.03759405 0.00023404139 -0.03298736
000090 6b 25 23 3d bf 22 99 3c dd c3 24 3c a7 2a bc b8
       0.039830606 0.018693326 0.010056463 -8.972483e-05
0000a0 39 de 4a bc 89 9e d7 bb 9a e3 e8 bb c7 30 40 bd
       -0.012382084 -0.006580178 -0.0071072103 -0.046921518
0000b0 5e f5 ae 3c 26 e1 9f 3c b5 d0 26 3c b1 09 84 3a
       0.021357235 0.019516539 0.010181596 0.0010073689
0000c0 19 f2 b2 3c 2d e8 b9 3c 80 d4 90 bb 0a f2 1a 3c
       0.021843957 0.022693718 -0.004419863 0.009457121
0000d0 b1 c7 89 bf 2e e7 f0 be f6 cb 0e 3f 85 59 b3 bf
       -1.0764066 -0.47051376 0.5577997 -1.4011694
0000e0 86 86 ec 3f 71 80 41 c0 4d 53 8a 3d 37 c2 b0 3d
       1.8478553 -3.0234644 0.067541696 0.086307935
0000f0 15 4c 0e 3d 7b 88 8c 3c 27 1e a7 bb 29 95 41 bd
       0.034740526 0.017154923 -0.00510003 -0.04726139
000100 65 cc 4a 3d 42 38 00 c0 e0 08 1a 3e c5 dc 97 3f
       0.049511332 -2.0034337 0.15042448 1.1864249
000110 01 f8 5e bc 94 6d 89 3c 1b 77 4c bc 46 5a 19 bd
       -0.013608933 0.016775884 -0.012479569 -0.037439607
000120 9c 34 41 3d b8 38 ab bc 38 41 ee bb 6d e0 55 3c
       0.047169313 -0.020901069 -0.0072709583 0.013053996
000130 86 37 a7 bf 35 6f 34 40 b5 e8 01 be 6f 25 4f bf
       -1.306382 2.8192875 -0.12686427 -0.80916494
000140 8e 5a 4b 3d 92 14 32 bd e8 a6 c9 3a 52 41 f4 bb
       0.049646907 -0.04347665 0.0015384825 -0.007454076
000150 71 5b a1 3c 6a ca c3 3c 8c 08 b2 3b 70 94 77 3b
       0.019696923 0.02390023 0.005433148 0.0037777685
000160 f9 3a a0 3c 19 80 8e 3c 18 63 d9 3a da e1 0a 3d
       0.01955937 0.017395066 0.0016585318 0.033906795
000170 79 5a 26 40 d0 74 9f 3f 15 66 cf 3a 9c 70 ac c0
       2.599272 1.2457523 0.001582327 -5.3887463
000180 a8 3c ab bc 49 2d 9c 3c 95 f9 a1 ba 1e f6 72 bd
       -0.020902947 0.019064562 -0.0012357706 -0.059316747
000190 4a e4 51 bd 9a 1d 96 bc b2 79 ca ba 9b 53 f4 3c
       -0.051243104 -0.018324662 -0.0015447645 0.029825022
0001a0 af 78 15 3c 68 4c 1d c0 4d 68 82 3e 03 c4 b3 3e
       0.0091230115 -2.4577885 0.254702 0.35110483
0001b0 4f b8 e9 bd 0e 22 52 bb 4c f7 e5 bb 45 94 de bc
       -0.11412107 -0.0032063755 -0.0070180055 -0.02717031
0001c0 1c 3b ae bd 30 ff 11 3d d0 f5 53 3c e2 e2 c2 bc
       -0.08507368 0.035643756 0.012937024 -0.023789827
0001d0 18 88 af 3d fc c8 04 3d c2 cd 14 3c 8b 9d 66 3d
       0.0857088 0.032418236 0.00908226 0.05630259
0001e0 d9 b8 21 bd 80 9c 14 bd 84 54 0e b7 66 48 21 3b
       -0.039482925 -0.036282063 -8.483537e-06 0.0024609803
0001f0 ed a2 cc 3d ea c6 28 3d e6 f3 2a 3b ea a4 5f bd
       0.09992013 0.041205324 0.0026085316 -0.054600634
000200 a7 f2 b0 3c fb a4 5f 3c b2 f9 06 3c 1d e0 23 3d
       0.02160008 0.013650174 0.008238243 0.040008653
000210 32 26 ec 3c d7 a3 7b 3d 98 61 6b 3a 7d 79 5f bd
       0.028826807 0.061435547 0.0008979081 -0.05455922
000220 d8 d4 b6 3e 8b af 43 40 bb 01 5b be 6a 53 38 3e
       0.35709262 3.0575893 -0.21387379 0.1800057
000230 08 ee 56 3d 32 d9 90 bc 8f f0 89 3b b7 7c 05 bb
       0.052473098 -0.017681692 0.004209585 -0.0020368525
000240 cc 07 fe 3c 61 98 ce 3c 6b 32 3f 3b 31 bb 38 3c
       0.031009577 0.025219144 0.0029174339 0.011275099
000250 01 87 c0 3f a0 a0 ad 3f 59 10 3e be a4 3e 3c 3f
       1.50412 1.3564644 -0.18560924 0.7353308
000260 ec e0 94 bf 96 21 79 c0 a5 21 3d bd 15 f6 66 be
       -1.1631141 -3.892675 -0.046174664 -0.2255481
000270 4c 80 dd bc 1e 32 49 3a da 2e 00 bc ab b1 05 3c
       -0.027038716 0.00076750095 -0.00782367 0.008160035
000280 e3 83 7b bc f0 5d e3 bc eb ce 62 bb b8 33 82 3d
       -0.015351268 -0.027754754 -0.0034608196 0.06357521
000290 03 c6 18 be 83 6d 6b c0 90 eb 6b bc d5 b6 3c bd
       -0.14919285 -3.678559 -0.014399424 -0.0460728
0002a0 27 87 00 3d a1 8a 01 ba ae 6e 29 3c 72 68 5a 3d
       0.03137889 -0.0004941617 0.0103413295 0.053322263
0002b0 16 43 b2 3b 43 9a 89 bc 54 28 9a bb 82 67 82 bb
       0.005440126 -0.01679719 -0.0047045145 -0.0039796242
0002c0 d8 a3 7d 3c 6c 9c 2e 3d 7c 7f 15 3b c7 16 f9 bc
       0.015480958 0.042629644 0.0022811582 -0.030406369
0002d0 13 ec c7 ba 4e de 01 bc e9 4a 8c bc 90 5c 67 bd
       -0.0015252851 -0.007926537 -0.017125564 -0.05648476
0002e0 a5 60 f4 be 25 67 58 40 f8 73 1a 3d 6e 2a 3c 40
       -0.47729984 3.3812954 0.037708253 2.9400897
0002f0 5a 52 8c bc 58 3f 10 3c 5e 83 25 3c 7d 7f 7a 3d
       -0.017129112 0.008804165 0.010102121 0.06115674
000300 05 40 fc 3c 0a 5e 80 bc 47 42 f0 ba 2c c5 21 bc
       0.030792246 -0.015669841 -0.0018330299 -0.00987367
000310 de 26 c5 bd 1f 8b 5b 3c 64 68 a1 3a 07 e2 2d 3d
       -0.09626554 0.013399868 0.0012314436 0.042451885
000320 a3 68 cf 3b 4f 49 95 bc ba 9a 7a bb db 71 05 3d
       0.0063296123 -0.018223433 -0.0038239197 0.032579284
000330 3e 6f 97 bc c1 c8 a2 bc 64 75 92 bb 4a 6d 02 3a
       -0.018485662 -0.019871118 -0.0044695605 0.0004975392
000340 4b 60 f2 bc 48 9b e4 3c 87 4c a2 3b 5c 96 f1 bc
       -0.029586932 0.027906075 0.0049529704 -0.029490642
000350 2e 8e b4 ba 61 fb 96 bc 40 8a 30 bc 4f 96 73 bc
       -0.0013775283 -0.018430414 -0.010775149 -0.014867379
000360 ba 27 fc be bd 7f 46 40 67 f2 3f be 26 b5 04 3e
       -0.4924906 3.1015465 -0.18744813 0.12959728
000370 77 c5 81 39 66 c6 f3 3c da 07 89 3a ee f5 2a bd
       0.0002475192 0.02975769 0.001045461 -0.041738443
000380 0f 14 b4 3c 81 3b 8b 3c 0a 3e 6e b9 9e 8d 74 3c
       0.021982221 0.016996147 -0.0002272056 0.014926342
000390 88 dc ca b9 17 77 8b bc 43 61 bb 3a 34 2b 42 3d
       -0.0003869275 -0.01702456 0.0014295954 0.047404483
0003a0 44 1f 26 ba c6 7f 1a bc b0 82 5e 3c aa 93 e1 3d
       -0.00063370564 -0.009429878 0.013580963 0.11014493
0003b0 9c 5a 59 3d e5 53 cb 3b dc 59 63 3b ed 6c 2e 3d
       0.053064927 0.0062050694 0.0034691012 0.04258435
0003c0 53 72 4a 3c cf c3 a0 3c f5 5c 22 3c 2b bb 7b 3c
       0.012356359 0.019624619 0.009909858 0.015364449
0003d0 e4 df a6 3c da 3e 19 bd 2b 5a b1 bb 55 9d 34 3d
       0.020370431 -0.037413456 -0.00541236 0.044095356
0003e0 e8 2d fe bd 0a e8 c6 3c f4 48 86 3b 8b 23 56 3c
       -0.124111 0.024280567 0.004098052 0.013069998
0003f0 6c 43 24 be 77 15 f9 bb 9d f2 9b ba ef 17 76 bc
       -0.16041344 -0.0076014358 -0.0011897866 -0.015020355

conv1.att_src f4 [1, 4, 64]
000000 3c 4f 54 be c5 99 0e be 63 a8 3a 3d 2c 98 55 3c
       -0.2073335 -0.13925846 0.045570742 0.013036769
000010 53 55 25 3e e2 e3 9a 3d 6f b4 0b 3b 2a 6e 03 3e
       0.1614583 0.075629964 0.0021317264 0.12834993
000020 55 34 ca 3e 3d a6 05 bc 69 f1 e1 3b 0c 61 5c 3d
       0.3949305 -0.00815731 0.0068952334 0.05380349
000030 7a 54 05 3d b6 b4 8c be 8e 33 20 bc 11 6a 63 3d
       0.032551266 -0.27481622 -0.009777917 0.055521075
000040 08 7e 46 bd 5b 15 c4 3e df 43 fe bc 62 d0 69 bd
       -0.048460037 0.38297543 -0.031038223 -0.057083495
000050 fc 90 58 3e 1d 6b a6 be 69 17 6f bd 2a 66 3c 3d
       0.21149057 -0.32503596 -0.058371935 0.04599587
000060 42 51 56 3e 64 7a d5 be c5 92 9b 3c d6 e5 26 bc
       0.20929435 -0.4169494 0.018990884 -0.010186633
000070 6e c3 5e bb 45 ac 01 3e 66 dc fe be 28 01 c3 bc
       -0.0033990997 0.12663372 -0.49777526 -0.023804262
000080 05 d7 e4 bb b0 dc 8a 3c a3 88 83 3c 99 88 12 3c
       -0.00698364 0.016950935 0.016056364 0.0089437
000090 28 be 5e bd 4a 87 0d be be 1f c6 3c 4c 61 f5 3c
       -0.054380566 -0.1382114 0.024185058 0.029953621
0000a0 e1 3d e7 3d ba 98 5b bf fc ab 41 3c f0 74 3f 3e
       0.11291099 -0.8577992 0.011820789 0.18696952
0000b0 ae 80 7b bd 38 2f 4e 3c 8f fa 23 3e f4 e5 18 3c
       -0.061402015 0.0125845 0.1601355 0.009332169
0000c0 bf 9b 94 3c 9d d3 6e bc 81 bc f3 bd b0 f6 0f bd
       0.018140672 -0.01457682 -0.11901189 -0.03514737
0000d0 ce 63 be bd df 60 58 3e ec e6 a5 3e f7 94 34 3c
       -0.0929638 0.21130703 0.32402742 0.011021844
0000e0 f4 bd 26 3d 8a 2e dd 39 3c 1a 42 3b 5a de 9e bd
       0.040708497 0.0004218708 0.0029617688 -0.07757254
0000f0 a9 8e 2e 3e 34 21 e4 bc 56 f5 3d 3d 25 f6 af be
       0.17046608 -0.027847864 0.04637655 -0.3436748
000100 bb f7 d9 3c e4 f5 40 be 34 2f 93 3b aa 67 a0 bb
       0.026607385 -0.188438 0.004491711 -0.00489517
000110 e2 8e 6e 3d 49 3e 96 bd d6 aa 3f 3c 73 4b 0e 3e
       0.058241732 -0.07336099 0.011698445 0.13895969
000120 3a 10 c4 bd 98 e4 e4 3b 91 0f 83 b9 83 8a ea bc
       -0.095734075 0.0069852583 -0.00024997865 -0.0286305
000130 48 c0 05 3d 8d 13 55 bc cb a9 c4 bd f7 a0 99 3d
       0.032654077 -0.01300515 -0.09602698 0.07501405
000140 1a 23 32 3d a9 3e 15 3c ae 20 8b 3b c7 45 d0 bc
       0.043490507 0.009109178 0.004245839 -0.025423897
000150 82 8e 9e 3c 46 00 21 bd ec 2c 85 3c 18 a3 7c bd
       0.019355062 -0.0393069 0.016256772 -0.061678976
000160 c8 8d ad 3c eb 00 88 bc 84 79 8e 3c df ed 92 bd
       0.02118577 -0.016602 0.017391928 -0.071742766
000170 db eb 1e bd 5e 4f 51 3c 62 be d1 3d 0f 75 e5 3b
       -0.038799148 0.01277527 0.10241391 0.00700248
000180 de 4c 27 3b 2d 27 17 3d dc 4e cf 3b d8 bf 68 3d
       0.0025527994 0.036902595 0.0063265394 0.05682358
000190 5d a0 09 bd b8 fe 3f be 28 7f 7f bc c1 9f 25 3d
       -0.0336002 -0.18749511 -0.015594281 0.040435556
0001a0 3d a4 86 bb e4 23 a3 bb 8b 47 27 bc 8a 92 4f be
       -0.004108934 -0.0049786437 -0.010209928 -0.20270744
0001b0 b4 a1 ef bb ca 1b 75 3c 95 0e ab bc 59 9f 45 bd
       -0.0073129777 0.014960239 -0.020880977 -0.04824767
0001c0 40 8d 3a bc 1e d4 be bd f5 6d 29 be 96 81 b9 3d
       -0.011386216 -0.09317802 -0.16545852 0.0905792
0001d0 35 17 f1 bc ff 7c 59 3d b8 1a 1d 3e 23 bc ac bd
       -0.029430011 0.05309772 0.15342224 -0.08434322
0001e0 f6 11 29 3e aa 5e c4 3d 23 a5 13 bd f5 0e 65 3e
       0.16510758 0.09588368 -0.03604616 0.22368987
0001f0 85 84 ba bc 1d 18 6e 3d 6c 48 6b 3d f8 5e ab bd
       -0.022768268 0.058128465 0.057442114 -0.08367723
000200 74 f0 67 3b b4 1f a2 bd b8 7d 5d bb 1a b2 2d 3b
       0.0035391124 -0.07916203 -0.0033796858 0.0026503862
000210 fc 5c 13 3b 50 0a ec 3a ff 3c 9a bb 75 7e 2f 3c
       0.0022485843 0.0018008444 -0.0047069783 0.010711302
000220 b0 1a da bb f1 6d c0 3d d3 bd 5b 3d b9 32 9a 3c
       -0.0066560134 0.0939597 0.053647827 0.018823015
000230 70 41 49 bc 95 24 f5 3c 12 c4 46 3d bb 9e af 3d
       -0.012283668 0.02992467 0.04852683 0.08575197
000240 38 9d ae 3b 81 5c 7d be c1 83 0a 3d 68 8f 6c 3c
       0.0053288005 -0.24742319 0.033817057 0.014438488
000250 09 8b 66 3c 53 ff 3b 3a 4a 21 96 3b a0 61 1f bc
       0.0140712345 0.000717153 0.004581605 -0.009727865
000260 63 bb 60 3d fd 30 d4 3b 19 15 37 3b ee f1 25 bd
       0.054866206 0.0064755664 0.002793616 -0.040513925
000270 84 ae 7d 3b 51 ca dc 3b ce 1b 0c be e7 6a cc bc
       0.0038708756 0.006737985 -0.13682482 -0.024953319
000280 f3 59 3a 3c 12 26 eb bd 21 bd a2 3a 4e a5 83 3d
       0.011373985 -0.11481871 0.0012415984 0.06428014
000290 3b dd a7 bd 4f d5 81 bb 25 b5 30 3c 71 d3 d6 bd
       -0.08196493 -0.003962196 0.010785376 -0.10489548
0002a0 84 2a d6 3b 2d 3f e0 3d b8 77 cc bb b7 25 22 bd
       0.00653583 0.1094955 -0.0062398575 -0.03958675
0002b0 4e c7 5b bd 0f 20 8a 3d 71 2b 2a bc 61 c4 3f 3c
       -0.05365687 0.06744396 -0.010386334 0.011704535
0002c0 b8 fa 94 3c a6 f3 32 bc 4e fc 02 bb 74 18 30 3c
       0.018185958 -0.010922348 -0.001998681 0.010748018
0002d0 37 93 be 3b e7 e8 eb 3c 43 c0 8c 3d 56 19 ae 3d
       0.005815889 0.02879758 0.068726085 0.08500926
0002e0 aa f5 12 be 23 a3 05 bb 5a 40 b3 3d 47 f0 2f bc
       -0.14351526 -0.0020391427 0.087525085 -0.010738439
0002f0 4d 23 f2 3b 9b 97 8f 3b 31 20 51 3c eb a9 50 3d
       0.007389462 0.0043820865 0.012764023 0.050943296
000300 2f 7b 67 3d 7a 8a e0 3c e8 39 09 3d 05 61 9e be
       0.05651396 0.02740978 0.03350249 -0.30933395
000310 7c 3c 22 3e ec 84 16 be 82 54 a4 3c ac 91 a2 3e
       0.15843385 -0.14699143 0.020059828 0.31751764
000320 e9 49 e0 3c 76 e8 28 be 6a 39 2c 3e af 38 91 ba
       0.027378993 -0.16494927 0.16818777 -0.0011079515
000330 23 1c a0 3c 84 99 33 be 2b ab 5e 3a 19 30 88 bd
       0.019544667 -0.1753903 0.0008494134 -0.06649799
000340 2e 7f 9b 3c 4d 13 58 3c 7a 2f c7 be d7 1f 8c bc
       0.018981542 0.013188195 -0.3890341 -0.017105026
000350 f1 65 b0 bc cb ee 50 bd 96 ee fb 3c 2b 9d 25 bb
       -0.021532984 -0.05100898 0.030753415 -0.0025270681
000360 f9 6b 62 bd 5b 03 5e ba ff 00 fb 3d 72 ca 00 bd
       -0.055278752 -0.0008469128 0.12256049 -0.031443067
000370 49 3a cc 3c 5b 43 39 bd 8e b0 d0 bd f7 96 bf bb
       0.024930136 -0.04523025 -0.10189925 -0.005846854
000380 8d 98 96 3b 56 76 0b be 7c a0 5b 3a 29 da b2 bd
       0.004595822 -0.1361936 0.0008378101 -0.08733017
000390 8a 8a 81 3d 5b 71 fb be 49 18 82 bd ff dd a6 bd
       0.06325252 -0.4910992 -0.06352288 -0.08147811
0003a0 33 27 21 3d e4 fa 03 3e 43 39 5e bc 99 2d 1e bc
       0.039344024 0.12888676 -0.013563457 -0.009654426
0003b0 4e 7a 04 be b9 13 3c bc 27 6a 8c 3d dc 78 8a 3d
       -0.1293728 -0.011479312 0.068561845 0.06761333
0003c0 35 24 58 3c dc 7a 74 bc 9e e0 21 bc 85 bd 2e 3e
       0.013192226 -0.01492187 -0.009880213 0.17064483
0003d0 88 3f 8d 3c b1 81 f2 3d f1 62 84 bc 0e ed bb 3d
       0.017242208 0.11841143 -0.01616046 0.09176074
0003e0 40 3c 99 3d f5 ad de 3d c4 ca 2c bc 4c 42 48 bc
       0.07482195 0.108730234 -0.01054639 -0.012222838
0003f0 75 f6 21 3c b6 f9 38 3d f6 1b 00 3d 2a 0c c5 3b
       0.00988542 0.045160018 0.031276666 0.006013413

conv1.att_dst f4 [1, 4, 64]
000000 68 d7 54 3f a1 f1 a6 3e 02 67 21 bf 24 ec ec 3e
       0.83141184 0.32606223 -0.630478 0.4627391
000010 2e 00 ac bf 0b 36 93 3f fa 6e bb 3e 4d 9d 67 bf
       -1.3437555 1.1500868 0.36608106 -0.90474397
000020 bc b2 a2 be 52 01 be 3f 65 16 44 3f 29 84 ed 3f
       -0.31776989 1.4844153 0.7659667 1.8555957
000030 78 d3 a7 3f 76 f2 5e 40 cf 66 dc 3f 38 f5 aa 3e
       1.311141 3.4835486 1.7218875 0.33390212
000040 b2 e8 c2 3f 96 ef b3 3f 34 a3 6e 3f fd c9 e4 3f
       1.5227263 1.4057491 0.9321778 1.7874142
000050 0e bf 15 c0 a2 91 6e be ab 90 b0 3f 6f 42 91 bf
       -2.339786 -0.23297742 1.3794149 -1.1348399
000060 36 01 dc be a5 01 ed 3e 2f 1e c8 3d 8b 05 87 3f
       -0.42969674 0.46290317 0.09771382 1.0548567
000070 75 b4 c6 bf a1 25 41 3f 17 bc 77 3f 69 13 27 c0
       -1.5523821 0.7544804 0.9677138 -2.6105597
000080 d7 ae f7 bf cb b1 f5 bf 51 0f 99 bf d2 8d ad bf
       -1.9350232 -1.9194883 -1.1957799 -1.3558905
000090 55 e6 ad bd ae c7 96 bf c6 7d 96 bf fa 05 2f 3f
       -0.08491198 -1.1779687 -1.1757133 0.68368495
0000a0 b3 a4 13 3e 2f f0 33 bf 47 d1 91 3e 14 e5 77 3f
       0.14418297 -0.70288366 0.28479978 0.9683392
0000b0 98 da 1a bf b7 69 14 be 20 f5 71 3f 0f fe 41 3f
       -0.604898 -0.14493452 0.94514656 0.7577829
0000c0 9c 11 89 bf 05 a5 77 bf 11 01 cd 3e d2 a1 c0 bc
       -1.0708499 -0.96736175 0.40039876 -0.023514662
0000d0 a5 a8 c1 bd 43 41 04 c0 d2 50 97 bf 5d 0d 97 bf
       -0.094559945 -2.0664833 -1.1821539 -1.1800953
0000e0 45 ba 01 bc 97 f5 e1 bf 94 47 8c bf 68 1c 89 3e
       -0.007917945 -1.7653073 -1.0959344 0.26779485
0000f0 a8 c8 9d bf 2c 74 05 c0 e9 8b e1 bf d8 52 1f 3f
       -1.232686 -2.0852156 -1.7620822 0.62235785
000100 37 14 07 bf 3b 87 78 bf 8d ac 4a be 50 98 80 be
       -0.5276522 -0.97081345 -0.19792385 -0.25116205
000110 88 e5 20 bf fb e9 59 3e bf b2 b1 3e 6c 04 e8 bf
       -0.62850237 0.21280663 0.34706685 -1.812635
000120 f9 93 71 be cc 8e 9d 3f 9c 31 14 40 2d 79 5a 3f
       -0.23591603 1.2309203 2.315528 0.8534115
000130 a5 13 84 bf a2 5c af 3f e1 a7 ec be 08 37 9f bf
       -1.0318495 1.3700144 -0.4622183 -1.2438669
000140 24 8c 48 bf 73 b3 33 bf b2 c0 0a bd 22 d9 02 bf
       -0.7833884 -0.7019569 -0.033875175 -0.5111257
000150 85 2d 53 40 1d 52 10 40 7c b0 5c 3f 3f 6c fc 3e
       3.2996533 2.2550118 0.86206794 0.49301335
000160 59 95 6d 3f a3 b4 4d 3f 24 c6 f6 3f ac e3 02 c0
       0.9280601 0.80353755 1.9279218 -2.045146
000170 d7 05 8e bf ad 35 5b 3e 26 2b 2c be cb b0 9f 3f
       -1.1095532 0.21407194 -0.16813335 1.2475828
000180 e3 63 58 40 6c fc b2 bf a7 15 57 40 5d d2 39 bf
       3.3810966 -1.3983283 3.3606966 -0.72586614
000190 fe 5f b1 3e d7 65 80 3f 42 6c 5e 3f 9f 30 55 bf
       0.3464355 1.0031079 0.8688394 -0.83277315
0001a0 19 4d d0 bf 20 6d 2a 3f a1 e2 17 c0 3c f6 4e bf
       -1.6273528 0.6657276 -2.3732073 -0.80844474
0001b0 b2 ee 06 40 9b 00 b8 bf 96 ed c7 be 31 2d 8a 3d
       2.1083188 -1.4375185 -0.3904845 0.06746901
0001c0 95 6f 30 c0 cc 24 5d 3e e7 0b a9 bf 7c ae 92 bf
       -2.7568104 0.21596068 -1.3206757 -1.1459498
0001d0 29 67 74 3f 98 d2 7b 3f 21 8b 03 c0 8d 07 40 40
       0.9546991 0.98368216 -2.0553668 3.0004609
0001e0 d2 26 0d 3f 74 04 03 bf c4 8f 69 bd 94 f0 84 3f
       0.5513736 -0.5117867 -0.05702187 1.0385919
0001f0 55 d8 ee be d3 51 2e 3f 72 32 0d bf d8 be cc 3f
       -0.46649423 0.68093604 -0.551551 1.5995741
000200 62 6c 1c 3c e8 08 12 bf c8 d0 47 bf fd 30 c1 3c
       0.009547325 -0.5704484 -0.7805295 0.02358293
000210 ae 58 38 3f ce ef 2b be d3 93 45 bc 6d 2c 03 3e
       0.72010314 -0.16790697 -0.01205917 0.12809916
000220 fc b4 97 3c e1 4f 17 bf c3 ec 2a 3f 12 a1 02 3e
       0.018518917 -0.5910626 0.6676752 0.12756756
000230 23 31 e3 bc c0 f8 9c be b1 80 76 be dc d1 c5 bd
       -0.027733391 -0.3065853 -0.2407253 -0.09659168
000240 38 04 1c 3e a5 87 03 3c 45 bf a1 be dd 12 e5 3d
       0.15235984 0.008027946 -0.3159124 0.111852385
000250 65 b8 ee 3c 37 7d ab 3b ab cb cb 3d aa 91 e4 bd
       0.02914066 0.0052334326 0.09950956 -0.11160596
000260 e9 9a 95 be 9a fb e9 bd 9c c2 a3 3d 9d 7d 70 3e
       -0.2921975 -0.11424942 0.07996103 0.23485418
000270 ac b8 3d 3b 08 3c 2e 3d 19 d8 1b 3e 2e 8b 0c be
       0.0028949184 0.04253772 0.15219153 -0.13724968
000280 84 1c 02 bf 47 20 fa be 30 9b e3 39 09 2c 4a be
       -0.5082476 -0.4885275 0.00043412438 -0.1974336
000290 da 26 03 bb 28 72 bb 3e 24 a2 6a 3e 18 48 35 3b
       -0.002001217 0.36610532 0.22913414 0.002766138
0002a0 69 e8 d8 3d 7f 87 5e 3f 66 e3 1b bf 34 cb 8b 3e
       0.10591204 0.869255 -0.6089386 0.2730347
0002b0 93 f3 3a be 59 a8 82 3e 76 e4 ec be f9 32 b2 3b
       -0.18256979 0.25519064 -0.46268052 0.0054382053
0002c0 1d 2c b6 3d 08 1b de bd 94 ba a5 bd bf 41 98 bd
       0.08895133 -0.108449996 -0.080922276 -0.07434415
0002d0 3b 35 83 3d 9a 2e fe 3e 55 36 55 3e bb 32 cf 3e
       0.06406637 0.4964493 0.20821507 0.40468392
0002e0 54 aa 26 3e 19 f0 68 3b a7 be 84 be a0 21 1a bd
       0.16275913 0.00355435 -0.25926706 -0.037629724
0002f0 b3 62 be bb 24 04 70 3d 05 56 3b bb 89 9b 18 bf
       -0.0058101057 0.0585977 -0.0028585207 -0.5961233
000300 fb 62 b5 be af 61 7a c0 70 6f 14 3e 3c b6 20 bf
       -0.3542708 -3.9122121 0.14495635 -0.6277807
000310 06 1c 20 bf 70 ad 54 3f df 8a 4b 3f a4 65 64 3f
       -0.6254276 0.83077145 0.79508775 0.8921759
000320 24 15 bc 3f 3e 89 77 bf 75 de 2b 3f 3e e0 a8 bf
       1.4693952 -0.9669379 0.6713632 -1.3193433
000330 88 7f d5 be 97 96 3c 3e 62 20 a5 3f 92 b0 41 3f
       -0.4169886 0.1841682 1.2900507 0.7566005
000340 8f 6e c1 3e 8d 83 9d be eb e4 83 bf e4 17 d9 3d
       0.37779662 -0.30764428 -1.0304235 0.1060026
000350 96 16 85 3e 79 a9 cb be c8 3f 60 3d 72 a6 af 3f
       0.25993794 -0.39777735 0.054748327 1.372267
000360 34 51 3f bf e7 b5 2a c0 7e 15 c4 bd b7 d7 a5 be
       -0.7473328 -2.6673524 -0.09574412 -0.3239114
000370 39 18 ed 3f a9 88 29 bf 9f ad 18 3f f7 e7 8c 3f
       1.8523017 -0.6622415 0.59639925 1.100829
000380 0a c2 e9 be 73 e3 d0 3c 8e 02 4e 3f 31 7f 64 bf
       -0.45655853 0.025499081 0.8047265 -0.8925658
000390 36 48 90 bf 6c a8 35 3f 58 af 40 3f 5c 57 c2 3f
       -1.1272037 0.70960116 0.75267553 1.518291
0003a0 cc a8 68 be 25 b7 f0 bf 4f 60 23 3f f6 b6 d5 bf
       -0.22720641 -1.8805891 0.6381883 -1.669646
0003b0 f7 a6 70 bf a1 e4 81 be 90 19 95 3f 62 41 0b bf
       -0.9400477 -0.25369743 1.1648426 -0.5439664
0003c0 44 04 78 be b8 85 01 3f 98 6b b1 be 32 3e 17 bf
       -0.24220377 0.50594664 -0.346524 -0.5907928
0003d0 da 95 7c bf c3 b8 14 3f ed 14 48 3f 6e 62 ab 3e
       -0.98666155 0.58094424 0.7815693 0.33473533
0003e0 22 a9 ca bf 49 da 15 3f 3a 59 93 be 03 08 f0 3f
       -1.5832865 0.585362 -0.28779012 1.8752445
0003f0 fe e0 be 3f a3 f6 29 40 ec 1d 52 3f a8 fb 1e 3f
       1.4912412 2.6556785 0.8207691 0.62102747
