trained_model_1.pth (torch, 72305 bytes, 11 tensors)

initial_conv.bias f4 [64]
-0.18984337 -0.100686036 -0.11679469 -0.90390533 0.23914357 0.09805736 -0.120286494 0.07643392
0.09184735 0.09767522 0.10153581 -0.47200316 1.1448104 -0.31493333 0.04481474 0.24490693
0.16373618 0.18425344 -0.1206922 0.16842994 0.20814444 -0.53695834 -0.23966795 -0.5813299
-0.6749943 0.13496597 0.78763264 -0.73656523 -0.13515958 0.2168346 0.18442138 0.46624592
0.13183434 0.5124154 0.20823853 0.19227454 0.1580445 0.5030267 -0.089559674 -0.78280044
-0.18408376 -0.24410981 0.007951138 -0.29075 0.3402116 0.50133663 -0.03095945 -0.121079385
-0.13885908 0.07473686 0.8702134 -0.5636612 -0.1344362 -0.46030188 -0.13872054 0.12952234
0.14613569 -0.21766709 0.8475715 -0.99209183 0.11615074 -0.07546001 0.58179635 -0.1540025
00000000: 4d66 42be 7b34 cebd 0e32 efbd 5766 67bf
00000010: 0de2 743e 4cd2 c83d c458 f6bd 6389 9c3d
00000020: 771a bc3d f209 c83d 02f2 cf3d 66aa f1be
00000030: 2689 923f f13e a1be a98f 373d e2c8 7a3e
00000040: 75aa 273e efac 3c3e 792d f7bd e678 2c3e
00000050: d123 553e 1a76 09bf 846b 75be 09d2 14bf
00000060: 6dcc 2cbf 8534 0a3e 4ba2 493f 8a8f 3cbf
00000070: 4667 0abe e409 5e3e f5d8 3c3e c9b7 ee3e
00000080: 95ff 063e a82d 033f 7b3c 553e 9ee3 443e
00000090: 6bd6 213e 5cc6 003f 106b b7bd 9c65 48bf
000000a0: 7480 3cbe ecf7 79be 7d45 023c 2fdd 94be
000000b0: 3730 ae3e 9957 003f ac9e fdbc 78f8 f7bd
000000c0: 1331 0ebe a40f 993d 4ec6 5e3f 1a4c 10bf
000000d0: a5a9 09be b0ac ebbe c20c 0ebe 81a1 043e
000000e0: 98a4 153e 1fe4 5ebe 72fa 583f bbf9 7dbf
000000f0: 70e0 ed3d c78a 9abd 9bf0 143f d5b2 1dbe

initial_conv.lin.weight f4 [64, 3]
0.17360118 0.07098847 -1.2474692 -0.56354356 0.08539757 0.011111175 -0.34008312 0.066104665
-0.41770768 0.62184095 0.26097682 -1.5372812 0.83582413 -0.04886645 -0.4859237 -0.86139536
-0.031197293 0.92822015 -0.2383901 0.06412203 -0.518812 -0.12638128 -0.058161482 1.2358215
0.6190494 -0.06975654 0.26741397 -0.2567512 -0.067494534 2.2855146 0.9427 0.009445188
-0.90846676 0.94973487 0.12912886 -0.59556484 -1.2114561 -0.7253495 1.4595205 1.3189219
0.05541577 0.2023307 -0.16226652 -0.0029067118 -0.053539954 -0.9815709 -0.045486625 -0.70594764
0.8508353 -0.100034244 -0.09284967 -0.5292301 0.028393745 -1.5776913 -0.8310526 0.09166328
-0.103181 0.8200854 -0.10149361 -0.30272153 0.54607874 -0.104041554 -0.23844449 0.49245843
0.45676026 -1.0355046 -0.33850363 0.07545784 0.32185873 -0.33691382 0.5366173 -0.3499367
0.9760543 0.28401002 -1.7685791 1.0278046 -0.0050990065 -0.41708046 -0.9898694 -0.4608358
2.358459 1.2448052 0.325938 -2.5377884 -0.95807964 0.06587588 0.24095583 -0.07644889
-0.062065806 -0.056241434 0.46735173 -0.09153367 -0.02519161 -0.9034373 -0.2661903 1.741118
0.9064004 -0.07875487 -0.048459735 -0.6201716 -0.55052096 0.64724153 0.80048513 -0.095734924
-0.29140395 0.46907794 -0.07581278 -0.01922484 0.6090183 -0.07682144 -0.07870873 -0.94368815
-0.20485574 1.5290364 -0.62640333 0.097071566 -0.3611408 0.8113117 0.47584465 -1.0664257
-0.9433135 0.10267536 0.3754006 -0.5025561 0.09564751 0.62499416 -0.26423427 0.065537035
-1.5170997 -0.6105117 0.12636273 0.3777737 0.33515182 -0.12690067 -0.67341197 0.2605285
-0.09591669 -0.52231073 0.16320018 0.052417975 -1.050309 -0.92447424 0.08965352 -0.29696396
-0.5735247 0.07808731 -0.41860393 0.8913532 -0.023029845 -0.41040176 -1.0070554 -0.27125126
1.6666166 0.5623402 0.28325614 -1.4250323 -0.8378621 0.08426677 0.1397003 0.6544543
0.0558742 0.3775951 -1.1290004 0.054232154 0.2577594 0.49547237 -0.083912864 0.59108675
-0.9491953 -0.0137159405 -0.10123289 1.3223528 0.026286734 -0.11968641 -0.71209604 -0.18941462
0.17808579 0.80234104 0.3059699 -2.0922952 0.8740498 0.013580424 -0.8128556 -1.0751077
-0.007925451 0.63837165 -0.5007973 -0.2405401 0.98079205 -0.89034194 0.09413363 0.30908805
00000000: 82c4 313e 6762 913d 12ad 9fbf 6444 10bf
00000010: ece4 ae3d a50b 363c 601f aebe e261 873d
00000020: c8dd d5be f830 1f3f c19e 853e a1c5 c4bf
00000030: 92f8 553f 3028 48bd feca f8be 6884 5cbf
00000040: 7791 ffbc d69f 6d3f 891c 74be 6952 833d
00000050: ddd0 04bf 186a 01be bc3a 6ebd 662f 9e3f
00000060: 057a 1e3f 84dc 8ebd 7cea 883e e574 83be
00000070: 933a 8abd df45 1240 ca54 713f fdbf 1a3c
00000080: 4791 68bf d321 733f 5b3a 043e f076 18bf
00000090: fe10 9bbf 81b0 39bf 91d1 ba3f 6fd2 a83f
000000a0: a5fb 623d c72f 4f3e 3229 26be 887e 3ebb
000000b0: b64c 5bbd 3b48 7bbf 2f50 3abd fcb8 34bf
000000c0: 58d0 593f c1de ccbd f827 bebd a07b 07bf
000000d0: 009a e83c caf1 c9bf ddbf 54bf f5b9 bb3d
000000e0: 8f50 d3bd 1ef1 513f e2db cfbd 51fe 9abe
000000f0: d1cb 0b3f bd13 d5bd cb2a 74be 8323 fc3e
00000100: 7bdc e93e 6a8b 84bf 5950 adbe a489 9a3d
00000110: abca a43e f87f acbe c05f 093f e72a b3be
00000120: b2de 793f c369 913e cd60 e2bf 1a8f 833f
00000130: 9115 a7bb 928b d5be 1568 7dbf acf2 ebbe
00000140: fef0 1640 c755 9f3f 58e1 a63e 206b 22c0
00000150: b544 75bf efe9 863d 20bd 763e 3c91 9cbd
00000160: b738 7ebd 6b5d 66bd ba48 ef3e 0176 bbbd
00000170: a35e cebc ab47 67bf 184a 88be f4dc de3f
00000180: db09 683f 3c4a a1bd b77d 46bd 91c3 1ebf
00000190: f1ee 0cbf 9fb1 253f 98ec 4c3f ac10 c4bd
000001a0: e632 95be fc2a f03e bb43 9bbd 697d 9dbc
000001b0: a0e8 1b3f 8f54 9dbd 0b32 a1bd 8c95 71bf
000001c0: b4c5 51be 77b7 c33f f85b 20bf 75cd c63d
000001d0: 72e7 b8be 20b2 4f3f e9a1 f33e a380 88bf
000001e0: fe7c 71bf 7647 d23d 8234 c03e 84a7 00bf
000001f0: d7e2 c33d 9eff 1f3f b749 87be 4838 863d
00000200: 5330 c2bf 7f4a 1cbf 3b65 013e 8e6b c13e
00000210: 0599 ab3e 40f2 01be ba64 2cbf fe63 853e
00000220: f86f c4bd 28b6 05bf f31d 273e 3bb4 563d
00000230: 8670 86bf 58aa 6cbf 449c b73d a90b 98be
00000240: 84d2 12bf 3dec 9f3d 4153 d6be b92f 643f
00000250: 16a9 bcbc 2e20 d2be 31e7 80bf 72e1 8abe
00000260: b153 d53f 87f5 0f3f f306 913e 7567 b6bf
00000270: 217e 56bf 0e94 ac3d 980d 0f3e 518a 273f
00000280: 58dc 643d 2554 c13e 1683 90bf 8922 5e3d
00000290: 0af9 833e 8eae fd3e 82da abbd 7651 173f
000002a0: 77fe 72bf d3b8 60bc 3053 cfbd db42 a93f
000002b0: 4757 d73c 261e f5bd ed4b 36bf e8f5 41be
000002c0: 1f5c 363e 3966 4d3f 16a8 9c3e 2ae8 05c0
000002d0: bac1 5f3f 6d80 5e3c 4e17 50bf 219d 89bf
000002e0: c0d9 01bc 536c 233f 4034 00bf 2550 76be
000002f0: 3015 7b3f 73ed 63bf 22c9 c03d ca40 9e3e

conv1.bias f4 [64]
-0.25913894 -0.06930272 -0.06823773 0.03669105 -0.055085346 -0.007839352 -0.2950673 0.24418359
-0.24466228 0.025513487 0.14885205 0.36488572 -0.016310226 0.052239913 0.002798872 -0.17029841
-0.05473206 0.7030014 0.033272155 -0.17318171 -0.014190325 -0.071195595 0.00075634336 0.17217545
0.20678644 -0.00959591 -0.20138729 -0.3487588 -0.22270991 -0.16720611 -0.022639757 0.16761303
-0.30513453 0.12052543 0.50562316 -0.030394394 0.040451076 -0.14870018 -0.08540717 0.58614576
0.24944195 0.4974668 -0.12436905 -0.106758706 -0.25968748 0.03423161 0.319833 -0.15080123
0.0045294175 0.13246188 0.10486284 -0.13039818 0.0075606583 0.2999777 -0.1522404 0.040671512
0.0029558274 -0.04810422 -0.30216798 -0.2095337 0.18847805 -0.07109797 -0.23912655 0.004666701
00000000: dcad 84be 96ee 8dbd 39c0 8bbd 5b49 163d
00000010: 2ca1 61bd a070 00bc 1013 97be 430b 7a3e
00000020: c088 7abe a901 d13c ac6c 183e 4dd2 ba3e
00000030: 069d 85bc 85f9 553d 486d 373b b562 2ebe
00000040: b92e 60bd e6f7 333f 6248 083d 8c56 31be
00000050: 897e 68bc ffce 91bd 5845 463a c34e 303e
00000060: d3bf 533e 2a38 1dbc 7838 4ebe 8390 b2be
00000070: 110e 64be 1438 2bbe 0377 b9bc c0a2 2b3e
00000080: 983a 9cbe 09d6 f63d 8570 013f aafd f8bc
00000090: 07b0 253d dc44 18be f4e9 aebd a60d 163f
000000a0: b66d 7f3e f8b3 fe3e 33b5 febd 4fa4 dabd
000000b0: c2f5 84be 7236 0c3d 27c1 a33e a36b 1abe
000000c0: 826b 943b 16a4 073e 54c2 d63d 1a87 05be
000000d0: 66bf f73b ad96 993e e8e4 1bbe 2c97 263d
000000e0: 8eb6 413b ee08 45bd c3b5 9abe 0190 56be
000000f0: 6400 413e d09b 91bd 97dd 74be 20eb 983b

conv1.lin.weight f4 [64, 64]
-0.303552 -0.1972792 -0.016264034 0.22563139 -0.19527002 0.29055396 -0.012234641 0.12613317
-0.040539272 0.7326395 -0.31715024 0.07704002 -0.120981 -0.06306425 0.05119563 -0.08563983
-0.031189827 -0.336551 -0.11975578 0.04852133 -0.18802413 0.048354115 0.1809587 -0.0164054
0.078619346 -0.338425 -0.29996514 0.22485563 -0.094835095 0.09220471 -0.04232447 -0.1484637
-0.028256904 0.07348066 -0.16438767 -0.16588312 -0.1264171 -0.22511914 -0.27513605 0.3056222
-0.04820609 -0.077233404 -0.62087697 -0.040389724 -0.04058703 -0.14789127 -0.30613658 -0.096140005
-0.17695333 -0.030983128 -0.091337234 0.3392964 0.036647853 0.16942261 0.43876785 0.27482465
0.15729588 -0.32686448 -0.19831479 0.24206711 -0.3418166 0.8434832 -0.12276298 0.05852097
0.15434721 0.1286201 0.11599077 -0.12656552 -0.12125943 0.07251401 -0.025882497 -0.12518378
-0.092158444 0.09697699 -0.068788655 0.15996654 -0.042294465 -0.18502991 -0.09689939 -0.067748815
-0.37347776 0.2503452 0.3132002 -0.39485615 0.10815123 0.010061156 0.09329773 -0.094088934
-0.012444806 -0.20689218 0.4779313 -0.5180202 0.32995224 0.017314795 0.029718932 -0.04721518
-0.30227435 -0.057388745 -0.31604674 -0.1338847 -0.124255024 0.12571283 0.406304 -0.105523154
0.504433 -0.028932998 -0.015505905 0.24705932 -0.14968452 0.06633484 0.12022845 0.3970469
-0.09717847 -0.05062673 0.055990923 -0.2740276 0.31376493 0.07964598 0.67056906 -0.09028038
0.12847196 -0.27895904 -0.09172219 0.026667245 -0.22729294 0.32908386 -0.12800106 0.19570908
-0.03566323 -0.082067594 0.0108221 -0.22472413 -0.35240176 0.51734114 0.1257414 0.087985024
-0.23132305 -0.22809488 -0.69019556 -0.19610406 0.12687057 -0.384153 0.07386075 0.12426633
-0.24013358 0.2412729 0.37015796 -0.19266924 -0.20357989 -0.05769056 0.10641788 0.22523469
-0.14376593 -0.30555296 -0.09973363 0.016600626 0.47296447 0.21257554 -0.1931023 0.22154443
-0.3201943 0.093332455 -0.020317392 -0.24774449 -0.025627317 0.1737085 0.08011621 0.1839333
0.37935615 0.20383325 0.08996933 0.032405257 -0.113134645 0.056725673 -0.23568828 0.555451
0.26402798 -0.3811954 -0.095847 0.07294166 0.4106638 -0.10675727 0.5950087 -0.072958596
0.1460145 -0.57730395 0.2958314 0.04050855 -0.30400327 0.28651476 -0.09121704 0.35362718
0.018797578 -0.10083956 -0.043522652 0.15027778 0.3187751 0.2241747 -0.12366557 0.17459846
0.010796038 0.14406687 -0.23707499 -0.014872098 -0.036860935 -0.3391201 0.048562262 0.24874412
-0.050512638 0.09221177 -0.26274452 0.07581243 0.17772335 0.056471445 0.012253173 0.018337265
0.4174901 -0.18944596 -0.21838583 0.37201753 0.06330116 0.051945418 0.20417328 -0.12898524
0.2799108 -0.07160123 0.17384452 0.28038323 0.028412655 -0.24028443 0.023981411 0.17492522
-0.31557193 0.033686537 -0.33900478 -0.20658292 0.22948784 0.27963156 -0.0925306 0.066099636
0.1333071 0.08140245 -0.369075 0.055118006 -0.09873089 0.04763478 -0.09006348 0.09659815
0.19073375 -0.3471693 -0.055699933 0.42368647 -0.039512563 0.19851403 -0.28982848 -0.17439453
00000000: 2b6b 9bbe 8f03 4abe 273c 85bc ea0b 673e
00000010: ddf4 47be 7dc3 943e ce73 48bc 0e29 013e
00000020: 820c 26bd 438e 3b3f 8461 a2be 28c7 9d3d
00000030: e3c4 f7bd d427 81bd 82b2 513d ef63 afbd
00000040: cf81 ffbc 6a50 acbe 8542 f5bd 4dbe 463d
00000050: 6689 40be f70e 463d 3d4d 393e 9e64 86bc
00000060: 2e03 a13d 0b46 adbe 0895 99be 8e40 663e
00000070: e738 c2bd d3d5 bc3d 6c5c 2dbd de06 18be
00000080: 067b e7bc 077d 963d 3e55 28be 44dd 29be
00000090: 7c73 01be a285 66be a2de 8cbe 837a 9c3e
000000a0: c073 45bd 8c2c 9ebd cbf1 1ebf b26f 25bd
000000b0: 963e 26bd cf70 17be efbd 9cbe 0de5 c4bd
000000c0: 4133 35be 54d0 fdbc 040f bbbd 42b8 ad3e
000000d0: 0f1c 163d 1f7d 2d3e 2ea6 e03e d1b5 8c3e
000000e0: 2c12 213e c85a a7be 0813 4bbe 71e0 773e
000000f0: 9602 afbe 84ee 573f 286b fbbd afb3 6f3d
00000100: 320d 1e3e fdb4 033e 928c ed3d 649a 01be
00000110: dd56 f8bd 3a82 943d 8807 d4bc 2d30 00be
00000120: 91bd bcbd df9b c63d 11e1 8cbd 45ce 233e
00000130: f63c 2dbd 7b78 3dbe 3073 c6bd e4bf 8abd
00000140: 7a38 bfbe 3f2d 803e c75b a03e 962a cabe
00000150: 647e dd3d 8cd7 243c e112 bf3d b3b1 c0bd
00000160: 4de5 4bbc 8bdb 53be 69b3 f43e f99c 04bf
00000170: 80ef a83e c2d7 8d3c 1e75 f33c b464 41bd
00000180: b4c3 9abe 7610 6bbd e1d0 a1be 1219 09be
00000190: 6b79 febd ddba 003e 1407 d03e 861c d8bd
000001a0: 8522 013f e504 edbc 7b0c 7ebc 1efd 7c3e
000001b0: e646 19be 90da 873d 553a f63d bb49 cb3e
000001c0: 8105 c7bd f95d 4fbd bd56 653d 584d 8cbe
000001d0: cca5 a03e 6e1d a33d 6aaa 2b3f ebe4 b8bd
000001e0: 278e 033e b8d3 8ebe d8d8 bbbd 4475 da3c
000001f0: 7bbf 68be ae7d a83e b612 03be f667 483e
00000200: 9b13 12bd 0e13 a8bd 2d4f 313c 151e 66be
00000210: 016e b4be 7870 043f 5bc2 003e 7e31 b43d
00000220: f3df 6cbe b491 69be a8b0 30bf 81cf 48be
00000230: 5cea 013e b4af c4be 4e44 973d 587f fe3d
00000240: 94e5 75be 3e10 773e 5885 bd3e 164b 45be
00000250: 3f77 50be f04c 6cbd 9ef1 d93d eca3 663e
00000260: 6037 13be 7071 9cbe 2541 ccbd 09fe 873c
00000270: 6628 f23e 67ad 593e 9cbc 45be 8bdc 623e
00000280: 82f0 a3be 1625 bf3d a970 a6bc bbb0 7dbe
00000290: 61f0 d1bc a4e0 313e f813 a43d 0359 3c3e
000002a0: f83a c23e aab9 503e d741 b83d 60bb 043d
000002b0: 23b3 e7bd 2e59 683d 4558 71be 0932 0e3f
000002c0: ad2e 873e 0b2c c3be 6f4b c4bd 7062 953d
000002d0: 8742 d23e 8ea3 dabd 7d52 183f 516b 95bd
000002e0: d384 153e 31ca 13bf 3777 973e 4bec 253d
000002f0: 51a6 9bbe 10b2 923e 00d0 babd 9f0e b53e
00000300: 61fd 993c f984 cebd cf44 32bd 6be2 193e
00000310: 7d36 a33e 0d8e 653e 6044 fdbd f0c9 323e
00000320: dee1 303c 4486 133e c9c3 72be 1aaa 73bc
00000330: 7efb 16bd 26a1 adbe 39e9 463d c7b6 7e3e
00000340: 57e6 4ebd 86d9 bc3d 7386 86be 8c43 9b3d
00000350: 1cfd 353e 9a4e 673d 88c1 483c 0838 963c
00000360: 43c1 d53e 1ffe 41be 89a0 5fbe 1579 be3e
00000370: 0aa4 813d b8c4 543d cd12 513e b514 04be
00000380: 7850 8f3e aaa3 92bd 4c04 323e 648e 8f3e
00000390: a8c1 e83c 1f0d 76be aa74 c43c 991f 333e
000003a0: a592 a1be e5fa 093d 0992 adbe 798a 53be
000003b0: dcfe 6a3e de2b 8f3e af80 bdbd 3f5f 873d
000003c0: a881 083e 54b6 a63d 66f7 bcbe 6bc3 613d
000003d0: 6c33 cabd b01c 433d 3473 b8bd 40d5 c53d
000003e0: b54f 433e 2dc0 b1be 9d25 64bd 6fed d83e
000003f0: edd7 21bd 4347 4b3e 6664 94be 7b94 32be

conv2.bias f4 [64]
-0.14947003 -0.017748624 0.15428306 -0.02169854 0.11967746 0.105776906 0.51684594 -0.27278584
0.1655863 0.064178176 -0.05772582 -0.22398143 0.15487638 0.10553755 -0.34382102 0.06494001
0.056683853 -0.21571057 0.017677264 -0.11839889 -0.08262349 0.37677822 -0.014560624 0.07331312
-0.19256319 0.03404427 -0.15888363 -0.20294261 -0.057099774 0.18489751 -0.16736525 0.17023167
-0.26758426 -0.03383933 0.13888761 0.11189579 -0.077159606 -0.08267906 0.024582382 -0.1238179
0.047245968 -0.018876297 -0.14235716 0.180435 0.060687862 -0.35139477 -0.02782998 0.082533635
0.03303187 -0.1707967 0.15505074 -0.1737567 -0.11799862 0.01721519 0.32729915 -0.17803659
-0.122389115 0.012164827 0.046855915 0.068716876 -0.037026506 -0.10895031 0.039321862 0.15863064
00000000: ac0e 19be 9065 91bc 61fc 1d3e 23c1 b1bc
00000010: 7519 f53d 90a1 d83d 0450 043f 96aa 8bbe
00000020: 748f 293e d96f 833d e971 6cbd 635b 65be
00000030: ea97 1e3e 1224 d83d 4f09 b0be 45ff 843d
00000040: 542d 683d 3be3 5cbe e9cf 903c 1e7b f2bd
00000050: 8136 a9bd 13e9 c03e af8f 6ebc 3025 963d
00000060: 492f 45be 0172 0b3d 64b2 22be 30d0 4fbe
00000070: 74e1 69bd c655 3d3e cc61 2bbe 3651 2e3e
00000080: ce00 89be 1c9b 0abd 8e38 0e3e 9f29 e53d
00000090: db05 9ebd a453 a9bd fe60 c93c 3d94 fdbd
000000a0: fd84 413d 77a2 9abc 13c6 11be f4c3 383e
000000b0: d693 783d 04ea b3be b3fb e3bc 6507 a93d
000000c0: 6d4c 073d 55e5 2ebe 9fc5 1e3e 47ed 31be
000000d0: 43a9 f1bd df06 8d3c c193 a73e 394f 36be
000000e0: 25a7 fabd fc4e 473c fdeb 3f3d 6fbb 8c3d
000000f0: 1ba9 17bd 5721 dfbd f60f 213d 1270 223e

conv2.lin.weight f4 [64, 64]
-0.61024004 -0.29979247 -0.14525113 -0.32762074 -0.71211565 -0.013074659 -0.12796657 -0.192425
-0.78173625 0.07788294 0.4001266 -0.035513163 -0.34167746 0.41724944 -0.70238656 0.14678861
0.8543245 -0.06796451 0.8518193 0.43236503 0.008910323 -0.24230714 0.6807136 -0.06754147
0.21477044 0.08487541 -0.6715963 0.20558107 0.05897728 0.088549964 -0.44461617 0.20007223
-0.23499028 -0.23193423 0.36739257 0.77696985 0.06949822 -0.7241991 -0.2957396 0.08296852
0.079643995 0.09383463 -0.37803888 -0.3457336 0.22312254 -0.06565493 -0.02147333 0.1350235
-0.022320025 0.28032556 0.4285024 -0.46020144 -0.57139915 0.07542745 -0.28738272 -0.16466583
0.34508255 -0.038650837 -0.26148388 -0.15028244 -0.80656713 0.43493775 -0.74948436 0.6203868
0.4406234 -0.14990528 0.2223943 0.6454923 0.3930612 -0.06326417 -0.029889809 -0.26022553
0.3541887 -0.102370456 0.060968745 -0.11974628 0.5035889 -0.10545406 -0.20592843 -0.18907036
0.106007464 0.078779325 -0.03012643 0.15170659 0.09981604 0.0765038 0.018411256 -0.12850927
-0.00022577209 -0.7869644 0.45553374 -0.033770412 -0.17635018 -0.48536745 0.26565263 -0.72783476
0.1340879 0.24473804 0.662735 -0.11005272 0.5780432 0.37676415 0.31072253 -0.3271758
-1.9297289 -0.43761984 1.0941092 0.39493176 0.30155003 0.22932126 0.30733222 -0.2454142
0.03087509 -0.009473808 -0.000770464 1.4470948 0.089307815 0.10769874 0.4259753 0.6149791
-0.034148976 -0.028663374 -0.14789051 -0.16351908 0.24283923 -0.23162344 -0.20730062 -1.2191995
-0.08537425 -0.20175922 0.25111356 0.97956705 -0.07252626 -0.099429965 -0.30887258 -0.09111701
0.06638901 -0.2031374 -0.1666448 0.030452788 -0.41245183 -0.46858543 0.07028823 0.026762215
-0.33251232 -0.14578491 0.6459786 0.28725928 -0.31434396 0.46711302 -0.46268713 0.1670329
-0.14760628 0.030503524 -0.017112091 -0.29963437 0.24813047 -0.32660416 -0.58688813 -0.47783124
0.06981083 0.43827075 0.083694726 -0.16549632 -0.17377932 -0.35302284 -0.19380161 -0.026562955
-0.76361835 -0.5142451 0.09777375 -0.70883036 0.31429052 0.89379334 -0.10395954 0.41359484
-0.21472463 -0.21399707 -0.23808369 -0.025497891 0.19215682 0.21435481 0.40823305 0.8315474
-0.19565201 0.015582864 -0.08367612 -0.49253604 -0.16216512 -0.22623438 -0.59769815 -0.33177784
0.29930466 0.08834519 0.046349246 -0.011848109 -0.21738473 0.011760711 0.49299586 0.039976373
0.25343454 0.40354848 -0.018535383 -0.26162353 -0.29735488 0.09343741 0.01690995 0.19715482
0.15982755 -0.14505728 -0.12223137 0.075807974 -0.54834205 0.16964108 -0.0927938 0.088927045
-0.19631016 0.115907736 0.13150512 0.5635681 -0.059269555 -0.105089776 0.052496497 -0.43919718
0.08195176 -0.04969818 -0.53759986 0.12059287 -0.59388554 -0.04736251 -0.25324354 -0.25213593
-0.37522903 -0.50210005 0.36674607 0.07552902 -0.06856819 0.36268756 -0.13280348 0.14531238
-0.40458465 0.10300522 0.13618459 0.3178244 0.023817107 -0.23893926 0.48894137 -0.112999514
0.2841725 0.29185876 0.15624835 0.061936744 0.27211773 -0.17180453 0.73917633 -0.08958886
00000000: b138 1cbf 667e 99be b6bc 14be e8bd a7be
00000010: 364d 36bf 1837 56bc ab09 03be 0f0b 45be
00000020: de1f 48bf 1781 9f3d 65dd cc3e 4076 11bd
00000030: 59f0 aebe b8a1 d53e 9bcf 33bf c14f 163e
00000040: 03b5 5a3f fa30 8bbd d410 5a3f f35e dd3e
00000050: 9afc 113c 5d1f 78be 3f43 2e3f 2f53 8abd
00000060: c8ec 5b3e 29d3 ad3d bced 2bbf d883 523e
00000070: 2992 713d af59 b53d bba4 e3be bcdf 4c3e
00000080: 4ba1 70be 2b80 6dbe e11a bc3e 7fe7 463f
00000090: 1555 8e3d 1d65 39bf 2e6b 97be 66eb a93d
000000a0: 641c a33d 5f2c c03d 508e c1be ff03 b1be
000000b0: 3c7a 643e 1876 86bd d6e8 afbc 9a43 0a3e
000000c0: 7cd8 b6bc d586 8f3e ab64 db3e 869f ebbe
000000d0: 3747 12bf b579 9a3d d423 93be 299e 28be
000000e0: a9ae b03e 5750 1ebd 37e1 85be a4e3 19be
000000f0: 2f7b 4ebf 29b0 de3e 35de 3fbf abd1 1e3f
00000100: 6499 e13e c580 19be 55bb 633e fc3e 253f
00000110: 513f c93e a590 81bd 79db f4bc 483c 85be
00000120: 3958 b53e 9aa7 d1bd 5dba 793d 8a3d f5bd
00000130: 34eb 003f 4cf8 d7bd e7de 52be a99b 41be
00000140: 711a d93d 0e57 a13d b4cb f6bc f958 1b3e
00000150: 5a6c cc3d 06ae 9c3d 34d3 963c ef97 03be
00000160: 3cbd 6cb9 8076 49bf b83b e93e d852 0abd
00000170: 2495 34be 1582 f8be 9f03 883e 6153 3abf
00000180: 574e 093e 9c9c 7a3e 00a9 293f 5263 e1bd
00000190: a4fa 133f 3be7 c03e 0617 9f3e 9683 a7be
000001a0: 5b01 f7bf b50f e0be c50b 8c3f 7f34 ca3e
000001b0: c464 9a3e 31d3 6a3e a65a 9d3e dc4d 7bbe
000001c0: c2ed fc3c 0838 1bbc f7f8 49ba 673a b93f
000001d0: 04e7 b63d 2891 dc3d 6f19 da3e 456f 1d3f
000001e0: ccdf 0bbd 74cf eabc 9c70 17be 8c71 27be
000001f0: d9aa 783e b22e 6dbe 9d46 54be bb0e 9cbf
00000200: b2d8 aebd f899 4ebe f591 803e e8c4 7a3f
00000210: a688 94bd f0a1 cbbd 8c24 9ebe 8e9b babd
00000220: f6f6 873d 4003 50be efa4 2abe 2078 f93c
00000230: e32c d3be 6eea efbe 47f3 8f3d 6f3c db3c
00000240: 0e3f aabe a448 15be db5e 253f a613 933e
00000250: b1f1 a0be 7029 ef3e 54e5 ecbe ac0a 2b3e
00000260: 1a26 17be 87e2 f93c a82e 8cbc ad69 99be
00000270: ea15 7e3e a938 a7be 4d3e 16bf 4ca6 f4be
00000280: fbf8 8e3d 0665 e03e 2468 ab3d de77 29be
00000290: 35f3 31be 69bf b4be ee73 46be 8e9a d9bc
000002a0: 7e7c 43bf 91a5 03bf 9b3d c83d e875 35bf
000002b0: b0ea a03e a4cf 643f bde8 d4bd b4c2 d33e
000002c0: c6e0 5bbe 0c22 5bbe 36cc 73be f4e0 d0bc
000002d0: c2c4 443e d47f 5b3e ec03 d13e 4ae0 543f
000002e0: 0059 48be 454f 7f3c 635e abbd af2d fcbe
000002f0: 9d0e 26be fca9 67be bf02 19bf c9de a9be
00000300: 763e 993e 53ee b43d b5d8 3d3d 921e 42bc
00000310: 1a9a 5ebe ffaf 403c f469 fc3e 44be 233d
00000320: 2cc2 813e e89d ce3e 84d7 97bc 85f3 85be
00000330: e63e 98be 1d5c bf3d bc86 8a3c f4e2 493e
00000340: d5a9 233e e589 14be 7154 fabd 3641 9b3d
00000350: 2560 0cbf 64b6 2d3e ad0a bebd 621f b63d
00000360: 8805 49be 0961 ed3d 47a9 063e 0046 103f
00000370: a2c4 72bd 4f39 d7bd 9106 573d 74de e0be
00000380: 53d6 a73d 5290 4bbd 25a0 09bf 65f9 f63d
00000390: e208 18bf 31ff 41bd 23a9 81be f617 81be
000003a0: 051e c0be a189 00bf 24c6 bb3e f5ae 9a3d
000003b0: 7b6d 8cbd 2fb2 b93e a3fd 07be c5cc 143e
000003c0: b825 cfbe 67f4 d23d f973 0b3e e1b9 a23e
000003d0: 181c c33c 7eac 74be 8656 fa3e 4a6c e7bd
000003e0: 0f7f 913e 836e 953e 91ff 1f3e 62b1 7d3d
000003f0: 0453 8b3e 87ed 2fbe a93a 3d3f 5d7a b7bd

conv3.bias f4 [64]
0.043152876 -0.110195205 0.14567505 -0.05543597 0.271917 0.028012622 -0.10245275 0.12926723
-0.39188632 -0.007649606 -0.20623752 0.16330995 0.3137866 0.23043065 0.016289424 0.34041095
-0.9053451 -0.038920008 0.9091213 -0.1457884 0.07428389 -0.042918913 -0.17928992 0.29179403
0.02861033 0.033760674 -0.4139802 0.11933097 -0.0556897 0.15373512 0.42556056 -0.0012791193
-0.074957356 0.16988337 -0.6321188 -0.11209764 -0.4226909 0.021822678 0.08370099 -0.088539936
0.13457444 -0.05741608 0.047581162 -0.11477043 0.43021813 -0.027958103 -0.31859338 0.1206822
-0.022293152 0.07263892 0.03725662 -0.22313523 -0.065255694 -0.032663427 -0.090715 -0.020778675
0.002824245 -0.023338176 0.098433524 0.04218484 -0.03451536 -0.07785209 0.28869286 0.61118114
00000000: 12c1 303d 06ae e1bd d72b 153e d410 63bd
00000010: b438 8b3e ba7a e53c bfd2 d1bd a15e 043e
00000020: 53a5 c8be 8ca9 fabb ee2f 53be b93a 273e
00000030: a3a8 a03e 03f6 6b3e 6671 853c 584a ae3e
00000040: b2c4 67bf 966a 1fbd 2cbc 683f 8e49 15be
00000050: 2722 983d becb 2fbd c797 37be 0766 953e
00000060: 3660 ea3c a248 0a3d 36f5 d3be cc63 f43d
00000070: e21a 64bd bd6c 1d3e 13e3 d93e 1fa8 a7ba
00000080: 3e83 99bd e8f5 2d3e 8ad2 21bf 7393 e5bd
00000090: f16a d8be 79c5 b23c 6d6b ab3d 6d54 b5bd
000000a0: e2cd 093e 202d 6bbd 77e4 423d c20c ebbd
000000b0: 8d45 dc3e 6408 e5bc ac1e a3be 3b28 f73d
000000c0: 21a0 b6bc b7c3 943d 669a 183d 907d 64be
000000d0: c7a4 85bd 16ca 05bd c9c8 b9bd 0a38 aabc
000000e0: f816 393b b42f bfbc 8497 c93d 03ca 2c3d
000000f0: fa5f 0dbd eb70 9fbd 8dcf 933e 5e76 1c3f

conv3.lin.weight f4 [64, 64]
-0.10574348 -0.28714338 0.19790004 -0.2715829 0.057299536 0.5641813 0.42943916 0.08140427
0.13097239 -0.18332481 -0.16289692 0.036745053 0.12746562 0.107670754 -0.1757958 0.30142453
-0.07425976 -0.39482704 0.11473561 -0.26057827 -0.46199325 0.17991906 -0.19183299 0.06247753
-0.02244202 0.36575854 -0.017798379 -0.16031423 0.22075544 -0.29884434 -0.53010523 0.2192143
0.08030154 -0.053575963 0.15068112 -0.12474637 -0.0056347353 -0.17600442 0.308406 0.066062994
0.15822254 0.09116505 -0.28372097 0.044504777 -0.083721675 -0.3337081 0.03720117 0.19634056
-0.19070444 -0.13708669 -0.15324056 0.3282423 -0.13524936 -0.37385353 -0.5088331 0.033540457
-0.31996804 -0.40293315 -0.2151342 -0.19856544 0.11244575 -0.24791348 -0.15300848 -0.23019199
-0.016844928 -0.21752833 -0.20285758 -0.31437126 0.031351194 0.38364354 -0.37583113 -0.24608964
0.017204724 0.04886125 -0.049277987 0.15705848 -0.07078445 0.049865894 0.28870806 0.05448376
-0.05228161 0.40585864 0.20000733 -0.05674962 0.36892918 -0.15942572 -0.060418386 -0.5149614
0.005896226 -0.31389913 0.11853235 -0.10521118 0.08816796 -0.020362992 0.47748104 -0.21151792
0.14916778 0.01298746 0.074539214 0.06929258 0.3114394 -0.054926474 -0.0007361176 -0.12267613
0.25178638 -0.16533814 -0.025798572 0.07393784 0.01547496 0.22676685 0.055303626 0.101576746
0.31846425 0.33178896 0.14549336 -0.23497277 -0.074594304 0.45888406 0.1839606 0.15671837
0.3354607 0.1785489 -0.10790609 0.27457413 0.37132108 0.18100604 0.04836346 -0.0401916
-0.18472205 -0.15173808 -0.24048007 0.29921567 0.124748155 0.5930495 1.8670094 -0.3404166
-0.04871415 -0.07049243 0.047728054 0.16039325 -0.066174045 -0.167146 0.001565023 0.19149815
0.25286505 -0.25878572 0.34154263 -0.31801072 -0.39660403 0.15987101 0.24375181 0.071978845
0.010869813 0.022082781 -0.46004814 -0.0077157803 -0.38659772 0.3671948 -1.1953421 -0.17265289
0.17489684 0.110363685 -0.2935073 0.20929028 -0.011331717 0.20316026 0.08620808 -0.05581305
0.3634085 0.60168934 -0.047644403 0.31802422 -0.027687255 -0.2503665 0.14869548 0.109895036
0.16720767 -0.08800066 0.21598347 0.15046228 0.045833096 0.2033558 -0.20650838 -0.4891694
0.0071235336 -0.017781029 0.58665 0.027589813 -0.092617765 -0.18826395 -0.12767173 0.20660783
0.0004455263 -0.0003064196 0.12085689 -0.7312624 0.020348959 -0.059699036 -0.08453125 -0.5032318
0.36686543 0.12340382 0.18287715 0.1608446 0.11840519 0.04833627 -0.34742448 0.29584965
0.051667754 0.7532218 -0.78040195 0.20720345 -0.42898437 -0.022989014 0.28561574 0.3697958
0.1432644 0.33557338 0.034035083 -0.47141725 -0.09031787 0.35083282 -0.10462655 0.32886192
-0.042276107 -0.13400789 0.14979891 -0.24244577 0.57651436 -0.089189805 -0.060351096 0.15180565
0.27685505 -0.67899925 0.6853588 0.5657352 -0.17038465 -0.124843806 0.16837774 -0.16812225
-0.2672984 -0.10522208 0.013037902 -0.07933406 0.34901866 0.18430522 0.52815807 -0.10955153
0.32109892 -0.0171419 0.13434754 -0.38811842 -0.24114905 0.8604336 0.011227239 0.0521267
00000000: 0a90 d8bd 7504 93be 4fa6 4a3e ea0c 8bbe
00000010: ebb2 6a3d 306e 103f 73df db3e 48b7 a63d
00000020: a01d 063e 80b9 3bbe 73ce 26be fb81 163d
00000030: 5986 023e 7c82 dc3d d003 34be 5154 9a3e
00000040: 8015 98bd c526 cabe 81fa ea3d 846a 85be
00000050: 618a ecbe b43c 383e de6f 44be 70e8 7f3d
00000060: 54d8 b7bc b444 bb3e e8cd 91bc 6a29 24be
00000070: b70d 623e 2002 99be fab4 07bf b779 603e
00000080: 2275 a43d 7872 5bbd 274c 1a3e 067b ffbd
00000090: 96a3 b8bb 813a 34be 64e7 9d3e 094c 873d
000000a0: 1705 223e beb4 ba3d e043 91be a44a 363d
000000b0: 4576 abbd cadb aabe 4160 183d 800d 493e
000000c0: 0648 43be 7460 0cbe 18eb 1cbe 600f a83e
000000d0: cf7e 0abe bb69 bfbe e342 02bf b861 093d
000000e0: dad2 a3be 414d cebe 244c 5cbe bd54 4bbe
000000f0: f549 e63d 08dd 7dbe 41ae 1cbe 73b7 6bbe
00000100: 60fe 89bc bfbf 5ebe e6b9 4fbe 45f5 a0be
00000110: 1c6a 003d ed6c c43e f06c c0be ecfe 7bbe
00000120: ecf0 8c3c bc22 483d b7d7 49bd f0d3 203e
00000130: 70f7 90bd 2e40 4c3d 8bd1 933e 5d2a 5f3d
00000140: 3e25 56bd b4cc cf3e b9ce 4c3e 4a72 68bd
00000150: 49e4 bc3e 7f40 23be 4579 77bd 83d4 03bf
00000160: 2135 c13b 63b7 a0be 17c1 f23d f678 d7bd
00000170: 6791 b43d 4ad0 a6bc 6578 f43e 2798 58be
00000180: 70bf 183e 5bc9 543c 04a8 983d 45e9 8d3d
00000190: fc74 9f3e 95fa 60bd 04f8 40ba 9f3d fbbd
000001a0: 25ea 803e 674e 29be 8757 d3bc b96c 973d
000001b0: b08a 7d3c 9235 683e 0e86 623d 7807 d03d
000001c0: bf0d a33e 3ee0 a93e 36fc 143e b49c 70be
000001d0: e6c4 98bd daf2 ea3e 2b60 3c3e c87a 203e
000001e0: 81c1 ab3e 86d5 363e defd dcbd fb94 8c3e
000001f0: cc1d be3e a659 393e c318 463d f29f 24bd
00000200: c727 3dbe 3a61 1bbe 6840 76be cc32 993e
00000210: f67b ff3d 18d2 173f 2afa ee3f 164b aebe
00000220: 7d88 47bd 565e 90bd 7e7e 433d 213e 243e
00000230: 4286 87bd 5228 2bbe 7521 cd3a 1718 443e
00000240: 8777 813e 907f 84be adde ae3e 4dd2 a2be
00000250: af0f cbbe 3ab5 233e 139a 793e a569 933d
00000260: 4d17 323c f3e6 b43c 6e8b ebbe a8d4 fcbb
00000270: 23f0 c5be f500 bc3e f800 99bf ebcb 30be
00000280: 2818 333e 5b06 e23d 9746 96be 3150 563e
00000290: aaa8 39bc 3e09 503e dd8d b03d 3a9c 64bd
000002a0: ae10 ba3e 5008 1a3f c726 43bd 12d4 a23e
000002b0: 62d0 e2bc 0a30 80be a143 183e a610 e13d
000002c0: 7d38 2b3e b139 b4bd c52a 5d3e c912 1a3e
000002d0: 7cbb 3b3d 813c 503e ef76 53be 6974 fabe
000002e0: 886c e93b 85a9 91bc b22e 163f 0804 e23c
000002f0: 62ae bdbd 44c8 40be 61bc 02be 0191 533e
00000300: 8795 e939 f1a6 a0b9 d183 f73d 0334 3bbf
00000310: dcb2 a63c fa86 74bd b81e adbd cdd3 00bf
00000320: c9d5 bb3e 24bb fc3d 2644 3b3e 72b4 243e
00000330: 6c7e f23d 41fc 453d 9fe1 b1be 9b79 973e
00000340: 91a1 533d 25d3 403f 6cc8 47bf 242d 543e
00000350: d7a3 dbbe 7553 bcbc 3a3c 923e e055 bd3e
00000360: e7b3 123e 46d0 ab3e 5f68 0b3d 9a5d f1be
00000370: 93f8 b8bd 5ca0 b33e 7246 d6bd 9760 a83e
00000380: b629 2dbd 5d39 09be e364 193e b443 78be
00000390: 7296 133f 25a9 b6bd b632 77bd f172 1b3e
000003a0: f2bf 8d3e e5d2 2dbf ad73 2f3f 06d4 103f
000003b0: 5079 2ebe 1cae ffbd 376b 2c3e 3d28 2cbe
000003c0: 56db 88be ad7e d7bd ed9c 553c e579 a2bd
000003d0: 93b2 b23e 82ba 3c3e 5e35 073f 8d5c e0bd
000003e0: 1467 a43e 2b6d 8cbc 6792 093e 75b7 c6be
000003f0: c7ef 76be 6045 5c3f 74f2 373c ce82 553d

conv4.bias f4 [64]
0.1270509 0.17312944 1.0390229 -1.2167962 0.08251536 1.0758058 0.43132746 1.0403655
1.0455261 0.8118815 1.1103818 0.83303195 0.65878826 0.2052174 0.87302905 0.7154597
1.1164895 0.8090598 0.5898222 0.26691076 0.1815036 0.8955914 0.26439497 0.1935805
0.08542556 -0.053690463 0.14537889 1.0220028 -0.92555207 1.0969561 0.082738675 1.0262502
-0.07858119 0.36620456 0.7422921 0.9374536 1.0124671 -0.15726152 -0.3540409 1.0580817
0.22299027 1.010588 1.1033642 0.09261471 0.12015901 -0.021664025 0.006779333 0.76821136
0.069288835 0.5818459 0.8019778 0.11129819 -1.0702381 1.0340039 1.0779455 0.9761757
0.2832456 -0.13094477 -0.09818096 1.0545176 0.11054568 -0.27584404 1.1306666 0.056807596
00000000: a219 023e d848 313e b4fe 843f fabf 9bbf
00000010: d0fd a83d 01b4 893f f4d6 dc3e b22a 853f
00000020: cdd3 853f 77d7 4f3f fe20 8e3f 9541 553f
00000030: 59a6 283f 8324 523e d57e 5f3f 5e28 373f
00000040: 21e9 8e3f 8b1e 4f3f 96fe 163f 87a8 883e
00000050: 14dc 393e 7a45 653f c75e 873e f739 463e
00000060: 99f3 ae3d 88ea 5bbd 34de 143e fdd0 823f
00000070: fbf0 6cbf 0f69 8c3f e572 a93d 2b5c 833f
00000080: 2def a0bd 2a7f bb3e db06 3e3f f6fc 6f3f
00000090: 8698 813f 2a09 21be d944 b5be 396f 873f
000000a0: 9057 643e f35a 813f 0a3b 8d3f c8ac bd3d
000000b0: ed15 f63d c178 b1bc 2b25 de3b 80a9 443f
000000c0: 4ee7 8d3d daf3 143f 6b4e 4d3f 4ef0 e33d
000000d0: 90fd 88bf 3d5a 843f 1efa 893f a7e6 793f
000000e0: 9105 913e 6316 06be 1913 c9bd 6ffa 863f
000000f0: c665 e23d 6e3b 8dbe afb9 903f 15af 683d

conv4.lin.weight f4 [64, 64]
0.12754795 0.34261703 0.36163428 0.045906477 -0.053595603 0.23409139 0.22896522 -0.12803866
-0.012692094 -0.580252 0.11541367 0.45862284 -0.16838205 -0.0911187 0.31489354 -0.02331012
0.096058376 0.07567624 -0.11645704 -0.07713617 -0.25349465 0.15777329 -0.3326699 -0.14571126
-0.4870254 -0.51559716 -0.063466705 -0.3196183 0.36868006 -0.071805514 0.032952182 0.088783726
0.22864549 0.22995323 -0.045276243 0.3783661 -0.13973762 0.34402493 -0.5306943 -0.25589108
-0.048932016 0.015645867 0.19151185 0.3427542 0.05594469 0.10220072 -0.16752216 0.4617245
-0.09385824 0.6820784 -0.09739082 0.06607936 0.09529702 -0.2642963 -0.12430817 -0.112273306
-0.2618357 0.036037076 0.32271573 0.063075125 0.068582475 0.36449867 0.15169866 -0.17962353
-0.19449045 -0.03649289 0.28658175 -0.18316613 0.49520424 0.24871577 0.5412095 0.25398105
-0.27902833 -0.44217044 -0.34877986 0.039373156 -0.15350696 0.041453645 -0.111874275 -0.022132581
-0.14046912 0.6124015 0.041109096 -0.3035682 -0.7666974 0.2434368 0.17819896 0.07805712
-0.39121863 -0.70891863 -0.3078537 -0.23375024 0.24638769 0.66799337 0.123069994 0.12919234
0.08421612 0.04667378 -0.18034534 0.1989516 -0.43391463 0.3100265 -0.22569448 0.17194323
-0.28834158 -0.18157919 0.78574365 0.010928555 0.08080207 0.36454323 -0.41459453 -0.17769852
-0.38869244 -0.16695455 -0.058560427 -0.0002754932 0.048924055 -0.49516758 -0.033999063 0.58525324
-0.67152846 0.14151889 0.18386146 0.4540205 -0.39158154 0.4221604 0.3535843 0.027341675
0.20367917 -0.19205588 -0.15753646 -0.14276107 0.055398036 -0.3148187 -0.31235194 -0.17406441
0.034097165 -0.4365422 -0.059562452 0.059156034 0.06801818 0.5212715 -0.00858649 0.66114694
-0.8399438 -0.04675092 1.1391147 -0.33179986 -0.22225119 -0.31173372 0.09703304 1.3210672
0.7718096 -0.23610944 -0.4019437 0.42176276 -0.08644542 0.36066136 1.1079979 0.27640522
0.038298808 0.16756469 -0.7700688 -0.970112 -0.90847576 0.06328799 -0.0009311468 -0.27054757
0.44610566 -0.27930236 0.18322872 -0.30662087 0.7109349 0.1450948 -0.2566004 -0.15060608
-0.005093535 -0.17727527 -0.11711696 -1.0380012 -0.14064029 0.05564726 -0.19226874 -0.22148159
-0.018390924 -0.090739265 0.10176308 0.24495089 0.06445601 -0.06297397 -0.101462625 1.1763872
-0.085247435 0.053882826 -0.2009453 0.041050427 -0.30765224 0.23232162 0.51006895 0.27407867
0.29908007 0.3960779 0.005005168 -0.07633553 -0.20279312 -0.7089293 0.09829313 -0.86567813
1.3598696 -0.08030677 -1.0426192 0.105640315 0.09523197 0.15165867 -0.18349867 -1.3882883
-0.67495984 -0.08114886 0.36433417 -0.49942786 -0.31706434 -0.14046986 -1.2206813 -0.3090266
-0.2717901 -0.2647135 0.77444404 1.4021776 0.52854884 -0.2700327 -0.29388428 0.3305115
-0.51585233 0.07917919 0.08443308 0.1801035 -0.89742154 -0.110261984 0.21187116 0.2029524
-0.08098063 0.31722847 0.09716108 0.8246053 -0.00714879 0.10250062 0.12085808 0.09863734
-0.04702882 0.17738202 0.036979467 -0.10750547 0.049797166 -0.27670673 -9.505656e-05 -1.4119947
00000000: ee9b 023e 806b af3e 2128 b93e 6e08 3c3d
00000010: 1087 5bbd a7b5 6f3e dc75 6a3e 911c 03be
00000020: 80f2 4fbc 658b 14bf 015e ec3d 9dd0 ea3e
00000030: 586c 2cbe 719c babd ba39 a13e ddf4 bebc
00000040: 41ba c43d 25fc 9a3d 0781 eebd 91f9 9dbd
00000050: 0dca 81be 528f 213e b653 aabe 5535 15be
00000060: 655b f9be 2dfe 03bf d5fa 81bd 03a5 a3be
00000070: a2c3 bc3e c50e 93bd def8 063d 3ed4 b53d
00000080: 0b22 6a3e dc78 6b3e 9573 39bd 34b9 c13e
00000090: 6117 0fbe 0924 b03e 95db 07bf 2804 83be
000000a0: f06c 48bd c32b 803c af1b 443e 7a7d af3e
000000b0: 4226 653d 9c4e d13d ee8a 2bbe 2767 ec3e
000000c0: c038 c0bd b19c 2e3f d774 c7bd 9e54 873d
000000d0: 162b c33d d851 87be 4895 febd 8cef e5bd
000000e0: 540f 86be 9d9b 133d ff3a a53e 882d 813d
000000f0: f874 8c3d 929f ba3e e556 1b3e 3bef 37be
00000100: 8128 47be 9279 15bd d8ba 923e e78f 3bbe
00000110: 698b fd3e 59af 7e3e b58c 0a3f ce09 823e
00000120: cddc 8ebe 2a64 e2be 4693 b2be bf45 213d
00000130: ee30 1dbe 4ccb 293d 571e e5bd 634f b5bc
00000140: 23d7 0fbe 58c6 1c3f 0362 283d 4b6d 9bbe
00000150: 4846 44bf 7f47 793e ca79 363e 69dc 9f3d
00000160: cf4d c8be b17b 35bf 009f 9dbe 395c 6fbe
00000170: 0e4d 7c3e 9d01 2b3f 1f0c fc3d ff4a 043e
00000180: 8079 ac3d 012d 3f3d 73ac 38be f8b9 4b3e
00000190: 0f2a debe cbbb 9e3e 741c 67be e311 303e
000001a0: 82a1 93be e5ef 39be 7f26 493f af0d 333c
000001b0: 8e7b a53d 69a5 ba3e bc45 d4be 9af6 35be
000001c0: b202 c7be 22f6 2abe 0fdd 6fbd 1270 90b9
000001d0: 9764 483d 9b86 fdbe 9a42 0bbd 28d3 153f
000001e0: 4ae9 2bbf 54ea 103e 2e46 3c3e 6075 e83e
000001f0: 607d c8be 6825 d83e 0009 b53e a6fb df3c
00000200: 4691 503e 4caa 44be 3d51 21be f52f 12be
00000210: 0de9 623d eb2f a1be 98ec 9fbe f13d 32be
00000220: 78a9 0b3d 7682 dfbe c2f7 73bd 994d 723d
00000230: 1e4d 8b3d 0d72 053f 59ae 0cbc ed40 293f
00000240: 8f06 57bf e57d 3fbd 83ce 913f ace1 a9be
00000250: d195 63be 909b 9fbe 42b9 c63d bb18 a93f
00000260: 5095 453f acc6 71be 91cb cdbe 4af1 d73e
00000270: 4c0a b1bd 9ba8 b83e e0d2 8d3f fc84 8d3e
00000280: 36df 1c3d 1496 2b3e 3b23 45bf 4359 78bf
00000290: de91 68bf 229d 813d 3418 74ba 3685 8abe
000002a0: f667 e43e b800 8fbe 4fa0 3b3e 69fd 9cbe
000002b0: d4ff 353f bb93 143e 2161 83be 7b38 1abe
000002c0: abe7 a6bb a687 35be 04db efbd 39dd 84bf
000002d0: 0204 10be 62ee 633d 19e2 44be 12cc 62be
000002e0: 90a8 96bc 82d5 b9bd 2969 d03d 68d4 7a3e
000002f0: 8301 843d 7ff8 80bd a3cb cfbd db93 963f
00000300: 3596 aebd 3db4 5c3d 9bc4 4dbe 7e24 283d
00000310: 9884 9dbe b8e5 6d3e e193 023f 0a54 8c3e
00000320: 0621 993e b9ca ca3e 6402 a43b cd55 9cbd
00000330: 00a9 4fbe 647c 35bf e94d c93d 159d 5dbf
00000340: 3510 ae3f e077 a4bd 8c74 85bf f359 d83d
00000350: fb08 c33d 694c 1b3e 13e7 3bbe 6eb3 b1bf
00000360: 2bca 2cbf 6031 a6bd 028a ba3e 02b5 ffbe
00000370: 4256 a2be 55d7 0fbe 493f 9cbf bc38 9ebe
00000380: 1228 8bbe 8788 87be f741 463f 8e7a b33f
00000390: fa4e 073f ba41 8abe 0078 96be ce38 a93e
000003a0: e60e 04bf b328 a23d 40eb ac3d 0d6d 383e
000003b0: 6bbd 65bf 09d1 e1bd c1f4 583e c1d2 4f3e
000003c0: 2cd9 a5bd c56b a23e 63fc c63d 5519 533f
000003d0: 6640 eabb d8eb d13d 7184 f73d 6002 ca3d
000003e0: 4ba1 40bd a2a3 353e c877 173d d42b dcbd
000003f0: 1df8 4b3d 81ac 8dbe 1a59 c7b8 3ebc b4bf

out.weight f4 [1, 128]
-1.6024548 -1.2427155 1.074569 -1.1101377 -2.8351207 0.9986247 -1.1946547 1.1013496
1.1007118 1.0085318 1.1366673 1.0647573 1.0686905 -2.1635962 1.0334773 1.1149727
1.1109469 1.0852656 1.0129753 -1.1966836 2.441741 1.0858252 -2.409507 -1.1925255
-1.3707384 -1.4642216 -1.2430599 1.0870903 -1.0750043 1.0711052 -1.2960079 1.0321181
-2.1234272 -4.2760415 1.1090856 1.0714257 1.1074305 1.1550643 1.1272987 1.1158774
-1.327742 1.1283605 1.071806 -1.4289587 -1.3599703 -2.2416525 -1.7649959 1.0840044
-1.3873615 1.0376596 1.1130738 -1.1991212 -1.1134691 1.0614009 1.0674715 1.0295253
-1.2603894 -1.8686405 -1.4048426 1.0442653 -1.5192293 -1.1996684 1.061677 -2.2304578
-0.9255045 -1.1047492 1.1149561 -1.0596414 -0.50494367 1.1215134 -1.1151618 1.1097114
1.0313039 1.1387222 0.9984783 1.1078492 1.1437235 -0.6754145 1.1442885 1.086068
1.068681 1.0503955 1.1581239 -1.1574202 1.5461916 1.050264 -0.4170533 -1.1723647
-1.1189092 -2.0753548 -1.1651893 1.0438917 -1.0752963 1.0426941 -1.2334678 1.0500245
-0.63495845 -0.061772376 1.1446799 1.0262105 1.1012406 1.224008 1.1955751 1.1262145
-1.2481296 1.0012884 1.0811911 -0.81270695 -1.1324126 -1.5279075 -1.3146678 1.0555571
-0.9479578 1.11286 1.0448961 -1.1835405 -1.0789213 1.0374241 1.0980442 1.1517382
-1.1310464 -0.87775 -0.926884 1.1275573 -1.0789324 -1.0627403 1.0535715 -0.9859892
00000000: 3d1d cdbf 4d11 9fbf 7a8b 893f fe18 8ebf
00000010: 9e72 35c0 dea5 7f3f 72ea 98bf 06f9 8c3f
00000020: 20e4 8c3f 9217 813f 507e 913f f849 883f
00000030: daca 883f 5c78 0ac0 fc48 843f 6db7 8e3f
00000040: 8233 8e3f fce9 8a3f 2da9 813f ee2c 99bf
00000050: 7c45 1c40 52fc 8a3f 5d35 1ac0 ada4 98bf
00000060: 5b74 afbf 9d6b bbbf 961c 9fbf c625 8b3f
00000070: be99 89bf fa19 893f 96e3 a5bf 721c 843f
00000080: 3be6 07c0 55d5 88c0 84f6 8d3f 7a24 893f
00000090: 48c0 8d3f 26d9 933f 534b 903f 12d5 8e3f
000000a0: 73f3 a9bf 1e6e 903f f030 893f 1ee8 b6bf
000000b0: 8213 aebf 3c77 0fc0 63eb e1bf a8c0 8a3f
000000c0: 1095 b1bf 08d2 843f 3479 8e3f ce7c 99bf
000000d0: 2886 8ebf fcdb 873f e8a2 883f 7cc7 833f
000000e0: 7154 a1bf 9d2f efbf e2d1 b3bf 7caa 853f
000000f0: 1b76 c2bf bc8e 99bf 08e5 873f d2bf 0ec0
00000100: dded 6cbf 6c68 8dbf e2b6 8e3f 54a2 87bf
00000110: fd43 01bf c08d 8f3f 9fbd 8ebf 060b 8e3f
00000120: c401 843f a6c1 913f 469c 7f3f 01ce 8d3f
00000130: 8865 923f f7e7 2cbf 0c78 923f 4704 8b3f
00000140: 8aca 883f 5c73 863f 673d 943f 5826 94bf
00000150: 9be9 c53f 0d6f 863f 0388 d5be 0c10 96bf
00000160: 6b38 8fbf 9dd2 04c0 ec24 95bf 3e9e 853f
00000170: 4fa3 89bf 0077 853f 46e2 9dbf 3467 863f
00000180: a38c 22bf 0805 7dbd df84 923f de5a 833f
00000190: 74f5 8c3f 4bac 9c3f 9b08 993f cc27 903f
000001a0: b6c2 9fbf 382a 803f 7864 8a3f 900d 50bf
000001b0: e5f2 90bf 7992 c3bf 0947 a8bf 7f1c 873f
000001c0: 5dad 72bf 3272 8e3f 28bf 853f 417e 97bf
000001d0: 181a 8abf 50ca 843f b68c 8c3f 286c 933f
000001e0: 21c6 90bf 39b4 60bf 4548 6dbf cc53 903f
000001f0: 751a 8abf e007 88bf 6edb 863f ca69 7cbf
