trained_model_1_saved_GAT.pth (torch, 211471 bytes, 21 tensors)

initial_conv.att_src f4 [1, 4, 32]
000000 4f cc 06 3b e4 4c f3 ba 16 35 ad bb 52 3a ac ba
       0.0020568555 -0.0018562344 -0.0052858694 -0.0013139939
000010 9b 6a 85 b9 e5 fe 8c 3b a4 f5 e4 b9 33 06 ce bd
       -0.00025447164 0.0043028467 -0.00043670565 -0.10059776
000020 a1 b5 45 3b 1f aa b7 be b4 4b 47 ba 4e d9 43 3b
       0.0030168074 -0.3587198 -0.0007602528 0.0029884162
000030 8f 7b 3f ba cb de 92 ba 45 e7 e5 bb 5c c6 41 3b
       -0.00073044834 -0.0011205313 -0.007016095 0.0029567694
000040 a0 ad 8c 39 bd ed 09 bf 4b 06 a3 3b a3 09 89 3d
       0.00026832242 -0.53878385 0.0049751154 0.06691291
000050 e3 f9 98 3a 41 32 38 ba 71 f2 6f be 0e 82 7c be
       0.0011671152 -0.00070265314 -0.23432328 -0.24658987
000060 9f a1 85 3b ed dc ab bb 68 54 4e b7 2e ad 10 3b
       0.0040781046 -0.0052448423 -1.2298209e-05 0.002207588
000070 a8 37 c5 ba b9 e7 6b 3b fa 61 7e 3b e4 b9 bf bb
       -0.0015046494 0.0035996272 0.0038815723 -0.0058510173
000080 d1 cb fa bd d4 bc b3 be b9 a1 52 be e8 b9 2a 3a
       -0.12245906 -0.35105002 -0.20569505 0.00065126875
000090 64 5f 97 3b a2 7d ff ba b8 d6 35 3b 2e 75 54 bb
       0.0046195257 -0.0019492398 0.002774639 -0.0032418477
0000a0 49 97 35 3e fd 7b 0e 3f 6a 19 a4 ba 2a 41 bc 3b
       0.17733492 0.5565794 -0.0012519781 0.005745073
0000b0 a4 e0 5a bd 61 e9 1f bb 63 dd 07 bf 1d 89 75 ba
       -0.05343689 -0.002440058 -0.53072184 -0.000936644
0000c0 1b 3f 47 3b 9b cd 5e ba 22 7f 65 3b a8 82 b2 bb
       0.0030402604 -0.00084992655 0.0035018404 -0.0054477043
0000d0 86 de b6 b8 06 c3 16 3f 07 16 29 bb 12 54 0c bb
       -8.7198845e-05 0.5889133 -0.0025800483 -0.0021412414
0000e0 6b 1a b0 be 23 7b 74 3b f1 cf d8 3a 15 49 e3 bb
       -0.34395155 0.003730484 0.0016541464 -0.0069362023
0000f0 68 32 34 3f c2 fa 45 3b 4d be c4 3a 53 a7 08 3b
       0.70389414 0.0030209278 0.0015010327 0.0020851686
000100 af f8 23 3c 5e f1 97 be 94 a2 f7 3c d3 0c 46 bf
       0.010008021 -0.29676336 0.03022889 -0.7736332
000110 f6 11 d7 3d 5f 36 d2 3e b1 12 a8 bb 01 26 30 be
       0.10501473 0.41057107 -0.0051291813 -0.17201997
000120 77 35 8e 39 27 b0 bf 3e 4e da a4 ba 73 40 03 3e
       0.00027124185 0.3743908 -0.0012577267 0.12817554
000130 b5 7c 9b 3f 30 07 c8 3e 4c 7a 8b bb a8 e1 9f b9
       1.2147433 0.39067984 -0.0042565223 -0.0003049497
000140 38 b6 8b 3b ca 90 82 ba 29 09 ce bb 2e 5a f9 bb
       0.0042636655 -0.0009961363 -0.006287713 -0.007609627
000150 d1 18 66 be 20 e8 29 3e cb 44 87 bb 06 3c a9 ba
       -0.22470404 0.16592455 -0.004128074 -0.0012911565
000160 40 61 81 b9 ec 37 27 bf a9 84 0d b9 58 c1 74 bb
       -0.00024677254 -0.65319705 -0.00013496228 -0.0037346687
000170 9a 5f 8b 3b d2 4d c9 bb 74 06 67 3a 82 82 e6 b9
       0.00425334 -0.00614331 0.0008812912 -0.00043966254
000180 9c 92 c6 bb c5 0f 63 3b cf 2d 1c ba 7c 7f 2f be
       -0.0060599577 0.003464685 -0.0005957754 -0.17138475
000190 f8 29 c3 ba 54 04 37 be 5b f1 40 bf 1c fb 80 ba
       -0.0014889827 -0.17872745 -0.7536828 -0.0009840461
0001a0 ca af c9 ba c2 12 a9 3e f4 32 11 3e ed 6a 65 3e
       -0.0015387472 0.33022124 0.14179593 0.2240407
0001b0 7a 93 8c 3b 5c 76 0e bf 98 10 f9 3d 72 b2 d7 ba
       0.0042900415 -0.5564935 0.12161368 -0.0016456379
0001c0 8a 4a ed ba 16 78 95 3c c0 0a 6a b8 9c 0a da 3a
       -0.0018103879 0.018245738 -5.579996e-05 0.0016635242
0001d0 6d 37 38 3a 30 c2 f3 be ce 04 41 ba 59 3a 8c ba
       0.0007027302 -0.4760909 -0.00073630817 -0.0010698541
0001e0 54 7b 14 bb ed 8d 3b bb 15 0f b4 ba 28 cf c4 3a
       -0.0022656517 -0.002861853 -0.0013737405 0.0015015351
0001f0 fe e5 03 3b ee 92 99 ba 6f 3f 92 be 21 dd 70 3b
       0.00201261 -0.0011716762 -0.2856402 0.0036752897

initial_conv.att_dst f4 [1, 4, 32]
000000 96 ee 97 3a f8 11 50 bb 71 ed 22 ba 0f 1a 53 bb
       0.001159149 -0.0031748991 -0.0006215191 -0.0032211577
000010 f5 58 8f 39 20 b4 0c bb 3e f7 d7 3a 78 42 11 3f
       0.00027341364 -0.0021469668 0.0016476882 0.5674205
000020 f0 9e a0 bb b0 7c 46 3d c2 a2 8b 3b 08 ec 10 38
       -0.0049017593 0.048458755 0.0042613456 3.4552097e-05
000030 09 76 4a 3b 73 a7 cd 3a 97 8d 95 3a 04 a4 bf 39
       0.0030893108 0.0015690163 0.0011409995 0.0003655256
000040 58 0f f9 ba 04 92 d7 3e 08 cc a4 3b 20 d9 c5 bc
       -0.0019001765 0.4210359 0.0050292052 -0.024151385
000050 78 3e 84 38 90 9c ff 38 94 ed ab be 6a ea 4d 3e
       6.305886e-05 0.000121885096 -0.33579695 0.20108953
000060 04 41 c9 3b 06 c9 1c ba 28 4a b4 37 39 9b 8f b9
       0.0061417837 -0.00059808826 2.1492204e-05 -0.00027390735
000070 01 da 40 3a c3 75 8a ba 57 d5 2b 3a a4 f0 e4 b9
       0.0007356704 -0.001056366 0.00065549224 -0.0004366684
000080 1d 12 8a bf 36 56 f3 3f fc 17 31 c0 c9 75 08 3f
       -1.0786778 1.9010684 -2.767089 0.53304726
000090 21 a9 93 3f b6 85 81 3f e9 27 8b bd a8 a5 8e bd
       1.1535989 1.011893 -0.06794722 -0.0696519
0000a0 96 f6 2c 40 03 f9 22 c0 40 2b e1 3d c7 61 92 be
       2.7025504 -2.5464485 0.109945774 -0.28590223
0000b0 cc 22 18 bf 86 f5 fc bd 3b e1 36 c0 d4 f3 8d bc
       -0.59428096 -0.123515174 -2.857497 -0.01732818
0000c0 84 bc 8d 3f 01 e7 98 3e b3 77 ce 3e a4 38 c0 bb
       1.1073155 0.29863742 0.40325698 -0.005866127
0000d0 5d 57 47 3f 29 ca 19 40 65 e7 10 3e 9c d3 da 3e
       0.7786768 2.4029639 0.1415077 0.4273957
0000e0 3e 33 02 40 5b ad c4 bf 60 af bc 3e 9a 08 1d c0
       2.0343776 -1.5365404 0.3685255 -2.45365
0000f0 a1 0a 07 c0 3a 26 08 3d f1 fe 00 3e 8c 1d 7e be
       -2.1100237 0.03323958 0.12597252 -0.24815959
000100 ae e1 57 be 19 e9 82 bf 02 cb 55 bf e1 33 b3 bf
       -0.21082184 -1.0227386 -0.8351289 -1.4000207
000110 ab ea 22 bd 74 8e 7c be 46 13 a0 b9 04 c6 0e 3e
       -0.039774578 -0.24663717 -0.00030531938 0.13942724
000120 38 69 94 3b 49 64 83 be 1e 20 ae b8 77 b2 25 3d
       0.0045291446 -0.2566245 -8.302949e-05 0.0404534
000130 3f 5a ca be b8 8d 1d 3f e9 7e 8c ba 29 52 7a 39
       -0.39521977 0.6154437 -0.0010718975 0.00023872465
000140 8c 5a 35 3b 3c 4e 93 bb d9 11 38 bc 9e 91 da be
       0.0027672378 -0.0044954102 -0.011234724 -0.42689222
000150 ac c6 33 be 20 8c bf bd 94 d4 2a bb 91 fe 85 3b
       -0.17556256 -0.093528986 -0.0026066648 0.0040891846
000160 af a4 93 3b 1a 92 dd 3f 7e 0e ff 3a 59 c6 1d ba
       0.004505716 1.7310212 0.0019459275 -0.0006018631
000170 72 c6 d3 3b 29 63 00 bc 76 1c e3 3b 4b 2b f6 b8
       0.0064628655 -0.007836142 0.006930883 -0.00011738258
000180 00 31 95 3c c2 c2 c3 3d 91 12 e2 3d 56 f9 81 3f
       0.018211842 0.095586315 0.110386975 1.0154216
000190 7c 82 f4 ba 7d b3 fb bc 4c 20 e5 be b6 42 45 3e
       -0.001865461 -0.030725235 -0.44751203 0.1926373
0001a0 5a c7 b7 bd c8 1f a5 3f da 02 85 3f 7b 86 9b 3f
       -0.0897357 1.2900324 1.0391495 1.2150415
0001b0 af f2 0f bd 4a fc b3 40 c0 c3 62 bf 76 3b 60 3c
       -0.03514355 5.624547 -0.8857994 0.013686052
0001c0 88 5f 4a bd 5c 24 9e bf 06 ce 2f bc 60 95 64 3d
       -0.049407512 -1.2354846 -0.010730272 0.055806518
0001d0 dc e8 58 be f1 b5 99 3f 3e 2d 21 3e 72 36 98 3d
       -0.21182579 1.2008649 0.15739915 0.074322596
0001e0 59 3c b3 3d 85 3b 67 3d 0a 32 9b bd 55 ed ab bc
       0.08751745 0.056453247 -0.075779036 -0.020987192
0001f0 2c 6b 43 be c8 47 f5 3d 4a 02 b8 3f b9 b1 20 3e
       -0.19083852 0.11976582 1.4375699 0.15692796

initial_conv.bias f4 [128]
000000 9b a7 86 3a f4 cc a1 3a 43 41 da ba 24 be de ba
       0.0010273339 0.0012344406 -0.001665153 -0.0016993922
000010 97 46 48 ba 59 90 31 3a c6 24 04 39 d1 4a 08 bf
       -0.0007639913 0.00067735236 0.000126022 -0.5323916
000020 50 db 22 38 9e 21 93 bf 9e 9c 53 b9 8c 2a b8 ba
       3.882806e-05 -1.1494634 -0.00020180873 -0.0014050766
000030 00 70 39 ba 8c 8f 23 3a f1 66 8d ba 67 93 87 3a
       -0.0007073879 0.00062393467 -0.0010788125 0.0010343612
000040 ce ea 89 3a b4 ca 14 bf 3f 6e 46 ba e8 1b 54 3e
       0.0010522248 -0.581218 -0.00075695285 0.2071377
000050 19 8e 61 ba 56 c9 9f ba 65 9a 57 be fa a7 8d bf
       -0.0008604243 -0.001219074 -0.2105499 -1.1066887
000060 7f 0d f0 b9 5f e6 73 ba ca ab 07 bb 26 a6 44 38
       -0.00045786423 -0.00093040423 -0.002070176 4.688478e-05
000070 6e fc 55 ba 92 da f0 3a b5 9f 0f 3b 09 df 1f 39
       -0.000816292 0.0018375686 0.0021915261 0.00015246509
000080 9d df 87 be 77 c4 48 be f2 52 fb 3e 0b fa ea 3a
       -0.2653779 -0.19606195 0.4908672 0.0017927302
000090 b8 6d 71 ba 72 88 3b 39 a1 36 f0 ba d6 a5 af b9
       -0.000920977 0.0001788454 -0.0018326828 -0.00033502158
0000a0 9d 36 7f bf 1d 14 74 3f 1b 62 fe 39 80 67 3a 3b
       -0.9969271 0.9534319 0.0004851975 0.0028443038
0000b0 b4 66 3b be 26 7a 2f bb 02 3f 8c 3e 83 52 b4 3a
       -0.18300897 -0.0026775687 0.2739182 0.00137575
0000c0 9c 30 e4 ba fa 10 ca 3a 29 09 bc b8 a1 bf b2 b9
       -0.0017409506 0.0015416436 -8.966245e-05 -0.0003409358
0000d0 09 42 e9 ba b3 c7 18 be a6 f0 0c bb 50 33 dc b9
       -0.0017796169 -0.14919929 -0.0021505742 -0.000419999
0000e0 d0 1b 38 bf 4d 6d a8 3a 83 54 80 3a a7 b7 1d 3f
       -0.7191744 0.0012849957 0.0009790811 0.61608356
0000f0 e5 ec 42 3e 6a c6 92 3a 00 ff 36 35 2e 4d d1 39
       0.1903568 0.0011198048 6.817136e-07 0.0003992109
000100 cb f2 d5 3c cf f1 88 3e 57 9b 82 3e f8 2d 90 3f
       0.02611675 0.26746985 0.2550914 1.1264029
000110 d0 43 95 3d 9a f0 37 3f f8 cb 83 ba cf 1f 75 3d
       0.07288325 0.71851504 -0.0010055294 0.05984479
000120 25 36 3b b9 f1 e5 ed 3d 0a f4 0d 3a 1d ca 10 3e
       -0.0001785388 0.116161235 0.0005415088 0.141396
000130 e2 fb c6 3d b4 23 d8 3e 87 17 c1 ba 78 0b 0c 3a
       0.097160116 0.4221474 -0.0014731743 0.0005342285
000140 e1 67 81 38 5c 57 07 3b 22 c4 9b bb 0d 20 54 bf
       6.170548e-05 0.0020651435 -0.0047536055 -0.82861406
000150 d0 d3 81 be 15 28 2f bf aa c7 95 b9 bf b3 9d ba
       -0.25356913 -0.68420535 -0.00028568256 -0.0012031718
000160 98 dc e9 ba a6 ae 3f be d0 0e d7 b9 3b b4 a3 3a
       -0.0017842231 -0.18718967 -0.00041019032 0.0012489626
000170 32 46 20 b9 8b e9 9c 39 04 7a 22 39 84 42 b1 ba
       -0.00015284939 0.00029928642 0.00015494978 -0.0013523852
000180 60 98 0f 3a f9 56 b9 ba 3f 4b b6 3a ce dc 44 bf
       0.0005477723 -0.00141403 0.0013907923 -0.7689942
000190 64 28 c1 b9 63 7f 4a bc 6c ff b2 be d7 26 0d 3a
       -0.00036841922 -0.012359473 -0.34960496 0.0005384511
0001a0 a7 62 89 3a 5d 2a c6 be 2a 70 29 3e 41 d5 9c be
       0.0010481671 -0.38704196 0.16546693 -0.3063145
0001b0 49 a1 e4 ba 86 a5 03 bf 7f 22 68 bd 37 98 f3 3a
       -0.0017443086 -0.51424444 -0.056673523 0.0018584792
0001c0 d4 c2 37 ba cd c3 8c 3f e7 36 c2 ba 1c 7f 60 b9
       -0.00070099276 1.0997254 -0.0014817388 -0.00021409657
0001d0 b4 c3 9c 3a 55 b5 30 bf 75 73 13 bb 37 1e ae ba
       0.001196018 -0.6902669 -0.0022499238 -0.0013284151
0001e0 30 48 3e 3a f4 60 c2 ba b9 69 b5 3a 6c 45 15 ba
       0.00072586816 -0.001482992 0.0013840712 -0.00056942436
0001f0 76 6e db b9 65 f0 cd ba 17 34 5d bf e8 d6 fd 39
       -0.00041853235 -0.0015711902 -0.8640761 0.00048416038

initial_conv.lin_src.weight f4 [128, 4]
000000 a7 08 f6 3b 88 fe c0 3a 21 79 01 3a a1 e2 2b 3a
       0.0075083557 0.0014724294 0.0004939009 0.00065569027
000010 f2 93 3d bc bd 49 15 bb 4c 32 5d 3a 2c ca d1 3a
       -0.011570917 -0.0022779547 0.0008437976 0.0016005686
000020 61 ed 95 bb 82 98 08 39 6f e3 78 3a 9e 14 76 39
       -0.004575417 0.00013026784 0.00094943395 0.00023468069
000030 f2 7a 08 3b da d7 66 3b a8 df 8f ba d5 b7 13 ba
       0.0020825234 0.0035223872 -0.0010976689 -0.0005634998
000040 13 74 dd 3b 8a 46 1a ba a1 04 3f 3a 9b fc 26 bb
       0.006758222 -0.0005885145 0.00072867615 -0.0025480154
000050 42 8a f0 3c f4 85 68 3b 66 25 14 b9 5f 25 93 b9
       0.029362801 0.0035480233 -0.00014128312 -0.00028065869
000060 7b b3 1d 3c 83 87 67 bb d6 40 9c b9 27 4f 99 b9
       0.009625311 -0.0035328574 -0.00029802945 -0.00029241407
000070 10 68 43 3f 54 d5 c7 3f c5 cd 51 3e 8a 9e b4 be
       0.7633066 1.5611978 0.20488651 -0.35277206
000080 33 82 12 bc a3 ac 34 3a 04 79 62 39 84 31 82 b9
       -0.008942175 0.000689218 0.00021598121 -0.00024832424
000090 cf c5 a0 be a1 d1 be 3f 66 f5 25 3e fc 43 92 3f
       -0.31400916 1.4907724 0.16206893 1.1426997
0000a0 b9 0a b3 3b 55 e4 2e ba 10 87 19 ba 65 86 4d ba
       0.0054639247 -0.00066715974 -0.00058566127 -0.0007840156
0000b0 e3 36 cf 3c 07 42 14 3a dd 05 c6 ba 25 24 3c bb
       0.025294727 0.0005655591 -0.0015107949 -0.0028708067
0000c0 53 ef 93 3a 5a 9a 0f bb d2 52 f5 ba 6c 1e 2a ba
       0.0011286534 -0.002191207 -0.0018716699 -0.00064895186
0000d0 e4 b8 03 3c ed 2d f9 3a b4 69 da 3a ee 28 6d 39
       0.008039687 0.0019010879 0.0016663582 0.00022617329
0000e0 51 66 27 bb 9e 07 0b bb 72 01 cc b9 f8 22 05 ba
       -0.0025543163 -0.0021214257 -0.0003891099 -0.0005078758
0000f0 3f 56 06 bb 36 52 99 3b 7a 34 67 3a 6c 75 ef 39
       -0.0020498184 0.0046789898 0.00088197703 0.00045673118
000100 d4 c8 e2 bb 24 41 a4 3a 1c 3a 6f 3a 7f 8a fe 3a
       -0.0069209132 0.001253162 0.00091257854 0.0019419937
000110 63 7f c2 3e 0f cd 12 bf c5 89 ff 3e c1 da 72 be
       0.37987813 -0.57344145 0.49909797 -0.2371626
000120 31 7e a4 ba 14 63 f5 39 55 82 dd ba 24 c0 d0 b8
       -0.0012549815 0.0004680386 -0.0016899804 -9.954002e-05
000130 d3 ef c7 bd b7 c1 eb bd 28 c3 11 bd cf 68 60 be
       -0.0976254 -0.115115575 -0.035586506 -0.21914981
000140 30 a0 34 3c ac a5 68 bb d6 a6 45 ba 9e d3 a0 ba
       0.01102452 -0.0035499139 -0.0007539814 -0.0012270098
000150 18 bc 37 3c 05 3a 05 3b 70 17 e2 ba de 7a 78 ba
       0.011214279 0.0020328772 -0.0017249417 -0.0009478758
000160 d0 26 ba bf 48 61 ec 3f 6b 05 db 3c 4e df 57 be
       -1.4543095 1.8467188 0.026735982 -0.21081278
000170 ec f8 be 3e 8e e6 b0 3f 0a 0a 1f 3e 5b 21 8d 3f
       0.37299287 1.382036 0.15531173 1.1025804
000180 64 f5 d2 3c 06 2a 34 3b de cd 2d bb f4 76 35 bb
       0.025751777 0.0027490868 -0.0026520411 -0.002768931
000190 4a 7c 22 bc ba 3c 9a bb 7b 6b 50 3a 39 df 25 ba
       -0.009917328 -0.004706946 0.0007950586 -0.0006327513
0001a0 2e 38 0e bc 96 c2 5e 3b a8 5b 77 ba f9 ec 9a ba
       -0.0086803865 0.0033990494 -0.000943596 -0.0011819891
0001b0 fa f3 42 bc 88 b6 4a bb 10 64 68 3a 7c 38 0a 3b
       -0.011898989 -0.003093155 0.0008865008 0.0021090796
0001c0 35 ee 7e bb db 81 e3 bb d8 a9 8d 38 d8 a5 1b 3a
       -0.0038899307 -0.00694297 6.75504e-05 0.00059374934
0001d0 1d 04 eb 3a 4d ae 93 3b ad 38 0d 3b 38 d1 af b9
       0.0017930303 0.0045068623 0.0021548674 -0.0003353448
0001e0 c0 d6 45 3b ce 61 c9 3a 48 17 c0 39 7a a7 c5 3a
       0.0030187815 0.0015364231 0.0003663844 0.0015079819
0001f0 a4 8f b9 bc e1 dc 31 ba 8d 58 86 3a 00 ee 82 3a
       -0.022651501 -0.00067849277 0.0010249779 0.0009989142
000200 f8 85 1a be 3e d4 0a 3f d0 ea 57 3c 5c 50 90 3f
       -0.15090168 0.54230106 0.013178542 1.1274524
000210 73 36 29 be ad e0 ef bf 45 17 fc 3d 06 0d 96 3e
       -0.16524677 -1.8740441 0.12309126 0.2930681
000220 83 1a 96 3d 95 21 d1 bf 36 ce 50 bd f9 90 15 40
       0.073292755 -1.6338373 -0.050977908 2.3369734
000230 7b aa cb b9 93 3d 9a bb 4e 6b 16 3a 59 a9 a1 ba
       -0.00038846195 -0.0047070473 0.00057380355 -0.0012333795
000240 32 d0 13 bc 14 94 40 3a f4 50 2e ba 17 f2 9f 3b
       -0.009021806 0.0007346284 -0.0006649636 0.0048811543
000250 6e 84 90 3b 52 39 f4 b9 40 4a b6 b9 83 78 3e bb
       0.004410318 -0.00046582014 -0.00034769066 -0.002906353
000260 6f f9 35 bc 53 0a 7a 3a 8b fd 62 ba 4a 8a 95 38
       -0.011106833 0.00095382816 -0.00086589967 7.130632e-05
000270 56 24 83 bb f1 a2 2f bb e0 61 6b 37 eb f6 f7 ba
       -0.0040021343 -0.0026800002 1.402988e-05 -0.0018918192
000280 ce c5 6a be 0e 8c 4c 3d f2 d2 da 3e b8 cb 0d bf
       -0.22927019 0.049938254 0.42739064 -0.55388975
000290 b7 6a 86 bf 41 46 0a c0 53 a0 a1 bd 4d 93 05 bf
       -1.0501317 -2.160538 -0.078919075 -0.5217789
0002a0 98 c8 24 3b 84 0c 95 3a 8f f9 9b ba 61 79 d7 b9
       0.0025143977 0.0011371528 -0.0011899936 -0.0004109843
0002b0 82 bc 42 3c ce 0c 3c 3b 53 bd 08 3a 1b 0a 4f 3b
       0.011885764 0.0028694156 0.00052162 0.0031591717
0002c0 64 1d ae bd fe 29 f3 3e 3b 5d d0 3b 2a 97 16 3f
       -0.085016996 0.47492975 0.00635877 0.5882441
0002d0 0a 16 ec 3b 52 41 88 bb 9b 51 0c bb 48 dd 02 bb
       0.0072047757 -0.0041581774 -0.0021410945 -0.001996832
0002e0 f7 5f 84 be 2c d0 c3 3f 72 4a 03 be fc fb 64 3f
       -0.25854465 1.5297904 -0.12821367 0.89447
0002f0 36 9c ad bb 9d 1b 89 3a c4 eb c1 3a 2e ab c8 ba
       -0.005298163 0.00104605 0.0014794995 -0.0015309805
000300 84 63 31 bb a0 e6 7a bb 5c 7f 02 ba 40 68 d5 39
       -0.0027067373 -0.0038284436 -0.00049780845 0.00040704198
000310 55 96 ee 3b 2b 3f cc 3b 3d 87 11 3a 7b 1c b7 3a
       0.0072811046 0.006233116 0.0005551463 0.001397028
000320 bd c7 d7 3c 29 92 6c ba 7e 10 9b ba 38 4e 24 bb
       0.02634036 -0.0009024465 -0.0011830477 -0.0025071036
000330 11 64 1a 3b b3 1a 92 3a ac 9d 68 3a 11 ed 80 ba
       0.002355818 0.0011146873 0.00088735926 -0.0009836276
000340 6f 16 99 3a 06 d2 64 ba 64 a3 22 b9 00 73 1a 3b
       0.0011679659 -0.00087288057 -0.00015510392 0.002356708
000350 41 67 8d be 33 39 d6 bf 57 f5 e5 3d 3e b9 a0 bf
       -0.2761784 -1.6736206 0.112284355 -1.2556531
000360 59 fd a1 bb c5 89 26 bb fb 25 44 ba 06 59 f4 ba
       -0.0049435315 -0.0025411707 -0.0007482466 -0.0018642254
000370 28 9f 00 3c 28 50 bc 3a c3 22 9b b9 4e 64 98 3b
       0.007850446 0.001436715 -0.00029589803 0.004650629
000380 91 37 79 bf 01 fe 0b 40 17 89 36 3d 61 aa 65 3d
       -0.9735041 2.1873782 0.044564333 0.05607069
000390 aa ce dd bb dc 2f 63 3a 63 3c 89 b9 f6 cb 06 ba
       -0.006769021 0.00086664944 -0.00026175668 -0.0005142087
0003a0 c0 35 64 3c 29 c4 91 b9 33 2c b1 ba 5e b6 45 bb
       0.013928831 -0.00027802706 -0.0013517201 -0.0030168514
0003b0 a9 69 f9 be 40 25 f2 bf 09 95 2d bd 81 ad 63 3f
       -0.48713425 -1.8917618 -0.04237846 0.8893662
0003c0 31 ef 0b 3f de e1 d3 3f 94 36 c9 bd aa 98 26 bf
       0.5466185 1.6553304 -0.09824863 -0.65076697
0003d0 c3 f1 94 bc 27 0b 35 3a 04 6e e9 3a 74 e0 7d 3b
       -0.018181687 0.0006906264 0.0017809276 0.003873852
0003e0 25 2e cc 3b 95 20 72 3b a2 f9 3a bb 3a da 35 3a
       0.006231087 0.003694569 -0.002853014 0.00069371203
0003f0 bc fa df 3b bb 66 c1 ba db eb cb 39 fc 01 46 bb
       0.00683531 -0.0014755348 0.00038894903 -0.0030213585

initial_conv.lin_dst.weight f4 [128, 4]
000000 a7 08 f6 3b 88 fe c0 3a 21 79 01 3a a1 e2 2b 3a
       0.0075083557 0.0014724294 0.0004939009 0.00065569027
000010 f2 93 3d bc bd 49 15 bb 4c 32 5d 3a 2c ca d1 3a
       -0.011570917 -0.0022779547 0.0008437976 0.0016005686
000020 61 ed 95 bb 82 98 08 39 6f e3 78 3a 9e 14 76 39
       -0.004575417 0.00013026784 0.00094943395 0.00023468069
000030 f2 7a 08 3b da d7 66 3b a8 df 8f ba d5 b7 13 ba
       0.0020825234 0.0035223872 -0.0010976689 -0.0005634998
000040 13 74 dd 3b 8a 46 1a ba a1 04 3f 3a 9b fc 26 bb
       0.006758222 -0.0005885145 0.00072867615 -0.0025480154
000050 42 8a f0 3c f4 85 68 3b 66 25 14 b9 5f 25 93 b9
       0.029362801 0.0035480233 -0.00014128312 -0.00028065869
000060 7b b3 1d 3c 83 87 67 bb d6 40 9c b9 27 4f 99 b9
       0.009625311 -0.0035328574 -0.00029802945 -0.00029241407
000070 10 68 43 3f 54 d5 c7 3f c5 cd 51 3e 8a 9e b4 be
       0.7633066 1.5611978 0.20488651 -0.35277206
000080 33 82 12 bc a3 ac 34 3a 04 79 62 39 84 31 82 b9
       -0.008942175 0.000689218 0.00021598121 -0.00024832424
000090 cf c5 a0 be a1 d1 be 3f 66 f5 25 3e fc 43 92 3f
       -0.31400916 1.4907724 0.16206893 1.1426997
0000a0 b9 0a b3 3b 55 e4 2e ba 10 87 19 ba 65 86 4d ba
       0.0054639247 -0.00066715974 -0.00058566127 -0.0007840156
0000b0 e3 36 cf 3c 07 42 14 3a dd 05 c6 ba 25 24 3c bb
       0.025294727 0.0005655591 -0.0015107949 -0.0028708067
0000c0 53 ef 93 3a 5a 9a 0f bb d2 52 f5 ba 6c 1e 2a ba
       0.0011286534 -0.002191207 -0.0018716699 -0.00064895186
0000d0 e4 b8 03 3c ed 2d f9 3a b4 69 da 3a ee 28 6d 39
       0.008039687 0.0019010879 0.0016663582 0.00022617329
0000e0 51 66 27 bb 9e 07 0b bb 72 01 cc b9 f8 22 05 ba
       -0.0025543163 -0.0021214257 -0.0003891099 -0.0005078758
0000f0 3f 56 06 bb 36 52 99 3b 7a 34 67 3a 6c 75 ef 39
       -0.0020498184 0.0046789898 0.00088197703 0.00045673118
000100 d4 c8 e2 bb 24 41 a4 3a 1c 3a 6f 3a 7f 8a fe 3a
       -0.0069209132 0.001253162 0.00091257854 0.0019419937
000110 63 7f c2 3e 0f cd 12 bf c5 89 ff 3e c1 da 72 be
       0.37987813 -0.57344145 0.49909797 -0.2371626
000120 31 7e a4 ba 14 63 f5 39 55 82 dd ba 24 c0 d0 b8
       -0.0012549815 0.0004680386 -0.0016899804 -9.954002e-05
000130 d3 ef c7 bd b7 c1 eb bd 28 c3 11 bd cf 68 60 be
       -0.0976254 -0.115115575 -0.035586506 -0.21914981
000140 30 a0 34 3c ac a5 68 bb d6 a6 45 ba 9e d3 a0 ba
       0.01102452 -0.0035499139 -0.0007539814 -0.0012270098
000150 18 bc 37 3c 05 3a 05 3b 70 17 e2 ba de 7a 78 ba
       0.011214279 0.0020328772 -0.0017249417 -0.0009478758
000160 d0 26 ba bf 48 61 ec 3f 6b 05 db 3c 4e df 57 be
       -1.4543095 1.8467188 0.026735982 -0.21081278
000170 ec f8 be 3e 8e e6 b0 3f 0a 0a 1f 3e 5b 21 8d 3f
       0.37299287 1.382036 0.15531173 1.1025804
000180 64 f5 d2 3c 06 2a 34 3b de cd 2d bb f4 76 35 bb
       0.025751777 0.0027490868 -0.0026520411 -0.002768931
000190 4a 7c 22 bc ba 3c 9a bb 7b 6b 50 3a 39 df 25 ba
       -0.009917328 -0.004706946 0.0007950586 -0.0006327513
0001a0 2e 38 0e bc 96 c2 5e 3b a8 5b 77 ba f9 ec 9a ba
       -0.0086803865 0.0033990494 -0.000943596 -0.0011819891
0001b0 fa f3 42 bc 88 b6 4a bb 10 64 68 3a 7c 38 0a 3b
       -0.011898989 -0.003093155 0.0008865008 0.0021090796
0001c0 35 ee 7e bb db 81 e3 bb d8 a9 8d 38 d8 a5 1b 3a
       -0.0038899307 -0.00694297 6.75504e-05 0.00059374934
0001d0 1d 04 eb 3a 4d ae 93 3b ad 38 0d 3b 38 d1 af b9
       0.0017930303 0.0045068623 0.0021548674 -0.0003353448
0001e0 c0 d6 45 3b ce 61 c9 3a 48 17 c0 39 7a a7 c5 3a
       0.0030187815 0.0015364231 0.0003663844 0.0015079819
0001f0 a4 8f b9 bc e1 dc 31 ba 8d 58 86 3a 00 ee 82 3a
       -0.022651501 -0.00067849277 0.0010249779 0.0009989142
000200 f8 85 1a be 3e d4 0a 3f d0 ea 57 3c 5c 50 90 3f
       -0.15090168 0.54230106 0.013178542 1.1274524
000210 73 36 29 be ad e0 ef bf 45 17 fc 3d 06 0d 96 3e
       -0.16524677 -1.8740441 0.12309126 0.2930681
000220 83 1a 96 3d 95 21 d1 bf 36 ce 50 bd f9 90 15 40
       0.073292755 -1.6338373 -0.050977908 2.3369734
000230 7b aa cb b9 93 3d 9a bb 4e 6b 16 3a 59 a9 a1 ba
       -0.00038846195 -0.0047070473 0.00057380355 -0.0012333795
000240 32 d0 13 bc 14 94 40 3a f4 50 2e ba 17 f2 9f 3b
       -0.009021806 0.0007346284 -0.0006649636 0.0048811543
000250 6e 84 90 3b 52 39 f4 b9 40 4a b6 b9 83 78 3e bb
       0.004410318 -0.00046582014 -0.00034769066 -0.002906353
000260 6f f9 35 bc 53 0a 7a 3a 8b fd 62 ba 4a 8a 95 38
       -0.011106833 0.00095382816 -0.00086589967 7.130632e-05
000270 56 24 83 bb f1 a2 2f bb e0 61 6b 37 eb f6 f7 ba
       -0.0040021343 -0.0026800002 1.402988e-05 -0.0018918192
000280 ce c5 6a be 0e 8c 4c 3d f2 d2 da 3e b8 cb 0d bf
       -0.22927019 0.049938254 0.42739064 -0.55388975
000290 b7 6a 86 bf 41 46 0a c0 53 a0 a1 bd 4d 93 05 bf
       -1.0501317 -2.160538 -0.078919075 -0.5217789
0002a0 98 c8 24 3b 84 0c 95 3a 8f f9 9b ba 61 79 d7 b9
       0.0025143977 0.0011371528 -0.0011899936 -0.0004109843
0002b0 82 bc 42 3c ce 0c 3c 3b 53 bd 08 3a 1b 0a 4f 3b
       0.011885764 0.0028694156 0.00052162 0.0031591717
0002c0 64 1d ae bd fe 29 f3 3e 3b 5d d0 3b 2a 97 16 3f
       -0.085016996 0.47492975 0.00635877 0.5882441
0002d0 0a 16 ec 3b 52 41 88 bb 9b 51 0c bb 48 dd 02 bb
       0.0072047757 -0.0041581774 -0.0021410945 -0.001996832
0002e0 f7 5f 84 be 2c d0 c3 3f 72 4a 03 be fc fb 64 3f
       -0.25854465 1.5297904 -0.12821367 0.89447
0002f0 36 9c ad bb 9d 1b 89 3a c4 eb c1 3a 2e ab c8 ba
       -0.005298163 0.00104605 0.0014794995 -0.0015309805
000300 84 63 31 bb a0 e6 7a bb 5c 7f 02 ba 40 68 d5 39
       -0.0027067373 -0.0038284436 -0.00049780845 0.00040704198
000310 55 96 ee 3b 2b 3f cc 3b 3d 87 11 3a 7b 1c b7 3a
       0.0072811046 0.006233116 0.0005551463 0.001397028
000320 bd c7 d7 3c 29 92 6c ba 7e 10 9b ba 38 4e 24 bb
       0.02634036 -0.0009024465 -0.0011830477 -0.0025071036
000330 11 64 1a 3b b3 1a 92 3a ac 9d 68 3a 11 ed 80 ba
       0.002355818 0.0011146873 0.00088735926 -0.0009836276
000340 6f 16 99 3a 06 d2 64 ba 64 a3 22 b9 00 73 1a 3b
       0.0011679659 -0.00087288057 -0.00015510392 0.002356708
000350 41 67 8d be 33 39 d6 bf 57 f5 e5 3d 3e b9 a0 bf
       -0.2761784 -1.6736206 0.112284355 -1.2556531
000360 59 fd a1 bb c5 89 26 bb fb 25 44 ba 06 59 f4 ba
       -0.0049435315 -0.0025411707 -0.0007482466 -0.0018642254
000370 28 9f 00 3c 28 50 bc 3a c3 22 9b b9 4e 64 98 3b
       0.007850446 0.001436715 -0.00029589803 0.004650629
000380 91 37 79 bf 01 fe 0b 40 17 89 36 3d 61 aa 65 3d
       -0.9735041 2.1873782 0.044564333 0.05607069
000390 aa ce dd bb dc 2f 63 3a 63 3c 89 b9 f6 cb 06 ba
       -0.006769021 0.00086664944 -0.00026175668 -0.0005142087
0003a0 c0 35 64 3c 29 c4 91 b9 33 2c b1 ba 5e b6 45 bb
       0.013928831 -0.00027802706 -0.0013517201 -0.0030168514
0003b0 a9 69 f9 be 40 25 f2 bf 09 95 2d bd 81 ad 63 3f
       -0.48713425 -1.8917618 -0.04237846 0.8893662
0003c0 31 ef 0b 3f de e1 d3 3f 94 36 c9 bd aa 98 26 bf
       0.5466185 1.6553304 -0.09824863 -0.65076697
0003d0 c3 f1 94 bc 27 0b 35 3a 04 6e e9 3a 74 e0 7d 3b
       -0.018181687 0.0006906264 0.0017809276 0.003873852
0003e0 25 2e cc 3b 95 20 72 3b a2 f9 3a bb 3a da 35 3a
       0.006231087 0.003694569 -0.002853014 0.00069371203
0003f0 bc fa df 3b bb 66 c1 ba db eb cb 39 fc 01 46 bb
       0.00683531 -0.0014755348 0.00038894903 -0.0030213585

conv1.att_src f4 [1, 4, 32]
000000 4d bf 08 be a2 aa 83 3d 09 9d 5e 3e 99 de 2a be
       -0.13354225 0.0642903 0.21739592 -0.16686477
000010 06 9e 12 bd 4c 12 13 3d 46 d9 14 bb 42 ad 8f 3d
       -0.035795234 0.03590612 -0.0022712513 0.07015468
000020 f0 09 c9 3c bc 2f 41 3e c3 a2 9e ba 0e 83 be 3c
       0.024540871 0.18865865 -0.001210295 0.023255851
000030 0c 20 95 ba 83 1e c9 3a 2e 34 05 3d df 3c 15 39
       -0.0011377349 0.0015344176 0.032520466 0.00014232424
000040 fb 15 a8 be 1e ab 23 3d 65 ea 95 3e 3e db f0 bb
       -0.3282927 0.039958112 0.2928039 -0.0073503545
000050 06 82 5f bd 83 1f 4e bd 7c d3 61 3c e4 de 1a be
       -0.05456736 -0.05032302 0.013783332 -0.15124089
000060 9d d7 d8 bd 1e f8 ff bd a4 9f e4 3d 90 04 11 3d
       -0.10588 -0.124984965 0.111632615 0.03540474
000070 3f 62 67 3e 13 84 5d 3e 75 e9 f8 3d 44 e9 78 3a
       0.22596072 0.21632414 0.121539034 0.00094952085
000080 26 b8 85 3d 6f 24 3e be d2 4f 3a 3e 8d 84 03 bc
       0.06529264 -0.18568586 0.18194512 -0.008027208
000090 8a d6 88 bb 46 c8 87 bd 3b 50 96 3d fd dd 90 be
       -0.0041759657 -0.06629996 0.073395215 -0.28294364
0000a0 bb 93 a8 be cd 9d 5f 3c f6 d4 09 3d 34 d7 64 bc
       -0.3292521 0.0136484625 0.03365036 -0.013967324
0000b0 7f 40 67 bb 3a f3 a9 3c 0f 00 3c bc 94 55 22 bd
       -0.0035286245 0.020745862 -0.011474623 -0.039632395
0000c0 93 b6 39 3c 4f 0b d7 bd 0e 09 2c ba ee 9d 66 be
       0.011335033 -0.10500204 -0.00065626286 -0.22521183
0000d0 85 09 c0 3d 17 33 e2 ba 8c ce 8b be 09 c2 c2 bb
       0.09376816 -0.0017257658 -0.2730602 -0.005943541
0000e0 e6 25 9d 3e a8 03 b0 bd 12 b6 f4 3d f3 ad 1b be
       0.30692977 -0.085944474 0.1194879 -0.15203075
0000f0 fc cc fd 3d 0d 2c 56 3e b8 84 01 bf f7 87 49 3e
       0.12392613 0.20915242 -0.5059314 0.19680773
000100 1a 62 8c 3d c0 e9 3e 3e 99 22 fc 3e ee 88 b3 3d
       0.06854649 0.18643856 0.49245146 0.08766352
000110 5f 5d 1b 3e e1 ba 64 3d a5 07 93 be cf 71 48 be
       0.15172337 0.055842284 -0.2871677 -0.19574665
000120 62 19 0e be b6 34 09 3f b4 d7 eb bb d0 28 16 3d
       -0.1387687 0.53596056 -0.0071973447 0.036660016
000130 89 52 17 bf 5a 79 b0 be d7 10 ec 3c b5 85 97 bd
       -0.59110314 -0.34467584 0.028816624 -0.073985495
000140 cf 85 8f 3e 58 06 a0 bc 99 42 83 3d 26 13 98 3e
       0.28031775 -0.019534275 0.06409187 0.2970211
000150 fa f8 a1 bd 27 8b b6 bd 6f dc b0 bd c6 64 88 3b
       -0.07908817 -0.0891326 -0.08635794 0.0041624038
000160 31 23 dc bd 8f 87 31 3d ef b0 81 3c 03 15 f4 bd
       -0.107489 0.04334217 0.015831439 -0.1191807
000170 65 7f 84 bb 43 87 a7 3e 34 e1 3f bb e6 9b 8c be
       -0.004043507 0.32720384 -0.0029278519 -0.2746269
000180 ba 11 5e be ec 5f 6e be 9c 32 be 3e e0 98 da bd
       -0.2168645 -0.23278779 0.37147987 -0.1067369
000190 a3 ba 74 3e d2 01 2f bd 92 0c 98 3e 11 0c 02 be
       0.23899321 -0.042726345 0.2969709 -0.12699915
0001a0 33 1d e4 bd 46 05 d0 bc d8 f8 56 3e 25 4b c1 3d
       -0.11138382 -0.02539314 0.20993364 0.09438161
0001b0 d7 42 59 bd c8 f2 bd 3d 35 4e 3c 3e 4c 7f 8d 3c
       -0.05304226 0.092748225 0.18389209 0.017272614
0001c0 f3 44 af 3c 29 ea 78 bb 6c 35 93 3e 66 1b a4 be
       0.021395182 -0.0037981367 0.28751695 -0.32052153
0001d0 e6 3c 98 3a 7e 5c db 3e 00 4f e0 bc 5c 33 84 b9
       0.0011614829 0.42844003 -0.02738142 -0.00025215268
0001e0 cc 15 02 3d 51 67 b1 3d 50 98 f5 ba d7 27 f0 3b
       0.03175907 0.08662284 -0.0018737409 0.007328968
0001f0 de ed 03 3d bf 91 06 be 98 20 0c 3c 6e 50 d8 3e
       0.03220927 -0.13141535 0.008552693 0.42248863

conv1.att_dst f4 [1, 4, 32]
000000 94 dc b1 bf b9 38 2b bf 2f 2b 73 3f 6a 94 f6 bf
       -1.389544 -0.66883427 0.9498777 -1.9264042
000010 dd 91 e3 3e 4d d8 6f 3e c7 df 57 3d 5b 01 89 be
       0.44447222 0.23422356 0.052703645 -0.26758847
000020 80 d9 04 bf 55 60 fd 3d 52 1d 76 bc 89 5c 00 3f
       -0.5189438 0.123718895 -0.015021639 0.501412
000030 e7 18 b3 bd a3 0e 3e bd 53 26 d5 3e 96 b3 06 bf
       -0.08744984 -0.046400677 0.41630802 -0.52617776
000040 95 e6 84 bf e1 1d 25 bf 60 bb 8c 3f 07 28 39 3f
       -1.0382868 -0.64498717 1.0994682 0.723267
000050 a0 37 48 3e 92 da 30 3e 93 85 df be 4f e2 0a 3e
       0.19552469 0.17270878 -0.43656597 0.13562892
000060 a3 01 21 be d4 29 11 be 47 e2 82 bf 78 32 70 3e
       -0.1572328 -0.14176112 -1.0225304 0.23456752
000070 68 5d aa bd 10 b4 9e 3e ef ec c6 3e d1 23 ce 3d
       -0.08318597 0.30996752 0.3885264 0.10065425
000080 60 ca 44 bd a6 44 a1 3d 12 fb a0 3e a1 a1 bf bb
       -0.048044562 0.07874422 0.3144155 -0.005848125
000090 47 b9 74 bb 34 87 be bb 0e 76 b5 be a1 a4 bc 3d
       -0.003734188 -0.0058144573 -0.3544163 0.09211088
0000a0 b2 26 c3 3e 46 9e 97 3c a2 68 42 3e 02 2c 64 3e
       0.3811546 0.018508088 0.18985227 0.22282413
0000b0 a6 0f 88 bb 3e 28 8c bd de dc 78 3d 3b 99 47 bf
       -0.004152256 -0.06843613 0.06075751 -0.77968186
0000c0 2a 2f 4f be 23 8b 92 3d 41 8e c2 3c 39 98 5e bd
       -0.20232835 0.071554445 0.023749473 -0.05434439
0000d0 4f 16 0f be c2 52 16 3b 49 bb 56 3c 3e 04 c4 bb
       -0.13973354 0.002293751 0.013106176 -0.005981951
0000e0 a6 c8 90 be 55 4c 1c 3c 5d 0e a7 bd ce 0c c5 3d
       -0.28278083 0.009539683 -0.081570365 0.09621583
0000f0 92 2f b4 bd a4 65 0f 3d 3e b0 cc 3e 32 c1 be bc
       -0.08798136 0.03500904 0.39978212 -0.023285482
000100 1b 16 33 bf 38 7b 36 3e e9 00 10 3f 7b b8 b9 3d
       -0.69955605 0.17820442 0.5625139 0.0906839
000110 d6 88 19 3f 5e a3 ec be 5a 9c 90 3e 0f 39 a8 3d
       0.5997442 -0.4621839 0.28244287 0.08214008
000120 68 dc 1f bf 25 2f 6b 3d 6b 22 6a bc 23 c9 98 be
       -0.6244569 0.057418007 -0.014290432 -0.29840955
000130 18 37 8c 3e 01 53 1e bf 4d 86 bb be ff 73 d0 3e
       0.27385783 -0.61845404 -0.366259 0.40713498
000140 5e 84 5f bf 4e 98 da bf 96 70 d2 be 13 f9 25 3e
       -0.8731135 -1.707773 -0.4110152 0.16208296
000150 b6 67 0e 3f 73 d5 19 bf 45 9d 03 3f 18 ae 44 bc
       0.55627 -0.6009132 0.5141185 -0.012004398
000160 ad fb d3 be d2 48 8a 3f 56 76 c4 3e f2 62 3a bf
       -0.4140295 1.0803473 0.38371533 -0.7280723
000170 23 12 a6 3e 8d b0 6a bf 43 0b 07 3d 2e b5 77 3e
       0.32435712 -0.91675645 0.032969724 0.24190208
000180 ca 2e 38 bf d8 f1 0c 3f 34 1f 5e be b5 6b 65 3f
       -0.71946394 0.55056524 -0.2169159 0.8961747
000190 31 48 e1 3c 69 2d 12 3f 54 bc 26 3f d1 76 f3 3d
       0.027500244 0.5710054 0.65131116 0.11887897
0001a0 ae 6a 88 3e 25 a4 2a 3f bb ef e3 3d 4b d1 73 bf
       0.2664389 0.66656715 0.11129709 -0.9524123
0001b0 6e b9 02 3f 8d ba 79 bf 53 14 52 bf 5e d2 76 3f
       0.51064193 -0.9755028 -0.8206226 0.96414745
0001c0 0a a1 ea be d7 19 31 bd 1b d4 33 be ff 2c a2 bf
       -0.45825988 -0.043237533 -0.1756138 -1.2669982
0001d0 15 86 c9 3c a1 35 1a bd 57 0f 20 bf 8c 34 a4 3f
       0.024600068 -0.0376488 -0.62523407 1.2828536
0001e0 52 08 1e 3f 01 3e 91 be 51 fa d2 bf a3 51 a6 bf
       0.61731446 -0.28367618 -1.648264 -1.2993664
0001f0 07 23 9b be 2e d7 76 3f 37 75 52 bd 7e 5e 8c bf
       -0.3030016 0.9642209 -0.051381316 -1.0966337

conv1.bias f4 [128]
000000 31 ff f5 3b f1 07 a6 be 76 c0 92 bd d9 49 b1 be
       0.007507228 -0.32427934 -0.07165615 -0.34626654
000010 99 38 4c 3f ad 7d 85 3e 6c 46 fd bb ac 75 05 3f
       0.7977386 0.26072446 -0.007729342 0.5213268
000020 b2 f6 fd bd 7a c9 bf 3d 77 9d 3d 3c ef f5 71 3f
       -0.12400569 0.093646005 0.011573187 0.9451589
000030 d8 6f 20 3a 1a 1e 99 3c 78 8a 77 3c d8 bf 46 3e
       0.00061201816 0.018691111 0.015108697 0.1940912
000040 d7 3e ff 3d 5a 24 07 bf 4a 7d da be 08 60 e1 3d
       0.124631576 -0.52789843 -0.42673713 0.11004645
000050 e5 07 c0 bd dc 76 11 be 60 cc 1d bd d5 f5 5f 3e
       -0.09376506 -0.14205498 -0.038524985 0.21871121
000060 f8 27 ad be 3b b5 8d be ce f8 55 bd 49 dd 14 3e
       -0.33819556 -0.2767733 -0.05223923 0.14537539
000070 04 cf c3 be 31 1c d8 be 8e 00 a9 bd 3b 40 d6 be
       -0.38243878 -0.42209008 -0.08252059 -0.4184588
000080 da 6b b5 3e f1 01 07 3e e0 4f c0 be 14 97 90 ba
       0.35433847 0.13184334 -0.3756094 -0.0011031353
000090 ee 77 40 bb 5a e2 e8 3b 3b c7 1b bf 53 1f 05 3f
       -0.0029368359 0.0071070613 -0.60850877 0.5200092
0000a0 75 31 54 bf e4 ee f0 3d ee 27 45 bd d8 b7 1e 3e
       -0.82887965 0.11764315 -0.048133783 0.15499818
0000b0 a4 b0 10 3b d3 1a fd 3e 95 09 9d 3b 55 ca 59 bf
       0.0022077942 0.49434528 0.004792402 -0.8507436
0000c0 47 45 da 3e 08 b2 b3 3d 17 ff da 3e 26 c9 07 bd
       0.4263098 0.08774191 0.42772743 -0.033150814
0000d0 9d 85 cc 3b 6b 9c 05 bb 4e 9d 67 be da 76 71 ba
       0.006241514 -0.0020387422 -0.226186 -0.00092111307
0000e0 2a 67 7a 3d 10 47 4f 3e 34 fa 12 3f 00 bc 4f 3d
       0.06113354 0.20241952 0.5741303 0.0507164
0000f0 e6 dc c8 3e 11 57 fc 3e 00 26 7d bf ff 6c 2f be
       0.39231032 0.49285176 -0.9888611 -0.17131422
000100 6c d3 31 be 84 a6 3d bd e7 39 fa 3e 0c 8b cc 3e
       -0.17365807 -0.04630138 0.488723 0.39949834
000110 76 24 a3 3d 4a 1f 33 bf ff e3 1e 3f 30 e1 c9 3e
       0.07965939 -0.6996962 0.62066644 0.39429617
000120 25 aa cd be 9b 2d 8a 3f 0e 7f 2c bb aa 98 8c be
       -0.40168872 1.0795168 -0.0026320848 -0.27460223
000130 01 54 92 3f 1a 70 8a be 06 6a 84 bc ab 85 94 3e
       1.1431886 -0.27038652 -0.016163837 0.2900823
000140 cf 6c 1a bf 97 3e 1b be 76 b2 52 be 63 39 74 be
       -0.6032228 -0.15160595 -0.2057589 -0.23850016
000150 ee 76 1a 3e bc ff da bd 70 f7 a8 be e8 e3 90 3b
       0.1508443 -0.10693309 -0.3300128 0.0044217
000160 fa 23 c4 3c f9 0d 2a be 31 bc a1 be bf 94 16 be
       0.023942936 -0.16606893 -0.3158889 -0.1470518
000170 0d f8 a3 3d e5 15 67 bf c9 8e b8 bb 07 50 44 3e
       0.08006296 -0.90267783 -0.0056322557 0.19171153
000180 c7 77 83 3e 88 b7 88 3d 4b d5 d0 3d 49 c1 e9 3d
       0.2567732 0.06675631 0.101969324 0.11413819
000190 56 ab 9e 3e 79 28 51 be 25 9e be 3d ba bf 92 bd
       0.30990094 -0.20425595 0.093075074 -0.07165475
0001a0 8a a3 7e be a7 f4 12 3e 1a d4 7e 3d 78 45 12 3e
       -0.24867073 0.1435114 0.062213995 0.14284313
0001b0 8a ae 22 bd 99 38 05 bf 75 c3 2d 3e a7 19 18 bf
       -0.039717235 -0.52039486 0.16969092 -0.5941414
0001c0 c4 cf c9 3d a4 02 ec 3b d2 81 49 3e b6 c4 87 3f
       0.09854081 0.007202463 0.19678429 1.0606906
0001d0 d8 0e 15 3e af 28 d2 3c b5 02 a5 be 65 29 40 3d
       0.14556444 0.025654165 -0.32228628 0.046914477
0001e0 fe f6 a2 bc e1 29 9d 3e 8f 97 c3 bd 67 36 69 bd
       -0.019893166 0.30696014 -0.09550392 -0.056936648
0001f0 5e a7 4c 3e 84 53 8a be 11 6c ea 3d 02 de 54 3e
       0.1998572 -0.27016842 0.11446393 0.20787814

conv1.lin_src.weight f4 [128, 128]
000000 a6 c5 9b 3a bb 2e 7b bb 85 8f 0c 3c c2 77 4a 3b
       0.0011884465 -0.0038327414 0.00857914 0.0030894135
000010 0e 78 8b 3c 52 b4 3f 3c 99 91 f7 39 30 46 39 bf
       0.01702502 0.011700707 0.0004721999 -0.7237272
000020 d0 80 16 bc eb 10 5f be 63 b2 24 3c 19 9b ee 3c
       -0.009185985 -0.21783797 0.010052296 0.02912669
000030 70 34 29 3c 11 05 9e bb d7 3a e6 3b 2f 75 4d bc
       0.0103274435 -0.0048223813 0.007026057 -0.012540146
000040 4d 8b 33 bc 53 35 a7 be 56 ad 7e bb 7b d9 6d 3e
       -0.010958505 -0.3265787 -0.003886064 0.23227493
000050 cf 3e 0f 3b ee ba 88 3c ce 0c 64 bf f6 c2 91 bc
       0.0021857505 0.016690698 -0.8908204 -0.01779316
000060 05 e4 7d 3c a5 37 24 3c 38 ff 93 bc 8e b7 39 bc
       0.015496259 0.010023032 -0.018066034 -0.011335267
000070 be 58 2b 3a c2 f0 20 bb 4a 71 f1 3b 69 97 1a bc
       0.0006536356 -0.0024557565 0.0073682414 -0.009435513
000080 4f 55 9e be 76 cb 3e 3e bb 05 8a be 5b ce df 3b
       -0.3092446 0.18632302 -0.26957497 0.0068300194
000090 96 66 14 bc 6b d9 25 3b 71 a0 8e bc a6 54 d2 bb
       -0.0090576615 0.0025306593 -0.017410489 -0.0064187823
0000a0 02 aa 12 3e ff c2 71 3f 44 ca 2d 3c a1 31 66 3c
       0.14322665 0.94438165 0.010607306 0.014049918
0000b0 2d 01 0e be 0e e0 e8 3a 2c 11 7a 3d d4 44 c9 3b
       -0.13867636 0.0017766969 0.061051533 0.006142238
0000c0 11 60 9a 3a 62 6b 50 bc 6e f3 f9 bb a9 33 11 3c
       0.0011777898 -0.012720915 -0.007627896 0.008862414
0000d0 2c ae a8 bc f4 8a 0c 3f 42 f6 ea bc ab d9 75 3c
       -0.020590864 0.54899526 -0.028681878 0.015005509
0000e0 b3 29 31 be 34 9b 10 3b 9b 5c ee bb d2 fa 2c 3e
       -0.17301063 0.0022065165 -0.007274223 0.16892555
0000f0 23 3c 11 be 54 fb 0c bb a5 f4 da 3b f0 03 25 bc
       -0.14183097 -0.0021512108 0.006681996 -0.01007174
000100 97 9a bf bc c0 9f 4f bc e6 21 a8 ba 43 74 68 be
       -0.023389144 -0.012672365 -0.0012827485 -0.227006
000110 57 35 37 bf 3f 2e 83 3f ce 41 ae bc 63 93 06 bf
       -0.71565765 1.0248488 -0.021271612 -0.52568644
000120 2e 86 9f 3a 2d 8a a1 3d 71 fd 19 3c cc 5b a5 be
       0.0012170726 0.07887683 0.009398804 -0.32296598
000130 d1 2d ed be c6 37 cb 3e 06 26 9c 3b f2 dc 6c 3b
       -0.46324018 0.3969099 0.004765275 0.0036142436
000140 35 6b 5d 3c 4f a5 7d 3b db f3 25 bc 0f 93 97 be
       0.01351433 0.0038703268 -0.01012894 -0.29604384
000150 9e e4 81 3e 01 ba b9 3e ae b7 b0 3a 81 86 bb bc
       0.25369734 0.36274722 0.0013482475 -0.022891285
000160 0e e7 5d bc 0c 9f dd 3e 40 bb 30 3b ed dd 60 bb
       -0.013543857 0.43285406 0.0026967078 -0.0034311966
000170 7a db fb 3b 26 6d 22 3c ef b9 bc bb 39 1c 8d 3c
       0.0076860758 0.009913718 -0.0057594697 0.017225372
000180 f9 a0 39 3c e4 a0 fa 3b 83 85 84 bb 38 72 52 be
       0.011329883 0.007648574 -0.004044236 -0.20551383
000190 ab 00 cc 3b 97 93 6e bd ff e8 c7 3f c9 22 fc bb
       0.0062256656 -0.05824622 1.561798 -0.0076945764
0001a0 05 43 16 3c 59 a7 da be 52 bf c3 bf fe 17 fd be
       0.009171252 -0.427058 -1.5292761 -0.49432367
0001b0 31 f4 d4 bc 83 9b 2b 3f dc c6 2f 3f 29 e6 8a bc
       -0.025995346 0.6703417 0.6866281 -0.016955452
0001c0 21 a1 84 3c 73 27 23 3f 8b 9d 3b 3c 82 48 c5 bc
       0.016190113 0.6373207 0.011451135 -0.024082426
0001d0 6b e8 a0 bc 25 71 d0 3e 45 f9 31 3b 69 41 b2 3c
       -0.019642076 0.40711322 0.0027156633 0.021759706
0001e0 60 2b fd bb a3 3b 8b bc aa 83 b6 bc 7c 8c 86 3b
       -0.007726118 -0.01699621 -0.02227958 0.0041061025
0001f0 7d 82 c7 bc c0 0f 3b 3c 0d f5 43 be c4 ae 71 38
       -0.024354214 0.011417329 -0.19136448 5.762164e-05
000200 5b 2e 06 bc fd a1 70 3c 28 a6 63 bb 59 9b 68 3b
       -0.008189763 0.0146870585 -0.0034736488 0.0035492985
000210 df ad 60 3b 71 a9 cd bb 7c c7 4f bc af be 39 3f
       0.0034283323 -0.0062763025 -0.012681838 0.72556585
000220 72 2d 0d 3c 26 88 ce 3e 3f ad 75 3a 67 82 03 3c
       0.008616792 0.40338248 0.0009371824 0.008026696
000230 47 ff 88 bc d4 e5 15 bc b2 3c 0b b9 8b 75 0d bb
       -0.016723288 -0.009149034 -0.00013278684 -0.0021584954
000240 d8 14 58 bb 3b fe 57 3e 02 ee 50 3b 00 d3 15 bd
       -0.0032971408 0.21093075 0.0031880145 -0.03657818
000250 32 59 a0 ba e7 e7 72 3b 95 67 e9 3f ff d8 69 3e
       -0.0012233614 0.0037064494 1.8234736 0.22836684
000260 c2 d3 48 3b 6a 9f 0b 3c 30 44 06 bc 0b dc 52 bc
       0.0030643796 0.008521894 -0.008194968 -0.012869845
000270 36 5b 63 bb fd 82 ac 3b f1 b7 69 bb e8 8c d5 3a
       -0.0034691817 0.0052646385 -0.0035662616 0.0016292604
000280 73 e8 0a 3e 21 ec 29 be 58 cb ef be dd 17 56 bc
       0.13565235 -0.16593982 -0.46834826 -0.013067213
000290 23 fb 74 bc 8e be e6 3c b5 01 6d bc 07 c8 48 bc
       -0.014952454 0.028167035 -0.014465739 -0.0122547215
0002a0 75 7b f5 be 92 03 9c bf c7 00 68 bb e5 c9 a9 3b
       -0.47945753 -1.218859 -0.0035400854 0.0051815384
0002b0 71 45 ab 3d 11 92 18 3c ed 00 d7 bd 09 ff 8a 3c
       0.08362854 0.009312169 -0.104982235 0.016967313
0002c0 5d 51 1b bc d6 58 03 3c 04 fa a0 3c d8 48 60 bc
       -0.009479848 0.008016786 0.019650467 -0.013689242
0002d0 7e e3 80 bb ab 75 03 3e 66 33 98 bc 68 50 a2 38
       -0.003933369 0.12837856 -0.018579196 7.739739e-05
0002e0 20 b7 d2 3f 08 c5 03 bd c8 2e c4 3b 6c 42 51 bf
       1.6462135 -0.032170326 0.005987022 -0.81741977
0002f0 66 e7 f5 be 4e 07 3f bc 50 b6 2e 3c 71 b7 1a bc
       -0.48028105 -0.011659456 0.010663584 -0.00944315
000300 89 9e b3 3b 8e b9 8f 3d 04 3d 2e 3d 7c 67 93 3e
       0.0054815453 0.070178136 0.042538658 0.2878989
000310 ed 35 30 3f ac d1 ae bf a9 44 c6 3b 07 08 3b 3e
       0.68832284 -1.3657737 0.0060506654 0.18264781
000320 71 98 6d bc 54 1a 20 be 53 a5 0d bc f5 c6 1b 3e
       -0.014501677 -0.15635043 -0.008645373 0.15212615
000330 5c a5 4f 3f a5 59 d1 be 28 84 3e 3b 2d 74 3c ba
       0.81111693 -0.40888706 0.002907047 -0.00071889424
000340 24 9d 44 3c 0d 6b f1 3b d8 f2 5f 3b 05 f2 90 3f
       0.012000356 0.007367498 0.0034171846 1.1323858
000350 bf 48 ff be bf 7e 6f 3f e7 c5 44 3c b8 4a 8b 3b
       -0.49860188 0.93552774 0.012010074 0.0042508505
000360 ab ef a7 3c 13 7e fd be cb 48 b1 bc d7 e1 cb bc
       0.020500025 -0.4951025 -0.021641156 -0.024887962
000370 e8 1f c9 3b 48 64 33 3c f1 77 4d 3b 50 cd 05 bc
       0.0061378367 0.010949202 0.0031352008 -0.008166626
000380 f0 af c2 bc 1b 4a 8a 3c 11 a3 47 bc 7b 2d fd be
       -0.023765534 0.01688104 -0.012184874 -0.4944876
000390 cf d0 56 bc 83 90 b3 bd 7d 44 4f 3f 79 9c 88 bc
       -0.013111307 -0.08767798 0.8096388 -0.016676174
0003a0 72 c6 88 bc 37 58 5c be ac 72 13 bf d5 3d 1f bf
       -0.016696189 -0.21518026 -0.5759685 -0.62203723
0003b0 89 71 67 3c e0 34 76 be 74 24 c4 3e 54 e3 61 bc
       0.01412619 -0.24043608 0.38309062 -0.013787109
0003c0 6b 98 60 bb 71 c3 fa 3d b0 63 79 bc 44 b7 3e 3a
       -0.0034270536 0.12244309 -0.015221521 0.00072752335
0003d0 2a 82 96 3c 33 80 64 be f6 61 d5 39 50 2e 2a 3c
       0.018372614 -0.22314529 0.00040699512 0.010387018
0003e0 41 31 b4 3b ce 9d 1b bc 3f 15 65 bc c8 c3 74 38
       0.0054990356 -0.009498073 -0.013982116 5.835647e-05
0003f0 83 72 ed 3a ed 48 ad 3a 21 90 1b bf 95 62 35 bb
       0.0018115792 0.0013220586 -0.607668 -0.0027677168

conv1.lin_dst.weight f4 [128, 128]
000000 a6 c5 9b 3a bb 2e 7b bb 85 8f 0c 3c c2 77 4a 3b
       0.0011884465 -0.0038327414 0.00857914 0.0030894135
000010 0e 78 8b 3c 52 b4 3f 3c 99 91 f7 39 30 46 39 bf
       0.01702502 0.011700707 0.0004721999 -0.7237272
000020 d0 80 16 bc eb 10 5f be 63 b2 24 3c 19 9b ee 3c
       -0.009185985 -0.21783797 0.010052296 0.02912669
000030 70 34 29 3c 11 05 9e bb d7 3a e6 3b 2f 75 4d bc
       0.0103274435 -0.0048223813 0.007026057 -0.012540146
000040 4d 8b 33 bc 53 35 a7 be 56 ad 7e bb 7b d9 6d 3e
       -0.010958505 -0.3265787 -0.003886064 0.23227493
000050 cf 3e 0f 3b ee ba 88 3c ce 0c 64 bf f6 c2 91 bc
       0.0021857505 0.016690698 -0.8908204 -0.01779316
000060 05 e4 7d 3c a5 37 24 3c 38 ff 93 bc 8e b7 39 bc
       0.015496259 0.010023032 -0.018066034 -0.011335267
000070 be 58 2b 3a c2 f0 20 bb 4a 71 f1 3b 69 97 1a bc
       0.0006536356 -0.0024557565 0.0073682414 -0.009435513
000080 4f 55 9e be 76 cb 3e 3e bb 05 8a be 5b ce df 3b
       -0.3092446 0.18632302 -0.26957497 0.0068300194
000090 96 66 14 bc 6b d9 25 3b 71 a0 8e bc a6 54 d2 bb
       -0.0090576615 0.0025306593 -0.017410489 -0.0064187823
0000a0 02 aa 12 3e ff c2 71 3f 44 ca 2d 3c a1 31 66 3c
       0.14322665 0.94438165 0.010607306 0.014049918
0000b0 2d 01 0e be 0e e0 e8 3a 2c 11 7a 3d d4 44 c9 3b
       -0.13867636 0.0017766969 0.061051533 0.006142238
0000c0 11 60 9a 3a 62 6b 50 bc 6e f3 f9 bb a9 33 11 3c
       0.0011777898 -0.012720915 -0.007627896 0.008862414
0000d0 2c ae a8 bc f4 8a 0c 3f 42 f6 ea bc ab d9 75 3c
       -0.020590864 0.54899526 -0.028681878 0.015005509
0000e0 b3 29 31 be 34 9b 10 3b 9b 5c ee bb d2 fa 2c 3e
       -0.17301063 0.0022065165 -0.007274223 0.16892555
0000f0 23 3c 11 be 54 fb 0c bb a5 f4 da 3b f0 03 25 bc
       -0.14183097 -0.0021512108 0.006681996 -0.01007174
000100 97 9a bf bc c0 9f 4f bc e6 21 a8 ba 43 74 68 be
       -0.023389144 -0.012672365 -0.0012827485 -0.227006
000110 57 35 37 bf 3f 2e 83 3f ce 41 ae bc 63 93 06 bf
       -0.71565765 1.0248488 -0.021271612 -0.52568644
000120 2e 86 9f 3a 2d 8a a1 3d 71 fd 19 3c cc 5b a5 be
       0.0012170726 0.07887683 0.009398804 -0.32296598
000130 d1 2d ed be c6 37 cb 3e 06 26 9c 3b f2 dc 6c 3b
       -0.46324018 0.3969099 0.004765275 0.0036142436
000140 35 6b 5d 3c 4f a5 7d 3b db f3 25 bc 0f 93 97 be
       0.01351433 0.0038703268 -0.01012894 -0.29604384
000150 9e e4 81 3e 01 ba b9 3e ae b7 b0 3a 81 86 bb bc
       0.25369734 0.36274722 0.0013482475 -0.022891285
000160 0e e7 5d bc 0c 9f dd 3e 40 bb 30 3b ed dd 60 bb
       -0.013543857 0.43285406 0.0026967078 -0.0034311966
000170 7a db fb 3b 26 6d 22 3c ef b9 bc bb 39 1c 8d 3c
       0.0076860758 0.009913718 -0.0057594697 0.017225372
000180 f9 a0 39 3c e4 a0 fa 3b 83 85 84 bb 38 72 52 be
       0.011329883 0.007648574 -0.004044236 -0.20551383
000190 ab 00 cc 3b 97 93 6e bd ff e8 c7 3f c9 22 fc bb
       0.0062256656 -0.05824622 1.561798 -0.0076945764
0001a0 05 43 16 3c 59 a7 da be 52 bf c3 bf fe 17 fd be
       0.009171252 -0.427058 -1.5292761 -0.49432367
0001b0 31 f4 d4 bc 83 9b 2b 3f dc c6 2f 3f 29 e6 8a bc
       -0.025995346 0.6703417 0.6866281 -0.016955452
0001c0 21 a1 84 3c 73 27 23 3f 8b 9d 3b 3c 82 48 c5 bc
       0.016190113 0.6373207 0.011451135 -0.024082426
0001d0 6b e8 a0 bc 25 71 d0 3e 45 f9 31 3b 69 41 b2 3c
       -0.019642076 0.40711322 0.0027156633 0.021759706
0001e0 60 2b fd bb a3 3b 8b bc aa 83 b6 bc 7c 8c 86 3b
       -0.007726118 -0.01699621 -0.02227958 0.0041061025
0001f0 7d 82 c7 bc c0 0f 3b 3c 0d f5 43 be c4 ae 71 38
       -0.024354214 0.011417329 -0.19136448 5.762164e-05
000200 5b 2e 06 bc fd a1 70 3c 28 a6 63 bb 59 9b 68 3b
       -0.008189763 0.0146870585 -0.0034736488 0.0035492985
000210 df ad 60 3b 71 a9 cd bb 7c c7 4f bc af be 39 3f
       0.0034283323 -0.0062763025 -0.012681838 0.72556585
000220 72 2d 0d 3c 26 88 ce 3e 3f ad 75 3a 67 82 03 3c
       0.008616792 0.40338248 0.0009371824 0.008026696
000230 47 ff 88 bc d4 e5 15 bc b2 3c 0b b9 8b 75 0d bb
       -0.016723288 -0.009149034 -0.00013278684 -0.0021584954
000240 d8 14 58 bb 3b fe 57 3e 02 ee 50 3b 00 d3 15 bd
       -0.0032971408 0.21093075 0.0031880145 -0.03657818
000250 32 59 a0 ba e7 e7 72 3b 95 67 e9 3f ff d8 69 3e
       -0.0012233614 0.0037064494 1.8234736 0.22836684
000260 c2 d3 48 3b 6a 9f 0b 3c 30 44 06 bc 0b dc 52 bc
       0.0030643796 0.008521894 -0.008194968 -0.012869845
000270 36 5b 63 bb fd 82 ac 3b f1 b7 69 bb e8 8c d5 3a
       -0.0034691817 0.0052646385 -0.0035662616 0.0016292604
000280 73 e8 0a 3e 21 ec 29 be 58 cb ef be dd 17 56 bc
       0.13565235 -0.16593982 -0.46834826 -0.013067213
000290 23 fb 74 bc 8e be e6 3c b5 01 6d bc 07 c8 48 bc
       -0.014952454 0.028167035 -0.014465739 -0.0122547215
0002a0 75 7b f5 be 92 03 9c bf c7 00 68 bb e5 c9 a9 3b
       -0.47945753 -1.218859 -0.0035400854 0.0051815384
0002b0 71 45 ab 3d 11 92 18 3c ed 00 d7 bd 09 ff 8a 3c
       0.08362854 0.009312169 -0.104982235 0.016967313
0002c0 5d 51 1b bc d6 58 03 3c 04 fa a0 3c d8 48 60 bc
       -0.009479848 0.008016786 0.019650467 -0.013689242
0002d0 7e e3 80 bb ab 75 03 3e 66 33 98 bc 68 50 a2 38
       -0.003933369 0.12837856 -0.018579196 7.739739e-05
0002e0 20 b7 d2 3f 08 c5 03 bd c8 2e c4 3b 6c 42 51 bf
       1.6462135 -0.032170326 0.005987022 -0.81741977
0002f0 66 e7 f5 be 4e 07 3f bc 50 b6 2e 3c 71 b7 1a bc
       -0.48028105 -0.011659456 0.010663584 -0.00944315
000300 89 9e b3 3b 8e b9 8f 3d 04 3d 2e 3d 7c 67 93 3e
       0.0054815453 0.070178136 0.042538658 0.2878989
000310 ed 35 30 3f ac d1 ae bf a9 44 c6 3b 07 08 3b 3e
       0.68832284 -1.3657737 0.0060506654 0.18264781
000320 71 98 6d bc 54 1a 20 be 53 a5 0d bc f5 c6 1b 3e
       -0.014501677 -0.15635043 -0.008645373 0.15212615
000330 5c a5 4f 3f a5 59 d1 be 28 84 3e 3b 2d 74 3c ba
       0.81111693 -0.40888706 0.002907047 -0.00071889424
000340 24 9d 44 3c 0d 6b f1 3b d8 f2 5f 3b 05 f2 90 3f
       0.012000356 0.007367498 0.0034171846 1.1323858
000350 bf 48 ff be bf 7e 6f 3f e7 c5 44 3c b8 4a 8b 3b
       -0.49860188 0.93552774 0.012010074 0.0042508505
000360 ab ef a7 3c 13 7e fd be cb 48 b1 bc d7 e1 cb bc
       0.020500025 -0.4951025 -0.021641156 -0.024887962
000370 e8 1f c9 3b 48 64 33 3c f1 77 4d 3b 50 cd 05 bc
       0.0061378367 0.010949202 0.0031352008 -0.008166626
000380 f0 af c2 bc 1b 4a 8a 3c 11 a3 47 bc 7b 2d fd be
       -0.023765534 0.01688104 -0.012184874 -0.4944876
000390 cf d0 56 bc 83 90 b3 bd 7d 44 4f 3f 79 9c 88 bc
       -0.013111307 -0.08767798 0.8096388 -0.016676174
0003a0 72 c6 88 bc 37 58 5c be ac 72 13 bf d5 3d 1f bf
       -0.016696189 -0.21518026 -0.5759685 -0.62203723
0003b0 89 71 67 3c e0 34 76 be 74 24 c4 3e 54 e3 61 bc
       0.01412619 -0.24043608 0.38309062 -0.013787109
0003c0 6b 98 60 bb 71 c3 fa 3d b0 63 79 bc 44 b7 3e 3a
       -0.0034270536 0.12244309 -0.015221521 0.00072752335
0003d0 2a 82 96 3c 33 80 64 be f6 61 d5 39 50 2e 2a 3c
       0.018372614 -0.22314529 0.00040699512 0.010387018
0003e0 41 31 b4 3b ce 9d 1b bc 3f 15 65 bc c8 c3 74 38
       0.0054990356 -0.009498073 -0.013982116 5.835647e-05
0003f0 83 72 ed 3a ed 48 ad 3a 21 90 1b bf 95 62 35 bb
       0.0018115792 0.0013220586 -0.607668 -0.0027677168
