trained_model_1.pth (torch, 41275 bytes, 16 tensors)

initial_conv.att_src f4 [1, 4, 16]
0	0x3e4c9786	0.19979677
1	0xbadf9075	-0.0017056601
2	0x3f228cd6	0.6349615
3	0x3e4ea13f	0.20178698
4	0x3ee30a66	0.4434387
5	0xbeae6de9	-0.3406823
6	0x3e445886	0.19174394
7	0x3f0bee93	0.5466091
8	0xbea59f95	-0.32348314
9	0x3f1672fa	0.5876919
10	0x3d65d573	0.056111764
11	0x3f31fe02	0.6952821
12	0xbf0fc748	-0.56163454
13	0x3e255484	0.16145521
14	0x3eb917a2	0.36150843
15	0x3dbf57c9	0.093429156
16	0x3ec89fd1	0.3918443
17	0x3e682c3a	0.22673121
18	0x3df99ce5	0.121881284
19	0xbe44398e	-0.1916258
20	0xbe056beb	-0.13029449
21	0x3eae0c06	0.33993548
22	0x3e5c9599	0.21541442
23	0xbe12f1c6	-0.14350042
24	0x3ee27664	0.4423095
25	0x3d46e992	0.048562594
26	0xbeb06db8	-0.3445871
27	0x3ecd6997	0.4011962
28	0x3e478f39	0.19488229
29	0xbe909068	-0.28235173
30	0x3d882fc3	0.06649735
31	0x3efa7347	0.48916075
32	0xba8ed3b1	-0.0010896829
33	0x3e329837	0.17440878
34	0xbeee314a	-0.4652198
35	0x3eba4e2f	0.36387774
36	0x3d17b1f7	0.037034955
37	0x3d65d3f9	0.056110356
38	0xbed9db70	-0.4255023
39	0x3f16dd9c	0.589319
40	0x3e935146	0.28772944
41	0xbe6bd228	-0.23029387
42	0xbebcf29a	-0.3690384
43	0xbdafb799	-0.0857994
44	0xbd71eeef	-0.059065755
45	0xbec61b62	-0.38692766
46	0xbed93d7a	-0.42429715
47	0xbe7b485c	-0.24539322
48	0xbe855881	-0.26044086
49	0x3dcdb68c	0.10044584
50	0x3d036071	0.032074396
51	0xbe1cc10d	-0.15308018
52	0xbce2e13e	-0.027695294
53	0xbeb76f2e	-0.3582701
54	0x3e741f1e	0.23839995
55	0xbd804036	-0.06262247
56	0x3d27fd91	0.041013304
57	0xbf5404c0	-0.8281975
58	0x39481a32	0.00019083245
59	0xbe65019d	-0.22363897
60	0xbe30cd36	-0.17265782
61	0xbea9c4fb	-0.33158097
62	0x3e6f856b	0.23390739
63	0x3eb6644f	0.35623404

initial_conv.att_dst f4 [1, 4, 16]
0	0x3ed1a0af	0.40942904
1	0x3f27f206	0.65603673
2	0xbcfee6c0	-0.03111589
3	0xbeacb887	-0.33734533
4	0x3e16ef40	0.14739704
5	0xbe545a87	-0.20737658
6	0x3e1b0b4f	0.15141033
7	0x3df0fcd8	0.11766976
8	0xbe7e1ba9	-0.24815239
9	0xbf07b69e	-0.53013027
10	0xbf1905c3	-0.59774417
11	0x3ef1c1d6	0.47218198
12	0xbdee10e5	-0.11624316
13	0xbe9b53ed	-0.30337468
14	0xbe10c78c	-0.14138621
15	0xbd8a6ed1	-0.06759418
16	0x3dba7355	0.09104029
17	0x3db6f6c0	0.089337826
18	0xbe812bbc	-0.2522868
19	0xbe970b24	-0.29500687
20	0x3e82461e	0.2544412
21	0xbd5f0340	-0.05444646
22	0xbea4da66	-0.32197875
23	0x3f0f3da2	0.5595342
24	0xbc8f93a3	-0.017526453
25	0xbf20e0e8	-0.6284318
26	0xbedbe141	-0.42945293
27	0xbe84f8f6	-0.25971192
28	0x3d2192de	0.039446704
29	0xbe8e3d9f	-0.27781388
30	0xbb314261	-0.0027047622
31	0xbe8dba5c	-0.27681243
32	0xbf0a5b31	-0.540454
33	0x3f216f0b	0.63060063
34	0xbf05f992	-0.5233394
35	0x3def433a	0.11682744
36	0xbf462106	-0.7739414
37	0x3f438db2	0.76388085
38	0xbf512574	-0.81697774
39	0x3f431c2d	0.7621487
40	0x3f20c36e	0.627982
41	0x3f429730	0.76011944
42	0x3e8e7c3b	0.27829155
43	0x3f597c26	0.8495506
44	0xbecfeedc	-0.40611923
45	0x3e434bd1	0.1907189
46	0x3f9e5d36	1.2372196
47	0x3eab2446	0.33426112
48	0xbec4be33	-0.3842636
49	0xbe5f8e9c	-0.21831745
50	0x3e97a51b	0.29618153
51	0x3e2255cb	0.1585304
52	0xbe121941	-0.14267446
53	0x3f292a51	0.66080195
54	0x3d28633f	0.041110273
55	0xbedd20d3	-0.43189105
56	0xbe9bfc67	-0.30466005
57	0xbe2a3af8	-0.16624057
58	0x3df5f726	0.120100304
59	0x3e3463bd	0.17616172
60	0xbd4878b9	-0.048943255
61	0x3e7c539a	0.24641266
62	0xbe5bdb78	-0.2147044
63	0xbd879fae	-0.06622253

initial_conv.bias f4 [64]
0	0xbec29cd3	-0.38010272
1	0xbdeeebe1	-0.11666084
2	0x3e128f30	0.14312434
3	0x3e749b52	0.23887375
4	0xbed15673	-0.40886268
5	0x3e32e308	0.17469418
6	0x3e05d888	0.13070881
7	0x3d8c346e	0.06845938
8	0x3f19c3bd	0.600643
9	0xbef54667	-0.47905275
10	0x3f61c06e	0.8818425
11	0x3d464240	0.048403025
12	0xbe872b58	-0.26400256
13	0x3e34187d	0.17587467
14	0x3e682cfc	0.2267341
15	0xbf1e3767	-0.6180329
16	0xbf371b9c	-0.71526504
17	0x3f73ccbd	0.9523428
18	0xbd1ea4a6	-0.03873124
19	0xbe05bac7	-0.13059531
20	0xbd9b7fa1	-0.07592703
21	0xbe0dbf41	-0.13842489
22	0x3e427b40	0.18992329
23	0xbf28edfd	-0.6598814
24	0xbe57f136	-0.21088108
25	0x3ecc80e0	0.39942074
26	0xbdf2d61a	-0.11857243
27	0xbe98e15d	-0.2985944
28	0xbf203127	-0.62575
29	0xbb144131	-0.0022621865
30	0xbdeda40d	-0.11603556
31	0x3daf249c	0.085519046
32	0x3d8ff87d	0.07029817
33	0xbecce4b0	-0.40018225
34	0x3eca7ef3	0.3954998
35	0x3ea8cc3b	0.32968315
36	0xbe10fb11	-0.14158274
37	0x3d95340e	0.07285319
38	0xbd57631e	-0.05258476
39	0xbf224375	-0.6338418
40	0x3ce0107c	0.02735161
41	0x3dcd5bf1	0.10027302
42	0x3e20091d	0.15628476
43	0xbef3761a	-0.47551042
44	0x3d846bb1	0.06465853
45	0x3e96083c	0.29303157
46	0xbe588cc4	-0.21147448
47	0xbe895763	-0.26824483
48	0x3dc590a2	0.09646727
49	0xbec1a14a	-0.37818366
50	0x3dc5001e	0.09619163
51	0xbebd49c9	-0.36970356
52	0x3e80e362	0.2517348
53	0xbf4b7056	-0.79468286
54	0xbe468ce8	-0.19389689
55	0x3e212908	0.15738308
56	0x3e7f4ac0	0.24930859
57	0xbd9228ff	-0.07136726
58	0x3d74cefd	0.059767712
59	0x3e1f63aa	0.15565363
60	0x3e3c3c74	0.18382436
61	0xbe6a2b8d	-0.22868176
62	0xbf185aeb	-0.5951373
63	0xbee3bfb8	-0.44482207

initial_conv.lin_src.weight f4 [64, 4]
0	0xbed58855	-0.41705576
1	0x3f0a84ea	0.5410906
2	0x3d1907f9	0.03736112
3	0x3ef724fd	0.48270407
4	0x3e7c2667	0.24624024
5	0xbf932047	-1.1494225
6	0x3dc06c2e	0.09395634
7	0x3eace4d4	0.33768332
8	0xbe6a44f0	-0.2287786
9	0x3f85cee9	1.0453769
10	0xbdb8f62e	-0.0903133
11	0xbddc1f34	-0.10748139
12	0xbe84b7b8	-0.25921416
13	0x3ef988e8	0.48737264
14	0xbeb7c4ac	-0.35892236
15	0x3f3403b4	0.7031815
16	0xbf550838	-0.83215666
17	0x3f320a1c	0.69546676
18	0x3d2441a5	0.040101666
19	0x3f0071f6	0.5017389
20	0x3d0fb59d	0.03508531
21	0x3f38170e	0.7191018
22	0xbd59e1a5	-0.053193707
23	0xbef71f0a	-0.48265868
24	0x3e470e93	0.19439153
25	0x3f8ee924	1.1164899
26	0xbdbc5ad2	-0.0919701
27	0xbecb5ac1	-0.39717677
28	0x3e78eb42	0.24308494
29	0x3f5d0c72	0.86347115
30	0xbd4c4740	-0.049872637
31	0x3e1a2304	0.1505242
32	0x3ed5c4ee	0.41751808
33	0xbf3da0c5	-0.7407344
34	0xbe684a41	-0.22684576
35	0x3e29dc42	0.16587928
36	0x3e98a23f	0.29811284
37	0x3f917239	1.1362983
38	0x3d216d7f	0.039411064
39	0x3e8411d0	0.2579484
40	0x3ce10d39	0.027472125
41	0xbf2c5abd	-0.67325956
42	0xbed2400b	-0.41064486
43	0x3ea5b77b	0.32366547
44	0xbdc63a67	-0.09679108
45	0x3f5b7c48	0.85736513
46	0x3e804f82	0.2506066
47	0x3f332b38	0.6998782
48	0xbfb69dc4	-1.4266896
49	0xbf5015d1	-0.8128329
50	0x3daf4385	0.085578
51	0x3de375ac	0.111064285
52	0xbf185eda	-0.5951973
53	0x3f6cd175	0.92507106
54	0xbd752bc8	-0.059856206
55	0xbe6bb883	-0.23019604
56	0xc015c3ee	-2.3400836
57	0xbf6213e9	-0.8831163
58	0xbce3a23a	-0.027787317
59	0x3ea61632	0.3243881
60	0xbe9a4d0b	-0.30136904
61	0x3f13f434	0.577945
62	0x3e32c19a	0.17456666
63	0xbf0ffc19	-0.56244045
64	0xbde609f3	-0.112323664
65	0x3ea76dfd	0.32701102
66	0x3e412bc7	0.18864356
67	0xbfcbecfa	-1.5931695
68	0xbe93f6da	-0.2889927
69	0xbf931138	-1.148963
70	0xbde49e14	-0.111629635
71	0xc00bd71f	-2.185005
72	0xbe84de00	-0.25950623
73	0xbf98c1ee	-1.1934183
74	0x3d8c3a75	0.06847087
75	0x3efc2a85	0.4925119
76	0xbcb71f2a	-0.022353727
77	0xbfad6cca	-1.3548825
78	0x3da39c8e	0.07988845
79	0x3d46119d	0.04835664
80	0xbf4c445f	-0.79791826
81	0x3f171933	0.59022826
82	0xbcfc678e	-0.030811097
83	0x3fc2a107	1.5205392
84	0x3e29c069	0.16577305
85	0xbf84cd7c	-1.0375209
86	0x3da48ec2	0.080350414
87	0xbe53fee0	-0.20702696
88	0xbe8dc27c	-0.27687442
89	0x3eeaa919	0.45832136
90	0xbd62c1ce	-0.055360608
91	0xbed3fd06	-0.4140398
92	0x3d943073	0.072358035
93	0x3f857164	1.0425229
94	0x3e84a596	0.25907582
95	0xbf503320	-0.8132801
96	0xbda08e63	-0.07839658
97	0x3f043586	0.5164417
98	0x3daa4b76	0.08315174
99	0xbfce10a8	-1.6098833
100	0xbd7904de	-0.060795657
101	0xbf413435	-0.75470287
102	0xbd6ebd13	-0.058285784
103	0x3eea6696	0.45781392
104	0xbe4615ef	-0.19344305
105	0xbfb5ae3c	-1.4193797
106	0x3d8fe8c6	0.0702682
107	0x3e96e464	0.29471123
108	0xbf3d53b2	-0.73955834
109	0x3e8e9d36	0.27854317
110	0xbe4c8782	-0.19973567
111	0xbeb19bae	-0.34689087
112	0x3bb24b60	0.0054411143
113	0x3f2ea21d	0.68216115
114	0x3e3d9060	0.18512106
115	0xbf9ee7fa	-1.2414544
116	0x3f6772e1	0.90409666
117	0x3e48872d	0.19582815
118	0xbccfddf7	-0.025374396
119	0x3fa1b30e	1.2632768
120	0xbf5d5388	-0.86455584
121	0x3f3308cc	0.699353
122	0xbbe4ed6a	-0.00698631
123	0x3e7ee6d0	0.24892735
124	0xbf2252ea	-0.63407767
125	0xbe13cb6e	-0.14433071
126	0x3c8cc6a0	0.017184556
127	0xbfe60f40	-1.7973404
128	0xbf097110	-0.53688145
129	0x3fd05bf3	1.6278061
130	0x3cdce0d3	0.026962673
131	0x3e08fb37	0.13377081
132	0xbdc93b4e	-0.098257646
133	0xbf30eef8	-0.6911464
134	0x3e76b2fc	0.24091715
135	0x3ecf6e47	0.40513822
136	0xbedb5894	-0.42841017
137	0x3f37ae89	0.71750695
138	0xbe0e0cfb	-0.13872139
139	0xbefa7f82	-0.48925406
140	0x3f264da2	0.6496221
141	0xbbc725de	-0.006077512
142	0xbe343b97	-0.17600857
143	0xbe233d27	-0.15941297
144	0x3ceadeca	0.028670687
145	0xbf108c7f	-0.5646438
146	0x3d2dd479	0.042438958
147	0x3e1ac2ee	0.15113422
148	0xbf1f205e	-0.62158763
149	0x3f6f61e0	0.9350872
150	0xbd88cfac	-0.06680235
151	0x3f498ed4	0.78733563
152	0x3e00ac96	0.12565836
153	0x3f33e934	0.70277715
154	0x3e5d4231	0.21607281
155	0xbf0d2253	-0.551305
156	0xbea33876	-0.31879014
157	0xbf156c2a	-0.5836817
158	0x3e1e3b40	0.1545229
159	0x3f56de04	0.8393252
160	0x3ec6ee31	0.388536
161	0x3fa039df	1.2517661
162	0xbd479cff	-0.048733708
163	0x3eec5687	0.46159765
164	0xbe2e0092	-0.16992405
165	0xbe35220f	-0.17688774
166	0x3ec7a569	0.38993385
167	0x3d196bad	0.037456203
168	0xbd7e04aa	-0.062016167
169	0x3f37307c	0.71558356
170	0xbe73532c	-0.23762196
171	0xbd0a9bbb	-0.033839922
172	0x3fb910f3	1.4458297
173	0x3fa533a5	1.2906386
174	0x3f84da5a	1.0379136
175	0x3e66674d	0.22500344
176	0xbf37adfc	-0.71749854
177	0x3f5feeb1	0.8747359
178	0xbe074949	-0.1321155
179	0x3e284c51	0.16435362
180	0xbd9be636	-0.076122686
181	0x3e9e5b9a	0.3092926
182	0xbe136aba	-0.14396182
183	0xbe72f989	-0.23728003
184	0x3e91dbc5	0.28487983
185	0x3f60935b	0.87724847
186	0x3f077f89	0.5292898
187	0xbe3d3178	-0.18475902
188	0x3f29b5bf	0.6629295
189	0x3f487ca1	0.7831517
190	0x3d8612cf	0.06546556
191	0x3e2bb9ac	0.16770047
192	0x3ede3c6c	0.43405473
193	0xbe4bce95	-0.19903024
194	0xbd237c60	-0.039913535
195	0xbef14602	-0.47123724
196	0xbd8a193e	-0.06743096
197	0x3f84d7a0	1.0378304
198	0x3df5ac02	0.119956985
199	0xbf8852bf	-1.0650252
200	0xbee3cc9a	-0.44492036
201	0xbf73df3c	-0.95262504
202	0xbce7b5d7	-0.02828495
203	0x3f29e47e	0.66364276
204	0x3ea58da9	0.3233464
205	0x3f83853e	1.0275037
206	0x3d3082ef	0.043093618
207	0x3cf00a5c	0.029301815
208	0x3f1a0ba2	0.60174
209	0xbf3ff403	-0.7498171
210	0xbcbee245	-0.023301253
211	0xbe1366f6	-0.14394745
212	0x3e547271	0.20746781
213	0xba2b08f7	-0.0006524468
214	0x3eb9ad5f	0.36265084
215	0xbd560201	-0.052248005
216	0xbeaca79e	-0.33721632
217	0x3f33ab03	0.7018282
218	0x3d43dac1	0.04781604
219	0xbebbc002	-0.36669928
220	0xbdc427fd	-0.0957794
221	0x3fbad550	1.4596348
222	0xbd6ff05b	-0.05857883
223	0xbf69180e	-0.9105233
224	0xbf4f16b1	-0.80894
225	0xbf5f5d9a	-0.872522
226	0xbd05233f	-0.032504316
227	0x3e5cfd00	0.21580887
228	0xbe960e87	-0.29307958
229	0xbf9e96f2	-1.2389815
230	0x3da0fe55	0.0786101
231	0x3dd9b97c	0.106310815
232	0x3d8b43fb	0.068000756
233	0xbec3b6d4	-0.38225424
234	0x3b81e836	0.0039644493
235	0xbd7e1c74	-0.062038854
236	0x3f01bcf3	0.5067894
237	0xbf69b72d	-0.9129513
238	0xbc9a882d	-0.018863762
239	0x3e987ea8	0.2978413
240	0xbdecf20b	-0.115696035
241	0x3f84b511	1.0367757
242	0xbda044bc	-0.0782561
243	0xbc7c6d69	-0.015406945
244	0xbd3be0ea	-0.04586879
245	0xbf761c00	-0.96136475
246	0x3db2c922	0.08729769
247	0x3e80e7db	0.25176892
248	0xbeee90fe	-0.46594995
249	0x3eb3afd8	0.35095096
250	0x3dfa6a48	0.12227303
251	0x3e1245e3	0.14284472
252	0xbd146bcf	-0.036235627
253	0x3f532a7f	0.8248672
254	0x3e0c87de	0.13723704
255	0xbe4a8741	-0.19778158

initial_conv.lin_dst.weight f4 [64, 4]
0	0xbed58855	-0.41705576
1	0x3f0a84ea	0.5410906
2	0x3d1907f9	0.03736112
3	0x3ef724fd	0.48270407
4	0x3e7c2667	0.24624024
5	0xbf932047	-1.1494225
6	0x3dc06c2e	0.09395634
7	0x3eace4d4	0.33768332
8	0xbe6a44f0	-0.2287786
9	0x3f85cee9	1.0453769
10	0xbdb8f62e	-0.0903133
11	0xbddc1f34	-0.10748139
12	0xbe84b7b8	-0.25921416
13	0x3ef988e8	0.48737264
14	0xbeb7c4ac	-0.35892236
15	0x3f3403b4	0.7031815
16	0xbf550838	-0.83215666
17	0x3f320a1c	0.69546676
18	0x3d2441a5	0.040101666
19	0x3f0071f6	0.5017389
20	0x3d0fb59d	0.03508531
21	0x3f38170e	0.7191018
22	0xbd59e1a5	-0.053193707
23	0xbef71f0a	-0.48265868
24	0x3e470e93	0.19439153
25	0x3f8ee924	1.1164899
26	0xbdbc5ad2	-0.0919701
27	0xbecb5ac1	-0.39717677
28	0x3e78eb42	0.24308494
29	0x3f5d0c72	0.86347115
30	0xbd4c4740	-0.049872637
31	0x3e1a2304	0.1505242
32	0x3ed5c4ee	0.41751808
33	0xbf3da0c5	-0.7407344
34	0xbe684a41	-0.22684576
35	0x3e29dc42	0.16587928
36	0x3e98a23f	0.29811284
37	0x3f917239	1.1362983
38	0x3d216d7f	0.039411064
39	0x3e8411d0	0.2579484
40	0x3ce10d39	0.027472125
41	0xbf2c5abd	-0.67325956
42	0xbed2400b	-0.41064486
43	0x3ea5b77b	0.32366547
44	0xbdc63a67	-0.09679108
45	0x3f5b7c48	0.85736513
46	0x3e804f82	0.2506066
47	0x3f332b38	0.6998782
48	0xbfb69dc4	-1.4266896
49	0xbf5015d1	-0.8128329
50	0x3daf4385	0.085578
51	0x3de375ac	0.111064285
52	0xbf185eda	-0.5951973
53	0x3f6cd175	0.92507106
54	0xbd752bc8	-0.059856206
55	0xbe6bb883	-0.23019604
56	0xc015c3ee	-2.3400836
57	0xbf6213e9	-0.8831163
58	0xbce3a23a	-0.027787317
59	0x3ea61632	0.3243881
60	0xbe9a4d0b	-0.30136904
61	0x3f13f434	0.577945
62	0x3e32c19a	0.17456666
63	0xbf0ffc19	-0.56244045
64	0xbde609f3	-0.112323664
65	0x3ea76dfd	0.32701102
66	0x3e412bc7	0.18864356
67	0xbfcbecfa	-1.5931695
68	0xbe93f6da	-0.2889927
69	0xbf931138	-1.148963
70	0xbde49e14	-0.111629635
71	0xc00bd71f	-2.185005
72	0xbe84de00	-0.25950623
73	0xbf98c1ee	-1.1934183
74	0x3d8c3a75	0.06847087
75	0x3efc2a85	0.4925119
76	0xbcb71f2a	-0.022353727
77	0xbfad6cca	-1.3548825
78	0x3da39c8e	0.07988845
79	0x3d46119d	0.04835664
80	0xbf4c445f	-0.79791826
81	0x3f171933	0.59022826
82	0xbcfc678e	-0.030811097
83	0x3fc2a107	1.5205392
84	0x3e29c069	0.16577305
85	0xbf84cd7c	-1.0375209
86	0x3da48ec2	0.080350414
87	0xbe53fee0	-0.20702696
88	0xbe8dc27c	-0.27687442
89	0x3eeaa919	0.45832136
90	0xbd62c1ce	-0.055360608
91	0xbed3fd06	-0.4140398
92	0x3d943073	0.072358035
93	0x3f857164	1.0425229
94	0x3e84a596	0.25907582
95	0xbf503320	-0.8132801
96	0xbda08e63	-0.07839658
97	0x3f043586	0.5164417
98	0x3daa4b76	0.08315174
99	0xbfce10a8	-1.6098833
100	0xbd7904de	-0.060795657
101	0xbf413435	-0.75470287
102	0xbd6ebd13	-0.058285784
103	0x3eea6696	0.45781392
104	0xbe4615ef	-0.19344305
105	0xbfb5ae3c	-1.4193797
106	0x3d8fe8c6	0.0702682
107	0x3e96e464	0.29471123
108	0xbf3d53b2	-0.73955834
109	0x3e8e9d36	0.27854317
110	0xbe4c8782	-0.19973567
111	0xbeb19bae	-0.34689087
112	0x3bb24b60	0.0054411143
113	0x3f2ea21d	0.68216115
114	0x3e3d9060	0.18512106
115	0xbf9ee7fa	-1.2414544
116	0x3f6772e1	0.90409666
117	0x3e48872d	0.19582815
118	0xbccfddf7	-0.025374396
119	0x3fa1b30e	1.2632768
120	0xbf5d5388	-0.86455584
121	0x3f3308cc	0.699353
122	0xbbe4ed6a	-0.00698631
123	0x3e7ee6d0	0.24892735
124	0xbf2252ea	-0.63407767
125	0xbe13cb6e	-0.14433071
126	0x3c8cc6a0	0.017184556
127	0xbfe60f40	-1.7973404
128	0xbf097110	-0.53688145
129	0x3fd05bf3	1.6278061
130	0x3cdce0d3	0.026962673
131	0x3e08fb37	0.13377081
132	0xbdc93b4e	-0.098257646
133	0xbf30eef8	-0.6911464
134	0x3e76b2fc	0.24091715
135	0x3ecf6e47	0.40513822
136	0xbedb5894	-0.42841017
137	0x3f37ae89	0.71750695
138	0xbe0e0cfb	-0.13872139
139	0xbefa7f82	-0.48925406
140	0x3f264da2	0.6496221
141	0xbbc725de	-0.006077512
142	0xbe343b97	-0.17600857
143	0xbe233d27	-0.15941297
144	0x3ceadeca	0.028670687
145	0xbf108c7f	-0.5646438
146	0x3d2dd479	0.042438958
147	0x3e1ac2ee	0.15113422
148	0xbf1f205e	-0.62158763
149	0x3f6f61e0	0.9350872
150	0xbd88cfac	-0.06680235
151	0x3f498ed4	0.78733563
152	0x3e00ac96	0.12565836
153	0x3f33e934	0.70277715
154	0x3e5d4231	0.21607281
155	0xbf0d2253	-0.551305
156	0xbea33876	-0.31879014
157	0xbf156c2a	-0.5836817
158	0x3e1e3b40	0.1545229
159	0x3f56de04	0.8393252
160	0x3ec6ee31	0.388536
161	0x3fa039df	1.2517661
162	0xbd479cff	-0.048733708
163	0x3eec5687	0.46159765
164	0xbe2e0092	-0.16992405
165	0xbe35220f	-0.17688774
166	0x3ec7a569	0.38993385
167	0x3d196bad	0.037456203
168	0xbd7e04aa	-0.062016167
169	0x3f37307c	0.71558356
170	0xbe73532c	-0.23762196
171	0xbd0a9bbb	-0.033839922
172	0x3fb910f3	1.4458297
173	0x3fa533a5	1.2906386
174	0x3f84da5a	1.0379136
175	0x3e66674d	0.22500344
176	0xbf37adfc	-0.71749854
177	0x3f5feeb1	0.8747359
178	0xbe074949	-0.1321155
179	0x3e284c51	0.16435362
180	0xbd9be636	-0.076122686
181	0x3e9e5b9a	0.3092926
182	0xbe136aba	-0.14396182
183	0xbe72f989	-0.23728003
184	0x3e91dbc5	0.28487983
185	0x3f60935b	0.87724847
186	0x3f077f89	0.5292898
187	0xbe3d3178	-0.18475902
188	0x3f29b5bf	0.6629295
189	0x3f487ca1	0.7831517
190	0x3d8612cf	0.06546556
191	0x3e2bb9ac	0.16770047
192	0x3ede3c6c	0.43405473
193	0xbe4bce95	-0.19903024
194	0xbd237c60	-0.039913535
195	0xbef14602	-0.47123724
196	0xbd8a193e	-0.06743096
197	0x3f84d7a0	1.0378304
198	0x3df5ac02	0.119956985
199	0xbf8852bf	-1.0650252
200	0xbee3cc9a	-0.44492036
201	0xbf73df3c	-0.95262504
202	0xbce7b5d7	-0.02828495
203	0x3f29e47e	0.66364276
204	0x3ea58da9	0.3233464
205	0x3f83853e	1.0275037
206	0x3d3082ef	0.043093618
207	0x3cf00a5c	0.029301815
208	0x3f1a0ba2	0.60174
209	0xbf3ff403	-0.7498171
210	0xbcbee245	-0.023301253
211	0xbe1366f6	-0.14394745
212	0x3e547271	0.20746781
213	0xba2b08f7	-0.0006524468
214	0x3eb9ad5f	0.36265084
215	0xbd560201	-0.052248005
216	0xbeaca79e	-0.33721632
217	0x3f33ab03	0.7018282
218	0x3d43dac1	0.04781604
219	0xbebbc002	-0.36669928
220	0xbdc427fd	-0.0957794
221	0x3fbad550	1.4596348
222	0xbd6ff05b	-0.05857883
223	0xbf69180e	-0.9105233
224	0xbf4f16b1	-0.80894
225	0xbf5f5d9a	-0.872522
226	0xbd05233f	-0.032504316
227	0x3e5cfd00	0.21580887
228	0xbe960e87	-0.29307958
229	0xbf9e96f2	-1.2389815
230	0x3da0fe55	0.0786101
231	0x3dd9b97c	0.106310815
232	0x3d8b43fb	0.068000756
233	0xbec3b6d4	-0.38225424
234	0x3b81e836	0.0039644493
235	0xbd7e1c74	-0.062038854
236	0x3f01bcf3	0.5067894
237	0xbf69b72d	-0.9129513
238	0xbc9a882d	-0.018863762
239	0x3e987ea8	0.2978413
240	0xbdecf20b	-0.115696035
241	0x3f84b511	1.0367757
242	0xbda044bc	-0.0782561
243	0xbc7c6d69	-0.015406945
244	0xbd3be0ea	-0.04586879
245	0xbf761c00	-0.96136475
246	0x3db2c922	0.08729769
247	0x3e80e7db	0.25176892
248	0xbeee90fe	-0.46594995
249	0x3eb3afd8	0.35095096
250	0x3dfa6a48	0.12227303
251	0x3e1245e3	0.14284472
252	0xbd146bcf	-0.036235627
253	0x3f532a7f	0.8248672
254	0x3e0c87de	0.13723704
255	0xbe4a8741	-0.19778158

conv1.att_src f4 [1, 4, 16]
0	0xbe9c51eb	-0.30531248
1	0xbea8a84f	-0.3294091
2	0xbf0f4fae	-0.55980957
3	0xbe20047c	-0.1562671
4	0x3d68726d	0.05674975
5	0xbeb9ec3d	-0.36313048
6	0xbe4fce2f	-0.20293497
7	0x3f0b7140	0.5446968
8	0x3d31b584	0.043385997
9	0xbe9e5f45	-0.3093206
10	0x3e93f826	0.2890026
11	0x3e09ae5e	0.13445422
12	0x3de47411	0.111549504
13	0xbf1953ec	-0.5989368
14	0x3d0f681b	0.035011392
15	0xbf3819c6	-0.7191433
16	0xba1808c5	-0.00057996466
17	0x3f055748	0.52086306
18	0xbf09b608	-0.5379338
19	0x3e710f6e	0.23541042
20	0xbe912ae9	-0.2835305
21	0x3dab0db8	0.08352226
22	0xbe5036c2	-0.20333388
23	0xbe16c26e	-0.14722607
24	0x3c80d08c	0.015724443
25	0xbddfeb74	-0.10933581
26	0x3eadd045	0.3394796
27	0x3d0a8f9e	0.03382837
28	0x3ea02b27	0.31282923
29	0x3dacc5b0	0.084361434
30	0xbf405c74	-0.7514107
31	0x3eedfbe5	0.46481243
32	0xbef607a2	-0.48052698
33	0x3d2f0546	0.04272964
34	0x3ee45b5b	0.4460095
35	0x3f230384	0.6367724
36	0x3ef1d15b	0.47230038
37	0x3ecbfaf1	0.3983989
38	0x3e3854aa	0.18001047
39	0x3d8fd80c	0.070236295
40	0xbec817ac	-0.3908056
41	0x3e95d28c	0.29262197
42	0xbd8771e0	-0.06613517
43	0xbddba0ee	-0.10724054
44	0xbdb0a13d	-0.08624504
45	0x395328a5	0.0002013767
46	0xbf110fb0	-0.5666456
47	0xbcb6a3c8	-0.022294894
48	0x3f606cde	0.8766612
49	0x3f7b0dbb	0.98067826
50	0x3dda3c0c	0.10655984
51	0xbf4f04dc	-0.8086679
52	0x3f059cfc	0.52192664
53	0x3e1704d5	0.14747937
54	0x3e60ca90	0.21952271
55	0x3f3f382f	0.74695104
56	0x3dfa21cc	0.122134775
57	0xbdce6861	-0.100785024
58	0xbecfaeaa	-0.40562946
59	0x3d675c53	0.05648453
60	0xbd5bb29a	-0.053637125
61	0x3f0e79d0	0.5565462
62	0x3da75715	0.081709065
63	0xbe944c14	-0.28964293

conv1.att_dst f4 [1, 4, 16]
0	0x3ce44023	0.027862614
1	0x3eed7e84	0.46385586
2	0xbe917277	-0.28407642
3	0xbea0c33c	-0.31398952
4	0x3f1a3e94	0.60251737
5	0x3e5a1b8b	0.2129957
6	0xbde49386	-0.1116095
7	0xbe18ed43	-0.14934258
8	0xbec67fd0	-0.38769388
9	0x3e8b4f82	0.27209097
10	0x3e2d651d	0.16933103
11	0xbe9ba525	-0.30399433
12	0x3f11998c	0.5687492
13	0x3f00f7f6	0.5037836
14	0x3b83ec85	0.004025998
15	0x3f9df003	1.2338871
16	0xbb6d048e	-0.0036166045
17	0xbef13871	-0.47113374
18	0x3f3215fb	0.6956479
19	0xbd235e2f	-0.039884742
20	0x3f10b610	0.56527805
21	0x3e6ab333	0.22919922
22	0xbe19f22d	-0.15033789
23	0x3db7649a	0.08954735
24	0xbe0e67ca	-0.1390678
25	0xbf2bb20d	-0.6706856
26	0x3dd0cc64	0.101952344
27	0xbc7fe228	-0.015617885
28	0xbe8e212e	-0.2775969
29	0xbf482206	-0.78176916
30	0x3ea0a8ed	0.3137888
31	0x3ed985a8	0.42484784
32	0xbe9d5af6	-0.3073346
33	0xbeedd255	-0.46449533
34	0x3bef437f	0.0073017473
35	0x3f0a7061	0.54077727
36	0x3ed933e5	0.42422405
37	0x3d2c16b5	0.042013843
38	0xbf4efc55	-0.8085378
39	0xbf3754d4	-0.7161381
40	0x3f5e54fb	0.8684842
41	0xbf5ce6ce	-0.8628968
42	0x3f0bd1bd	0.5461691
43	0x3e9ba79b	0.3040131
44	0x3f15748a	0.5838095
45	0xbf3812b3	-0.7190353
46	0x3d6838f2	0.056694932
47	0x3e8a058e	0.26957363
48	0xbdc2b5d0	-0.09507334
49	0x3f023ba1	0.50872236
50	0xbd9d6714	-0.07685676
51	0xbebe7ab0	-0.37202978
52	0xbf996fea	-1.1987278
53	0x3dbaf525	0.09128789
54	0x3e918777	0.28423664
55	0xbe252ac8	-0.16129601
56	0x3f402d1e	0.75068843
57	0x3f60ec25	0.8786033
58	0xbe02329b	-0.12714617
59	0xbf7f8828	-0.9981713
60	0xbf13a7ef	-0.5767812
61	0xbf5c995f	-0.86171526
62	0x3f00bed1	0.5029116
63	0x3f97bf9d	1.1855351

conv1.bias f4 [64]
0	0xbc67501e	-0.0141182225
1	0x3dbc4ce0	0.0919435
2	0xbe76102f	-0.24029611
3	0x3ed8332a	0.42226535
4	0x3d408666	0.047003172
5	0xbddd3ea9	-0.10802967
6	0xbdb80d86	-0.089869544
7	0x3e3700ae	0.17871353
8	0xbda12041	-0.0786748
9	0xbd33826c	-0.043825552
10	0x3e405efa	0.1878623
11	0xb9de9703	-0.00042455652
12	0xbdc88d2e	-0.09792553
13	0x3eb258b2	0.34833294
14	0x3d8040c4	0.06262353
15	0xbd4dd316	-0.050250135
16	0x3e454ffa	0.1926879
17	0x3f383332	0.7195312
18	0xbbcbb2a1	-0.0062163626
19	0xbdc301c2	-0.0952182
20	0xbf314a24	-0.69253755
21	0x3e287f21	0.16454746
22	0xbd11935c	-0.035540923
23	0x3daf4631	0.0855831
24	0x3e2e17e7	0.17001306
25	0xbd8de0ea	-0.069276646
26	0xbdccfcba	-0.10009141
27	0x3e463ff0	0.19360328
28	0x3ddb4413	0.107063435
29	0x3cebc91f	0.028782425
30	0xbd9b5b69	-0.075857945
31	0xbd9ea5af	-0.077464454
32	0xbe31757d	-0.17329974
33	0xbcbe0278	-0.023194537
34	0xbe84afd7	-0.25915405
35	0x3f8db261	1.1070062
36	0xbde0e839	-0.10981793
37	0x3ea2b037	0.31775066
38	0xbd2ebe9e	-0.042662255
39	0xbe445735	-0.19173892
40	0x3ea240d0	0.31690073
41	0xbe54f1bf	-0.20795344
42	0x3e6880c3	0.22705369
43	0x3c79d85c	0.015249338
44	0x3d2cda41	0.04220033
45	0xbdef40e2	-0.11682297
46	0x3e8c11ef	0.27357432
47	0x3d0d26dd	0.03446089
48	0xbdbbd817	-0.09172075
49	0x3eafbe16	0.34324712
50	0xbd8e74d1	-0.06955875
51	0xbf0e5bd1	-0.5560885
52	0x3d86766a	0.065655544
53	0x3ec18e9b	0.37804112
54	0x3d55e076	0.052216016
55	0xbe878ee2	-0.26476198
56	0x3cc597cc	0.024120234
57	0xbe402bd7	-0.18766724
58	0xbe4ef28c	-0.20209712
59	0xbc3e7a31	-0.011625812
60	0xbe504067	-0.20337068
61	0xbd18f6fc	-0.037344918
62	0xbe8630c9	-0.26209095
63	0x3e9c07a5	0.30474582

conv1.lin_src.weight f4 [64, 64]
0	0x3eb0e5c8	0.3455031
1	0xbe2ca5fc	-0.16860193
2	0xbe810396	-0.25198048
3	0xbcadd566	-0.02121992
4	0x3eae031c	0.33986747
5	0x3c4f2c26	0.012644803
6	0x3e3f9eec	0.18712968
7	0xbeb0fa04	-0.34565747
8	0x3c9bb4f9	0.019007193
9	0x3f5e6033	0.8686554
10	0xbcc11383	-0.023568874
11	0x3d44022f	0.047853645
12	0xbcfb6818	-0.030689284
13	0xbea15a43	-0.31514177
14	0xbf3226b5	-0.6959031
15	0x3e99c435	0.30032507
16	0x3f12a71e	0.5728625
17	0xbe04a2a2	-0.12952664
18	0xbecab15b	-0.39588436
19	0xbf4d41e6	-0.8017868
20	0xbefa76a7	-0.4891865
21	0x3ed99f16	0.42504185
22	0xbd1d2400	-0.03836441
23	0x3e4d2eb1	0.20037343
24	0x3e9f457c	0.311077
25	0xbebb2837	-0.3655412
26	0xbf3af235	-0.7302583
27	0xbe324de0	-0.1741252
28	0x3ec9e36f	0.3943133
29	0xbe3ebd62	-0.18626931
30	0x3e01ac4c	0.12663382
31	0x3e8612e9	0.26186302
32	0xbecf317d	-0.40467444
33	0x3d942217	0.072330646
34	0xbe3330bf	-0.17499064
35	0xbc38d332	-0.011280822
36	0xbe504ea1	-0.20342495
37	0xbf45003d	-0.7695349
38	0x3e95fff1	0.2929683
39	0xbdb8f8ea	-0.090318516
40	0xbefac27c	-0.48976505
41	0xbd7d332f	-0.06181639
42	0x3d3ea87b	0.046547394
43	0x3dade277	0.0849046
44	0xbee2ae59	-0.44273642
45	0xbe1209c4	-0.14261538
46	0x3e09e838	0.1346749
47	0x3dec7d22	0.11547305
48	0xbe21aaf9	-0.15787877
49	0x3f1a6ac6	0.60319173
50	0xbecc0775	-0.3984944
51	0x3f2c5ec3	0.67332095
52	0xbe64fd8e	-0.22362348
53	0xbe6b7db5	-0.22997172
54	0x3d215053	0.039383244
55	0x3f294b95	0.66130954
56	0xbe8b3bf9	-0.27194193
57	0xbef3125d	-0.47474948
58	0xbd39cbc7	-0.045360353
59	0xbe2da188	-0.1695615
60	0xbe63cd3f	-0.22246264
61	0x3e71f6d9	0.23629321
62	0x3da41bf3	0.080131434
63	0x3e8473ce	0.25869602
64	0x3e8d52b9	0.27602175
65	0xbe1af971	-0.15134217
66	0x3eb57ad2	0.35445267
67	0x3e112b7c	0.14176744
68	0x3c75e619	0.015008473
69	0xbd44e12a	-0.048066296
70	0xbe70bfd0	-0.2351067
71	0x3de2b3cf	0.11069452
72	0xbe120d4b	-0.14262883
73	0xbe9920d3	-0.29907855
74	0xbd5d5ba6	-0.05404248
75	0x3d346e51	0.04405052
76	0xbda558b1	-0.08073557
77	0x3e0c2037	0.13684164
78	0x3f466196	0.77492654
79	0x3c41275d	0.01178917
80	0x3eb0422a	0.3442548
81	0x3f840cec	1.0316443
82	0xbd70d653	-0.058798146
83	0x3ebd6a51	0.36995175
84	0xbd8afac4	-0.06786111
85	0x3e184917	0.14871632
86	0x3f65a316	0.89701974
87	0x3ee98cd2	0.4561525
88	0x3dbcd121	0.09219576
89	0xbc2a45d8	-0.010392629
90	0x3ed63bd5	0.41842523
91	0x3c99daef	0.018781153
92	0x3f2567ba	0.646114
93	0xbc91db1c	-0.017804675
94	0xbe5db2eb	-0.21650283
95	0x3d35fbcd	0.04442959
96	0xbfc6095b	-1.5471605
97	0xbec613ec	-0.38687074
98	0x3e680e00	0.2266159
99	0x3ee3ebe5	0.4451591
100	0x3e39048a	0.18068138
101	0xbe300ba2	-0.17191938
102	0xbf15ac88	-0.58466387
103	0xbe9e25df	-0.30888268
104	0x3e430056	0.19043097
105	0xbf13470f	-0.575303
106	0x3ef09c62	0.4699431
107	0xbf451068	-0.7697816
108	0xbd04563e	-0.03230881
109	0x3ec24f40	0.37951088
110	0xbed6e3b0	-0.41970587
111	0xbf0146dc	-0.5049875
112	0x3e7249a1	0.236609
113	0xbf2d9d59	-0.6781822
114	0x3e953a38	0.2914598
115	0xbe7136c4	-0.23556048
116	0x3dff5dec	0.12469086
117	0xbe91669d	-0.283986
118	0xbf0c2d59	-0.54756695
119	0xbf30b8da	-0.6903206
120	0x3e825c05	0.2546083
121	0xbd519d05	-0.051175136
122	0x3d81db7e	0.06340693
123	0x3f29bbcc	0.6630218
124	0x3e94d097	0.2906539
125	0xbe8a7172	-0.27039677
126	0xbe6ed033	-0.23321609
127	0xbecc0dd9	-0.39854315
128	0xbdbdcc98	-0.09267539
129	0xbe8e197b	-0.27753815
130	0x3e2129c5	0.1573859
131	0x3e1a7140	0.15082264
132	0xbd3708b0	-0.04468602
133	0xbc3ea441	-0.011635841
134	0x3e887de1	0.26658538
135	0xbeec3e57	-0.46141312
136	0xbeb97888	-0.3622477
137	0xbee5868b	-0.4482921
138	0xbe41d169	-0.1892754
139	0xbeac7730	-0.33684683
140	0x3e3c8e12	0.1841357
141	0x3d685acd	0.05672722
142	0x3db28e1a	0.0871851
143	0x3e72ff43	0.23730187
144	0x3e74cb81	0.23905756
145	0x3f9dd461	1.2330438
146	0xbe374433	-0.1789711
147	0x3edd3705	0.4320604
148	0xbf12ca49	-0.5733991
149	0x3e5e4f7a	0.21710005
150	0x3f026dcb	0.5094878
151	0xbe3b3173	-0.18280582
152	0xbe0eb79a	-0.13937226
153	0x3e6f066f	0.23342298
154	0x3d6b80da	0.05749593
155	0x3ec3c69a	0.38237458
156	0xbd1cab35	-0.038249213
157	0xbec09f3b	-0.37621483
158	0xbe131e81	-0.14367105
159	0x3f357169	0.70876175
160	0xbe96c236	-0.29445046
161	0x3ef167a3	0.4714938
162	0x3ee46ec0	0.44615746
163	0xbf0c1711	-0.54722697
164	0xbe49746e	-0.1967332
165	0xbfa1fa61	-1.2654535
166	0x3f80410d	1.0019852
167	0xbf88123d	-1.0630566
168	0xbf904140	-1.1269913
169	0x3d46b622	0.04851354
170	0xbf0735d8	-0.52816534
171	0xbe9f017f	-0.3105583
172	0xbf47ff99	-0.78124386
173	0xbe9a1766	-0.30095977
174	0x3eac275c	0.3362378
175	0x3e38a11f	0.18030213
176	0x3edb63c7	0.42849562
177	0x3edf330d	0.43593636
178	0x3dd4981a	0.103805736
179	0xbe795919	-0.24350394
180	0x3eb5d403	0.35513315
181	0xbe637616	-0.22213015
182	0xbe4a1393	-0.1973403
183	0x3ead567c	0.33855045
184	0xbb8cd885	-0.004298272
185	0x3e4aa380	0.19788933
186	0x3d6f17ef	0.058372434
187	0x3eba139c	0.36343086
188	0x3d9975c6	0.074931666
189	0xbe13bbc7	-0.144271
190	0x3df54615	0.11976258
191	0xbe212b1d	-0.15739103
192	0x3dd68868	0.10475236
193	0xbee4d000	-0.4468994
194	0x3ed10423	0.4082347
195	0xbe6de7d8	-0.23232973
196	0x3e67ab2b	0.22623889
197	0x3b74a43e	0.0037329341
198	0x3bce8db9	0.0063035158
199	0x3e8f3be8	0.27975392
200	0x3c830c28	0.015997007
201	0xbf2dbbb4	-0.6786454
202	0xbed987fa	-0.42486554
203	0x3e8dfec6	0.2773344
204	0xbe37b0db	-0.17938559
205	0x3dcee8e4	0.10103014
206	0x3f35ad85	0.70967895
207	0xbef9de98	-0.48802638
208	0xbd11f460	-0.035633445
209	0x3f0c0cf6	0.54707277
210	0xbcb55c52	-0.022138748
211	0xbe730192	-0.23731068
212	0xbe8d1927	-0.27558252
213	0xbdfe1682	-0.12406637
214	0x3dba3c10	0.09093487
215	0x3f16978e	0.58825004
216	0xbdea3264	-0.114353925
217	0xbccafcca	-0.024778742
218	0x3dafc736	0.08582918
219	0xbe487f9a	-0.19579926
220	0x3ea5a1be	0.32349962
221	0xbca548a3	-0.020176237
222	0xbaf65459	-0.0018793448
223	0x3f05df76	0.522941
224	0xbe25851c	-0.16164058
225	0x3f158cb5	0.58417827
226	0xbecc364c	-0.39885175
227	0xbe23c531	-0.15993191
228	0xbeca82f6	-0.3955304
229	0xbc083e13	-0.008315581
230	0x3e16a030	0.14709544
231	0x3de6e8bd	0.1127486
232	0xbf1a8316	-0.6035627
233	0x3ebb3e56	0.36570996
234	0xbf2533c8	-0.64532137
235	0xbc4ac615	-0.012376328
236	0xbe9eeaa1	-0.31038383
237	0xbede9b37	-0.43477795
238	0xbe891b3c	-0.2677859
239	0x3e1532ed	0.14570208
240	0xbe21f270	-0.15815139
241	0xbf503220	-0.81326485
242	0x3e2895fa	0.16463462
243	0xbea91693	-0.33025035
244	0x3e5d72c5	0.21625812
245	0xbc069da3	-0.008216294
246	0xbe8a9696	-0.27068013
247	0xbeaa9b2a	-0.33321506
248	0x3e42e64c	0.19033164
249	0xbed8d798	-0.42351985
250	0x3d44364c	0.047903344
251	0x3e5172c2	0.20453933
252	0x3ea9c57d	0.33158484
253	0xbe828462	-0.25491625
254	0xbe7a6e8c	-0.24456233
255	0xbe8629fe	-0.26203912

conv1.lin_dst.weight f4 [64, 64]
0	0x3eb0e5c8	0.3455031
1	0xbe2ca5fc	-0.16860193
2	0xbe810396	-0.25198048
3	0xbcadd566	-0.02121992
4	0x3eae031c	0.33986747
5	0x3c4f2c26	0.012644803
6	0x3e3f9eec	0.18712968
7	0xbeb0fa04	-0.34565747
8	0x3c9bb4f9	0.019007193
9	0x3f5e6033	0.8686554
10	0xbcc11383	-0.023568874
11	0x3d44022f	0.047853645
12	0xbcfb6818	-0.030689284
13	0xbea15a43	-0.31514177
14	0xbf3226b5	-0.6959031
15	0x3e99c435	0.30032507
16	0x3f12a71e	0.5728625
17	0xbe04a2a2	-0.12952664
18	0xbecab15b	-0.39588436
19	0xbf4d41e6	-0.8017868
20	0xbefa76a7	-0.4891865
21	0x3ed99f16	0.42504185
22	0xbd1d2400	-0.03836441
23	0x3e4d2eb1	0.20037343
24	0x3e9f457c	0.311077
25	0xbebb2837	-0.3655412
26	0xbf3af235	-0.7302583
27	0xbe324de0	-0.1741252
28	0x3ec9e36f	0.3943133
29	0xbe3ebd62	-0.18626931
30	0x3e01ac4c	0.12663382
31	0x3e8612e9	0.26186302
32	0xbecf317d	-0.40467444
33	0x3d942217	0.072330646
34	0xbe3330bf	-0.17499064
35	0xbc38d332	-0.011280822
36	0xbe504ea1	-0.20342495
37	0xbf45003d	-0.7695349
38	0x3e95fff1	0.2929683
39	0xbdb8f8ea	-0.090318516
40	0xbefac27c	-0.48976505
41	0xbd7d332f	-0.06181639
42	0x3d3ea87b	0.046547394
43	0x3dade277	0.0849046
44	0xbee2ae59	-0.44273642
45	0xbe1209c4	-0.14261538
46	0x3e09e838	0.1346749
47	0x3dec7d22	0.11547305
48	0xbe21aaf9	-0.15787877
49	0x3f1a6ac6	0.60319173
50	0xbecc0775	-0.3984944
51	0x3f2c5ec3	0.67332095
52	0xbe64fd8e	-0.22362348
53	0xbe6b7db5	-0.22997172
54	0x3d215053	0.039383244
55	0x3f294b95	0.66130954
56	0xbe8b3bf9	-0.27194193
57	0xbef3125d	-0.47474948
58	0xbd39cbc7	-0.045360353
59	0xbe2da188	-0.1695615
60	0xbe63cd3f	-0.22246264
61	0x3e71f6d9	0.23629321
62	0x3da41bf3	0.080131434
63	0x3e8473ce	0.25869602
64	0x3e8d52b9	0.27602175
65	0xbe1af971	-0.15134217
66	0x3eb57ad2	0.35445267
67	0x3e112b7c	0.14176744
68	0x3c75e619	0.015008473
69	0xbd44e12a	-0.048066296
70	0xbe70bfd0	-0.2351067
71	0x3de2b3cf	0.11069452
72	0xbe120d4b	-0.14262883
73	0xbe9920d3	-0.29907855
74	0xbd5d5ba6	-0.05404248
75	0x3d346e51	0.04405052
76	0xbda558b1	-0.08073557
77	0x3e0c2037	0.13684164
78	0x3f466196	0.77492654
79	0x3c41275d	0.01178917
80	0x3eb0422a	0.3442548
81	0x3f840cec	1.0316443
82	0xbd70d653	-0.058798146
83	0x3ebd6a51	0.36995175
84	0xbd8afac4	-0.06786111
85	0x3e184917	0.14871632
86	0x3f65a316	0.89701974
87	0x3ee98cd2	0.4561525
88	0x3dbcd121	0.09219576
89	0xbc2a45d8	-0.010392629
90	0x3ed63bd5	0.41842523
91	0x3c99daef	0.018781153
92	0x3f2567ba	0.646114
93	0xbc91db1c	-0.017804675
94	0xbe5db2eb	-0.21650283
95	0x3d35fbcd	0.04442959
96	0xbfc6095b	-1.5471605
97	0xbec613ec	-0.38687074
98	0x3e680e00	0.2266159
99	0x3ee3ebe5	0.4451591
100	0x3e39048a	0.18068138
101	0xbe300ba2	-0.17191938
102	0xbf15ac88	-0.58466387
103	0xbe9e25df	-0.30888268
104	0x3e430056	0.19043097
105	0xbf13470f	-0.575303
106	0x3ef09c62	0.4699431
107	0xbf451068	-0.7697816
108	0xbd04563e	-0.03230881
109	0x3ec24f40	0.37951088
110	0xbed6e3b0	-0.41970587
111	0xbf0146dc	-0.5049875
112	0x3e7249a1	0.236609
113	0xbf2d9d59	-0.6781822
114	0x3e953a38	0.2914598
115	0xbe7136c4	-0.23556048
116	0x3dff5dec	0.12469086
117	0xbe91669d	-0.283986
118	0xbf0c2d59	-0.54756695
119	0xbf30b8da	-0.6903206
120	0x3e825c05	0.2546083
121	0xbd519d05	-0.051175136
122	0x3d81db7e	0.06340693
123	0x3f29bbcc	0.6630218
124	0x3e94d097	0.2906539
125	0xbe8a7172	-0.27039677
126	0xbe6ed033	-0.23321609
127	0xbecc0dd9	-0.39854315
128	0xbdbdcc98	-0.09267539
129	0xbe8e197b	-0.27753815
130	0x3e2129c5	0.1573859
131	0x3e1a7140	0.15082264
132	0xbd3708b0	-0.04468602
133	0xbc3ea441	-0.011635841
134	0x3e887de1	0.26658538
135	0xbeec3e57	-0.46141312
136	0xbeb97888	-0.3622477
137	0xbee5868b	-0.4482921
138	0xbe41d169	-0.1892754
139	0xbeac7730	-0.33684683
140	0x3e3c8e12	0.1841357
141	0x3d685acd	0.05672722
142	0x3db28e1a	0.0871851
143	0x3e72ff43	0.23730187
144	0x3e74cb81	0.23905756
145	0x3f9dd461	1.2330438
146	0xbe374433	-0.1789711
147	0x3edd3705	0.4320604
148	0xbf12ca49	-0.5733991
149	0x3e5e4f7a	0.21710005
150	0x3f026dcb	0.5094878
151	0xbe3b3173	-0.18280582
152	0xbe0eb79a	-0.13937226
153	0x3e6f066f	0.23342298
154	0x3d6b80da	0.05749593
155	0x3ec3c69a	0.38237458
156	0xbd1cab35	-0.038249213
157	0xbec09f3b	-0.37621483
158	0xbe131e81	-0.14367105
159	0x3f357169	0.70876175
160	0xbe96c236	-0.29445046
161	0x3ef167a3	0.4714938
162	0x3ee46ec0	0.44615746
163	0xbf0c1711	-0.54722697
164	0xbe49746e	-0.1967332
165	0xbfa1fa61	-1.2654535
166	0x3f80410d	1.0019852
167	0xbf88123d	-1.0630566
168	0xbf904140	-1.1269913
169	0x3d46b622	0.04851354
170	0xbf0735d8	-0.52816534
171	0xbe9f017f	-0.3105583
172	0xbf47ff99	-0.78124386
173	0xbe9a1766	-0.30095977
174	0x3eac275c	0.3362378
175	0x3e38a11f	0.18030213
176	0x3edb63c7	0.42849562
177	0x3edf330d	0.43593636
178	0x3dd4981a	0.103805736
179	0xbe795919	-0.24350394
180	0x3eb5d403	0.35513315
181	0xbe637616	-0.22213015
182	0xbe4a1393	-0.1973403
183	0x3ead567c	0.33855045
184	0xbb8cd885	-0.004298272
185	0x3e4aa380	0.19788933
186	0x3d6f17ef	0.058372434
187	0x3eba139c	0.36343086
188	0x3d9975c6	0.074931666
189	0xbe13bbc7	-0.144271
190	0x3df54615	0.11976258
191	0xbe212b1d	-0.15739103
192	0x3dd68868	0.10475236
193	0xbee4d000	-0.4468994
194	0x3ed10423	0.4082347
195	0xbe6de7d8	-0.23232973
196	0x3e67ab2b	0.22623889
197	0x3b74a43e	0.0037329341
198	0x3bce8db9	0.0063035158
199	0x3e8f3be8	0.27975392
200	0x3c830c28	0.015997007
201	0xbf2dbbb4	-0.6786454
202	0xbed987fa	-0.42486554
203	0x3e8dfec6	0.2773344
204	0xbe37b0db	-0.17938559
205	0x3dcee8e4	0.10103014
206	0x3f35ad85	0.70967895
207	0xbef9de98	-0.48802638
208	0xbd11f460	-0.035633445
209	0x3f0c0cf6	0.54707277
210	0xbcb55c52	-0.022138748
211	0xbe730192	-0.23731068
212	0xbe8d1927	-0.27558252
213	0xbdfe1682	-0.12406637
214	0x3dba3c10	0.09093487
215	0x3f16978e	0.58825004
216	0xbdea3264	-0.114353925
217	0xbccafcca	-0.024778742
218	0x3dafc736	0.08582918
219	0xbe487f9a	-0.19579926
220	0x3ea5a1be	0.32349962
221	0xbca548a3	-0.020176237
222	0xbaf65459	-0.0018793448
223	0x3f05df76	0.522941
224	0xbe25851c	-0.16164058
225	0x3f158cb5	0.58417827
226	0xbecc364c	-0.39885175
227	0xbe23c531	-0.15993191
228	0xbeca82f6	-0.3955304
229	0xbc083e13	-0.008315581
230	0x3e16a030	0.14709544
231	0x3de6e8bd	0.1127486
232	0xbf1a8316	-0.6035627
233	0x3ebb3e56	0.36570996
234	0xbf2533c8	-0.64532137
235	0xbc4ac615	-0.012376328
236	0xbe9eeaa1	-0.31038383
237	0xbede9b37	-0.43477795
238	0xbe891b3c	-0.2677859
239	0x3e1532ed	0.14570208
240	0xbe21f270	-0.15815139
241	0xbf503220	-0.81326485
242	0x3e2895fa	0.16463462
243	0xbea91693	-0.33025035
244	0x3e5d72c5	0.21625812
245	0xbc069da3	-0.008216294
246	0xbe8a9696	-0.27068013
247	0xbeaa9b2a	-0.33321506
248	0x3e42e64c	0.19033164
249	0xbed8d798	-0.42351985
250	0x3d44364c	0.047903344
251	0x3e5172c2	0.20453933
252	0x3ea9c57d	0.33158484
253	0xbe828462	-0.25491625
254	0xbe7a6e8c	-0.24456233
255	0xbe8629fe	-0.26203912

conv2.att_src f4 [1, 4, 16]
0	0x4004c761	2.0746691
1	0x3e9383bb	0.2881144
2	0x3f737524	0.9510062
3	0x3f086ba8	0.5328927
4	0x3b22a575	0.0024817858
5	0x3db9e01b	0.09075948
6	0xbf608d76	-0.8771585
7	0x3e5d9df4	0.21642286
8	0x3edd6942	0.43244368
9	0x3a3e2997	0.0007254122
10	0xbeec66cc	-0.46172178
11	0x3e52d06b	0.20587318
12	0x3f38ea1c	0.7223222
13	0x3cce3bea	0.025175054
14	0xbf241ded	-0.64108163
15	0xbf5eb5f0	-0.86996365
16	0xbe88bef0	-0.26708174
17	0x3fe60bc6	1.7972343
18	0x3ae268cc	0.0017273664
19	0xbf3683eb	-0.7129504
20	0x3b9ed4d9	0.0048471508
21	0x3eabc88c	0.33551443
22	0xbecb00a0	-0.39648914
23	0x3f9ef209	1.2417613
24	0xbfe0ee4e	-1.7572725
25	0x3e8da9d6	0.27668637
26	0x3ef937ab	0.48675284
27	0xbc817b41	-0.015805842
28	0x3fa17bfa	1.261596
29	0xbfa34906	-1.275666
30	0x3ecd7deb	0.4013513
31	0xbc75195e	-0.014959661
32	0x3f9d8237	1.2305363
33	0xbeae4a13	-0.3404089
34	0x3e3cbf4e	0.18432352
35	0xbf748207	-0.95510906
36	0xbf3cf055	-0.7380422
37	0xbebab9dd	-0.36469927
38	0xbed4d864	-0.41571343
39	0xbd8df565	-0.06931571
40	0x3dac5f7e	0.08416651
41	0x3f157df4	0.58395314
42	0xbe9f38a0	-0.3109789
43	0xbdd4c84f	-0.10389768
44	0xbef78071	-0.4834018
45	0xbd977dd4	-0.07397047
46	0xbe48d83d	-0.19613738
47	0xbe9bc1a1	-0.30421165
48	0xbdd1e6a5	-0.1024907
49	0x3ec16b4a	0.37777168
50	0xbf0a02d5	-0.5391057
51	0xbf97ed66	-1.1869323
52	0xbf8a0056	-1.0781353
53	0x3f0b8215	0.54495364
54	0x3f11de70	0.5698004
55	0x3fc72d0f	1.5560626
56	0x3efa124c	0.48842084
57	0x3f3e4f7c	0.74340034
58	0xbeb43ead	-0.35204068
59	0x3e1ad7e8	0.15121424
60	0xbe8d894f	-0.2764382
61	0xbfa4be72	-1.2870619
62	0xbf88d708	-1.0690622
63	0x3ed2fdf6	0.41209382

conv2.att_dst f4 [1, 4, 16]
0	0x3e959c66	0.29220885
1	0xbcdbcc82	-0.026830915
2	0xbf2bc51a	-0.6709763
3	0xbe2c2411	-0.16810633
4	0x3e005468	0.12532198
5	0xbe96bbad	-0.2944006
6	0xbecc4272	-0.39894444
7	0x3bb77cef	0.00559961
8	0xbdb8dd66	-0.090266034
9	0xbf09dba9	-0.538508
10	0x3f65a9b3	0.89712065
11	0xbf289ed4	-0.6586735
12	0xbeec6021	-0.4616709
13	0x3e499c13	0.19688444
14	0xbcf0efcd	-0.02941122
15	0x3f00ea1b	0.50357217
16	0x3d300378	0.042972058
17	0xbe3eb29e	-0.18622825
18	0x3e83a447	0.2571127
19	0x3dc8d6ed	0.09806619
20	0x3e8040c8	0.25049424
21	0x3e3f4a9d	0.18680806
22	0x3ec49fd6	0.38403195
23	0xbeb532ea	-0.35390407
24	0xbd313072	-0.04325909
25	0xbf24e498	-0.64411306
26	0xbe8133c5	-0.2523481
27	0x3f08b940	0.5340767
28	0xbf1795af	-0.59212774
29	0xbe944994	-0.28962386
30	0xbe5dd30c	-0.21662539
31	0x3f0e0f45	0.5549205
32	0x3e81d00a	0.25354034
33	0x3d93cf6a	0.072172955
34	0xbfad96b1	-1.3561612
35	0x3f0a9e53	0.54147834
36	0x3de18b26	0.110128686
37	0x3ec8ccbf	0.3921871
38	0xbdb5fe2e	-0.088863716
39	0xbeb70924	-0.3574916
40	0x3f218cc2	0.63105404
41	0xbf229638	-0.63510466
42	0x3eae10bd	0.33997145
43	0xbdde4189	-0.108523436
44	0xbf2be15d	-0.6714075
45	0x3f2ca660	0.6744137
46	0x3edb7e22	0.4286967
47	0x3ef4139b	0.47671208
48	0xbec08049	-0.37597874
49	0x3e5a886a	0.213411
50	0x3e6214ac	0.22078198
51	0x3d215026	0.039383076
52	0x3d24a1d0	0.04019338
53	0x3de5ad6c	0.11214718
54	0xbe62d7ee	-0.22152683
55	0x3e8c4fe8	0.27404714
56	0xbec3cac6	-0.3824064
57	0x3df02ba1	0.117270716
58	0xbf3941ba	-0.72365916
59	0xbd106caf	-0.0352599
60	0x3c63c7a3	0.013902578
61	0x3f3998b0	0.7249861
62	0xbe327515	-0.17427476
63	0x3ea0a313	0.31374416

conv2.bias f4 [64]
0	0x40986c19	4.7631955
1	0x4079d5e5	3.90368
2	0x3ff94e3f	1.9477004
3	0x3c214a48	0.00984437
4	0xc03b6d1d	-2.9285347
5	0x3c29f478	0.010373227
6	0xc08a96d7	-4.330913
7	0x408f4814	4.4775486
8	0xbc78faf7	-0.015196553
9	0x4089c760	4.305588
10	0xbee38f8d	-0.44445458
11	0x40b5dee3	5.683458
12	0x409c621a	4.8869753
13	0x3d0ae23c	0.03390716
14	0xc08ddee0	-4.4334564
15	0xbd8a7fed	-0.06762681
16	0xbe0c9c88	-0.13731587
17	0x3e57e8fd	0.21084972
18	0x400c0233	2.1876342
19	0xc00779f9	-2.1168196
20	0xc02a2bfd	-2.6589348
21	0x3c947c87	0.018125786
22	0xbe6a1186	-0.22858247
23	0x408051a8	4.009968
24	0xc034b604	-2.8236094
25	0x3fc628a9	1.5481158
26	0x404f0b89	3.235079
27	0xbea5fd36	-0.32419747
28	0x40283704	2.628358
29	0x3ba0a7f4	0.004902834
30	0xbd1649ce	-0.03669148
31	0x3cd34266	0.025788497
32	0x3fdf42bb	1.744224
33	0x40c50e79	6.1580167
34	0x3daa3587	0.08310991
35	0xbd381a63	-0.04494704
36	0xbf6e7047	-0.9314007
37	0xbf745a14	-0.9544995
38	0xbd540a52	-0.051767655
39	0xbe72b6c9	-0.2370254
40	0xbdaa86ca	-0.0832649
41	0xbcb2fc9b	-0.021848967
42	0x3ead7bc8	0.338835
43	0xbec1f5b9	-0.37882784
44	0xbd36a50b	-0.04459099
45	0xbf25dbec	-0.647887
46	0x3b8eac0c	0.0043540057
47	0x3bd2b9fc	0.0064308625
48	0xbe776750	-0.24160504
49	0x3bdbcbbb	0.006707636
50	0xbd406b93	-0.04697759
51	0xc08155f1	-4.041741
52	0xc06e8290	-3.726719
53	0xc09ba2b3	-4.8636107
54	0x3cf7d479	0.030252682
55	0x403ca659	2.947653
56	0xc08abce8	-4.33556
57	0x3e1f5f74	0.15563756
58	0xbd296e45	-0.041364927
59	0xbea68602	-0.32524115
60	0xbe481dd1	-0.19542624
61	0xbe80d261	-0.25160506
62	0xc030b1e5	-2.7608578
63	0xc07eb9d6	-3.9800925

conv2.lin_src.weight f4 [64, 64]
0	0x3e849ed9	0.2590244
1	0xbea3ffd4	-0.3203112
2	0xbf10eb0c	-0.56608653
3	0x3d79277e	0.06082868
4	0x3d5e3262	0.054247268
5	0x3f0f8d74	0.56075215
6	0xbe08066d	-0.13283701
7	0xbc5b74a6	-0.01339451
8	0x3e318d3f	0.17339037
9	0xbf05fb85	-0.52336913
10	0xbe6d8715	-0.23196061
11	0x3d28cb9e	0.04120981
12	0x3f067f18	0.5253768
13	0x3f439db0	0.7641249
14	0x3ea0392c	0.3129362
15	0xbf06e19f	-0.5268802
16	0x3e767b59	0.24070491
17	0xbfb2ea23	-1.3977703
18	0x3f232377	0.6372599
19	0xbe609d95	-0.21935113
20	0x3e554cfb	0.20830147
21	0x3e20b894	0.15695411
22	0xbf82dadc	-1.022304
23	0x3f0fb69a	0.56138
24	0xbf6e1c62	-0.9301206
25	0x3f80ea46	1.0071495
26	0x3f9b02bf	1.2110213
27	0x3f3f542a	0.747378
28	0x3fb3f183	1.4058079
29	0xbd5fc349	-0.054629598
30	0xbec75e55	-0.38939157
31	0x3f0e51f1	0.5559378
32	0x3e6b6b8a	0.22990242
33	0xbb028ffc	-0.0019922247
34	0x3c9d7a0f	0.019223241
35	0x3fdb647d	1.7140042
36	0x3e96fe41	0.29490855
37	0x3f6d030b	0.9258277
38	0x3ec65e0f	0.38743636
39	0xbe1d5b51	-0.15366866
40	0xbd473a41	-0.04863954
41	0xbed31ffa	-0.41235334
42	0x3e001311	0.12507273
43	0x3e63049a	0.22169724
44	0xbf1b0bc2	-0.60564816
45	0x3e74c936	0.23904881
46	0x3ea48200	0.32130432
47	0xbd1847ca	-0.03717784
48	0x3de8dc36	0.11370127
49	0x3ee7dbb5	0.4528481
50	0x3e3b5917	0.18295704
51	0xbf270eac	-0.6525676
52	0xbd05edd2	-0.032697506
53	0x3e90f37c	0.28310764
54	0x3e3453d5	0.17610104
55	0xbdad3a45	-0.0845838
56	0xbebba2ff	-0.36647794
57	0x3c2938e1	0.010328502
58	0xbfc6e4bd	-1.5538555
59	0xbf077488	-0.5291219
60	0xbdbc0111	-0.09179891
61	0xbe14d20c	-0.14533252
62	0xbe4dfa3e	-0.20114991
63	0x4017e9e5	2.3736508
64	0xbe0840ce	-0.13305971
65	0xbf31b7e4	-0.6942122
66	0xbeab5e52	-0.33470398
67	0x3b690df9	0.0035561307
68	0x3db693e8	0.0891493
69	0x3ed3ff19	0.41405562
70	0xbe324f5b	-0.17413084
71	0x3eaf5e80	0.34251785
72	0xbdd22273	-0.10260477
73	0xbf03c7c9	-0.5147672
74	0x3d3e2d41	0.046429876
75	0x3e90134c	0.28139722
76	0x3f267010	0.65014744
77	0x3ebfde52	0.37474304
78	0x3ebaeab0	0.36507177
79	0xbefa6b0a	-0.4890979
80	0x3e2d1a1d	0.16904493
81	0xbfa93d78	-1.3221884
82	0x3ec6cb0b	0.38826784
83	0xbe78b127	-0.24286328
84	0x3ea0d5f1	0.31413224
85	0xbc1d48a9	-0.009599843
86	0xbf802f17	-1.0014371
87	0x3edb4e82	0.42833334
88	0xbf43f7c9	-0.76549965
89	0x3f668572	0.9004737
90	0x3f99208b	1.1963056
91	0x3f12ca78	0.5734019
92	0x3fb37eba	1.4023049
93	0xbdb6ec42	-0.08931781
94	0xbea699cc	-0.32539213
95	0x3ea54860	0.3228178
96	0x3e54ffa2	0.20800641
97	0x3e7474d8	0.23872697
98	0x3d27c460	0.040958762
99	0x3fe0f132	1.7573607
100	0x3e45bba5	0.19309862
101	0x3f251c48	0.6449628
102	0x3c9cc98b	0.019139072
103	0xbe04ed7d	-0.1298122
104	0x3d40b2dc	0.047045574
105	0xbe4567ca	-0.19277874
106	0x3e82c8c7	0.25543806
107	0x3d5f3709	0.054495845
108	0xbe9e7f52	-0.30956513
109	0x3ee70242	0.4511891
110	0x3e3f4cb5	0.18681605
111	0x3d0d2874	0.034462407
112	0x3eba5560	0.3639326
113	0x3df2c734	0.11854401
114	0x3e54840d	0.20753498
115	0xbef4f95b	-0.47846493
116	0xbddc6a3a	-0.107624486
117	0x3e24db03	0.16099171
118	0xbdbada10	-0.09123623
119	0xbed1b8df	-0.40961358
120	0xbf0dd302	-0.554001
121	0xbe3d4b13	-0.1848567
122	0xbfc55c8d	-1.5418869
123	0xbf0b8532	-0.54500115
124	0x3e11730a	0.1420404
125	0xbcc00a73	-0.023442483
126	0xbe6e08e7	-0.23245583
127	0x40103aa5	2.2535794
128	0x3c1eba1c	0.009687927
129	0xbf030a3b	-0.51187485
130	0xbf0573f9	-0.52130085
131	0x3d019fe6	0.03164663
132	0x3e9112c2	0.28334624
133	0x3f0b280c	0.5435798
134	0xbe3aeb3f	-0.18253802
135	0xbd148011	-0.036254946
136	0x3c82d075	0.01596854
137	0xbf136f15	-0.5759137
138	0xbe96387d	-0.29339972
139	0x3e65db7b	0.22447006
140	0x3f20ee79	0.6286388
141	0x3eed01ba	0.4629038
142	0x3b32ebad	0.0027301118
143	0xbeafdd9c	-0.34348762
144	0x3dbe486a	0.09291156
145	0xbf76919a	-0.9631592
146	0x3ed10cfe	0.40830225
147	0xbd1e3d67	-0.038632777
148	0x3d34961a	0.04408846
149	0x3e293df3	0.16527538
150	0xbf86595f	-1.0496024
151	0x3ea671bd	0.3250865
152	0xbf7cf5b3	-0.9881241
153	0x3f8110c8	1.0083246
154	0x3f922cc1	1.1419908
155	0x3f4a7b65	0.79094535
156	0x3fae4ba1	1.361683
157	0x3bfc2a18	0.0076954477
158	0xbe236a99	-0.15958633
159	0x3ede7b89	0.43453625
160	0x3e1fa896	0.15591654
161	0x3e0f5cd7	0.1400026
162	0xbd19d633	-0.037557792
163	0x3fb845cc	1.43963
164	0x3eb14733	0.34624633
165	0x3ed8fe1d	0.42381373
166	0x3e2a5203	0.16632847
167	0xbe801ee3	-0.25023565
168	0x3e87e528	0.2654202
169	0xbe9bc9ce	-0.30427402
170	0x3d671e07	0.05642512
171	0x3e08d960	0.13364172
172	0xbf1ae670	-0.6050787
173	0x3ee2efad	0.44323483
174	0x3ed3f2a3	0.41396055
175	0xbe315e53	-0.17321138
176	0x3e372f6c	0.17889184
177	0x3e13fcb9	0.14451875
178	0x3debed1d	0.11519835
179	0xbe9e2889	-0.308903
180	0x3d612d4f	0.05497485
181	0x3db66fd3	0.089080475
182	0x3e4abb3f	0.19797991
183	0xbe88fd43	-0.26755723
184	0xbf0d8a8b	-0.55289525
185	0xbd100e94	-0.035170153
186	0xbfac22a8	-1.3448076
187	0xbf18b22b	-0.5964686
188	0xbe40bb17	-0.18821369
189	0xbdef6379	-0.11688895
190	0xbe0de592	-0.13857105
191	0x4017ae49	2.3700125
192	0xbf17f191	-0.59352976
193	0xbd62b41b	-0.055347543
194	0x3f06424d	0.52444917
195	0x3ecdc870	0.40191984
196	0x3f0abef0	0.541976
197	0x3d824dc3	0.06362488
198	0xbdcd0528	-0.10010749
199	0x3ebbf5b3	0.3671089
200	0xbd0a6ceb	-0.03379528
201	0x3f173541	0.59065634
202	0xbeb8d106	-0.36096972
203	0x3db8b844	0.09019521
204	0xbec0da84	-0.37666714
205	0xbf5fb26a	-0.87381613
206	0xbdf39ea4	-0.11895493
207	0xbf43de03	-0.7651064
208	0x3dadc343	0.08484509
209	0xbd7d595f	-0.06185281
210	0x3e07fd32	0.1328018
211	0x3df53b3d	0.119741894
212	0x3d65a779	0.056067917
213	0xbe0a8e93	-0.1353095
214	0xbf40eff0	-0.75366116
215	0xbe1cc69b	-0.15310137
216	0x3ed6def1	0.41966966
217	0xbe5472e7	-0.20746957
218	0xbe35d756	-0.17757925
219	0x3e14cf10	0.14532113
220	0x3e1cfd60	0.1533103
221	0x3f3b9efd	0.7328947
222	0xbe111da4	-0.14171463
223	0x3ddefc30	0.10887945
224	0xbefa1d78	-0.48850608
225	0xbe79f0b6	-0.2440823
226	0xbd0698b2	-0.032860465
227	0x3c23ad08	0.009989984
228	0x3e1f2602	0.15541843
229	0xbd11f1d2	-0.03563101
230	0xbb6cfd86	-0.0036161854
231	0x3ded124f	0.11575758
232	0x3d026c07	0.031841304
233	0xbf21602b	-0.63037366
234	0xbc811db9	-0.015761243
235	0x3e94aa1e	0.2903604
236	0x3f2a5a88	0.6654439
237	0x3f3a6c98	0.7282195
238	0x3f2b1886	0.66834295
239	0x3ece0858	0.4024074
240	0x3caf880e	0.02142718
241	0x3dcb7d89	0.09936053
242	0xbf24be0d	-0.64352494
243	0x3d380715	0.04492863
244	0x3f85a65f	1.0441397
245	0x3ee396bd	0.44450942
246	0x3e88dc9f	0.2673082
247	0x3e2cea13	0.16886167
248	0xbf0b53d6	-0.544248
249	0x3d30191b	0.042992692
250	0xbdea2a32	-0.11433829
251	0xbe2c89bb	-0.16849415
252	0xbf0b0506	-0.5430454
253	0xbd94b729	-0.072614975
254	0xbea90d38	-0.33017898
255	0xbe4556b6	-0.19271359
