trained_model_1.pth (torch, 137457 bytes, 11 tensors)

initial_conv.bias f4 [90]
00000000: c687 94ba 4cde 0fbe 48d5 67c0 a9aa 4b40
00000010: 5cc3 eaba d594 f63f e238 4240 ea93 37ba
00000020: 0885 d9bc 1af3 0c3b 46e8 aebf 97f3 5940
00000030: 7f7f aaba 370a c3be f55e 453f ef96 2340
00000040: 8918 1d3f d65d a4ba cf37 9a3e 4083 bf39
00000050: 8478 bdbf 5783 b03a 8f0b cb3b b68c 5dbb
00000060: bd7f 3fbb e52f 543f 38fe cf3f 3d01 3dc0
00000070: 3fcb babb bb46 c93e f92f c73b 7016 9a3b
00000080: 0cb4 093b f4eb 8fbb 7afc 1c3f 2f6c 13bf
00000090: f2cd 3340 0750 02bb ba28 40bb a388 3cbf
000000a0: 22e6 b2bb 317e 2bb9 28b4 adbe 06c2 d5bf
000000b0: 00f0 5f3b 472d a9bb bee5 97bf e65c 043a
000000c0: cc45 2ebb 73a2 9fbf 540c 2a3f d444 44bb
000000d0: 929f 973f 34b6 62bf 487e cfba 7423 c7be
000000e0: 35b9 1b3f f897 21bf 26d7 953f 12c5 26bf
000000f0: 7b9f 4140 a666 5740 506e 0cbf 9207 3bbf
00000100: af3d 1abb a3c4 8e40 8051 f1b6 42ad 5040
00000110: 0553 3dbe df38 4240 8902 2cbf 801f 9aba
00000120: d2fb 0ec0 1cac 18bd 24ee 0e3b bef8 7b40
00000130: 988a 8dba 6f16 37bf 8508 9b3e a7d7 5d40
00000140: 4ffd cd3b c90d 7340 a4fd 46bd a1f6 f0bb
00000150: 41d9 c13e 30a1 fc3f 46cf 5a3e e355 073b
00000160: c5ae 2fbf a219 ea3a
-0.0011331968 -0.14049643 -3.6223927 3.1822913 -0.0017911005 1.926417 3.0347219 -0.0007002937
-0.026552692 0.0021507205 -1.3664634 3.4054925 -0.0013007968 -0.3809373 0.7709802 2.5560873
0.6136556 -0.0012540172 0.30120704 0.00036528148 -1.4802403 0.0013466877 0.0061964463 -0.0033805794
-0.0029220425 0.8288558 1.6249456 -2.9532006 -0.0057004984 0.39311776 0.006078717 0.004702382
0.0021011857 -0.0043921415 0.6132275 -0.5758695 2.809445 -0.0019884126 -0.002932115 -0.7364599
-0.005459563 -0.00016354841 -0.3392651 -1.6699836 0.003417015 -0.005162868 -1.1866987 0.00050492433
-0.0026591895 -1.247145 0.6642506 -0.0029948251 1.1845572 -0.8855927 -0.0015830481 -0.38894236
0.6082948 -0.6312251 1.1706283 -0.65144455 3.025359 3.3656402 -0.54855824 -0.73058426
-0.0023535301 4.4615035 -7.1918475e-06 3.2605748 -0.184887 3.0347211 -0.6719137 -0.0011758655
-2.23412 -0.03727351 0.0021809423 3.937057 -0.001079875 -0.71518606 0.30279937 3.4662874
0.0062863003 3.7977164 -0.048581734 -0.007353619 0.37861064 1.973669 0.21368131 0.0020650558
-0.6862605 0.0017860422

initial_conv.lin.weight f4 [90, 4]
00000000: 7e84 f9bc e2a0 e43c dfb5 16bb 2a0d 68bb
00000010: 3471 913f 2fdb 8540 4d6f 4ebc 8af3 2ac0
00000020: e6c6 383f be0b 1c40 a956 303f 62bd 24c0
00000030: ad4b dabe 5bbb a7be 0839 d2bf 31ab 2e40
00000040: c7ca d13c e490 a8bb ba76 df3a 90fa 853b
00000050: 26ec f33f 1c96 2ec0 95d3 d43f 8116 d540
00000060: e65b a5be 73bd 16c0 a26b 77bf 2dc5 6740
00000070: 1ee1 ba3c 9663 16bb 1800 54b9 6055 573b
00000080: 649e 4840 0b29 97bd 635c 513e 46c1 cdc0
00000090: b349 22bc 0a15 e23a ac37 8bb8 cbf8 10bb
000000a0: fa57 443e 357b 8e40 93e1 3b3d 8c77 b53f
000000b0: 5d07 54bf e0d4 60c0 54f5 28bf 3ea3 3d40
000000c0: 3b2e 963b 0494 c73b 86d6 00bb 92e7 05ba
000000d0: 9e06 85be 105d 2940 71f4 fbbc a1f7 8f3e
000000e0: 6903 8cbf 40ce 0d40 cbed 23be 5151 c0bf
000000f0: fa3a 8e3f d9d4 3fc0 f7de 41bf 222b 7240
00000100: e232 743f 4505 4dbf 868c 153e 5408 fbc0
00000110: 3a46 a0bb 44b3 87bc d588 a1ba 5391 01bb
00000120: 8e4b 33bf ab2a 4540 d205 3bbe a79f 263f
00000130: 1332 f53c 8b9d 7a3b 354e 2e3b 11c0 983b
00000140: 8e83 00bf 5bec 8d3e 151c 52bd 8124 a740
00000150: 858b 373c 6ed1 953a 054b c339 c1e7 1f3a
00000160: f586 15bc cd60 13bd 3e20 453b 6de8 3dbb
00000170: 37a3 39bc ccdd 783a fddd 60bb 397d 48bb
00000180: 2edf 63bc 99cc 143c d028 d1ba fa14 d73a
00000190: d18f 16bf e3cd 48bf abee bc3d c9ea 8ec0
000001a0: ceb5 06bf 1d70 5b3f 5379 57be 77bc 58c0
000001b0: 1abe 1b3f ac85 6340 87a9 2d3f d81c 24c0
000001c0: ee22 f2bc 542e 7abc 3b0d 2ebb cf6e 15bb
000001d0: 3e34 a9c0 614a 60c0 a435 0d3d 4ce8 c53e
000001e0: 3ca9 993c 0e65 5fbb f6d9 e33b 76f5 f53a
000001f0: c0ce 9c3c 8787 943b 2de2 443b 6ada ddba
00000200: b29a 7c3c e0ea 05bc a978 183b c367 93ba
00000210: 458b 31bc e6ac 0c3c f0a7 1bba ae97 a53a
00000220: e07d f83e 46d0 3e40 781c 3ebe 0bcc 58bf
00000230: 2726 debf 0643 2cc0 2ecc 173e 1beb a63f
00000240: 4bb5 2c40 d374 eebf 639e 96bf afc6 6e40
00000250: 8e44 ba3c 2efd 933b 6a81 e4b9 1735 103b
00000260: 001e 35bd f693 e7bb 3272 bbba 82ee 5eba
00000270: c665 753f 6ae8 64c0 5e82 7b3e 11bd c13e
00000280: e781 5c3c c2ed 613c 565e c6bb 11da 23bb
00000290: 27e2 e3bb e46f c9bc 2473 a6bb 22fb 37bb
000002a0: 7361 013f e22b 9040 fd75 dfbc 3d9f cdbf
000002b0: 2d77 1ebe 13a7 4740 052b d33d ab33 1a40
000002c0: f9b7 063d fad3 1d3b dd94 4d3b 1a6d 5e3a
000002d0: 9c93 83bc 9235 af3b 6e29 34bb a28d 093b
000002e0: 907b 463f 7f13 9c40 3980 b33c ac42 523f
000002f0: d069 243c 4c7a 223b d52d 5dba b6c1 22ba
00000300: 24c5 3f3c 5ff6 24bc d8dd b8b9 ec22 6eba
00000310: 21ad b93f 2b11 9240 b0cd f43c ef72 8b3f
00000320: 4ad2 1d40 652d b33f 53f3 753d 1cec 97c0
00000330: 2c5b a6bc 6f70 663a a268 a7bb 62f5 3cbb
00000340: 2dea 19c0 278b 0140 6927 fabb c6d3 8fc0
00000350: 8b8a 06be 5580 a240 d29d 6b3b 8f3c 16bf
00000360: fb05 ddbb b742 0ebc 0003 f4ba 70e7 9bbb
00000370: afff 13be 28e2 6cc0 8008 a83e b43c fd3f
00000380: 7933 18c0 a750 9040 cd22 6ebe 7ba7 55bf
00000390: 0b0f e13c 7998 a1bf 600d 773e 856e 9940
000003a0: 8121 71bf c09a 96c0 a1c5 c0bc ec6d 4ebf
000003b0: 7400 41bf ea93 58c0 3601 723e 76d2 063f
000003c0: 0a29 92c0 6e54 41c0 5294 49bf d5da 6a40
000003d0: 217f 0740 051b 1bc0 62dd 38bf 0d8f 0e3f
000003e0: 4a70 273f 70f7 9040 8209 f0bb 69fb a9bf
000003f0: 6e24 0ac0 1480 aa40 b10d 36bc 2738 06bf
-0.030458685 0.027908746 -0.0022996587 -0.0035408237 1.1362672 4.183006 -0.012599778 -2.6711144
0.72178495 2.4382167 0.6888223 -2.574059 -0.4263586 -0.32760128 -1.6423655 2.7291987
0.025609387 -0.0051442254 0.0017048933 0.0040887073 1.9056442 -2.727912 1.662707 6.658997
-0.32296675 -2.355313 -0.9664861 3.6214097 0.022812422 -0.0022947541 -0.0002021793 0.0032857284
3.1346674 -0.07380875 0.20445399 -6.429843 -0.009905267 0.0017248702 -6.638406e-05 -0.0022120948
0.19174185 4.45254 0.04586942 1.4177108 -0.82823735 -3.5129929 -0.6599934 2.9630885
0.004583148 0.006090643 -0.0019659116 -0.0005108054 -0.2598161 2.646305 -0.030756207 0.28118613
-1.0938541 2.2157135 -0.1600868 -1.5024816 1.1111748 -2.9973662 -0.7573084 3.7838826
0.9539014 -0.80086166 0.14604387 -7.8447666 -0.004891184 -0.016564973 -0.0012324104 -0.0019770458
-0.7003716 3.0807292 -0.18263939 0.6508736 0.029931104 0.0038240876 0.0026596908 0.004661568
-0.50200737 0.27719387 -0.051296312 5.223206 0.011202698 0.0011430213 0.00037249192 0.00060999027
-0.009126415 -0.03598099 0.0030079032 -0.0028977648 -0.011330417 0.00094934995 -0.0034312003 -0.0030592217
-0.013908191 0.009081983 -0.0015957598 0.001640945 -0.58813196 -0.7843916 0.0922521 -4.4661603
-0.5262116 0.85717946 -0.21042375 -3.386503 0.60836947 3.5550337 0.67836803 -2.5642605
-0.029557671 -0.015269835 -0.002655818 -0.0022801643 -5.287627 -3.5045397 0.034474984 0.3865379
0.018757455 -0.0034087333 0.006953473 0.001876517 0.019141555 0.0045327577 0.0030042038 -0.0016926054
0.015417742 -0.008173674 0.0023265278 -0.0011246133 -0.010836427 0.008586144 -0.00059378054 0.0012633705
0.48533535 2.981462 -0.18565547 -0.84686345 -1.7355393 -2.6915908 0.14823982 1.3040498
2.6985652 -1.8629402 -1.1767086 3.7308767 0.022737768 0.0045162654 -0.0004358397 0.00220043
-0.044218063 -0.007067199 -0.0014301001 -0.00085041684 0.9585842 -3.5766854 0.2456145 0.3783956
0.0134587055 0.013789596 -0.006053726 -0.0025001804 -0.0069544497 -0.024589486 -0.005079644 -0.002807327
0.5053932 4.505357 -0.02727794 -1.6064221 -0.1547515 3.1195724 0.1031094 2.4094036
0.032890294 0.0024082647 0.0031369247 0.00084848853 -0.016061597 0.0053469623 -0.0027490514 0.002098896
0.7753229 4.87738 0.021911727 0.82132983 0.010034993 0.0024792133 -0.00084373105 -0.0006208675
0.011704717 -0.010068505 -0.000352605 -0.0009084183 1.450596 4.5645957 0.029883236 1.089445
2.46596 1.3998228 0.060046505 -4.747572 -0.020307146 0.00087905576 -0.0051089088 -0.0028832783
-2.404918 2.0241182 -0.0076340926 -4.4946012 -0.13138787 5.0781655 0.0035952223 -0.58686155
-0.0067450977 -0.008682898 -0.0018616617 -0.004757814 -0.14453004 -3.7013035 0.32818985 1.978415
-2.3781416 4.5098453 -0.23255463 -0.8345868 0.027472993 -1.2624656 0.24126196 4.794741
-0.9419175 -4.7063904 -0.023531737 -0.8063648 -0.75391316 -3.384028 0.23633274 0.5266489
-4.5675097 -3.0207782 -0.78741944 3.6696064 2.1171343 -2.4235241 -0.72212803 0.5568703
0.65405715 4.530205 -0.007325352 -1.3279849 -2.1584735 5.3281345 -0.011111663 -0.5242943

conv1.bias f4 [90]
00000000: 27f6 3740 2fc2 0c40 9252 23be faa5 55bf
00000010: ab0f 053f 28c0 3dbf db7a 1c3f 2759 febf
00000020: 14a8 173f ca75 ebbf 9e0a d6be b251 e23f
00000030: 4cd0 e8bf 9904 6fbe 31de be3f aead 75bf
00000040: 5b2b fd3e 561c c03e 7c09 63bf d0ab a6bf
00000050: e2ee 86be 8c1a 53bf 5f5c 2e40 2a30 c83e
00000060: 349d e4be cdb8 e93e 7622 5840 5ac8 0440
00000070: f266 89bf e741 de3d 15fd 85be bdc0 e1bf
00000080: 1026 b7bd aa3d a0be 4da8 b6bd 8fad 1140
00000090: bae5 a13f 2859 92bf ab6e 253c 80c6 b6bf
000000a0: 1962 56bf a6ca bfbf 6262 0040 770a 24bf
000000b0: 1ef0 8bbf aa0c b7bd dab5 883f 7dca 22bf
000000c0: af7f ad3f ef9d 3c3e 8b77 733d b38c 95bf
000000d0: c906 c93f 3a25 21c0 0d3b b13f 6bf4 9d3c
000000e0: 5956 d03f 189e 513f 5715 8d3f 6fa4 20c0
000000f0: 9a34 cc3d 9529 c33f c095 703f 5d97 853e
00000100: 358a 04bf 1d1d f23f 7072 a1bf dc71 d73e
00000110: a5e4 663f 4085 d63e 0d72 1fc0 e57c 8bbf
00000120: d249 293f 3ce8 533f 4779 fc3f 8220 d3bf
00000130: 42eb 2940 58b9 7ebf f2c0 1f3f af42 2a40
00000140: c181 a93f ccee 84be b879 aabe 840d 1bc0
00000150: 778b 4a3f e357 b53f f5f5 c2bf 0c2c 833f
00000160: e012 9cbe 154d b2bf
2.874399 2.199352 -0.15949467 -0.83456385 0.5197703 -0.7412133 0.6112496 -1.9870957
0.5924084 -1.8395321 -0.41804975 1.7681181 -1.8188567 -0.23341598 1.4911557 -0.9596814
0.4944714 0.3752162 -0.88686347 -1.3021183 -0.26354128 -0.8246238 2.724388 0.39099246
-0.44651186 0.45648804 3.3771033 2.0747285 -1.0734541 0.108524136 -0.2616965 -1.7636944
-0.08942807 -0.31297046 -0.089188196 2.2762182 1.2648232 -1.1433458 0.010097186 -1.4279327
-0.83743435 -1.4983718 2.0060048 -0.6407847 -1.0932653 -0.08937962 1.0680497 -0.6359022
1.3554591 0.18419622 0.059440177 -1.1683563 1.5705196 -2.5178971 1.3846146 0.019281587
1.6276351 0.81881857 1.1022137 -2.5100362 0.099709705 1.5247065 0.939785 0.26092044
-0.5177339 1.8915135 -1.2613049 0.42079055 0.90192634 0.41898537 -2.491336 -1.089749
0.66128266 0.82776237 1.9724511 -1.6494296 2.654984 -0.9950156 0.62403786 2.66032
1.3242723 -0.25963438 -0.3329599 -2.4227 0.79119056 1.4167446 -1.523131 1.0247817
-0.3048315 -1.3929774

conv1.lin.weight f4 [90, 90]
00000000: 2bc0 153d b5b8 293f 886b 913f bdbf 8e3f
00000010: c22e 16bc 2127 393f 0a53 723f 08d5 213d
00000020: 12b6 a6bc 7387 993a 12cd e5bf abf8 7cbf
00000030: 89d0 d93c c167 fcbb 528e 4c3f 0aee 113f
00000040: 2037 e13f cec1 3a3d 07bc ee3e a68f cebb
00000050: 1516 10c0 6d85 af3c aea5 a8bb ad58 2e3d
00000060: 30dc 9c3c d7fb 463f b103 c73f 93cc e4be
00000070: e9d3 f83c 30c8 153f f94a 6bbd ec6f 10bd
00000080: 2012 3fbc 338a ef3b 2ae4 3cbd 6213 6a3e
00000090: 1f53 7a3f bfd8 fa3c e7f4 493d 4b26 cbbf
000000a0: d50b cb3c 1ee7 72ba 2359 973e f80f a5bf
000000b0: 570b 11bd 2728 673d 142f 10c0 0d71 dfbc
000000c0: 530a 883b 789b 0cc0 2951 753f 5f89 1f3d
000000d0: 55af 3740 384d f4be 3ad9 3fba 6bcb 043e
000000e0: 2216 1840 3bc7 cd3e 1e95 0440 4937 f43e
000000f0: 4f79 163e c275 7a3e 7922 a5bd 104f 973f
00000100: f118 d53c a0f0 38c0 f45b 93bb 6633 343f
00000110: fb33 613f 16f6 8d3f aa2d 3c3e 418e bb3c
00000120: 8b04 833f 5c63 b2bf edd5 87bc e5fa babf
00000130: c3be 923c 1fe4 a4bf ed6c 4abf 1c59 713e
00000140: 3f5d 183c a376 87c0 c0e6 6ebc 55e9 213c
00000150: 2f7a d2be c565 ad3f 405e 9fbf 7f74 073d
00000160: 602e e7bd 198f 433c 3111 7cbc 8a86 9abf
00000170: 1694 923e a14e 9d3f 2eeb efbc 1693 ab3d
00000180: 4927 1a3e f167 3ebb 22ef 51be 5e86 7dbb
00000190: 56e8 64bf a21b 24bf 5fdb 36bc e124 16bc
000001a0: 09ff c53d 4a25 14bf 9f18 193f b023 9a3c
000001b0: bc5f 833e 56dd d03b c8da 413f c801 42bb
000001c0: c31e bdb9 b317 11bc 553a 3abb 5266 763e
000001d0: 25d6 863d 0719 fd3e 14f5 c63c 29fd db3e
000001e0: a13c 9e3b 1311 85bb bb66 86bb a526 b0bb
000001f0: 5038 c0be 96cc f13e 5cb5 7d3f d2e3 a5bc
00000200: 54a9 bf3c d031 42bf 2f89 d4bb ac6d 143b
00000210: a5ba 66bf da4d 66be 7f8b 30bc ba06 b43b
00000220: c5e3 c8bf 568b 25bd a27f 103d ce2e a1bf
00000230: 3eb0 6ebe 1f00 6dbc 93c9 98be ee3f 8ebf
00000240: cc0d 0c3b aeee 073f a677 a93f 6dd2 48be
00000250: bf9d ad3f 2563 b23e ce77 dabf a9d4 c2be
00000260: 53a1 58bf 0f8f cbbe e2eb 1cbc 61dc 83bf
00000270: 8b05 bebb 806f 213f 0f76 b6bf 78a6 a53e
00000280: 3792 d53e 0970 debc 3905 1040 a173 b13d
00000290: 3753 47bd 5136 b53e 7fb8 093d e255 973f
000002a0: 4569 d4be df8c e03e 94da 3abc ac87 36c0
000002b0: aece d63c 55f5 e73a 72cf 8cbe 3ae7 61bb
000002c0: e33f 91bf b8e9 173c cf8a cbbc f66b fbbc
000002d0: eb7f 263c f02c 1c3f 958a a3bf 32f5 21bf
000002e0: be19 62bb d5ed 693f 7df0 243f 64d4 38bc
000002f0: d618 a83e e0f4 b9bc 3443 153f 9d0f 893f
00000300: 5563 19bc 04c7 96ba 9fa2 cfbe 4efd 5b3f
00000310: 613a a73e 5348 46bc 3fde 16be 87f1 663b
00000320: 6111 c0be 9130 72bc 420d de3b 56a0 80bc
00000330: 189f f3b6 37d9 c93d c6d7 dabf 4035 2dbf
00000340: 9625 123c bf00 bfbd ced9 893b 2e24 0dbb
00000350: 042a 50bc 4507 09bc 58f9 b4be f2ea 2d3b
00000360: 1a30 aebe efac ecbc d809 903c 132c 823f
00000370: 522f 843b 6ecf 1d3c 13af 1a3f 1bb4 973e
00000380: 1e8f bcbc f8f8 d63b 140d 5e3f 6a91 95bb
00000390: fafd dfba fc1d 123f 5561 1b3f 3437 66bb
000003a0: fde8 2e3e d3dd 563f 76d0 89bc aa08 8d3f
000003b0: d7ef 7cbf 6caf b43f 7deb 28bf 6019 4d3f
000003c0: 366f ef3f 5d06 0a3f fd71 1c3f 8fb1 083f
000003d0: ad80 ffbc a4a4 4640 0629 233c 3070 e2be
000003e0: 9dc3 2f3f aa64 953d 0c84 9c3f f063 20bc
000003f0: 69b9 1bc0 24a8 56be 2e31 9dbc 140f 183f
0.03656022 0.66297466 1.1360941 1.1152264 -0.009166421 0.7232533 0.9465796 0.039509803
-0.02035049 0.0011713341 -1.7953207 -0.9881694 0.026588695 -0.007702798 0.79904664 0.57003844
1.7594948 0.045594983 0.46627828 -0.0063037453 -2.2513478 0.021425927 -0.0051467037 0.042565037
0.019147962 0.7772803 1.5548002 -0.44687328 0.030374484 0.58508587 -0.057444546 -0.035262987
-0.011662036 0.007310176 -0.04611603 0.22858956 0.9778308 0.03062093 0.049305823 -1.5871061
0.024785915 -0.00092660065 0.29560193 -1.2895498 -0.035411205 0.056434777 -2.2528734 -0.027275587
0.0041516214 -2.196989 0.95826966 0.038949367 2.8700764 -0.47715163 -0.0007318441 0.12968223
2.3763509 0.40191063 2.0716014 0.4769843 0.14694713 0.24458984 -0.08063216 1.1821003
0.02601287 -2.8896866 -0.0044970457 0.7039093 0.8796994 1.1090724 0.18376794 0.02289498
1.0235761 -1.3936572 -0.0165815 -1.4607817 0.017913228 -1.2882117 -0.7907246 0.23569149
0.009299575 -4.233232 -0.014581382 0.009882291 -0.41108844 1.3546683 -1.2450638 0.033070084
-0.11288142 0.011935973 -0.015384958 -1.2072308 0.28628606 1.2289621 -0.029286947 0.08377664
0.15054049 -0.0029053653 -0.20501378 -0.0038684825 -0.89417017 -0.64104664 -0.011160701 -0.009164066
0.09667785 -0.578694 0.59803194 0.018815845 0.25658977 0.0063740415 0.7572446 -0.0029603112
-0.00036071808 -0.008855748 -0.0028416116 0.2406247 0.065838136 0.49433157 0.024286784 0.42966583
0.004829005 -0.0040608733 -0.004101602 -0.0053757005 -0.37542963 0.472264 0.9910486 -0.020250235
0.023396172 -0.7585726 -0.00648608 0.0022648377 -0.90128547 -0.22490636 -0.010775446 0.005493966
-1.569451 -0.040416084 0.03527797 -1.2592409 -0.23309419 -0.014465361 -0.2984129 -1.111326
0.0021370528 0.5309857 1.3239639 -0.19611521 1.3563765 0.34841266 -1.7067811 -0.38052872
-0.8462116 -0.39757583 -0.009577723 -1.0301629 -0.0057990006 0.6306076 -1.4254779 0.32353568
0.41713116 -0.027153032 2.2503188 0.086646326 -0.048663344 0.35393003 0.033623215 1.1823084
-0.41486564 0.43857476 -0.011404652 -2.8520308 0.0262216 0.0017697016 -0.27502018 -0.0034470097
-1.1347622 0.0092720315 -0.024846463 -0.030691128 0.010162334 0.6100607 -1.2776667 -0.63264763
-0.0034500207 0.9137853 0.64429456 -0.011281107 0.32831448 -0.022699773 0.5830567 1.070789
-0.0093620615 -0.0011503403 -0.40553758 0.8593339 0.32661727 -0.012102204 -0.14733218 0.0035239176
-0.3751326 -0.014782087 0.006776483 -0.015701454 -7.2604853e-06 0.098558836 -1.7097099 -0.6765938
0.008920094 -0.09326314 0.0042068725 -0.0021536457 -0.01270533 -0.00836355 -0.35346484 0.0026537743
-0.34021074 -0.028891055 0.017582819 1.01697 0.0040339613 0.009631975 0.6042339 0.29629597
-0.023017462 0.006560441 0.86738706 -0.004564454 -0.0017089241 0.57077 0.6069539 -0.0035128118
0.17081065 0.83932227 -0.016823035 1.1018269 -0.98803467 1.4116035 -0.65984327 0.80116844
1.8705814 0.5391596 0.6111143 0.5339593 -0.031189287 3.1037989 0.009958511 -0.44226217
0.6865786 0.07294591 1.2227798 -0.009789452 -2.4331915 -0.20962578 -0.01918849 0.5939801

conv2.bias f4 [90]
00000000: 8634 723f 4408 683f 4c43 6dbf c274 f7bf
00000010: 2b4d 8dbe 7771 973f ae2c bbbe dc5a aabe
00000020: 4332 8ebf 0908 a23f cbe9 193f 2a69 8f3e
00000030: bbbf adbf 95ba cd3c b6f0 5d3f e470 dabf
00000040: 0f35 a23f bc13 1bc0 5d66 34bf cc6a 4ebf
00000050: 82d8 3e3e e9f2 613f e502 953f 0a53 94be
00000060: bfeb e1bf 9253 9f3e 0d4d 60bf f455 a73e
00000070: 42f3 0dbf 2a21 9ebe 17e8 94be 8ebe bb3f
00000080: 077f e6bd 93f8 b13f 9738 8bbd bdd5 ddbf
00000090: 91bf 36bf 0b4d 06c0 4a34 ca3f ee4c 123f
000000a0: b57d 8e3e de5c 313f cc99 903f 1e20 dabe
000000b0: ec80 5fbe 21ea 3c3f 5ccf 64bf 4654 3fbe
000000c0: 6490 52bf 6acb b73f 8da1 5a3e 45aa 36bf
000000d0: 38ea 463e 351b 1a3f 8039 59bf f947 d4bd
000000e0: efa7 0abe 0004 0abf 2c26 1fbf 7120 ce3e
000000f0: e7fc 19bf 5883 c1bf 2889 2cbe 1e85 6bbf
00000100: 6b8e 57bf 6c40 5bbf 1084 a5bf e87f c83f
00000110: 5ced 46bf 0524 87be 69b8 ccbc fba9 e3be
00000120: 6998 fd3f c165 90bf 0a43 1c40 f77d b03d
00000130: 1e90 8fbf ee39 a3bf 5b85 f73f 50e1 873f
00000140: 8215 2cbf 91d4 f2be 1e32 86bf 66ff 1040
00000150: 7d69 d0be f0f3 48bf 9906 a93b 2236 cb3f
00000160: bfc9 69bf a778 b7be
0.94611394 0.9063761 -0.9268081 -1.9332507 -0.27597937 1.1831502 -0.36557525 -0.33272445
-1.1109089 1.2658702 0.60122365 0.2800992 -1.3574136 0.025113383 0.8669542 -1.7065701
1.2672442 -2.4230795 -0.70468694 -0.8063171 0.18637279 0.88261276 1.1641508 -0.28969604
-1.7650069 0.31118447 -0.8761757 0.32682765 -0.55449307 -0.30884677 -0.2908332 1.4667528
-0.11254697 1.3903984 -0.06797903 -1.7330853 -0.7138606 -2.0984523 1.5797207 0.57148635
0.27830282 0.6928233 1.1296935 -0.42602628 -0.21826524 0.7379475 -0.89378905 -0.18684492
-0.8225157 1.4358952 0.21350689 -0.7135356 0.19425285 0.60197765 -0.84853363 -0.1036529
-0.13540624 -0.53912354 -0.6216762 0.40259126 -0.60151523 -1.5118208 -0.16849196 -0.91999996
-0.8420169 -0.85645175 -1.2930927 1.5664034 -0.7770593 -0.26394668 -0.024990277 -0.44465622
1.9812137 -1.1281053 2.4415917 0.08617776 -1.1215856 -1.2752054 1.9337572 1.0615635
-0.6722032 -0.474278 -1.0484045 2.2655883 -0.4070548 -0.7849722 0.005158257 1.5875895
-0.91323465 -0.35834238

conv2.lin.weight f4 [90, 90]
00000000: d750 213f 91a6 363f bcfb 623f 6313 b2be
00000010: a1c2 223e 3716 d6be a436 5ebf 36e6 64bf
00000020: e6fc 8ebc f632 c1be 7cf8 3f3d 4275 6b3f
00000030: 0e90 d2be 0d65 bfbe cc85 483f f347 09bf
00000040: c805 9bbe 0f3e 0f3f 5e76 793f 2e0f 323f
00000050: c041 d8bd 523c 12bf d8b9 2b3f 1592 8f3f
00000060: 36f6 3bbf 6e9c ccbe e49b 96bd 1515 fa3e
00000070: 739e f8bf 5182 b63e 2778 47be 3303 a6bf
00000080: d59f b9bf 3ffc 833f 74ba 7dbf 1076 cabf
00000090: bf46 80be 23be 7f3e 5b7c 3dbf 6d13 e93c
000000a0: a91f 79bf f99e 10c0 1d42 043f c7bd 97bf
000000b0: f920 63bf 3a03 bebc 6c0d b13e 25e3 aebf
000000c0: ea2f c23d a808 a73e 6ac2 fe3d b580 1fbe
000000d0: 4af0 b8be 8dc6 9bbf 0660 b33e 8dc2 00bc
000000e0: adc1 02be 3d21 9bbe ce77 f73d da09 003f
000000f0: 7a7a 643e d58f 8ebe f469 9cbd 6361 73be
00000100: 4f8a 95be fbf9 e83d dab6 0ebe 4064 413f
00000110: f6de d8bf 1904 6abf 3c9c 0dbe 978e b23d
00000120: c749 97be 6635 3dbb faf6 443f 7778 1e3e
00000130: 5bef f0be b523 b13f 86e2 a1bf 6520 ae3f
00000140: 0f88 0540 e435 83be 2276 da3f 215b eebe
00000150: 4e34 213d d2f4 52bf 201b a3bf 74b1 fdbd
00000160: f14d 4cbf 42ff c9bd 2182 d3be 976b 33bd
00000170: 3146 afbf 622f ab3a 2bfa 993f 48a7 c93e
00000180: 52fa 1c40 a60d 023f 2f3f 55bf 8f19 ecbf
00000190: 7bcb d2bf 4c6b 5e3e b7dd dcbd d77f f0be
000001a0: 59e5 0d3f 2bcb 253f 54fe 75bf c297 0cc0
000001b0: fcc5 d33f 85c3 99bf bc35 65c0 9f4e d7bf
000001c0: f9e8 983f 9ea7 373f 50bb 1c3e a708 b53f
000001d0: 375e 84bf ddaa ff3f f8b2 2b3f 5e7b 293e
000001e0: a2c6 2dbf f02d a0bf bdc5 b5bf 9230 dabe
000001f0: 0cd6 373f 5137 e93f 4339 3abf a6ba 8c3f
00000200: 1a80 acbf 0bc7 583f 7d42 48bd 8e9f f63e
00000210: af28 2fbf 4aca 033f f244 43bf 99ac 9bbf
00000220: 81a4 7c3f 5931 e43e c15a 0a3f 6f51 90bf
00000230: 9098 3cbf 0a20 b73f 0698 98be 9947 10bb
00000240: 09dd 0f40 a1ef d73c 5ca5 eebd eec5 ffbf
00000250: 2153 c23d 561f d73f 0f76 b23e 05d3 19c0
00000260: 8608 393f 26f3 ccbe 04fb 1040 730b fa3f
00000270: 6503 823f 23e5 a73f 9a59 b4bf 640e e93e
00000280: 7d3c 213f 402e 3f3f 7a62 abbf ff64 01bf
00000290: f69c 53bf 453a bfbd 03d2 f43f 784b 58bf
000002a0: 92c6 3f3f 9243 31bf 1005 df3e fd8c c73f
000002b0: 9009 5b3f 99fa 873e b26e debe 7dd0 1a3f
000002c0: 86e3 96bd 0bdc ccbe 84c0 833f 6d67 863e
000002d0: 8403 b5be 12c8 a93d 6bbc c93f 00c2 9ebf
000002e0: 8159 4240 d27a b3be 1dcb a33d 7507 e5bf
000002f0: 1446 90bd c5b6 173f 08e5 e13e dcb5 19c0
00000300: 33a3 6bbf 976d 07c0 2fd9 e23f 1f89 a8be
00000310: bfcd 2dbe b373 7e3f cbd7 0c40 26bf 6ebf
00000320: f84e 29c0 dfcd e03f 67fd b2be 85df 03c0
00000330: c09e 7dbe 84b1 a8be 6bd0 6c3f e13f 9a3f
00000340: 3688 d3bf 280e db3f 6cbe 733f 79d1 3140
00000350: bbc7 63bf 0a58 c73e b320 ccbe a936 35c1
00000360: fa60 37bf ab40 d1be ec10 d3bf e63e b33e
00000370: 9f52 57bf dbf1 3e3f 70b5 7dc0 edec 67be
00000380: 205d c03f 404c 1540 5313 2040 c371 693e
00000390: a857 fb3f 6c6e 413e 778a 723f 1997 b33f
000003a0: 8920 973d c6ce 833f 3b73 99be 43aa 403c
000003b0: 0233 11c0 577f 46c0 95e3 0b40 fd91 9abf
000003c0: c757 8cbf f934 28bf 782c c73f 4e90 e33e
000003d0: 2101 173f f001 6a3f 6b18 9b3e 9394 74c0
000003e0: 4718 f2be 3627 6e3f 4805 0e3e d310 9ebf
000003f0: 420a f43e 4906 2a3d 0c82 1140 07f0 aa3f
0.63013977 0.7134791 0.88665366 -0.34780416 0.15894558 -0.41813824 -0.86802125 -0.89413774
-0.017454576 -0.37734193 0.046867833 0.91975796 -0.4112553 -0.37381783 0.7832916 -0.5362541
-0.30277848 0.5595407 0.9744624 0.6955441 -0.10559416 -0.5712329 0.6708045 1.1216456
-0.73422563 -0.39963096 -0.073539525 0.4884421 -1.9423355 0.356463 -0.19479428 -1.2969726
-1.4501902 1.0311354 -0.9911263 -1.581728 -0.25053975 0.24974875 -0.74017876 0.028451646
-0.97313935 -2.259703 0.5166338 -1.185479 -0.8872219 -0.023194898 0.34580553 -1.3663069
0.09481795 0.32623792 0.12439425 -0.15576442 -0.36120826 -1.2169968 0.35034198 -0.0078588845
-0.12769194 -0.30298796 0.12083398 0.5001503 0.22312346 -0.2784411 -0.076373965 -0.23767619
-0.29207084 0.11375805 -0.1393694 0.75543594 -1.6943042 -0.914125 -0.1382913 0.08718603
-0.29548475 -0.002887094 0.76939356 0.15475641 -0.47057614 1.3839022 -1.2647254 1.3603636
2.0864294 -0.25627053 1.7067301 -0.465539 0.039356522 -0.82404816 -1.2742653 -0.12387362
-0.7980643 -0.0986314 -0.41310218 -0.043803778 -1.3693296 0.0013060386 1.202947 0.39385438
2.4527783 0.50802076 -0.83299536 -1.84453 -1.6468347 0.21720618 -0.10784476 -0.46972534
0.5542808 0.64763135 -0.960912 -2.1967626 1.6544795 -1.2012793 -3.5814047 -1.6820868
1.1946098 0.7174014 0.15305829 1.4143265 -1.0341252 1.9974018 0.6706996 0.16550967
-0.67881215 -1.2514019 -1.420097 -0.4261518 0.71810985 1.8220006 -0.72743624 1.099446
-1.3476593 0.84678715 -0.048891533 0.48168606 -0.68421453 0.51480544 -0.7627708 -1.2162048
0.98688513 0.445689 0.5404473 -1.1274852 -0.7367029 1.4306653 -0.29803485 -0.0022015332
2.247866 0.026359381 -0.116526335 -1.9982278 0.09488512 1.6806438 0.34855697 -2.4035046
0.7227863 -0.40029258 2.2653208 1.9534744 1.0157286 1.3116802 -1.4089844 0.45518792
0.6298292 0.74679947 -1.3389428 -0.5054473 -0.8266138 -0.09337286 1.912659 -0.84490156
0.7491237 -0.6924373 0.4355855 1.5589901 0.85561466 0.26558378 -0.4344383 0.6047438
-0.073676154 -0.4001163 1.0293126 0.26250783 -0.35354245 0.082901135 1.5760626 -1.2402954
3.036713 -0.35054642 0.07997725 -1.7892901 -0.07044616 0.5926326 0.4412005 -2.4017248
-0.920459 -2.1160638 1.7722529 -0.32917115 -0.16973017 0.99395293 2.200671 -0.9326042
-2.6454449 1.7562827 -0.34958956 -2.0605175 -0.2476759 -0.32947934 0.9250552 1.2050744
-1.6525943 1.7113695 0.95212436 2.7784102 -0.8897664 0.38934356 -0.39868698 -11.325845
-0.7163235 -0.4086965 -1.6489539 0.35008925 -0.84110445 0.7458779 -3.964199 -0.22648974
1.502842 2.332779 2.5011795 0.22797303 1.9636126 0.18889779 0.9474253 1.4030486
0.073792525 1.0297477 -0.29970726 0.011759344 -2.2687383 -3.1015222 2.1857655 -1.2075802
-1.0964288 -0.6570583 1.5560446 0.44446033 0.589861 0.91409206 0.30292067 -3.8215683
-0.47284147 0.9302858 0.13869202 -1.2348884 0.47664076 0.0415099 2.2735624 1.33545

conv3.bias f4 [90]
00000000: 4f1e 2dbf d088 5dbe 05be 1ebf e7b9 dc3f
00000010: 9827 5abf 6a0d 80bd 9f6f b6bc ccbf 70be
00000020: 487c 173f 4b3a 803d 27e0 bdbf c8b6 713f
00000030: 2822 8c3f 32ec 1240 896c 07bf c712 d13f
00000040: d2d1 c9bf 3208 5ebf 2f9a 29bf 321a 563f
00000050: 025e 733f 0450 66bf c075 f83d 9fef 1540
00000060: 186d 9f3f 2cae 8a3f 3f0e 4f3e f63e c0be
00000070: 3574 c73f b343 603e 3097 34bf 61e6 12c0
00000080: 555d afbf 5106 0d3f 9ff7 233f 5f77 bebf
00000090: 20b2 59bf fc85 92bf bc2a 0340 c51c 0240
000000a0: 525a 413e 98ba 9bbf 9b93 3e3f 5e49 9240
000000b0: 4390 2cc0 cc1f ed3e 1e7b 5bbe a539 b93f
000000c0: 5a00 303e ebc9 343f 6c06 c8bb e36d 95bb
000000d0: f3fb 6fbe 3db1 9cbd a201 213f 3282 ba3a
000000e0: 56bd e9bf 1a2e c93f c902 8f3e d04c 8a3f
000000f0: d98b 82bf c669 363f d4e4 9d3e 9b3a b9be
00000100: f721 d33f dd55 923e 2315 59bf e7b8 a33e
00000110: 8a61 33bf 0cea cf3e b960 313f 424f 1e40
00000120: bad5 89c0 7a20 933f 673c 01bd 17ce 9abf
00000130: 528a 20c0 a9c1 b83f d54e b6bd 7486 2bbf
00000140: b19f 233e 3963 9b3f 78f2 843f 82e7 61bf
00000150: 1183 66bd ad3f cabd 4d65 d93f 60c5 803f
00000160: e2a9 cbbe 35ed 593f
-0.6762437 -0.21634221 -0.62008697 1.7244233 -0.85216665 -0.062525585 -0.022270022 -0.23510665
0.59174013 0.062611185 -1.4834031 0.9441953 1.0947924 2.2956662 -0.52899987 1.6333855
-1.5767157 -0.86731255 -0.6625089 0.8363372 0.9506532 -0.89965844 0.12131834 2.3427503
1.2455168 1.0834403 0.20220278 -0.37548035 1.5582339 0.21900825 -0.70543194 -2.2953112
-1.3700358 0.55087763 0.64049715 -1.4880179 -0.8503742 -1.1447139 2.0494833 2.033006
0.1888211 -1.2166319 0.7444398 4.571456 -2.696305 0.46313322 -0.21433684 1.4470717
0.17187634 0.706206 -0.006104281 -0.0045602187 -0.23435955 -0.07650993 0.62893116 0.0014229475
-1.8260906 1.5717194 0.27931812 1.0804691 -1.0198928 0.7125515 0.30838645 -0.36177525
1.649474 0.28581133 -0.8479788 0.31977007 -0.7007071 0.4060825 0.6928821 2.4735875
-4.3073397 1.1494286 -0.031551745 -1.2094144 -2.5084424 1.44341 -0.08901755 -0.67002034
0.15978886 1.2139655 1.0386496 -0.8824388 -0.05627734 -0.098754264 1.698404 1.0060234
-0.39778048 0.85127574

conv3.lin.weight f4 [90, 90]
00000000: ee6c 4dbf 8747 70bf 12e4 4c3f 4b6c 5dbf
00000010: c504 a8be 1a5e d5bf 841a b0be 2f71 a3bf
00000020: a396 f63f c736 e23e ada3 4abe 7859 e53e
00000030: c385 7b3f acd4 78be 69ae 97bf caf5 8c3f
00000040: 3bf2 b93f 2229 4e40 c53a 52be bcb4 92bf
00000050: 13d6 2f40 495f da3e b5b0 1b3f 7738 01c0
00000060: 6425 debf 9264 163f 43d4 a73f c2cd b8bf
00000070: a88a dabf 61aa 5d40 827a c9bf dcdc 5e3f
00000080: c0c0 cf3f 9bd4 29c0 1412 e83f 2a03 413f
00000090: 3a6b 893f 5513 d83e 764f bdbf b16b 99be
000000a0: d867 253f 456f 163f 6ffe 3ebf 2f80 6d3f
000000b0: 5ceb 263d e3ba c03e 2433 21bf f245 4cbe
000000c0: 8bb7 0ebe 2a17 7e3e 7d2a a23f d4ff e43e
000000d0: 8ccf be3e f868 4cbe 6f5b 8a3e 5d6f 153f
000000e0: 1411 14c0 a52a 1bbf 7dc1 d03e 998e 13bf
000000f0: 4260 acbf 6e7b f73c 47da 25c0 26ee 1cbd
00000100: d9b2 4fbf 7266 8dbf a7a1 71bf 9920 8ac0
00000110: 3002 b4be a28f e6bf 2e92 1e40 4447 0bbe
00000120: 5166 813e 85f5 9d3f eb05 a0bf 1e01 453e
00000130: a5e9 ec3f 7bde 2d3d 24e4 49bf f507 ccbf
00000140: 7fae ea3f 2e2c 58be b159 c6be 2eba a1bf
00000150: c260 51bf 463b e73f 9a39 4bbe 3e7e 74be
00000160: 4064 ac3f f2c5 133f 8d26 edbf 35f4 b8be
00000170: 76b1 9a3f 58e4 d9be 7dba e93f 14dd f53f
00000180: 7e5b b7be 8819 11bf d1b9 8b3f e2e0 543f
00000190: 9360 0b3f 95f4 443f b84a aebf 6d2f 4ebf
000001a0: e7d8 00bf 3539 5abf 24fd 76be c6c3 fabe
000001b0: 6375 07bf bf34 9fbe a111 fdbe 08b7 213f
000001c0: dd3a fbbe a672 97bf d2c4 fcbd caa3 d73f
000001d0: 509f bc3d f2ae 263f de7f 283f 8230 45bf
000001e0: 9697 00c0 3c2c d53e e4e2 de3d 05f2 8d3f
000001f0: 577e f53e 8b96 523f f707 113f 595e 8bbf
00000200: 39a7 08c0 7563 bebf 14cc e7bf 4489 9f3e
00000210: 000c 9b3f d226 14bf acf4 5a3f ac01 e1bf
00000220: 103c 93bf 3ae5 733f 7ba1 1dbf 6b52 423f
00000230: a3f5 fd3f 1993 a13e 3d6f fcbe 4501 443f
00000240: b0cd 95bf d97a c13e 61c1 eabf fabd b6be
00000250: aaea 4ebe 8731 0fbf 4718 4740 634f 473d
00000260: fcf3 d43b 88e5 a73e 74f2 833e cdd6 3f3d
00000270: e3d3 82bf c7a9 abbf 9e1d 89bf f0c0 2bc0
00000280: 652c 9b3e 2e85 3f3e 025b febe c673 26bf
00000290: 3fc8 3d40 199c 9abf 25b9 c73d d87d 4c3f
000002a0: 3a85 9bbf b2ed b53f b2b0 0a40 9ed4 33be
000002b0: c11c 323f 0476 553f db94 113f 5f1f 1640
000002c0: 3562 76be 6983 c1bf 20b0 54be 4ded 2a40
000002d0: 69da 6640 a339 bbbe cc35 e7bf 158a a3bf
000002e0: 8f36 823f b658 08c0 accc 23c0 40fc 7cbf
000002f0: 088f 25bf 42e2 b8be 37b9 2dbf f1b8 a1bf
00000300: bb67 8cbe cd4c c23f 41b8 fc3f b9e1 2540
00000310: e3b8 1b40 9966 cf3f 2820 d8be b1dc 013e
00000320: 48cd 6740 af00 d93e a9d4 43be d4c5 ef3e
00000330: 54a2 913e 61ff 8a3d cc79 aa3e bc01 f43f
00000340: 8a54 a1bf 21dd ecbf 6356 94bf aacf b33f
00000350: 8d4e 973f d823 6e3f 631d 833e da15 f3bf
00000360: d5b0 713f 26bf a4bf e383 563f f834 b7bd
00000370: 52aa c5bf c27f e0bd e92b 813f 9529 02bf
00000380: f4ea cdbd 83ff fbbe ffac 533e 20c2 6abe
00000390: 453f 64be e9a5 b53e 324e f5bf d7bc 0b40
000003a0: f9d5 d4bb 4dd0 1940 168e 9cbe 6388 b83e
000003b0: 0a95 4cbf 3c25 c5bf 6859 5bc0 a024 f5bd
000003c0: a292 673f b650 4840 2a04 02bf da8b 0dc1
000003d0: d54a bb3e 5185 a53f b47a 4ebf 2751 493f
000003e0: a4f8 8dbe 41f0 34be a53b dc3f 1180 08c0
000003f0: 5681 db3d a26e aa3f 9643 e1bf 488f d83e
-0.8024434 -0.9385914 0.8003551 -0.86493367 -0.3281614 -1.6669343 -0.3439523 -1.2768916
1.9264721 0.44182417 -0.19789 0.44794822 0.9825098 -0.24299878 -1.1850101 1.1012509
1.4527048 3.2212605 -0.20530231 -1.1461406 2.747441 0.42650822 0.6081651 -2.0190713
-1.7355161 0.5874721 1.3111652 -1.4437792 -1.7073565 3.463524 -1.5740511 0.87055755
1.6230698 -2.6536014 1.8130517 0.7539545 1.0735848 0.4220225 -1.4789875 -0.29964975
0.6461158 0.58763534 -0.74606985 0.9277372 0.0407518 0.37642583 -0.6296866 -0.19948557
-0.13937204 0.24813524 1.2669216 0.4472643 0.3726772 -0.19961917 0.27022883 0.5837305
-2.3135424 -0.60611945 0.4077262 -0.5763946 -1.3466876 0.030210223 -2.5914476 -0.038313054
-0.81132275 -1.1046889 -0.94387287 -4.316479 -0.3515792 -1.8012583 2.477672 -0.13601404
0.25273374 1.2340552 -1.2501806 0.19238707 1.8508803 0.042448502 -0.7886374 -1.5939928
1.8334502 -0.21110603 -0.38740304 -1.2634943 -0.81788266 1.8064964 -0.19846192 -0.23876283
1.3468094 0.57723916 -1.852739 -0.36123815 1.2085407 -0.42557025 1.8260037 1.9208093
-0.3581199 -0.5667958 1.0916082 0.83155644 0.54444236 0.769357 -1.3616552 -0.80541116
-0.50330967 -0.8524354 -0.24120003 -0.48977488 -0.5291349 -0.3109493 -0.49427512 0.6316991
-0.49068347 -1.1831863 -0.12342228 1.684686 0.09210074 0.65110695 0.6582011 -0.7702714
-2.009252 0.4163531 0.1088312 1.1089483 0.47947952 0.8226096 0.5665278 -1.0888168
-2.1352065 -1.4874102 -1.8109155 0.31159413 1.2113037 -0.57871735 0.8552959 -1.7578635
-1.1502705 0.95271647 -0.61574525 0.7590701 1.9840587 0.3155754 -0.49303618 0.7656444
-1.1703396 0.37789038 -1.8340265 -0.35691816 -0.20206705 -0.5593495 3.1108568 0.048659693
0.0064988118 0.32792306 0.25770915 0.04683571 -1.0220913 -1.3411187 -1.0712163 -2.683651
0.30307308 0.18703148 -0.49678808 -0.65020406 2.965347 -1.2078887 0.097521104 0.7987952
-1.2150033 1.4213164 2.1670346 -0.17561576 0.69575125 0.833832 0.5686776 2.3456647
-0.240609 -1.5118228 -0.20770311 2.6707337 3.6070807 -0.3656741 -1.8063293 -1.2776514
1.01729 -2.1304145 -2.5593672 -0.988224 -0.64671373 -0.3611012 -0.6786074 -1.2634565
-0.2742289 1.5179688 1.974373 2.591902 2.4331596 1.6203185 -0.42212033 0.12681843
3.6219044 0.42383334 -0.19124092 0.46830618 0.2844416 0.06786991 0.3329605 1.9063029
-1.2603924 -1.8504983 -1.1588863 1.4047749 1.1820847 0.93023443 0.25608358 -1.8991044
0.9441045 -1.2870834 0.83794993 -0.0894565 -1.5442603 -0.10961868 1.0091525 -0.508447
-0.100545794 -0.49218377 0.20671462 -0.22925615 -0.2228976 0.35478142 -1.9164488 2.1834009
-0.006495234 2.4033387 -0.30577153 0.36041555 -0.79914916 -1.5401988 -3.427332 -0.11969876
0.9045812 3.1299262 -0.50787604 -8.846643 0.3658053 1.293131 -0.8065598 0.78639454
-0.2772876 -0.17669775 1.7205702 -2.1328166 0.10718028 1.3315012 -1.759875 0.42296815

conv4.bias f4 [90]
00000000: d2e8 5b3f 438b 693f 3e37 d53e e785 c83f
00000010: c9b2 09be 8ba0 67bf 061f f4bc 9d03 4c40
00000020: f46f d03f de10 9c3f e11d e23f a3cd ec3e
00000030: 04b0 633f 25ae 193f 69c7 6a3f a31f 883f
00000040: e954 5c3f 597c da3f fc15 863f ccb7 623f
00000050: d0de 2dbf bcbe 9f3f 5e5b aa3d 1379 56bf
00000060: cb08 1f40 ccd8 52bf 219f d83e ec73 2940
00000070: 8158 33bf 1e3e 763f 3205 3d3f 246a f8bd
00000080: 046c 69be 74ab b9bf b9c5 9d3f d263 0b3d
00000090: 47b6 0040 5a4c 83bf 46c2 583f c4b7 593f
000000a0: e11c b43f d31b 463f fe1e 7a3d 904f b03e
000000b0: be9a 71bf f7f7 ad3d 33b4 8e3f 5e68 a33f
000000c0: beeb a23f 675a b53f b23c 863e 0312 ec3f
000000d0: 8b14 3540 3500 0c40 ae2a 22be 9a92 fbbd
000000e0: c03a 433f 0d29 6b3f 591d dd3e ee25 cbbe
000000f0: db6b 853f 91ea 373f e5a1 1abf 7bbc bfbe
00000100: 07ff 913f 7a59 99bf 4432 883f 6a49 6e3f
00000110: c879 5abf 5798 c03f 689a c83d deb9 343f
00000120: 341c 773e 172f 9b3f 5e53 ce3f 7cc2 043f
00000130: 003a c83f 5adc de3e 886b 9c3e 8010 393e
00000140: 506d 07bf 175b a23f 706f e93d 2ca0 7c3f
00000150: 6d26 2cbf 1cc3 e6be 1e3b dc3e e618 9c3f
00000160: 2580 6d3f 265c ce3f
0.8590213 0.9122812 0.4164371 1.5665864 -0.13447107 -0.90479344 -0.02979995 3.1877205
1.6284165 1.2192647 1.7665368 0.46250638 0.88940454 0.6003135 0.91710526 1.0634655
0.8606706 1.7069198 1.0475459 0.885617 -0.6791811 1.2480083 0.08318208 -0.83778495
2.4849117 -0.82362056 0.42308906 2.6477003 -0.7005692 0.96188533 0.7383605 -0.1212962
-0.22795111 -1.4505448 1.2325965 0.034030743 2.0111253 -1.0257676 0.8467144 0.8504603
1.4071313 0.77386206 0.061064713 0.344357 -0.9437674 0.08494561 1.1148742 1.2766225
1.2728193 1.4168214 0.26218182 1.8442997 2.8293788 2.1875126 -0.15836594 -0.122838214
0.7626152 0.91859514 0.43186453 -0.39677376 1.042354 0.71842295 -0.6040328 -0.37448487
1.1405953 -1.1980431 1.064034 0.9308077 -0.85342073 1.504649 0.09795076 0.7059611
0.24131852 1.2123746 1.6119192 0.5185926 1.56427 0.4352749 0.3055079 0.180727
-0.5290117 1.2684048 0.11398208 0.986819 -0.67246133 -0.45070732 0.43013853 1.2195098
0.9277366 1.6121871

conv4.lin.weight f4 [90, 90]
00000000: a1f8 1c3e 5e17 d740 0e46 5ebe c6d3 94ba
00000010: 45e7 22bf d12d 79bd 40d2 1e3f 1563 62bd
00000020: 6835 9bc0 35c8 a13e 9d17 cdbf 9e6f a440
00000030: 4f12 a83e 0d41 893f 4e4b 1c3f 3592 f6be
00000040: a1c7 833c dee6 28bc 68ee 85bf 19ce 2c3f
00000050: eb7c cebf 70c7 6a3e 009c a4c0 e90e 3e40
00000060: debc 2f3f 52e5 2b3e e852 f03e cf72 aa3e
00000070: 6810 073e d10f 3fc0 7f1a 46be 946f dac0
00000080: 074b d83e 9b7e c9be f400 993c 4128 cdbe
00000090: 0de5 2a3f 091f 7b3e 8895 733f d1c1 9540
000000a0: 4f9c 423f 1268 24be b981 aebe d36f 023f
000000b0: fec8 4840 c2f7 b83e b2a2 26bf c919 9f3e
000000c0: 1c7f 8a3e f8f2 3a3f b2f0 0fc0 cab0 613f
000000d0: 7117 8abe e311 103f 2396 d6be 99ec 793e
000000e0: 2b47 55be fb55 2e41 b1fe 8ebf 96d6 7abe
000000f0: 24e5 983e e498 ea3f b988 1c3e 0a10 c83e
00000100: eefa 9940 bc6d 403d 8255 e13d d503 d8bc
00000110: 4294 11bf b4f9 8e3f b336 1340 7795 8e3e
00000120: 48da 4f40 8260 96bf 3f1d 97bf ef52 e73e
00000130: 7dc5 e93e 11c6 813e 1fbb 96be 66d5 11be
00000140: 1ea2 69bf 82d8 b7bf d3cf 90bd fce3 c4bf
00000150: e624 1240 e3c8 a8be ec01 5a3f 536e 593d
00000160: c928 2fbf bf3b e4bc 4cd1 343f 4d0c dbbe
00000170: d8dc 603e 87c0 993e 9e08 13c0 3d35 9b3f
00000180: c5a5 9abe 2fd5 35be 498c 003e 3b6d 653e
00000190: d104 fa3d 78d8 c93f 408f 183f 4fc6 04c0
000001a0: ef3c 9e40 0f12 8f3e f67f 2abf fc4f d8bf
000001b0: a09c 99bf ee5b a63e c14b 5a3e 4cf4 12be
000001c0: ca4f 01bf 31f4 2a3f ce4b 803f b69e 6abf
000001d0: 89d3 5240 9356 2e3f 1c52 843f a4a4 ffbf
000001e0: 4c3e 0c40 cbd6 29bf baf7 afbe 0894 17c0
000001f0: 3806 88bf 2a0f 89bf 500a ae3f df8a 0c40
00000200: 0983 b03f 332f 983f 06fb c33f d4d3 56be
00000210: 2dac 93bc eaee 1d3f 1815 b03d c27c ccbf
00000220: 60e7 0940 533d 66c0 ffc1 2a41 831d 463f
00000230: 96b4 f63c b834 d33e 4c2a d0bf 6f33 333f
00000240: 464a 103f 490b 7fbf 289f 40c0 c382 b53f
00000250: 3f51 9ebd a208 993e e2f5 1ebf 8b67 e03f
00000260: aabe c4bf be13 2dc0 92ae a33f 6a53 2bbf
00000270: 343e f9bc fb55 bcbf 5750 87bf 85b7 64c0
00000280: 7566 473f f6a9 babf fd3f 94bf 0344 173f
00000290: 0db7 02bf a736 373f 469c 98be 19b7 3d40
000002a0: 52a0 903e 60f1 263f 8450 ae40 2959 f53d
000002b0: 5257 8f3f 7c30 62be 4054 433f 0928 1f40
000002c0: 8a54 5a3f c540 2a3f c8ef fe3d 7633 3f40
000002d0: 5b3a 51be 520a 30be dcdd 89be 4c33 863d
000002e0: 5c74 9cbe 4f64 873d dfa3 aa3e 3768 f2be
000002f0: c739 a7be c7d2 a53e 5fec 8abe 97b1 b33d
00000300: a58f 24bd da1a 08bd 80a7 9dbc f159 90bb
00000310: 36a6 15bf b4a2 433d 27d4 823d 7751 44be
00000320: b669 293e cb4c 493e 1e69 d5bb e710 7fbd
00000330: 248e 5cbf 3ee3 80bf 16b1 f0bc 1aeb 083e
00000340: 6e77 13be 0475 01bf f239 20bf f334 a2bb
00000350: 4589 0d3e 01df be3e a1ec 0bbf e3d6 9a3e
00000360: 1d7e 50bd 88a9 3fbf 63d5 6cbe 167e 9bbe
00000370: b860 72be 147c 0e3e a131 ac3f fd35 42bb
00000380: 8ae9 10bf 68fe 12be e4c4 78bf 2499 51bf
00000390: 4753 2a3f cdc3 92be d3f9 d73d 0feb 0e3f
000003a0: 23ba ba3d 7262 0d3e e02e e0be ac00 343e
000003b0: 2451 ddbe bef3 38be 8d82 b63b 177f f4bd
000003c0: eeb1 85bd 889c 82be c811 92be 167c 96bf
000003d0: 6771 0cbe eb12 193e 76fe 6b3e fda8 3abe
000003e0: 3e4b 963e a71a 07bf 29bc 37be 1bf8 c1be
000003f0: f969 903e ab5b b6be 015c eebd 6e79 e1bc
0.1532922 6.7216024 -0.21706411 -0.0011354617 -0.6363414 -0.06083471 0.62039566 -0.055270273
-4.8502693 0.31598058 -1.6022831 5.138625 0.32826468 1.0722977 0.61052406 -0.48158422
0.016086401 -0.010308949 -1.0463381 0.6750198 -1.6131872 0.22927642 -5.144043 2.96966
0.68647563 0.16786698 0.46938252 0.33290717 0.13189852 -2.9853404 -0.19346045 -6.8261204
0.4224474 -0.39354405 0.018677212 -0.40069774 0.66755754 0.24523558 0.9515004 4.679909
0.7601976 -0.16055325 -0.34083346 0.5095188 3.1372676 0.36126524 -0.65092003 0.3107436
0.27050102 0.7302699 -2.2490659 0.88160384 -0.2697101 0.5627729 -0.4191142 0.24406661
-0.2082793 10.895991 -1.1171476 -0.2449592 0.2986232 1.8327909 0.1528653 0.39074737
4.811881 0.04697965 0.110026374 -0.026369015 -0.5686685 1.1169953 2.3002136 0.27848408
3.2476978 -1.1748202 -1.18058 0.4518046 0.45658484 0.25346425 -0.29439637 -0.14241561
-0.91262996 -1.4362948 -0.07070889 -1.5382075 2.283502 -0.32965764 0.8515918 0.05308373
-0.6842161 -0.02786052 0.7063186 -0.42782822 0.21959245 0.300297 -2.297401 1.2125622
-0.30204597 -0.17757104 0.12553515 0.2240495 0.1220795 1.5769186 0.5959358 -2.0746038
4.944938 0.27943465 -0.666015 -1.6899409 -1.2000923 0.32492012 0.2131796 -0.14351004
-0.50512373 0.66778857 1.0023134 -0.91648424 3.294161 0.6810085 1.0337558 -1.9972119
2.1913023 -0.66343373 -0.34368688 -2.36841 -1.0626898 -1.0707753 1.3596897 2.195976
1.3789989 1.1889404 1.5310981 -0.20979244 -0.018026436 0.6169268 0.08597773 -1.5975573
2.154747 -3.597493 10.672362 0.7738878 0.030115407 0.4125116 -1.6262908 0.70000356
0.5636333 -0.99626595 -3.0097141 1.418053 -0.0773034 0.298894 -0.6209394 1.7531599
-1.5370686 -2.70433 1.278765 -0.66924155 -0.030425169 -1.4713739 -1.0571393 -3.5737011
0.7789071 -1.4583118 -1.1582028 0.5908815 -0.51060563 0.7156777 -0.29806727 2.9643004
0.28247315 0.6521206 5.4473286 0.119798966 1.1198523 -0.22088808 0.7630043 2.4868186
0.85285246 0.6650508 0.124480784 2.987516 -0.20432417 -0.17191437 -0.26927078 0.06552753
-0.30557525 0.06610929 0.3332815 -0.47345135 -0.32661268 0.32387373 -0.27133462 0.08774107
-0.040176053 -0.033228733 -0.01924491 -0.004405253 -0.5845674 0.047762588 0.06388121 -0.19171701
0.16544232 0.196582 -0.006512775 -0.06227198 -0.8615439 -1.0069349 -0.029381316 0.13370934
-0.14401028 -0.50569177 -0.6258842 -0.0049501597 0.13821895 0.37279513 -0.5465794 0.3024207
-0.05090152 -0.7486806 -0.23128276 -0.30369633 -0.23669708 0.1391452 1.3452646 -0.002963423
-0.5660635 -0.14354861 -0.9717543 -0.818743 0.6653332 -0.2866501 0.10545697 0.5582742
0.09117534 0.13807085 -0.43785763 0.17578381 -0.43225968 -0.1806173 0.005569762 -0.11938303
-0.06528078 -0.2551005 -0.2852919 -1.1756618 -0.13715135 0.14948623 0.23046288 -0.18228526
0.2935428 -0.52775043 -0.17942871 -0.37884602 0.2820585 -0.35616812 -0.11638642 -0.027523722

out.weight f4 [1, 180]
00000000: d07e 2c3f 5cde 243f b9d6 c5bf 8025 243f
00000010: 710e 1e3f c5d8 0dbf 5811 65bf f7be 333f
00000020: ce7c 2e3f e9ba 313f 4ed2 383f 1019 1ebf
00000030: 9407 2e3f ff9f 083f 6622 2f3f 17a3 60bf
00000040: e845 313f ca74 363f 965b 383f 4645 2d3f
00000050: a58a e7be 1a76 293f 9f19 04bf 199f 19bf
00000060: 002e 193f abd4 df3e e76f 67bf 09d9 693e
00000070: b628 48bf 9cd5 2c3f 5263 c93f ba1c 6ebf
00000080: b703 a7bf 3be6 0ebf 5190 e1be 29c8 8abf
00000090: 04cd 213f e729 563f 6e9e 323f 605c 243f
000000a0: e6cc 313f 7e12 04bf 9329 a2bf b1d1 cabf
000000b0: b511 01bf b228 40bf a434 3c3f 402b 64bf
000000c0: c43e 223f daaa 303f a8a0 443f a71e 173f
000000d0: ce87 2f3f cfd6 2fbf c0f3 90bf 8463 b33e
000000e0: a0c3 333f 0bf0 99bf 87eb 3bbf 29fd 08bf
000000f0: 2e90 2b3f 967f 11bf 22b5 d7be 8763 29bf
00000100: c0f6 2d3f a0bd 883f ec7d 243f 681b 253f
00000110: 2011 223f f830 323f 47ad babe f655 18bf
00000120: 3f3d b7bf 6c61 433f 5dc1 35bf cc5f fabe
00000130: ec12 343f 32f7 303f c771 2ebf ed38 b83e
00000140: 0046 2dbf c04d 283f b03d 1e3f b23a 283f
00000150: 5a6f 1a3f 67fe 07bf 9430 5ebf 9cf1 91bf
00000160: 0edb 3b3f 33d9 323f 3a59 323f 4af2 983f
00000170: b526 a03e 8553 953f bf9c 8d3f 0de8 8bbe
00000180: e8da b6be 57b6 af3f f8d6 373f b938 8b3f
00000190: 202a 363f a156 d5bf 7c33 2a3f adea cb3f
000001a0: 7025 283f 26ef ccbf 980b 2b3f 0ad4 ad3f
000001b0: 69da 373f 847d 2b3f ff37 9cbf 37b2 453f
000001c0: a249 9ebf b6b7 2abf e685 593f a121 4b3f
000001d0: 2fb8 a1bf bd1f d53f 09f1 aabf 4e4c 373f
000001e0: dbfa e93e 72bb 87bf b7e1 0a3e 423f 25bf
000001f0: 9300 98bf 0c97 c3bf 43b9 c43f 5b18 633f
00000200: 0eb5 303f 9a67 2f3f 7495 6a3f 579a cabf
00000210: d3f0 853b eb4c b23d ebe4 b9bf f7a8 7ebf
00000220: 3c46 3c3f 0dd1 58bf d84b 563f 675f 803f
00000230: fe0e 5a3f 161c 723f 150d 8d3f 0d6b 9ebf
00000240: 93ef b1bf 54f9 903f a07f 413f 2c95 fabe
00000250: d799 c9be cfdf 61bf 5a30 363f d019 86bf
00000260: e135 b6bf acea d5bf 2840 c33f 34e0 903f
00000270: 0b4f 353f 1af1 323f f9ae 603f 1e6d 873f
00000280: b6cf ffbf 233e 02bf 19bd 79be 057f 353f
00000290: 3863 b9bf 2dff 1bc0 3e16 3f3f edff b43f
000002a0: 7e40 bdbf a133 8c3f 7020 a0bf cf63 4a3f
000002b0: fd0b 8f3f a0f4 323f 9724 bb3f 384b b5be
000002c0: 10d7 88bf 59c8 74bf 96a5 253f 85b4 a83f
0.67381 0.64401793 -1.5456153 0.6411972 0.61740786 -0.5540889 -0.8947959 0.70213264
0.68159187 0.6942583 0.721959 -0.6175699 0.67980313 0.53369135 0.6841186 -0.87748855
0.69247293 0.71271956 0.7201475 0.6768383 -0.45222965 0.66195834 -0.51601595 -0.6000839
0.59835815 0.4371694 -0.90405124 0.22836699 -0.7818712 0.6751344 1.5733435 -0.93012583
-1.3048009 -0.55820054 -0.44055417 -1.0842334 0.63203454 0.8365769 0.69772995 0.64203453
0.69453275 -0.51590717 -1.2668937 -1.5845243 -0.50417644 -0.75062096 0.73517823 -0.89128494
0.6337702 0.690107 0.7680764 0.59031147 0.68566597 -0.68687147 -1.1324387 0.35036862
0.70220375 -1.202638 -0.7340626 -0.5351129 0.67016876 -0.56835306 -0.4213038 -0.6616749
0.67954636 1.0682869 0.6425464 0.64494944 0.6330738 0.6960597 -0.36460325 -0.59506166
-1.4315566 0.7632053 -0.70998174 -0.48901212 0.7034137 0.6912719 -0.6814236 0.3598093
-0.67684937 0.6574364 0.6181288 0.6571456 0.6032616 -0.5312256 -0.86792874 -1.1401858
0.73381126 0.6986267 0.696674 1.1948941 0.3127953 1.1666113 1.106346 -0.27325478
-0.35713887 1.3727521 0.7181239 1.0876685 0.7115803 -1.6667062 0.6648481 1.5930992
0.65682125 -1.6010482 0.66814566 1.3580334 0.7181764 0.66988397 -1.2204589 0.7722506
-1.2366221 -0.6668657 0.8496994 0.7934819 -1.2634333 1.6650311 -1.3354808 0.71600807
0.456992 -1.0604079 0.13562666 -0.6454965 -1.1875175 -1.5280471 1.5369037 0.8870904
0.6902627 0.6851746 0.916343 -1.5828351 0.0040875464 0.08706077 -1.4522985 -0.9947657
0.7354467 -0.84693986 0.8370948 1.0029114 0.85179126 0.94574106 1.1019617 -1.2376419
-1.3901237 1.1326089 0.75585365 -0.48941934 -0.39375183 -0.8823213 0.7116753 -1.0476627
-1.4235193 -1.6712241 1.5253954 1.1318421 0.70823735 0.6989914 0.8776699 1.0580175
-1.9985263 -0.50876063 -0.24388541 0.7089694 -1.4483404 -2.4374497 0.74643314 1.4140602
-1.4785306 1.0953256 -1.2509899 0.79058546 1.1175534 0.6990452 1.4620541 -0.3540895
-1.0690632 -0.95618206 0.6470579 1.318009
