trained_model_1.pth (torch, 41467 bytes, 16 tensors)

conv_layers.0.att_src f4 [1, 4, 16]
0.020838575 0.28109223 0.2049398 0.26645118 0.17055729 -0.28106663 0.03919505 0.40771937
-0.27681044 0.4738312 0.12946887 0.54134095 -0.34180516 0.060889836 0.5427523 0.14104597
0.3960924 0.2368487 0.35834166 -0.2447123 -0.19797659 0.36594585 0.44084486 -0.09541862
0.43566114 -0.018452078 -0.3247857 0.45683715 0.20617963 -0.3530713 0.033227924 0.526136
-0.054482207 0.029141804 -0.27154183 0.34653455 0.36101973 -0.43677464 -0.24593548 0.5009984
-0.22712572 -0.2189187 -0.5603263 -0.04109243 -0.33955285 -0.60722005 -0.34093738 -0.20966999
-0.41668782 0.16065481 0.0012074203 -0.2299957 -0.1122829 -0.42082033 0.30129206 -0.04786034
0.038083576 -0.30810493 0.061520223 -0.3093494 -0.5934897 -0.17097907 0.29186776 0.3925833
00000000: a9b5 aa3c 52eb 8f3e bddb 513e 4a6c 883e
00000010: 92a6 2e3e f7e7 8fbe fd8a 203d 98c0 d03e
00000020: 19ba 8dbe 019a f23e 7d93 043e 5295 0a3f
00000030: 1601 afbe 9f67 793d d1f1 0a3f 5b6e 103e
00000040: a0cc ca3e 7788 723e 8f78 b73e dc95 7abe
00000050: 60ba 4abe 415d bb3e 6bb6 e13e d66a c3bd
00000060: fa0e df3e d028 97bc 504a a6be 8fe6 e93e
00000070: c120 533e c3c5 b4be 011a 083d d9b0 063f
00000080: bc28 5fbd cbba ee3c 8807 8bbe fa6c b13e
00000090: 94d7 b83e eda0 dfbe 83d6 7bbe 6e41 003f
000000a0: a593 68be 392c 60be 8b71 0fbf 8950 28bd
000000b0: dfd9 adbe c672 1bbf 588f aebe bbb3 56be
000000c0: 1b58 d5be b282 243e 4d42 9e3a fe83 6bbe
000000d0: 94f4 e5bd c375 d7be f442 9a3e 3409 44bd
000000e0: 86fd 1b3d eebf 9dbe a1fc 7b3d 0b63 9ebe
000000f0: f1ee 17bf 2315 2fbe b16f 953e ae00 c93e

conv_layers.0.att_dst f4 [1, 4, 16]
0.15527359 0.30159348 0.030048924 -0.12481462 0.030155351 0.052077707 0.3859868 0.25523227
-0.070562966 -0.5074417 -0.35043854 0.24793248 -0.120779924 0.052323192 0.2586485 -0.22089845
-0.17428859 0.33616596 0.256318 -0.06918172 0.10627595 -0.1068205 -0.24589399 0.39567134
-0.34636867 -0.44686982 0.15891233 -0.10124609 -0.21586016 -0.45177755 -0.27829897 -0.2837741
0.12867264 0.24246024 -0.40109953 0.36897665 -0.25825953 0.5137681 -0.4891233 0.49893755
0.34835553 0.5312328 0.09264478 0.5183658 -0.40326178 -0.5277952 0.40159032 -0.31242278
-0.22479679 -0.2528671 0.34476694 -0.05612212 -0.080358535 0.56497294 0.03845779 -0.30052438
-0.27561122 -0.33230284 0.20100102 0.18730047 0.060584787 0.069484204 -0.36178347 -0.06382475
00000000: 0a00 1f3e 766a 9a3e 2929 f63c cf9e ffbd
00000010: 5b08 f73c 6f4f 553d 10a0 c53e cead 823e
00000020: 5183 90bd b3e7 01bf ae6c b3be 03e2 7d3e
00000030: 775b f7bd d850 563d 946d 843e 3433 62be
00000040: b578 32be f21d ac3e 1d3c 833e 25af 8dbd
00000050: 35a7 d93d b5c4 dabd a2cb 7bbe 6f95 ca3e
00000060: 3c57 b1be 1fcc e4be eab9 223e 1c5a cfbd
00000070: 720a 5dbe 634f e7be 347d 8ebe d74a 91be
00000080: c3c2 033e 7f47 783e eb5c cdbe 82ea bc3e
00000090: 983a 84be 4e86 033f 5f6e fabe be74 ff3e
000000a0: a85b b23e dffe 073f 8cbc bd3d 9fb3 043f
000000b0: 5478 cebe 961d 07bf 3f9d cd3e e1f5 9fbe
000000c0: 2131 66be cc77 81be 4b85 b03e 4fe0 65bd
000000d0: 0493 a4bd 11a2 103f ea85 1d3d 55de 99be
000000e0: ea1c 8dbe 9923 aabe 36d3 4d3e b2cb 3f3e
000000f0: c127 783d bc4d 8e3d af3b b9be 8db6 82bd

conv_layers.0.bias f4 [64]
-0.10165665 -0.1690776 0.19266373 -0.17403021 0.08493949 0.15101682 0.16808027 0.09729463
-0.07393516 -0.07005763 -0.1725753 0.084592916 -0.24943359 0.1476584 -0.09067279 0.14123072
0.101164885 -0.09233328 -0.08159648 -0.19733328 0.041588187 -0.18557695 0.084845744 0.02887175
0.1397324 -0.15304565 -0.18107146 -0.07786381 0.06326066 0.054758042 0.025331873 -0.02225139
0.20444722 -0.1610371 0.20854782 -0.049562413 -0.07451152 0.21288073 0.06110668 0.079421334
0.15912323 -0.050611585 0.21113017 0.16766131 0.19798337 0.021823779 0.1395256 0.08442574
0.09983384 -0.26884088 -0.18070167 0.07250229 -0.0334249 0.11720708 0.16447037 0.21356852
-0.19344415 -0.13868418 0.145795 -0.071091086 0.2357778 -0.26994357 0.19254619 0.070607446
00000000: 5d31 d0bd ae22 2dbe a449 453e fa34 32be
00000010: c1f4 ad3d 27a4 1a3e 3c1d 2c3e 6842 c73d
00000020: 516b 97bd 607a 8fbd 94b7 30be 0d3f ad3d
00000030: 856b 7fbe c333 173e a8b2 b9bd c99e 103e
00000040: 892f cf3d 3b19 bdbd 0e1c a7bd bc11 4abe
00000050: 6058 2a3d e207 3ebe 9bc3 ad3d 7384 ec3c
00000060: 0316 0f3e 00b8 1cbe cc6a 39be 1077 9fbd
00000070: ce8e 813d f849 603d ca84 cf3c 8c48 b6bc
00000080: 9d5a 513e e9e6 24be 8f8d 553e f501 4bbd
00000090: 7f99 98bd 68fd 593e 004b 7a3d a7a7 a23d
000000a0: 33f1 223e 184e 4fbd 8232 583e 68af 2b3e
000000b0: 27bc 4a3e c8c7 b23c cddf 0e3e 67e7 ac3d
000000c0: af75 cc3d 83a5 89be dc09 39be 157c 943d
000000d0: 8ce8 08bd 440a f03d ec6a 283e b5b1 5a3e
000000e0: 3916 46be 3a03 0ebe 494b 153e 3498 91bd
000000f0: bc6f 713e 0b36 8abe d42a 453e a39a 903d

conv_layers.0.lin_src.weight f4 [64, 4]
-0.1167796 -0.3409822 0.12484676 0.1938955 -0.081031986 -0.7554234 0.081386805 0.037202835
0.13876353 0.6199687 -0.08904156 0.060639556 0.14095798 -0.7578527 -0.5256656 -0.17373708
-0.045572333 -0.23617032 0.21865733 0.22984628 0.15469657 0.45611215 -0.08232593 -0.104242444
0.3682523 0.68700826 -0.08555187 -0.19546206 0.23579967 0.20540197 -0.12121474 -0.037112057
-0.19257265 0.023329861 -0.38691399 -0.13921142 0.10961362 -0.21864563 0.071728736 -0.12007227
0.012558281 -0.53925854 -0.49404898 -0.24116172 -0.031820297 -0.23592342 0.20922357 0.2966097
-0.5455193 -0.43848705 0.10487353 0.02070336 -0.06094114 0.4779522 -0.10056818 -0.11830814
-0.11716135 -0.53269696 -0.09214609 -0.09353146 0.3433873 -0.2576121 0.3806482 0.13628726
-0.12058375 -0.10198314 0.34114984 -0.4047419 0.07551786 -0.08425104 -0.32956848 -0.039859757
-0.2686962 -0.7078694 0.05852359 0.15413088 -0.22381444 -0.8647564 0.07509951 -0.33261463
0.043967817 0.17288697 -0.06567543 0.116105735 -0.02005846 -0.60423136 0.077960946 -0.41221932
0.033269256 0.2411324 -0.1045563 -0.08862675 0.1581072 0.41353592 0.3458545 -0.09346264
0.20328248 -0.06482698 0.18135433 -0.36288092 -0.07476799 -0.16652112 -0.36560825 -0.19683278
-0.30866164 -0.8967299 0.07243368 -0.08996398 0.15034296 -0.13525686 -0.2465521 -0.04924749
0.09742528 0.16657387 0.43541855 -0.22854301 0.107953414 0.21474595 -0.08155443 0.08918708
0.23687112 0.16490011 -0.14320299 0.025887102 -0.146017 -0.12099639 0.05801374 -0.015380322
-0.008932267 0.8880164 -0.10186691 0.0020191688 -0.3118299 -0.4839627 0.11080053 0.078586325
-0.12212425 0.59425294 -0.10628972 0.041384384 -0.19325587 0.14626051 -0.09458908 -0.29100496
-0.14157896 -0.3833983 -0.15262283 -0.13692395 -0.04674061 0.4853495 -0.09802355 0.41878563
0.006169173 0.4462631 0.13452356 -0.12960306 -0.15816551 -0.3033485 0.29378566 0.245764
0.35373428 0.6889481 -0.09889851 0.20246275 0.059833854 -0.09948576 0.14863649 0.27880436
0.2698009 0.59295607 -0.097629614 0.12679742 0.06996861 0.33018717 0.495277 0.44781998
-0.0069032717 0.60238284 -0.100290895 0.28825754 0.07868431 0.17837174 -0.09525984 0.13300864
-0.05554152 0.51989865 0.3305695 0.23174971 0.12946491 0.31897956 0.27429405 0.20938464
0.048664544 0.33144352 -0.05618284 -0.1737595 -0.1664806 0.20610438 0.038661905 -0.47776705
-0.31732935 -0.28398547 -0.19731967 0.11358574 -0.19924845 0.3342159 0.37871507 0.24453424
0.072001524 0.052955978 -0.2389672 0.28926528 -0.09496225 0.7201204 0.46186993 0.18823878
-0.066095896 0.066597484 0.23661757 -0.21065862 0.08965752 0.9437765 -0.055135746 -0.5836109
-0.2589821 -0.14030015 -0.4380002 -0.26247373 -0.49620515 -0.7343512 0.058958367 -0.14295848
0.21370424 -0.03395489 0.33724084 -0.032964595 -0.09310147 -0.05104078 -0.13404396 0.41818124
0.1966037 0.71330994 -0.057846308 0.3158741 -0.2427131 -0.5430087 0.06841209 -0.031028306
-0.051995993 -0.17745742 0.37629747 0.06642759 0.24287868 0.18967678 0.26198685 -0.31750128
00000000: 252a efbd 3895 aebe a8af ff3d 8b8c 463e
00000010: 19f4 a5bd 6e63 41bf 20ae a63d 0062 183d
00000020: 0718 0e3e 45b6 1e3f 6c5b b6bd 2f61 783d
00000030: 4a57 103e a202 42bf 0592 06bf 22e8 31be
00000040: 0eaa 3abd a2d6 71be b5e7 5f3e d35c 6b3e
00000050: c768 1e3e 8887 e93e 7f9a a8bd 107d d5bd
00000060: 918b bc3e c6df 2f3f d235 afbd 3527 48be
00000070: 7875 713e e554 523e 6f3f f8bd d002 18bd
00000080: c431 45be 441e bf3c 9719 c6be 708d 0ebe
00000090: 1b7d e03d a4e4 5fbe 84e6 923d 73e8 f5bd
000000a0: 40c1 4d3c d90c 0abf fdf3 fcbe 19f3 76be
000000b0: 0056 02bd e995 71be b43e 563e 3add 973e
000000c0: 27a7 0bbf 6081 e0be efc7 d63d 189a a93c
000000d0: 6b9d 79bd 27b6 f43e b1f6 cdbd 8a4b f2bd
000000e0: 4af2 efbd d45e 08bf 17b7 bcbd 6c8d bfbd
000000f0: 76d0 af3e bce5 83be 52e4 c23e e38e 0b3e
00000100: 9df4 f6bd 89dc d0bd 31ab ae3e 553a cfbe
00000110: 1ca9 9a3d cf8b acbd 33bd a8be fc43 23bd
00000120: 8c92 89be ee36 35bf 6fb6 6f3d 7cd4 1d3e
00000130: 9d2f 65be ad60 5dbf c6cd 993d 774c aabe
00000140: 9917 343d 4809 313e d780 86bd d8c8 ed3d
00000150: a451 a4bc e8ae 1abf fda9 9f3d 690e d3be
00000160: 5845 083d 69eb 763e 9d21 d6bd f181 b5bd
00000170: dbe6 213e fbba d33e d713 b13e 5769 bfbd
00000180: 4829 503e 02c4 84bd f3b4 393e 87cb b9be
00000190: f61f 99bd 8384 2abe 0131 bbbe 888e 49be
000001a0: e608 9ebe 1790 65bf 1c58 943d 093f b8bd
000001b0: 81f3 193e c680 0abe 2778 7cbe bcb7 49bd
000001c0: e886 c73d 5792 2a3e 2eef de3e 2e07 6abe
000001d0: ae16 dd3d 5de6 5b3e 0206 a7bd b7a7 b63d
000001e0: 588e 723e 93db 283e cea3 12be 3011 d43c
000001f0: 7b85 15be f5cc f7bd d19f 6d3d bffd 7bbc
00000200: a558 12bc 0b55 633f 999f d0bd 0854 043b
00000210: 2ba8 9fbe f6c9 f7be 63eb e23d def1 a03d
00000220: 471c fabd f620 183f 6dae d9bd ac82 293d
00000230: dee4 45be 51c5 153e ebb7 c1bd 9afe 94be
00000240: 13fa 10be c84c c4be 2949 1cbe cb35 0cbe
00000250: 1573 3fbd bb7f f83e 92c0 c8bd 126b d63e
00000260: c626 ca3b 997c e43e 8bc0 093e aab6 04be
00000270: 24f6 21be 7f50 9bbe 136b 963e 8fa9 7b3e
00000280: a91c b53e e75e 303f 4d8b cabd 6552 4f3e
00000290: 5814 753d 31bf cbbd 2a34 183e 72bf 8e3e
000002a0: 5823 8a3e f8cb 173f 09f2 c7bd 2fd7 013e
000002b0: b44b 8f3d 4b0e a93e f294 fd3e a948 e53e
000002c0: d734 e2bb c335 1a3f 5065 cdbd 7e96 933e
000002d0: 3d25 a13d 15a7 363e 9717 c3bd 6b33 083e
000002e0: 817f 63bd 1418 053f 6840 a93e cc4f 6d3e
000002f0: 7392 043e 4a51 a33e 4570 8c3e ed68 563e
00000300: 7954 473d f7b2 a93e fa1f 66bd 03ee 31be
00000310: e479 2abe 070d 533e f25b 1e3d e29d f4be
00000320: fe78 a2be 8b66 91be 2b0e 4abe a49f e83d
00000330: c907 4cbe 591e ab3e f1e6 c13e 2f67 7a3e
00000340: 8975 933d 5ee8 583d d1b3 74be 941a 943e
00000350: 917b c2bd cf59 383f 377a ec3e abc1 403e
00000360: 495d 87bd 4364 883d e04b 723e e5b6 57be
00000370: 5d9e b73d 569b 713f 05d6 61bd 8667 15bf
00000380: 4d99 84be d8aa 0fbe 9041 e0be f562 86be
00000390: 9a0e febe 71fe 3bbf 547e 713d b563 12be
000003a0: 49d5 5a3e 4814 0bbd d5aa ac3e e205 07bd
000003b0: fcab bebd 2310 51bd d242 09be da1b d63e
000003c0: 7b52 493e 7b9b 363f 40f0 6cbd 40ba a13e
000003d0: c889 78be 9e02 0bbf a31b 8c3d 132f febc
000003e0: c0f9 54bd 66b7 35be 10aa c03e 300b 883d
000003f0: 30b5 783e a13a 423e 2423 863e 878f a2be

conv_layers.0.lin_dst.weight f4 [64, 4]
-0.1167796 -0.3409822 0.12484676 0.1938955 -0.081031986 -0.7554234 0.081386805 0.037202835
0.13876353 0.6199687 -0.08904156 0.060639556 0.14095798 -0.7578527 -0.5256656 -0.17373708
-0.045572333 -0.23617032 0.21865733 0.22984628 0.15469657 0.45611215 -0.08232593 -0.104242444
0.3682523 0.68700826 -0.08555187 -0.19546206 0.23579967 0.20540197 -0.12121474 -0.037112057
-0.19257265 0.023329861 -0.38691399 -0.13921142 0.10961362 -0.21864563 0.071728736 -0.12007227
0.012558281 -0.53925854 -0.49404898 -0.24116172 -0.031820297 -0.23592342 0.20922357 0.2966097
-0.5455193 -0.43848705 0.10487353 0.02070336 -0.06094114 0.4779522 -0.10056818 -0.11830814
-0.11716135 -0.53269696 -0.09214609 -0.09353146 0.3433873 -0.2576121 0.3806482 0.13628726
-0.12058375 -0.10198314 0.34114984 -0.4047419 0.07551786 -0.08425104 -0.32956848 -0.039859757
-0.2686962 -0.7078694 0.05852359 0.15413088 -0.22381444 -0.8647564 0.07509951 -0.33261463
0.043967817 0.17288697 -0.06567543 0.116105735 -0.02005846 -0.60423136 0.077960946 -0.41221932
0.033269256 0.2411324 -0.1045563 -0.08862675 0.1581072 0.41353592 0.3458545 -0.09346264
0.20328248 -0.06482698 0.18135433 -0.36288092 -0.07476799 -0.16652112 -0.36560825 -0.19683278
-0.30866164 -0.8967299 0.07243368 -0.08996398 0.15034296 -0.13525686 -0.2465521 -0.04924749
0.09742528 0.16657387 0.43541855 -0.22854301 0.107953414 0.21474595 -0.08155443 0.08918708
0.23687112 0.16490011 -0.14320299 0.025887102 -0.146017 -0.12099639 0.05801374 -0.015380322
-0.008932267 0.8880164 -0.10186691 0.0020191688 -0.3118299 -0.4839627 0.11080053 0.078586325
-0.12212425 0.59425294 -0.10628972 0.041384384 -0.19325587 0.14626051 -0.09458908 -0.29100496
-0.14157896 -0.3833983 -0.15262283 -0.13692395 -0.04674061 0.4853495 -0.09802355 0.41878563
0.006169173 0.4462631 0.13452356 -0.12960306 -0.15816551 -0.3033485 0.29378566 0.245764
0.35373428 0.6889481 -0.09889851 0.20246275 0.059833854 -0.09948576 0.14863649 0.27880436
0.2698009 0.59295607 -0.097629614 0.12679742 0.06996861 0.33018717 0.495277 0.44781998
-0.0069032717 0.60238284 -0.100290895 0.28825754 0.07868431 0.17837174 -0.09525984 0.13300864
-0.05554152 0.51989865 0.3305695 0.23174971 0.12946491 0.31897956 0.27429405 0.20938464
0.048664544 0.33144352 -0.05618284 -0.1737595 -0.1664806 0.20610438 0.038661905 -0.47776705
-0.31732935 -0.28398547 -0.19731967 0.11358574 -0.19924845 0.3342159 0.37871507 0.24453424
0.072001524 0.052955978 -0.2389672 0.28926528 -0.09496225 0.7201204 0.46186993 0.18823878
-0.066095896 0.066597484 0.23661757 -0.21065862 0.08965752 0.9437765 -0.055135746 -0.5836109
-0.2589821 -0.14030015 -0.4380002 -0.26247373 -0.49620515 -0.7343512 0.058958367 -0.14295848
0.21370424 -0.03395489 0.33724084 -0.032964595 -0.09310147 -0.05104078 -0.13404396 0.41818124
0.1966037 0.71330994 -0.057846308 0.3158741 -0.2427131 -0.5430087 0.06841209 -0.031028306
-0.051995993 -0.17745742 0.37629747 0.06642759 0.24287868 0.18967678 0.26198685 -0.31750128
00000000: 252a efbd 3895 aebe a8af ff3d 8b8c 463e
00000010: 19f4 a5bd 6e63 41bf 20ae a63d 0062 183d
00000020: 0718 0e3e 45b6 1e3f 6c5b b6bd 2f61 783d
00000030: 4a57 103e a202 42bf 0592 06bf 22e8 31be
00000040: 0eaa 3abd a2d6 71be b5e7 5f3e d35c 6b3e
00000050: c768 1e3e 8887 e93e 7f9a a8bd 107d d5bd
00000060: 918b bc3e c6df 2f3f d235 afbd 3527 48be
00000070: 7875 713e e554 523e 6f3f f8bd d002 18bd
00000080: c431 45be 441e bf3c 9719 c6be 708d 0ebe
00000090: 1b7d e03d a4e4 5fbe 84e6 923d 73e8 f5bd
000000a0: 40c1 4d3c d90c 0abf fdf3 fcbe 19f3 76be
000000b0: 0056 02bd e995 71be b43e 563e 3add 973e
000000c0: 27a7 0bbf 6081 e0be efc7 d63d 189a a93c
000000d0: 6b9d 79bd 27b6 f43e b1f6 cdbd 8a4b f2bd
000000e0: 4af2 efbd d45e 08bf 17b7 bcbd 6c8d bfbd
000000f0: 76d0 af3e bce5 83be 52e4 c23e e38e 0b3e
00000100: 9df4 f6bd 89dc d0bd 31ab ae3e 553a cfbe
00000110: 1ca9 9a3d cf8b acbd 33bd a8be fc43 23bd
00000120: 8c92 89be ee36 35bf 6fb6 6f3d 7cd4 1d3e
00000130: 9d2f 65be ad60 5dbf c6cd 993d 774c aabe
00000140: 9917 343d 4809 313e d780 86bd d8c8 ed3d
00000150: a451 a4bc e8ae 1abf fda9 9f3d 690e d3be
00000160: 5845 083d 69eb 763e 9d21 d6bd f181 b5bd
00000170: dbe6 213e fbba d33e d713 b13e 5769 bfbd
00000180: 4829 503e 02c4 84bd f3b4 393e 87cb b9be
00000190: f61f 99bd 8384 2abe 0131 bbbe 888e 49be
000001a0: e608 9ebe 1790 65bf 1c58 943d 093f b8bd
000001b0: 81f3 193e c680 0abe 2778 7cbe bcb7 49bd
000001c0: e886 c73d 5792 2a3e 2eef de3e 2e07 6abe
000001d0: ae16 dd3d 5de6 5b3e 0206 a7bd b7a7 b63d
000001e0: 588e 723e 93db 283e cea3 12be 3011 d43c
000001f0: 7b85 15be f5cc f7bd d19f 6d3d bffd 7bbc
00000200: a558 12bc 0b55 633f 999f d0bd 0854 043b
00000210: 2ba8 9fbe f6c9 f7be 63eb e23d def1 a03d
00000220: 471c fabd f620 183f 6dae d9bd ac82 293d
00000230: dee4 45be 51c5 153e ebb7 c1bd 9afe 94be
00000240: 13fa 10be c84c c4be 2949 1cbe cb35 0cbe
00000250: 1573 3fbd bb7f f83e 92c0 c8bd 126b d63e
00000260: c626 ca3b 997c e43e 8bc0 093e aab6 04be
00000270: 24f6 21be 7f50 9bbe 136b 963e 8fa9 7b3e
00000280: a91c b53e e75e 303f 4d8b cabd 6552 4f3e
00000290: 5814 753d 31bf cbbd 2a34 183e 72bf 8e3e
000002a0: 5823 8a3e f8cb 173f 09f2 c7bd 2fd7 013e
000002b0: b44b 8f3d 4b0e a93e f294 fd3e a948 e53e
000002c0: d734 e2bb c335 1a3f 5065 cdbd 7e96 933e
000002d0: 3d25 a13d 15a7 363e 9717 c3bd 6b33 083e
000002e0: 817f 63bd 1418 053f 6840 a93e cc4f 6d3e
000002f0: 7392 043e 4a51 a33e 4570 8c3e ed68 563e
00000300: 7954 473d f7b2 a93e fa1f 66bd 03ee 31be
00000310: e479 2abe 070d 533e f25b 1e3d e29d f4be
00000320: fe78 a2be 8b66 91be 2b0e 4abe a49f e83d
00000330: c907 4cbe 591e ab3e f1e6 c13e 2f67 7a3e
00000340: 8975 933d 5ee8 583d d1b3 74be 941a 943e
00000350: 917b c2bd cf59 383f 377a ec3e abc1 403e
00000360: 495d 87bd 4364 883d e04b 723e e5b6 57be
00000370: 5d9e b73d 569b 713f 05d6 61bd 8667 15bf
00000380: 4d99 84be d8aa 0fbe 9041 e0be f562 86be
00000390: 9a0e febe 71fe 3bbf 547e 713d b563 12be
000003a0: 49d5 5a3e 4814 0bbd d5aa ac3e e205 07bd
000003b0: fcab bebd 2310 51bd d242 09be da1b d63e
000003c0: 7b52 493e 7b9b 363f 40f0 6cbd 40ba a13e
000003d0: c889 78be 9e02 0bbf a31b 8c3d 132f febc
000003e0: c0f9 54bd 66b7 35be 10aa c03e 300b 883d
000003f0: 30b5 783e a13a 423e 2423 863e 878f a2be

conv_layers.1.att_src f4 [1, 4, 16]
-0.25604135 0.039443497 -0.47684288 -0.36178312 -0.022032753 -0.1979702 -0.11325324 0.48404136
0.12585306 0.266301 0.20250766 -0.025859857 -0.4100003 -0.15728427 -0.5725952 -0.3400453
0.091165245 0.5956446 -0.3873391 0.54253685 -0.19582216 0.1459648 -0.8077549 0.07384545
0.1800652 -0.124396876 -0.12258492 -0.08881083 0.6543541 0.65111524 -0.8555068 0.5330359
-0.6073338 0.23046292 0.65915513 0.6535663 0.37728652 0.32948884 0.10157078 0.10610029
-0.7047933 0.2515266 -0.10579609 0.118694454 -0.09924506 0.11230247 -0.37720814 -0.03394146
0.40760437 0.83326197 0.038764253 -0.66416335 0.56616735 0.15646215 0.25549403 0.44190824
0.09199366 0.024711423 -0.31194866 0.09468784 -0.07894567 0.05377361 0.11734379 -0.29061952
00000000: da17 83be 818f 213d c024 f4be a33b b9be
00000010: 087e b4bc b3b8 4abe 51f1 e7bd 45d4 f73e
00000020: a0df 003e 9b58 883e 2b5e 4f3e 0dd8 d3bc
00000030: 8feb d1be 210f 21be 9995 12bf 6b1a aebe
00000040: d8b4 ba3d 2a7c 183f 4f51 c6be b2e3 0a3f
00000050: 9b85 48be cc77 153e 06c9 4ebf 493c 973d
00000060: 0363 383e cac3 febd cd0d fbbd 74e2 b5bd
00000070: c083 273f 7daf 263f 7e02 5bbf 0a75 083f
00000080: 3a7a 1bbf 79fe 6b3e 64be 283f 1f50 273f
00000090: b32b c13e c3b2 a83e 5704 d03d 1c4b d93d
000000a0: 556d 34bf 18c8 803e 9fab d8bd 1416 f33d
000000b0: fe40 cbbd d6fe e53d 6d21 c1be 3306 0bbd
000000c0: 85b1 d03e a850 553f 44c7 1e3d 9c06 2abf
000000d0: 58f0 103f 9d37 203e 1dd0 823e cc41 e23e
000000e0: 2c67 bc3d 9c6f ca3c bcb7 9fbe b3eb c13d
000000f0: 44ae a1bd b841 5c3d f151 f03d 15cc 94be

conv_layers.1.att_dst f4 [1, 4, 16]
0.048419036 0.28027123 -0.46545482 -0.4613882 0.46944073 -0.12912878 0.041673735 0.2564491
-0.47976223 -0.44254878 0.25488615 -0.15099092 0.48333934 -0.42333046 0.3302577 0.37828305
0.45669866 0.075581044 0.5475788 -0.19287409 0.2941786 0.29757413 -0.5264097 0.3595243
0.037426922 -0.37659398 -0.032554414 0.31786197 0.1280479 0.16659893 0.33537984 0.27902037
0.0837241 -0.3557759 0.3839941 0.07765832 0.044217948 -0.37343395 -0.3891334 -0.56027406
0.48364308 -0.44277695 0.5251105 0.38407817 -0.3059588 -0.5308694 -0.30824855 -0.28590018
0.2568589 -0.19462493 0.2815499 0.166472 -0.3693775 -0.03481677 0.32572132 -0.059767764
0.2682769 0.16480148 0.17737813 -0.1907597 0.07873588 0.5264634 0.07208405 0.25250474
00000000: 0a53 463d b67f 8f3e 1850 eebe 133b ecbe
00000010: 895a f03e 563a 04be 14b2 2a3d 4c4d 833e
00000020: 65a3 f5be c195 e2be 7080 823e 5d9d 1abe
00000030: 4178 f73e c5be d8be 8a17 a93e 51ae c13e
00000040: 68d4 e93e 3cca 9a3d 202e 0c3f c980 45be
00000050: 949e 963e a35b 983e c9c2 06bf 9213 b83e
00000060: f94c 193d edd0 c0be c757 05bd cebe a23e
00000070: fd1e 033e e998 2a3e e8b6 ab3e c2db 8e3e
00000080: 8a77 ab3d 4228 b6be e09a c43e 530b 9f3d
00000090: e11d 353d bc32 bfbe 7e3c c7be 1f6e 0fbf
000000a0: 11a0 f73e a9b3 e2be a46d 063f e5a5 c43e
000000b0: a2a6 9cbe 0fe7 07bf c1d2 9dbe 8261 92be
000000c0: 0283 833e c24b 47be 4f27 903e a377 2a3e
000000d0: 0c1f bdbe 089c 0ebd f2c4 a63e 0bcf 74bd
000000e0: 975b 893e b8c1 283e 9da2 353e 8356 43be
000000f0: 4740 a13d 4ec6 063f cda0 933d 4d48 813e

conv_layers.1.bias f4 [64]
0.04768459 -0.05454216 -0.04042326 -0.04988061 0.048804853 -0.046562184 -0.05367798 0.050882645
-0.046983466 -0.038377922 -0.065081835 0.031166676 0.0822404 -0.054580245 0.042291827 -0.0501389
-0.06080412 0.14737865 -0.0751123 -0.041327808 -0.05667234 -0.04451831 0.023388732 0.08888774
-0.07682477 0.060831618 0.059940074 0.075775936 -0.031864837 -0.0029733428 -0.0018257322 0.00039925793
0.057743315 -0.021352563 0.021873053 0.06597353 0.029402431 0.07530327 0.054602183 -0.03391719
0.020920563 0.08364028 0.014505904 -0.032385476 -0.04315558 -0.071648 -0.039651226 -0.038015958
0.0452993 0.05684163 0.056728624 -0.061254386 -0.01977115 -0.043560285 -0.03952417 0.07747695
0.11992915 -0.054958843 -0.0073271487 0.12702067 0.05891811 0.064146794 -0.08324283 0.052568752
00000000: eb50 433d 9a67 5fbd dc92 25bd 9c4f 4cbd
00000010: 99e7 473d fdb7 3ebd 71dd 5bbd 526a 503d
00000020: bc71 40bd 2b32 1dbd a049 85bd 4251 ff3c
00000030: a86d a83d 898f 5fbd 323a 2d3d 725e 4dbd
00000040: be0d 79bd 6eea 163e 7ad4 99bd 5947 29bd
00000050: 4121 68bd d558 36bd ba99 bf3c c70a b63d
00000060: 4e56 9dbd 932a 793d b983 753d 6a30 9b3d
00000070: b484 02bd 6adc 42bb 684d efba 7e53 d139
00000080: 4184 6c3d 92eb aebc 1e2f b33c 211d 873d
00000090: 5edd f03c 9a38 9a3d 8aa6 5f3d c0ec 0abd
000000a0: 9a61 ab3c 984b ab3d 2caa 6d3c a2a6 04bd
000000b0: e8c3 30bd 30bc 92bd 5369 22bd 9fb6 1bbd
000000c0: c28b 393d c5d2 683d 465c 683d e1e5 7abd
000000d0: 1bf7 a1bc 456c 32bd 19e4 21bd 3cac 9e3d
000000e0: 6a9d f53d 861c 61bd 9418 f0bb b511 023e
000000f0: 1e54 713d 655f 833d 387b aabd 5552 573d

conv_layers.1.lin_src.weight f4 [64, 64]
-0.015358255 -0.08920131 -0.00091752986 -0.1599388 0.18230699 0.15995255 0.0019880026 0.038307097
0.03876414 0.1002994 -0.15662138 0.08480016 -0.12480669 -0.06651166 -0.27411482 0.12287492
0.12317458 0.122360475 0.08537556 -0.3490541 -0.18498036 0.23396796 0.12646097 0.26805723
0.08820947 -0.108537264 0.012806616 -0.23408937 0.14910176 -0.0739695 0.052639484 0.15816073
-0.18454649 0.04174012 -0.13419937 -0.053380057 0.08897503 -0.23081525 0.028696308 -0.07049077
-0.06972389 -0.13505074 0.1427255 0.099092044 -0.09171384 0.050096687 0.1262952 0.21581423
-0.19816154 0.089752994 -0.21603398 0.21011116 -0.057214957 -0.16192108 0.04057814 -0.019783335
0.024860663 -0.10935908 -0.07523169 0.06940218 -0.1204375 0.17283203 0.15853776 0.18712017
0.087103315 -0.106302045 0.03842016 0.04790803 -0.2151466 -0.074635975 -0.07764639 -0.08156992
-0.046731833 0.14143622 -0.04962169 -0.052089214 0.14461182 0.14858076 0.10973023 0.12895127
-0.14791586 0.10402032 -0.01145794 0.12206607 -0.03901792 0.13131735 0.29805598 0.14314717
-0.26879275 0.15203896 -0.04513247 0.19867021 0.11954595 0.27301222 0.15196021 -0.2915404
-0.15982112 0.049896818 -0.08468516 -0.06901013 -0.0638069 -0.05110797 -0.2738873 -0.094174564
0.18246567 -0.116565175 0.12496554 -0.05454172 -0.084131144 -0.11001603 0.14931807 -0.19572619
0.14250228 -0.24892117 -0.087634966 -0.21888758 -0.13767387 -0.22089222 -0.23618966 -0.007521661
0.13216105 -0.13359892 -0.13399304 0.17233332 0.099247776 -0.033453733 -0.25408942 -0.2287922
-0.029181728 -0.17426181 0.25395826 -0.08411643 -0.03290221 -0.097443156 0.13747361 -0.13621333
-0.061202373 -0.19271886 -0.10157903 -0.20416853 -0.13769946 0.057581317 -0.030767638 -0.04771269
-0.23914531 -0.043017708 0.087504685 0.14339079 -0.10797386 -0.044872526 0.18862379 -0.13699734
-0.24055125 0.09606725 -0.020221239 0.1924596 -0.2111854 0.09619701 -0.09446853 -0.065668754
0.18896893 0.12306207 -0.008862462 0.0477671 -0.09273943 -0.03366868 -0.17656551 -0.111715406
-0.18243785 -0.16458488 0.210058 -0.24326539 -0.09724659 0.19979204 -0.20341715 -0.05772051
-0.11100856 -0.056264713 0.04990989 -0.06820481 0.16781418 -0.096316524 -0.07236429 0.110215746
-0.15431654 0.1191486 0.014725041 0.11372584 0.118434295 -0.018211458 0.15981899 -0.19701113
0.09932319 -0.34471834 0.1590005 0.1691321 0.11679987 0.12738541 0.010668385 0.22390355
-0.07358841 -0.12215378 -0.15137304 -0.06579472 -0.13621022 0.042794757 0.21719314 -0.17538697
-0.16049324 0.21366726 -0.038066987 -0.34128612 0.15467589 -0.20223728 0.11575197 0.12318772
-0.23832697 0.031180607 0.04041508 0.17466429 0.147593 0.2928749 -0.03672744 0.08223713
0.16243626 0.008470302 0.06795491 0.2389944 -0.0204345 0.35691407 -0.07714532 -0.05295188
-0.085194126 0.04268738 -0.007627142 -0.258587 0.10000993 0.06443884 -0.23118024 0.14974454
-0.04953607 -0.21126325 -0.0025058861 -0.1048159 0.047251936 -0.21100512 -0.12561879 0.1372298
0.08204112 -0.30608246 0.0634823 -0.010034711 0.106198736 0.10024365 -0.24749033 -0.08518711
00000000: 31a1 7bbc 2daf b6bd 6386 70ba ffc6 23be
00000010: afae 3a3e 9aca 233e 2649 023b e7e7 1c3d
00000020: 26c7 1e3d c669 cd3d 5b61 20be b5ab ad3d
00000030: a69a ffbd 4437 88bd c758 8cbe d9a5 fb3d
00000040: f442 fc3d 2198 fa3d 62d9 ae3d 38b7 b2be
00000050: 7e6b 3dbe 4c95 6f3e fc7e 013e cc3e 893e
00000060: 2ba7 b43d c948 debd d7d2 513c 20b5 6fbe
00000070: 22ae 183e 527d 97bd 809c 573d e3f4 213e
00000080: c1f9 3cbe b0f7 2a3d 8f6b 09be 0ca5 5abd
00000090: 8a38 b63d d55a 6cbe 8514 eb3c 775d 90bd
000000a0: 66cb 8ebd be4a 0abe a226 123e c5f0 ca3d
000000b0: 77d4 bbbd 2f32 4d3d 8753 013e 68fe 5c3e
000000c0: dcea 4abe 6bd0 b73d 0338 5dbe 6127 573e
000000d0: 3b5a 6abd a4ce 25be 4435 263d a910 a2bc
000000e0: 97a8 cb3c a7f7 dfbd 1313 9abd bb22 8e3d
000000f0: f0a7 f6bd e1fa 303e b957 223e 6e9c 3f3e
00000100: 3963 b23d e3b4 d9bd 755e 1d3d 363b 443d
00000110: 644f 5cbe bfda 98bd 1205 9fbd 210e a7bd
00000120: e169 3fbd a8d4 103e 1d40 4bbd 805b 55bd
00000130: 1f15 143e 8e25 183e 3eba e03d cd0b 043e
00000140: 4177 17be 9b08 d53d 15ba 3bbc c7fd f93d
00000150: 41d1 1fbd 0e78 063e cb9a 983e 2c95 123e
00000160: 349f 89be 1ab0 1b3e d3dc 38bd 3470 4b3e
00000170: 82d4 f43d 42c8 8b3e 759b 1b3e c944 95be
00000180: 26a8 23be 9b60 4c3d 6a6f adbd 2f55 8dbd
00000190: 31ad 82bd 9756 51bd f53a 8cbe 98de c0bd
000001a0: 48d8 3a3e b9b9 eebd efed ff3d 2367 5fbd
000001b0: f34c acbd 1650 e1bd d6e6 183e 726c 48be
000001c0: 1eec 113e 31e5 7ebe f679 b3bd 1124 60be
000001d0: 61fa 0cbe 9231 62be b4db 71be 4478 f6bb
000001e0: 3a55 073e 28ce 08be 7935 09be 2578 303e
000001f0: 6b42 cb3d c806 09bd 0218 82be 8148 6abe
00000200: 850e efbc b071 32be d106 823e 3c45 acbd
00000210: 78c4 06bd 4790 c7bd e2c5 0c3e 827b 0bbe
00000220: 57af 7abd 1858 45be ab08 d0bd 8e11 51be
00000230: 1601 0dbe 63da 6b3d 6a0c fcbc 626e 43bd
00000240: 82e2 74be 5633 30bd a835 b33d 09d5 123e
00000250: 6621 ddbd 41cc 37bd 9826 413e 0849 0cbe
00000260: 1153 76be e8be c43d 03a7 a5bc 2114 453e
00000270: fc40 58be f002 c53d b778 c1bd 577d 86bd
00000280: 1281 413e f707 fc3d dc33 11bc 6fa7 433d
00000290: 2cee bdbd 2be8 09bd 97cd 34be 0ccb e4bd
000002a0: fdd0 3abe f088 28be 7219 573e 901a 79be
000002b0: 3829 c7bd 4996 4c3e 964c 50be 576c 6cbd
000002c0: 7558 e3bd d475 66bd 506e 4c3d f7ae 8bbd
000002d0: 7bd7 2b3e 9941 c5bd bb33 94bd cbb8 e13d
000002e0: 2805 1ebe 2e04 f43d 4c41 713c 18e9 e83d
000002f0: ae8d f23d 3230 95bc 97a7 233e 49bd 49be
00000300: f569 cb3d ec7e b0be 07d1 223e f730 2d3e
00000310: c534 ef3d 5271 023e 73ca 2e3c f946 653e
00000320: 85b5 96bd c32b fabd 8901 1bbe 62bf 86bd
00000330: b17a 0bbe 8e49 2f3d e167 5e3e a498 33be
00000340: 5758 24be 97cb 5a3e 21ec 1bbd 0ebd aebe
00000350: 5b63 1e3e 4a17 4fbe 5e0f ed3d d849 fc3d
00000360: fc0b 74be 796e ff3c 488a 253d 32db 323e
00000370: 9f22 173e b3f3 953e 836f 16bd f16b a83d
00000380: b155 263e 06c7 0a3c f22b 8b3d f3ba 743e
00000390: 4166 a7bc 71bd b63e 5efe 9dbd 12e4 58bd
000003a0: 427a aebd f6d8 2e3d 1bed f9bb 8465 84be
000003b0: 02d2 cc3d 83f8 833d 83ba 6cbe a256 193e
000003c0: 56e6 4abd 6555 58be cb39 24bb b8a9 d6bd
000003d0: 3f8b 413d ba11 58be 36a2 00be f885 0c3e
000003e0: 2d05 a83d d7b6 9cbe 0203 823d a168 24bc
000003f0: b97e d93d 8b4c cd3d 1b6e 7dbe 9476 aebd

conv_layers.1.lin_dst.weight f4 [64, 64]
-0.015358255 -0.08920131 -0.00091752986 -0.1599388 0.18230699 0.15995255 0.0019880026 0.038307097
0.03876414 0.1002994 -0.15662138 0.08480016 -0.12480669 -0.06651166 -0.27411482 0.12287492
0.12317458 0.122360475 0.08537556 -0.3490541 -0.18498036 0.23396796 0.12646097 0.26805723
0.08820947 -0.108537264 0.012806616 -0.23408937 0.14910176 -0.0739695 0.052639484 0.15816073
-0.18454649 0.04174012 -0.13419937 -0.053380057 0.08897503 -0.23081525 0.028696308 -0.07049077
-0.06972389 -0.13505074 0.1427255 0.099092044 -0.09171384 0.050096687 0.1262952 0.21581423
-0.19816154 0.089752994 -0.21603398 0.21011116 -0.057214957 -0.16192108 0.04057814 -0.019783335
0.024860663 -0.10935908 -0.07523169 0.06940218 -0.1204375 0.17283203 0.15853776 0.18712017
0.087103315 -0.106302045 0.03842016 0.04790803 -0.2151466 -0.074635975 -0.07764639 -0.08156992
-0.046731833 0.14143622 -0.04962169 -0.052089214 0.14461182 0.14858076 0.10973023 0.12895127
-0.14791586 0.10402032 -0.01145794 0.12206607 -0.03901792 0.13131735 0.29805598 0.14314717
-0.26879275 0.15203896 -0.04513247 0.19867021 0.11954595 0.27301222 0.15196021 -0.2915404
-0.15982112 0.049896818 -0.08468516 -0.06901013 -0.0638069 -0.05110797 -0.2738873 -0.094174564
0.18246567 -0.116565175 0.12496554 -0.05454172 -0.084131144 -0.11001603 0.14931807 -0.19572619
0.14250228 -0.24892117 -0.087634966 -0.21888758 -0.13767387 -0.22089222 -0.23618966 -0.007521661
0.13216105 -0.13359892 -0.13399304 0.17233332 0.099247776 -0.033453733 -0.25408942 -0.2287922
-0.029181728 -0.17426181 0.25395826 -0.08411643 -0.03290221 -0.097443156 0.13747361 -0.13621333
-0.061202373 -0.19271886 -0.10157903 -0.20416853 -0.13769946 0.057581317 -0.030767638 -0.04771269
-0.23914531 -0.043017708 0.087504685 0.14339079 -0.10797386 -0.044872526 0.18862379 -0.13699734
-0.24055125 0.09606725 -0.020221239 0.1924596 -0.2111854 0.09619701 -0.09446853 -0.065668754
0.18896893 0.12306207 -0.008862462 0.0477671 -0.09273943 -0.03366868 -0.17656551 -0.111715406
-0.18243785 -0.16458488 0.210058 -0.24326539 -0.09724659 0.19979204 -0.20341715 -0.05772051
-0.11100856 -0.056264713 0.04990989 -0.06820481 0.16781418 -0.096316524 -0.07236429 0.110215746
-0.15431654 0.1191486 0.014725041 0.11372584 0.118434295 -0.018211458 0.15981899 -0.19701113
0.09932319 -0.34471834 0.1590005 0.1691321 0.11679987 0.12738541 0.010668385 0.22390355
-0.07358841 -0.12215378 -0.15137304 -0.06579472 -0.13621022 0.042794757 0.21719314 -0.17538697
-0.16049324 0.21366726 -0.038066987 -0.34128612 0.15467589 -0.20223728 0.11575197 0.12318772
-0.23832697 0.031180607 0.04041508 0.17466429 0.147593 0.2928749 -0.03672744 0.08223713
0.16243626 0.008470302 0.06795491 0.2389944 -0.0204345 0.35691407 -0.07714532 -0.05295188
-0.085194126 0.04268738 -0.007627142 -0.258587 0.10000993 0.06443884 -0.23118024 0.14974454
-0.04953607 -0.21126325 -0.0025058861 -0.1048159 0.047251936 -0.21100512 -0.12561879 0.1372298
0.08204112 -0.30608246 0.0634823 -0.010034711 0.106198736 0.10024365 -0.24749033 -0.08518711
00000000: 31a1 7bbc 2daf b6bd 6386 70ba ffc6 23be
00000010: afae 3a3e 9aca 233e 2649 023b e7e7 1c3d
00000020: 26c7 1e3d c669 cd3d 5b61 20be b5ab ad3d
00000030: a69a ffbd 4437 88bd c758 8cbe d9a5 fb3d
00000040: f442 fc3d 2198 fa3d 62d9 ae3d 38b7 b2be
00000050: 7e6b 3dbe 4c95 6f3e fc7e 013e cc3e 893e
00000060: 2ba7 b43d c948 debd d7d2 513c 20b5 6fbe
00000070: 22ae 183e 527d 97bd 809c 573d e3f4 213e
00000080: c1f9 3cbe b0f7 2a3d 8f6b 09be 0ca5 5abd
00000090: 8a38 b63d d55a 6cbe 8514 eb3c 775d 90bd
000000a0: 66cb 8ebd be4a 0abe a226 123e c5f0 ca3d
000000b0: 77d4 bbbd 2f32 4d3d 8753 013e 68fe 5c3e
000000c0: dcea 4abe 6bd0 b73d 0338 5dbe 6127 573e
000000d0: 3b5a 6abd a4ce 25be 4435 263d a910 a2bc
000000e0: 97a8 cb3c a7f7 dfbd 1313 9abd bb22 8e3d
000000f0: f0a7 f6bd e1fa 303e b957 223e 6e9c 3f3e
00000100: 3963 b23d e3b4 d9bd 755e 1d3d 363b 443d
00000110: 644f 5cbe bfda 98bd 1205 9fbd 210e a7bd
00000120: e169 3fbd a8d4 103e 1d40 4bbd 805b 55bd
00000130: 1f15 143e 8e25 183e 3eba e03d cd0b 043e
00000140: 4177 17be 9b08 d53d 15ba 3bbc c7fd f93d
00000150: 41d1 1fbd 0e78 063e cb9a 983e 2c95 123e
00000160: 349f 89be 1ab0 1b3e d3dc 38bd 3470 4b3e
00000170: 82d4 f43d 42c8 8b3e 759b 1b3e c944 95be
00000180: 26a8 23be 9b60 4c3d 6a6f adbd 2f55 8dbd
00000190: 31ad 82bd 9756 51bd f53a 8cbe 98de c0bd
000001a0: 48d8 3a3e b9b9 eebd efed ff3d 2367 5fbd
000001b0: f34c acbd 1650 e1bd d6e6 183e 726c 48be
000001c0: 1eec 113e 31e5 7ebe f679 b3bd 1124 60be
000001d0: 61fa 0cbe 9231 62be b4db 71be 4478 f6bb
000001e0: 3a55 073e 28ce 08be 7935 09be 2578 303e
000001f0: 6b42 cb3d c806 09bd 0218 82be 8148 6abe
00000200: 850e efbc b071 32be d106 823e 3c45 acbd
00000210: 78c4 06bd 4790 c7bd e2c5 0c3e 827b 0bbe
00000220: 57af 7abd 1858 45be ab08 d0bd 8e11 51be
00000230: 1601 0dbe 63da 6b3d 6a0c fcbc 626e 43bd
00000240: 82e2 74be 5633 30bd a835 b33d 09d5 123e
00000250: 6621 ddbd 41cc 37bd 9826 413e 0849 0cbe
00000260: 1153 76be e8be c43d 03a7 a5bc 2114 453e
00000270: fc40 58be f002 c53d b778 c1bd 577d 86bd
00000280: 1281 413e f707 fc3d dc33 11bc 6fa7 433d
00000290: 2cee bdbd 2be8 09bd 97cd 34be 0ccb e4bd
000002a0: fdd0 3abe f088 28be 7219 573e 901a 79be
000002b0: 3829 c7bd 4996 4c3e 964c 50be 576c 6cbd
000002c0: 7558 e3bd d475 66bd 506e 4c3d f7ae 8bbd
000002d0: 7bd7 2b3e 9941 c5bd bb33 94bd cbb8 e13d
000002e0: 2805 1ebe 2e04 f43d 4c41 713c 18e9 e83d
000002f0: ae8d f23d 3230 95bc 97a7 233e 49bd 49be
00000300: f569 cb3d ec7e b0be 07d1 223e f730 2d3e
00000310: c534 ef3d 5271 023e 73ca 2e3c f946 653e
00000320: 85b5 96bd c32b fabd 8901 1bbe 62bf 86bd
00000330: b17a 0bbe 8e49 2f3d e167 5e3e a498 33be
00000340: 5758 24be 97cb 5a3e 21ec 1bbd 0ebd aebe
00000350: 5b63 1e3e 4a17 4fbe 5e0f ed3d d849 fc3d
00000360: fc0b 74be 796e ff3c 488a 253d 32db 323e
00000370: 9f22 173e b3f3 953e 836f 16bd f16b a83d
00000380: b155 263e 06c7 0a3c f22b 8b3d f3ba 743e
00000390: 4166 a7bc 71bd b63e 5efe 9dbd 12e4 58bd
000003a0: 427a aebd f6d8 2e3d 1bed f9bb 8465 84be
000003b0: 02d2 cc3d 83f8 833d 83ba 6cbe a256 193e
000003c0: 56e6 4abd 6555 58be cb39 24bb b8a9 d6bd
000003d0: 3f8b 413d ba11 58be 36a2 00be f885 0c3e
000003e0: 2d05 a83d d7b6 9cbe 0203 823d a168 24bc
000003f0: b97e d93d 8b4c cd3d 1b6e 7dbe 9476 aebd

conv_layers.2.att_src f4 [1, 4, 16]
0.6429972 0.7283611 0.68666476 0.41284004 -0.15979591 0.2833727 -0.5407774 -0.048761327
0.24994561 0.2814511 -0.23867956 0.33658624 0.51941115 0.25052175 -0.8398264 -0.39377776
-0.38265988 0.71789455 -0.033091217 -0.566289 -0.2497055 0.3942717 0.12679094 0.5460137
-0.77770936 0.50759685 -0.13424054 -0.14109962 0.76352596 -0.17601179 0.5306925 0.15713282
0.6201032 -0.09791447 0.41343272 -0.32444465 -0.060476307 0.00703726 -0.13878433 -0.11438797
0.11305803 0.07000158 -0.15540108 -0.38970077 -0.3914519 0.10568275 0.13610584 -0.29311052
-0.59889334 0.018726435 -0.6009278 -0.42580494 -0.66879016 0.4216363 0.34631905 0.30826616
0.2715355 0.38059944 -0.44163963 -0.32395396 -0.5918409 -0.82817614 -0.5234232 0.18085587
00000000: 779b 243f e075 3a3f 43c9 2f3f c55f d33e
00000010: 8aa1 23be 3a16 913e 6370 0abf f5b9 47bd
00000020: bef1 7f3e 5c1a 903e 6a68 74be 0855 ac3e
00000030: 21f8 043f 6344 803e ddfe 56bf 3d9d c9be
00000040: ffeb c3be f0c7 373f a88a 07bd 51f8 10bf
00000050: ccb2 7fbe fbdd c93e 7cd5 013e 8ec7 0b3f
00000060: f617 47bf def1 013f 5a76 09be 6b7c 10be
00000070: 7076 433f 6f3c 34be 77db 073f 6de7 203e
00000080: 15bf 1e3f 6287 c8bd 74ad d33e 9c1d a6be
00000090: 01b6 77bd d198 e63b 7b1d 0ebe 3d44 eabd
000000a0: f88a e73d fd5c 8f3d 7621 1fbe dc86 c7be
000000b0: 626c c8be 3370 d83d 545f 0b3e 9512 96be
000000c0: 1351 19bf 2e68 993c 68d6 19bf 1b03 dabe
000000d0: d535 2bbf b7e0 d73e bb50 b13e 10d5 9d3e
000000e0: b306 8b3e eedd c23e 971e e2be 4bdd a5be
000000f0: e382 17bf 5a03 54bf 10ff 05bf 4832 393e

conv_layers.2.att_dst f4 [1, 4, 16]
0.46860677 0.10519853 -0.50848055 0.29328096 -0.031015398 -0.32833448 -0.53247124 0.21232538
-0.04711456 -0.3894105 0.4739453 -0.50604606 -0.30548543 0.5087812 -0.17919064 0.3368663
-0.044056695 0.0091970265 0.469653 -0.14949575 0.014499708 0.3253729 0.18421018 -0.07016681
-0.27011958 -0.3900754 -0.0092172185 0.33490115 -0.31077334 -0.30204347 -0.12701175 0.4923689
0.31691045 0.17532547 -0.50154597 0.14318217 0.020619353 0.41392195 -0.17673405 -0.0098343585
0.39559165 -0.10020983 0.52098876 0.26079115 -0.009738078 0.47448775 -0.4198563 -0.48630002
-0.3962553 0.37985215 0.5716828 0.06677447 0.07088422 0.17012204 -0.43010873 0.20892675
-0.32984406 0.10395551 -0.46222654 0.109235086 0.16067149 0.32379052 -0.13067903 0.36077142
00000000: 3aed ef3e 5472 d73d c82b 02bf ec28 963e
00000010: 0114 febc 751b a8be 0950 08bf d36b 593e
00000020: 32fb 40bd d060 c7be f5a8 f23e 3c8c 01bf
00000030: 9668 9cbe 7c3f 023f c07d 37be bd79 ac3e
00000040: cb74 34bd 20af 163c 5c76 f03e 6a15 19be
00000050: 2f90 6d3c 4797 a63e 98a1 3c3e 9eb3 8fbd
00000060: 1d4d 8abe f6b7 c7be d103 17bc 2a78 ab3e
00000070: af1d 9fbe 71a5 9abe 5e0f 02be c717 fc3e
00000080: 1642 a23e 8588 333e 5165 00bf 599e 123e
00000090: ebe9 a83c 94ed d33e c5f9 34be 4a20 21bc
000000a0: fd8a ca3e d03a cdbd 855f 053f 6b86 853e
000000b0: 768c 1fbc 0ff0 f23e 68f7 d6be 51fc f8be
000000c0: fae1 cabe fb7b c23e ce59 123f 0ec1 883d
000000d0: bf2b 913d 7934 2e3e 3637 dcbe e5f0 553e
000000e0: 52e1 a8be a0e6 d43d f5a8 ecbe a5b6 df3d
000000f0: 1187 243e dfc7 a53e b9d0 05be 08b7 b83e

conv_layers.2.bias f4 [64]
0.07394881 0.06787466 0.06168091 -8.120583e-05 -0.049391653 -0.060414575 -0.048492067 0.07109428
0.012644504 0.034967612 0.00026284758 0.07281943 0.08329979 -0.0611364 -0.07549694 -0.059761997
-0.01559701 0.06627902 0.04780878 -0.05797628 -0.049774174 -0.042948395 -0.074234106 0.08317607
-0.05410336 0.0757361 0.047709506 0.0015311778 0.091349274 -0.043122105 0.0062735835 0.021129133
0.061409216 0.05976719 0.05476499 -0.054746658 -0.049164813 -0.06508265 -0.06284396 -0.013039964
-0.03582414 0.04849368 0.05989843 0.020517288 0.030901028 -0.07094762 -0.054028593 -0.058629643
-0.0007890175 0.06123477 -0.008821688 -0.055240247 -0.04339107 -0.08227673 -0.056275956 0.07826284
-0.030362584 0.05746198 0.0050043743 0.004839699 -0.033015143 -0.06477419 -0.09283065 -0.05919979
00000000: 7972 973d df01 8b3d 1fa5 7c3d 0c4d aab8
00000010: e74e 4abd 4675 77bd 9e9f 46bd e199 913d
00000020: e52a 4f3c 333a 0f3d cece 8939 5a22 953d
00000030: 1599 aa3d 296a 7abd 249e 9abd ffc8 74bd
00000040: 9a8a 7fbc 4bbd 873d 24d3 433d 8978 6dbd
00000050: 01e0 4bbd a8ea 2fbd 0d08 98bd 3758 aa3d
00000060: 7c9b 5dbd 871b 9b3d 0b6b 433d cdb1 c83a
00000070: 5415 bb3d cea0 30bd a292 cd3b 0117 ad3c
00000080: 3b88 7b3d 71ce 743d 4151 603d 083e 60bd
00000090: 0b61 49bd 0d4a 85bd 56b4 80bd 93a5 55bc
000000a0: 55bc 12bd 4fa1 463d 0e58 753d df13 a83c
000000b0: 2724 fd3c fc4c 91bd 164d 5dbd a325 70bd
000000c0: 11d6 4eba 4fd1 7a3d d788 10bc 9943 62bd
000000d0: d6ba 31bd b480 a8bd 9e81 66bd 4548 a03d
000000e0: f4ba f8bc 415d 6b3d bcfb a33b 5696 9e3b
000000f0: e33a 07bd 55a8 84bd ff1d bebd 7b7b 72bd

conv_layers.2.lin_src.weight f4 [64, 64]
0.260709 0.013349425 -0.28148544 0.005994831 0.044098634 -0.11049397 -0.099256955 -0.022613995
-0.041894544 0.082165994 -0.19760849 -0.24918506 -0.110538684 0.10762489 0.081259206 -0.28077522
-0.0109336 0.06908895 -0.050061096 -0.18226913 0.054373 0.10992873 -0.016202273 0.31524187
-0.2612847 0.09769134 0.045499336 0.22880036 -0.11812351 -0.08041787 -0.1325863 0.103696406
0.056084063 -0.2412065 0.17655434 0.23556289 0.22482537 0.32235193 0.3179633 -0.16368437
-0.19815545 0.043985296 -0.04628706 0.1365417 -0.16036822 -0.06275533 -0.10545999 -0.005491064
0.14669831 0.24815984 0.119323105 -0.14853463 0.054703828 0.05622112 0.016297812 0.25240928
-0.05052753 0.03155983 -0.1609376 -0.11355949 0.00311869 0.15763143 -0.013304636 0.22085346
-0.12738404 -0.29856005 -0.06990599 -0.10380512 0.0876419 -0.039129548 -0.20095724 0.29876515
-0.3022701 0.10568556 0.06390421 0.013326579 0.037852034 -0.18334593 0.1006041 -0.17898722
-0.097249456 0.03305368 -0.2831293 -0.25057262 0.08381573 -0.00046597983 -0.16782923 0.21829996
0.07398099 -0.06882288 0.097403385 0.12317468 0.065115 0.0009234012 -0.21827236 -0.023909902
0.0027720253 0.01863766 0.11222185 0.29585293 0.1296276 0.057292037 0.015536387 -0.1413063
-0.12638435 0.30091518 0.14004095 -0.07261377 0.10940463 0.17435235 -0.20703901 0.04081991
0.29721928 -0.093066156 0.23674548 -0.006434689 0.11418744 -0.07096028 -0.2724925 -0.024535608
-0.24175048 -0.15238316 -0.3154101 -0.16726872 0.28120315 0.23108748 -0.13452658 -0.015515343
0.042361237 -0.1396797 -0.24662724 -0.05639288 0.30056515 0.055721566 -0.2115378 -0.06717241
-0.2088065 0.03841386 -0.27689296 -0.053816244 0.017035047 -0.09984386 -0.25039992 -0.0051505365
-0.16733576 0.35632554 -0.271675 -0.033265546 -0.22904937 0.14079985 -0.18085709 0.1008131
-0.16725774 0.0829261 0.07186811 0.30570564 0.011154073 0.088258564 -0.025370495 0.11010891
-0.046941023 -0.077822484 0.016821912 0.20837612 0.25861454 -0.06929151 0.15680066 -0.27754253
0.09335383 0.18506739 -0.05925111 0.013234519 -0.190143 0.16966484 0.030031852 -0.16975553
0.1218191 0.03315546 0.15499869 0.07859951 0.2842556 -0.14570054 0.01918794 0.1433522
-0.22500066 0.004802509 -0.086241595 -0.19436307 -0.05988952 0.18947034 -0.008976385 0.19869615
-0.13992469 -0.09886831 0.00071147346 0.10100766 0.076046325 0.13131595 -0.10422448 0.20302908
-0.12607819 0.319012 0.07995937 -0.04708029 -0.32345214 -0.21291822 -0.038439866 0.1918169
-0.06712914 -0.06601532 0.15882286 0.034834787 0.059920114 -0.1400105 -0.31087002 0.01680436
0.30419388 -0.21295433 -0.07859949 0.06568543 0.09101749 0.23602024 -0.05972916 0.15289046
-0.42452285 -0.15952244 0.07663946 0.00222932 -0.0044829473 -0.042536784 0.16970038 -0.10022595
0.018820386 -0.18587317 -0.10111006 0.30417916 0.035152934 0.3107274 0.21473464 0.059194528
-0.15295976 0.095254526 -0.07579652 0.043789044 0.08650822 0.21295905 -0.018250607 0.18309514
-0.35679808 -0.0038871027 -0.12803078 -0.2940786 -0.0825291 0.019159269 -0.050220802 -0.19770335
00000000: a67b 853e 8cb7 5a3c dc1e 90be 4a70 c43b
00000010: c5a0 343d aa4a e2bd 3b47 cbbd fc40 b9bc
00000020: 9d99 2bbd a546 a83d e159 4abe 5e2a 7fbe
00000030: 1b62 e2bd 706a dc3d 3a6b a63d c5c1 8fbe
00000040: d822 33bc 827e 8d3d dd0c 4dbd c2a4 3abe
00000050: 39b6 5e3d 5022 e13d a1ba 84bc 6267 a13e
00000060: 1cc7 85be 6612 c83d 835d 3a3d a44a 6a3e
00000070: bdea f1bd 20b2 a4bd b4c4 07be c85e d43d
00000080: 67b8 653d d6fe 76be a9ca 343e 6637 713e
00000090: 9f38 663e 500b a53e 16cc a23e e09c 27be
000000a0: 43e9 4abe ed29 343d 8097 3dbd 96d1 0b3e
000000b0: 9137 24be de85 80bd 68fb d7bd 62ee b3bb
000000c0: 1538 163e 9d1d 7e3e ac5f f43d 7619 18be
000000d0: 1f11 603d 1e48 663d fd82 853c ca3b 813e
000000e0: f5f5 4ebd e144 013d d4cc 24be e191 e8bd
000000f0: f062 4c3b 226a 213e b0fb 59bc 6927 623e
00000100: f670 02be dddc 98be df2a 8fbd c797 d4bd
00000110: 997d b33d 4e46 20bd bcc7 4dbe bff7 983e
00000120: 26c3 9abe ac71 d83d 36e0 823d b957 5a3c
00000130: bc0a 1b3d 09bf 3bbe 8609 ce3d 6d48 37be
00000140: b92a c7bd 4c63 073d 53f6 90be 0e4b 80be
00000150: 95a7 ab3d c14e f4b9 6ddb 2bbe 068a 5f3e
00000160: 5883 973d 03f3 8cbd 6d7b c73d 0243 fc3d
00000170: 035b 853d 6810 723a ca82 5fbe b3de c3bc
00000180: deaa 353b 02ae 983c 92d4 e53d 097a 973e
00000190: 19bd 043e 0eab 6a3d 558c 7e3c 99b2 10be
000001a0: e66a 01be 8e11 9a3e e566 0f3e 87b6 94bd
000001b0: 890f e03d 6c89 323e 0902 54be c732 273d
000001c0: 202d 983e 7899 bebd 686d 723e 15da d2bb
000001d0: 1bdb e93d a053 91bd 2384 8bbe e6fe c8bc
000001e0: 708d 77be 550a 1cbe 6f7d a1be 7e48 2bbe
000001f0: dcf9 8f3e 32a2 6c3e 56c1 09be 1134 7ebc
00000200: fa82 2d3d 3208 0fbe da8b 7cbe 38fc 66bd
00000210: ade3 993e 4c3c 643d 5d9d 58be b091 89bd
00000220: 5fd1 55be da57 1d3d eac4 8dbe 6c6e 5cbd
00000230: 158d 8b3c f07a ccbd 6b34 80be d5c5 a8bb
00000240: 115a 2bbe 4d70 b63e fc18 8bbe 7441 08bd
00000250: eb8b 6abe d62d 103e 9a32 39be 1977 ce3d
00000260: 9d45 2bbe 29d5 a93d 962f 933d 7385 9c3e
00000270: 93bf 363c e8c0 b43d c9d5 cfbc c880 e13d
00000280: 3b45 40bd 6561 9fbd 1bce 893c 8d60 553e
00000290: 2069 843e b5e8 8dbd 5a90 203e 0e1a 8ebe
000002a0: 4b30 bf3d 4e82 3d3e 4bb1 72bd 99d5 583c
000002b0: d9b4 42be 9fbc 2d3e 5c05 f63c 65d4 2dbe
000002c0: 4b7c f93d 05ce 073d fab7 1e3e c8f8 a03d
000002d0: f389 913e 8632 15be 0730 9d3c ebca 123e
000002e0: 9366 66be 5e5e 9d3b 6f9f b0bd 1d07 47be
000002f0: b74e 75bd 8304 423e b011 13bc 0177 4b3e
00000300: 6b48 0fbe 787b cabd 2d82 3a3a 1bdd ce3d
00000310: 2dbe 9b3d b077 063e a573 d5bd dbe6 4f3e
00000320: a41a 01be 8a55 a33e bdc1 a33d 43d7 40bd
00000330: 859b a5be 3c07 5abe 1f73 1dbd a66b 443e
00000340: 017b 89bd 0a33 87bd 76a2 223e ecae 0e3d
00000350: cb6e 753d ea5e 0fbe 5b2a 9fbe 4ca9 893c
00000360: 4dbf 9b3e b310 5abe c5f8 a0bd 1586 863d
00000370: 6167 ba3d 4aaf 713e 90a6 74bd 518f 1c3e
00000380: 0f5b d9be da59 23be 26f5 9c3d c819 123b
00000390: b0e5 92bb 0d3b 2ebd f0c5 2d3e 4343 cdbd
000003a0: 362d 9a3c 8955 3ebe cb12 cfbd 5fbd 9b3e
000003b0: 86fc 0f3d a917 9f3e 66e3 5b3e f675 723d
000003c0: 7ca1 1cbe ce14 c33d 353b 9bbd 245c 333d
000003d0: 392b b13d f011 5a3e 4c82 95bc 4b7d 3b3e
000003e0: 3dae b6be c3be 7ebb 801a 03be 7891 96be
000003f0: 0405 a9bd e6f3 9c3c 54b4 4dbd bf72 4abe
