Vehicle_embd_32_nHead_4_nlayer_3_Batch_100.pth (torch, 146923 bytes, 16 tensors)

conv_layers.0.att_src f4 [1, 4, 32]
-0.17052524 0.030495163 0.6136881 -0.34642234 -0.4772447 0.07862971 0.048961446 -0.024967786
-0.16910504 0.071851246 0.44531024 -0.37062722 0.09681245 0.33598536 -0.040943485 0.58173305
0.117095836 0.30055135 0.20928708 0.2361395 -0.42529812 0.34088773 0.25148478 0.35713246
-0.23728651 -0.35338748 -0.24415287 -0.02723647 0.21267138 0.33409113 -0.20036675 0.29743674
0.43682343 -0.6382139 0.16822083 1.070382 -0.14985041 0.020127527 -0.12220248 0.31933072
-0.65398425 -0.031315457 0.08116444 0.6934574 -0.13199535 0.35613012 -0.0015187655 0.5961632
0.20645836 -0.29634637 -0.120304 0.66243607 0.2675102 0.510344 0.23953016 0.4099022
-0.63669854 0.6021077 -0.62257695 0.084854424 -0.039237514 0.40338355 -0.65452963 -0.37392798
0.25152895 -0.70618767 -0.907815 0.17274164 -0.47311938 -0.2836217 -0.006095888 0.2471101
0.021324115 0.24074209 -0.49505275 0.10000083 0.4007538 -0.067361325 0.2252203 -0.30394694
0.11252196 0.12782323 0.5974163 0.031046743 -0.33748555 -0.23670031 0.39873087 -0.028677706
0.17057706 -0.5627503 0.9985976 0.0061760987 -0.3775069 0.27821708 0.789505 -0.093978144
0.6302903 0.028658941 0.014730856 -0.21438912 0.04305282 -0.49657837 -0.4208523 0.15417884
-0.648416 0.17284074 0.031675387 -0.17058969 0.50519997 -0.26172215 0.09213303 0.05052465
-0.38743034 0.19856653 0.099338554 -0.115600795 -0.76509094 0.31022683 -0.37047818 -0.8282847
-0.330231 -0.28170013 0.118672594 -0.0482715 0.08886584 0.27261448 0.5123319 0.049761128
00000000: 2b9e 2ebe fed0 f93c aa1a 1d3f 455e b1be
00000010: 6b59 f4be 9d08 a13d cc8b 483d 3e89 ccbc
00000020: df29 2dbe bf26 933d b4ff e33e dac2 bdbe
00000030: 9b45 c63d 4606 ac3e 5bb4 27bd 75ec 143f
00000040: f1cf ef3d dee1 993e 5a4f 563e 8ece 713e
00000050: adc0 d9be d688 ae3e 9dc2 803e 11da b63e
00000060: 3cfb 72be 34ef b4be 3603 7abe 041f dfbc
00000070: 87c6 593e fe0d ab3e f12c 4dbe a149 983e
00000080: 52a7 df3e fc61 23bf 1542 2c3e 4702 893f
00000090: 6372 19be 7ce2 a43c 4b45 fabd 517f a33e
000000a0: 836b 27bf a344 00bd 8b39 a63d 6d86 313f
000000b0: ca29 07be b056 b63e 5011 c7ba 279e 183f
000000c0: d269 533e b6ba 97be f261 f6bd 6995 293f
000000d0: 19f7 883e e8a5 023f 6547 753e b3de d13e
000000e0: adfe 22bf bb23 1a3f 3461 1fbf 28c8 ad3d
000000f0: 84b7 20bd 4a88 ce3e 418f 27bf 7d73 bfbe
00000100: 67c8 803e b7c8 34bf 9066 68bf 2fe3 303e
00000110: b43c f2be dd36 91be 04c0 c7bb 6e0a 7d3e
00000120: e9af ae3c 1885 763e 8e77 fdbe 3ccd cc3d
00000130: 9a2f cd3e bcf4 89bd 26a0 663e ef9e 9bbe
00000140: ea71 e63d 18e4 023e 46f0 183f bd55 fe3c
00000150: e8ca acbe 9161 72be 7426 cc3e 82ed eabc
00000160: c1ab 2e3e 6710 10bf 18a4 7f3f df60 ca3b
00000170: 9648 c1be 7872 8e3e 001d 4a3f 9d77 c0bd
00000180: b55a 213f 28c6 ea3c b059 713c d288 5bbe
00000190: 2758 303d 853f febe f479 d7be 0fe1 1d3e
000001a0: 97fe 25bf 2afd 303e 0dbe 013d 10af 2ebe
000001b0: c954 013f 7200 86be 3eb0 bc3d eff2 4e3d
000001c0: 455d c6be 0655 4b3e 0372 cb3d 1cc0 ecbd
000001d0: 00dd 43bf 0dd6 9e3e 51af bdbe 770a 54bf
000001e0: 0a14 a9be 003b 90be 9e0a f33d 56b8 45bd
000001f0: 4bff b53d 2094 8b3e 2f28 033f 53d2 4b3d

conv_layers.0.att_dst f4 [1, 4, 32]
-0.17081627 -0.1260193 0.250253 0.11529349 -0.15211554 -0.1807038 -0.05308187 0.2766028
0.12960124 -0.125215 0.18167531 -0.26412702 -0.2588404 0.2741005 0.26043463 0.2498808
-0.14225894 0.03868978 -0.08405102 0.16669278 -0.6095381 -0.45009485 -0.14007276 -0.13759679
0.2865249 0.17052642 -0.5256153 0.36644712 0.23786071 0.04977561 -0.389151 -0.14319086
-0.62501454 0.09592377 -0.31820828 -0.08744276 -0.5672378 0.13768493 0.49872658 -0.31042874
0.020750811 0.18192424 0.4185444 0.11355655 0.021446967 0.2588595 0.1495634 -0.41731742
0.60760653 -0.35682043 -0.6344972 -0.15555498 -0.30532524 0.05817149 0.73553365 -0.5151337
0.3521786 -0.6140218 0.13995297 0.46321785 -0.09882583 -0.46373686 -0.28730884 0.18306886
0.19381863 0.088377416 0.58685863 -0.6141294 -0.3791875 0.44234845 0.29551768 -0.36226735
-0.25352982 0.017246842 -0.598071 -0.10099472 -0.19075577 0.025177289 -0.20956732 0.3469771
-0.26203433 -0.2679277 -0.03453677 -0.58122855 -0.76768595 -0.62824917 -0.20900914 -0.19065325
-0.36537924 0.116283774 -0.22183952 -0.31374454 -0.3285713 0.4095917 -0.42729053 0.8283089
-0.1987196 0.18907343 -0.0029165682 -0.2446042 -0.47219446 0.2990351 -0.12335391 -0.2850537
-0.48355764 0.3236283 -0.6328741 -0.56153864 0.3254263 0.22739795 -0.12530546 0.3891486
-0.29152322 -0.63797647 0.38584957 -0.02149794 -0.035157476 -0.4183166 0.17113899 0.008517194
-0.09471946 0.39328524 0.038209412 0.02488501 -0.26717827 -0.31169018 0.703988 -0.6430289
00000000: 76ea 2ebe 340b 01be 2921 803e fe1e ec3d
00000010: 2dc4 1bbe 6b0a 39be 606c 59bd e29e 8d3e
00000020: 30b6 043e 5c38 00be 1809 3a3e a83b 87be
00000030: bb86 84be e756 8c3e b057 853e c1e0 7f3e
00000040: 54ac 11be 2d79 1e3d f122 acbd 83b1 2a3e
00000050: b00a 1cbf d572 e6be 3c6f 0fbe 2ce6 0cbe
00000060: 64b3 923e 7a9e 2e3e b98e 06bf f59e bb3e
00000070: c291 733e 83e1 4b3d cd3e c7be a0a0 12be
00000080: f400 20bf ae73 c43d 32ec a2be 3115 b3bd
00000090: 7f36 11bf 47fd 0c3e 1759 ff3e 84f0 9ebe
000000a0: 9bfd a93c 594a 3a3e 744b d63e 5690 e83d
000000b0: 8db1 af3c 3b89 843e 2627 193e a1aa d5be
000000c0: 1a8c 1b3f 2bb1 b6be 696e 22bf ce49 1fbe
000000d0: 9753 9cbe 3a45 6e3d ef4b 3c3f cddf 03bf
000000e0: c150 b43e 8830 1dbf d54f 0f3e e42a ed3e
000000f0: 3265 cabd eb6e edbe 251a 93be 6776 3b3e
00000100: 6478 463e 38ff b43d 5e3c 163f 9637 1dbf
00000110: dd24 c2be 7f7b e23e 184e 973e 1b7b b9be
00000120: a9ce 81be 4049 8d3c 2e1b 19bf 52d6 cebd
00000130: 7b55 43be 9a40 ce3c d198 56be fca6 b13e
00000140: 5d29 86be d22d 89be 6e76 0dbd 65cb 14bf
00000150: 1187 44bf f0d4 20bf 7e06 56be 9b3a 43be
00000160: fd12 bbbe 3026 ee3d e629 63be 20a3 a0be
00000170: 7f3a a8be 01b6 d13e d3c5 dabe 0d0c 543f
00000180: 277d 4bbe 779c 413e e523 3fbb 8679 7abe
00000190: 79c3 f1be 211b 993e faa0 fcbd 8ff2 91be
000001a0: de94 f7be 9cb2 a53e 0904 22bf ffc0 0fbf
000001b0: 479e a63e 02db 683e 1350 00be 7c3e c73e
000001c0: 8842 95be 6d52 23bf 138e c53e 731c b0bc
000001d0: 4901 10bd 982d d6be 0f3f 2f3e b38b 0b3c
000001e0: 47fc c1bd af5c c93e 7981 1c3d a6db cb3c
000001f0: 97cb 88be db95 9fbe 8f38 343f 8b9d 24bf

conv_layers.0.bias f4 [128]
0.000711926 -0.01782051 -0.052840013 -0.0006641778 0.026685787 0.036630705 0.010278185 -0.014904039
-0.039558306 -0.00048511554 -0.016013568 0.031060081 0.00344127 -0.060230874 -0.008221275 -0.0256926
0.02572143 -0.0014920154 -0.029712206 0.02964157 -0.08953276 -0.00810093 -0.033628143 -0.022704061
-0.015340433 -0.061358888 0.007887986 -0.056982093 -0.0020648064 -0.006614516 0.017710673 -0.036543623
0.0056134877 0.0363917 0.0052399244 -0.06443651 -0.0030192225 -0.03357979 -0.029675411 0.025004407
-0.01967564 -0.064704925 -0.055759843 0.00979192 -0.014619891 0.040157262 -0.05835013 -0.0057803546
-0.03664626 -0.029202586 -0.0067754444 -0.013330987 0.012419071 0.0090460675 0.0059804297 -0.0040751593
0.012395386 -0.010046898 -0.01705642 -0.013762117 0.008952763 -0.011968246 -0.024343636 0.053252537
-0.032891612 0.00496756 0.069723114 0.028706776 -0.009076609 0.007364796 0.033514425 -0.0023426632
0.022010453 -0.09590289 0.041777167 -0.016907414 0.020520436 0.006552709 -0.0072432472 0.06786909
0.0035830725 -0.022186995 0.024999019 0.025061782 0.0009571216 -0.012561384 -0.044373613 0.012324094
0.010549438 -0.013799054 -0.019298187 0.013432306 0.02454335 0.02695892 -0.04845836 -0.015818773
-0.0148592405 -0.0067400327 0.00823777 0.019609766 -0.00835304 -0.019032521 0.0004128589 0.018352328
0.0077571585 -0.00629075 0.0060103154 0.0067331633 -0.022096576 -0.01741087 0.009904829 0.0036789791
0.041828126 0.001329764 -0.032715537 0.023673233 0.03565314 -0.017720506 -0.007330635 0.06939565
0.0315146 0.00208295 -0.011351836 0.04620413 -0.007753491 0.019000147 0.0905856 -0.021448115
00000000: 8ca0 3a3a 51fc 91bc c56e 58bd 381c 2eba
00000010: 279c da3c 140a 163d d565 283c 1230 74bc
00000020: e407 22bd 1b57 feb9 e32e 83bc b671 fe3c
00000030: ee86 613b a6b4 76bd 87b2 06bc 4a79 d2bc
00000040: c0b5 d23c bb8f c3ba 0367 f3bc e1d2 f23c
00000050: f45c b7bd c3b9 04bc aabd 09bd defd b9bc
00000060: 7156 7bbc 7553 7bbd 9c3c 013c 0e66 69bd
00000070: b451 07bb 95be d8bb f915 913c c4ae 15bd
00000080: 59f1 b73b 770f 153d acb3 ab3b 4af7 83bd
00000090: 26de 45bb f68a 09bd d919 f3bc 0bd6 cc3c
000000a0: cf2e a1bc 0484 84bd 6f64 64bd 4a6e 203c
000000b0: 4488 6fbc f17b 243d 8c00 6fbd 2169 bdbb
000000c0: 641a 16bd 433a efbc 8c04 debb 366a 5abc
000000d0: 5c79 4b3c f535 143c 7bf7 c33b ea88 85bb
000000e0: 0416 4b3c bf9b 24bc e8b9 8bbc 817a 61bc
000000f0: 9cae 123c 7616 44bc 4e6c c7bc 551f 5a3d
00000100: 5bb9 06bd eac6 a23b feca 8e3d 792a eb3c
00000110: 0fb6 14bc 6354 f13b 6c46 093d 5e87 19bb
00000120: 444f b43c bc68 c4bd 891e 2b3d 6b81 8abc
00000130: 791a a83c 1bb8 d63b c358 edbb f3fe 8a3d
00000140: fbd1 6a3b 80c1 b5bc beca cc3c 5e4e cd3c
00000150: 58e7 7a3a 43ce 4dbc 1bc1 35bd ffea 493c
00000160: 8dd7 2c3c 6d15 62bc 3b17 9ebc 2d13 5c3c
00000170: 230f c93c f4d8 dc3c 467c 46bd 5f96 81bc
00000180: 2c74 73bc 7edb dcbb b6f7 063c a9a4 a03c
00000190: 30db 08bc 17ea 9bbc fc74 d839 9f57 963c
000001a0: c32f fe3b a322 cebb 2ef2 c43b dea1 dc3b
000001b0: e103 b5bc 3ea1 8ebc dd47 223c 071b 713b
000001c0: f853 2b3d 7a4b ae3a ba00 06bd 5eee c13c
000001d0: 0709 123d 982a 91bc d335 f0bb 4e1f 8e3d
000001e0: 7415 013d 1a82 083b 0dfd 39bc 8b40 3d3d
000001f0: ff10 febb 32a6 9b3c f184 b93d f5b3 afbc

conv_layers.0.lin_src.weight f4 [128, 10]
0.21012644 -0.31998578 0.068505436 -0.00738711 0.07505467 -0.26512697 0.09767966 -0.07143538
-0.4773883 -0.15120247 0.24047247 0.28703937 -0.26270273 0.20493709 0.12308016 -0.20914793
0.13394468 -0.09802604 -0.17751083 -0.13044119 0.16354936 0.107541084 0.41463363 -0.031542026
-0.5638343 -0.0362653 -0.20908587 -0.1620978 0.067158386 0.0097961705 -0.027752811 0.17316364
-0.20806506 -0.33047175 0.13708821 0.18898779 -0.14770944 -0.0027915675 -0.17061953 0.02956958
0.34113044 0.028810346 0.0117690945 -0.38734153 0.62712365 -0.13474417 -0.42878845 0.07770661
-0.26697856 -0.26501217 -0.09692974 0.036414012 0.07974951 -0.2637872 0.34879065 -0.3014126
0.20549187 0.23984373 0.09005851 -0.13953716 -0.12791832 0.37773934 -0.10467867 -0.14928214
0.17411995 -0.42014575 0.34482825 -0.10148392 -0.29411364 -0.17616223 0.08064677 0.36122686
0.049354043 0.17834985 -0.27312082 -0.037976995 0.16254455 -0.21677224 -0.15952753 -0.100514986
-0.05700164 -0.44541568 -0.28136325 0.24495731 -0.17040226 0.056127258 -0.095206164 0.46006864
0.033288125 0.31641418 0.30414653 0.37611604 -0.119220056 -0.08076308 0.108525045 -0.54359627
-0.05855951 -0.41592565 -0.30114472 -0.17002855 0.10066497 0.112472035 0.43007568 0.26545134
-0.48454952 0.03619402 -0.39048094 -0.1951505 0.4802152 -0.050223205 -0.30860624 0.11091167
0.33944693 -0.32002681 0.1312358 -0.12335482 0.2755067 -0.28357983 -0.10941311 -0.2326347
0.1645273 -0.2312343 0.0785149 0.25666767 0.20481253 -0.068011835 -0.31122914 0.08390286
0.08763315 -0.02608561 0.30057418 0.1947583 -0.42536423 -0.1957667 -0.427932 0.30060518
-0.2499263 0.015778074 -0.08110606 -0.121062845 0.12229898 -0.24276623 -0.27733895 0.19828103
-0.31301722 0.5101198 -0.1858793 0.34800285 -0.004864119 0.39135158 -0.07330588 0.2515924
0.36301348 -0.084231205 -0.2643005 -0.37508637 -0.054300196 -0.21893583 0.14512514 -0.14389499
-0.11436966 0.15740286 0.5289369 -0.40956092 0.2715546 0.0723602 -0.22917628 0.16231942
0.015739888 -0.109344654 0.023620384 0.16577631 -0.023258703 0.017662 -0.2835272 -0.21398877
-0.23959774 -0.057443194 0.0119985305 -0.011739666 -0.1672916 -0.24235857 0.16207649 -0.13822247
-0.042211723 -0.4143252 0.24691696 0.31632337 -0.26235715 0.111893065 -0.31434688 -0.23536539
-0.38049293 0.37740222 0.04665738 0.029331375 -0.032744795 0.21283469 0.32943138 0.28410068
0.41026586 0.033629913 -0.4715916 -0.24608472 0.13574696 -0.24785808 -0.34647813 -0.41988003
-0.7233961 -0.2154651 0.08033637 0.35984337 0.2680425 -0.14357965 -0.2559101 -0.4615762
-0.037988774 0.35675782 -0.23113053 -0.4991186 0.19626807 0.17403153 -0.41480356 -0.0010101105
-0.40194735 0.11243583 0.06378971 0.02572287 0.13985282 -0.121837094 0.3760882 0.2274614
-0.08120836 0.38586044 -0.2954702 -0.42991948 -0.19372657 -0.19774736 -0.33744386 0.016627587
-0.38377875 0.07016086 -0.6196892 0.074895374 0.18679902 0.36237708 0.4015653 -0.35000634
-0.06760447 -0.23753288 0.25143674 -0.14288661 -0.09760925 0.0029902137 0.26636162 -0.3633368
00000000: 632b 573e 2dd5 a3be 944c 8c3d 920f f2bb
00000010: 43b6 993d b9be 87be 460c c83d b64c 92bd
00000020: 3d6c f4be d2d4 1abe 6a3e 763e d3f6 923e
00000030: f980 86be 07db 513e 7311 fc3d e02a 56be
00000040: cb28 093e e0c1 c8bd 66c5 35be 6092 05be
00000050: 7c79 273e 803e dc3d dc4a d43e 3632 01bd
00000060: 7257 10bf ec8a 14bd 9b1a 56be f7fc 25be
00000070: 568a 893d 1e80 203c dd59 e3bc cf51 313e
00000080: 020f 55be 9833 a9be da60 0c3e 0486 413e
00000090: 2541 17be bbf2 36bb e3b6 2ebe e73b f23c
000000a0: a6a8 ae3e ad03 ec3c 29d3 403c a151 c6be
000000b0: 2d8b 203f 60fa 09be 298a dbbe a524 9f3d
000000c0: 6ab1 88be adaf 87be 1983 c6bd dc26 153d
000000d0: b653 a33d 1e0f 87be b094 b23e c152 9abe
000000e0: 766c 523e 9899 753e 9970 b83d d4e2 0ebe
000000f0: 05fd 02be 0d67 c13e c561 d6bd 6bdd 18be
00000100: 804c 323e 581d d7be 548d b03e cdd6 cfbd
00000110: 1096 96be df63 34be 222a a53d baf2 b83e
00000120: 7727 4a3d 58a1 363e 7ed6 8bbe c48d 1bbd
00000130: 1472 263e 8bf9 5dbe 2f5b 23be cdda cdbd
00000140: 8d7a 69bd 860d e4be d80e 90be 17d6 7a3e
00000150: ee7d 2ebe b2e5 653d 73fb c2bd 1e8e eb3e
00000160: 2159 083d 0a01 a23e 18b9 9b3e 4892 c03e
00000170: a529 f4bd 1d67 a5bd 6142 de3d 2029 0bbf
00000180: 19dc 6fbd 35f4 d4be a42f 9abe f71b 2ebe
00000190: 7029 ce3d bd57 e63d e132 dc3e 3de9 873e
000001a0: e016 f8be 2e40 143d 1eed c7be 88d5 47be
000001b0: c4de f53e d9b6 4dbd a301 9ebe a825 e33d
000001c0: fdcb ad3e 8eda a3be ad62 063e 74a1 fcbd
000001d0: 370f 8d3e 6031 91be fb13 e0bd ca37 6ebe
000001e0: d879 283e afc8 6cbe 6bcc a03d f269 833e
000001f0: 60ba 513e ca49 8bbd 6d59 9fbe 43d5 ab3d
00000200: 0279 b33d 7db1 d5bc dce4 993e b86e 473e
00000210: 57c9 d9be 1177 48be e719 dbbe ece8 993e
00000220: aeec 7fbe 0541 813c ef1a a6bd ccef f7bd
00000230: e377 fa3d b697 78be 5fff 8dbe 2f0a 4b3e
00000240: cb43 a0be 3697 023f 2557 3ebe 6e2d b23e
00000250: 3063 9fbb 3c5f c83e 6521 96bd b8d0 803e
00000260: e7dc b93e 6981 acbd 6552 87be 520b c0be
00000270: e269 5ebd b730 60be af9b 143e 3559 13be
00000280: a43a eabd 372e 213e 6968 073f f8b1 d1be
00000290: 3409 8b3e 9631 943d 30ad 6abe 1037 263e
000002a0: f0f0 803c 17f0 dfbd 897f c13c 44c1 293e
000002b0: 0989 bebc e6af 903c 7a2a 91be df1f 5bbe
000002c0: 1c59 75be 8e49 6bbd 7c95 443c ba57 40bc
000002d0: 7d4e 2bbe d82c 78be 61f7 253e 318a 0dbe
000002e0: 33e6 2cbd 6f22 d4be cdd7 7c3e 23f5 a13e
000002f0: ad53 86be 3128 e53d 13f2 a0be a003 71be
00000300: f8cf c2be dd3a c13e cf1b 3f3d 5a48 f03c
00000310: 681f 06bd 56f1 593e 3bab a83e a575 913e
00000320: 5e0e d23e 85bf 093d 7474 f1be a2fd 7bbe
00000330: 4001 0b3e 82ce 7dbe 9565 b1be 84fa d6be
00000340: 7d30 39bf e2a2 5cbe 6587 a43d 643d b83e
00000350: de3c 893e 8b06 13be a606 83be b753 ecbe
00000360: 1e9a 1bbd f6a8 b63e 7bad 6cbe 798c ffbe
00000370: 7ffa 483e 5235 323e 2261 d4be af65 84ba
00000380: 0bcc cdbe c244 e63d 2ea4 823d c5b8 d23c
00000390: 9435 0f3e ba85 f9bd a28e c03e a4eb 683e
000003a0: 9250 a6bd 808f c53e df47 97be 681e dcbe
000003b0: 4260 46be 497e 4abe 71c5 acbe 9436 883c
000003c0: a67e c4be 7fb0 8f3d f4a3 1ebf bf62 993d
000003d0: 3e48 3f3e 7d89 b93e f899 cd3e 0834 b3be
000003e0: 3674 8abd d23b 73be 51bc 803e de50 12be
000003f0: 5ce7 c7bd 76f7 433b 8d60 883e 4807 babe

conv_layers.0.lin_dst.weight f4 [128, 10]
0.21012644 -0.31998578 0.068505436 -0.00738711 0.07505467 -0.26512697 0.09767966 -0.07143538
-0.4773883 -0.15120247 0.24047247 0.28703937 -0.26270273 0.20493709 0.12308016 -0.20914793
0.13394468 -0.09802604 -0.17751083 -0.13044119 0.16354936 0.107541084 0.41463363 -0.031542026
-0.5638343 -0.0362653 -0.20908587 -0.1620978 0.067158386 0.0097961705 -0.027752811 0.17316364
-0.20806506 -0.33047175 0.13708821 0.18898779 -0.14770944 -0.0027915675 -0.17061953 0.02956958
0.34113044 0.028810346 0.0117690945 -0.38734153 0.62712365 -0.13474417 -0.42878845 0.07770661
-0.26697856 -0.26501217 -0.09692974 0.036414012 0.07974951 -0.2637872 0.34879065 -0.3014126
0.20549187 0.23984373 0.09005851 -0.13953716 -0.12791832 0.37773934 -0.10467867 -0.14928214
0.17411995 -0.42014575 0.34482825 -0.10148392 -0.29411364 -0.17616223 0.08064677 0.36122686
0.049354043 0.17834985 -0.27312082 -0.037976995 0.16254455 -0.21677224 -0.15952753 -0.100514986
-0.05700164 -0.44541568 -0.28136325 0.24495731 -0.17040226 0.056127258 -0.095206164 0.46006864
0.033288125 0.31641418 0.30414653 0.37611604 -0.119220056 -0.08076308 0.108525045 -0.54359627
-0.05855951 -0.41592565 -0.30114472 -0.17002855 0.10066497 0.112472035 0.43007568 0.26545134
-0.48454952 0.03619402 -0.39048094 -0.1951505 0.4802152 -0.050223205 -0.30860624 0.11091167
0.33944693 -0.32002681 0.1312358 -0.12335482 0.2755067 -0.28357983 -0.10941311 -0.2326347
0.1645273 -0.2312343 0.0785149 0.25666767 0.20481253 -0.068011835 -0.31122914 0.08390286
0.08763315 -0.02608561 0.30057418 0.1947583 -0.42536423 -0.1957667 -0.427932 0.30060518
-0.2499263 0.015778074 -0.08110606 -0.121062845 0.12229898 -0.24276623 -0.27733895 0.19828103
-0.31301722 0.5101198 -0.1858793 0.34800285 -0.004864119 0.39135158 -0.07330588 0.2515924
0.36301348 -0.084231205 -0.2643005 -0.37508637 -0.054300196 -0.21893583 0.14512514 -0.14389499
-0.11436966 0.15740286 0.5289369 -0.40956092 0.2715546 0.0723602 -0.22917628 0.16231942
0.015739888 -0.109344654 0.023620384 0.16577631 -0.023258703 0.017662 -0.2835272 -0.21398877
-0.23959774 -0.057443194 0.0119985305 -0.011739666 -0.1672916 -0.24235857 0.16207649 -0.13822247
-0.042211723 -0.4143252 0.24691696 0.31632337 -0.26235715 0.111893065 -0.31434688 -0.23536539
-0.38049293 0.37740222 0.04665738 0.029331375 -0.032744795 0.21283469 0.32943138 0.28410068
0.41026586 0.033629913 -0.4715916 -0.24608472 0.13574696 -0.24785808 -0.34647813 -0.41988003
-0.7233961 -0.2154651 0.08033637 0.35984337 0.2680425 -0.14357965 -0.2559101 -0.4615762
-0.037988774 0.35675782 -0.23113053 -0.4991186 0.19626807 0.17403153 -0.41480356 -0.0010101105
-0.40194735 0.11243583 0.06378971 0.02572287 0.13985282 -0.121837094 0.3760882 0.2274614
-0.08120836 0.38586044 -0.2954702 -0.42991948 -0.19372657 -0.19774736 -0.33744386 0.016627587
-0.38377875 0.07016086 -0.6196892 0.074895374 0.18679902 0.36237708 0.4015653 -0.35000634
-0.06760447 -0.23753288 0.25143674 -0.14288661 -0.09760925 0.0029902137 0.26636162 -0.3633368
00000000: 632b 573e 2dd5 a3be 944c 8c3d 920f f2bb
00000010: 43b6 993d b9be 87be 460c c83d b64c 92bd
00000020: 3d6c f4be d2d4 1abe 6a3e 763e d3f6 923e
00000030: f980 86be 07db 513e 7311 fc3d e02a 56be
00000040: cb28 093e e0c1 c8bd 66c5 35be 6092 05be
00000050: 7c79 273e 803e dc3d dc4a d43e 3632 01bd
00000060: 7257 10bf ec8a 14bd 9b1a 56be f7fc 25be
00000070: 568a 893d 1e80 203c dd59 e3bc cf51 313e
00000080: 020f 55be 9833 a9be da60 0c3e 0486 413e
00000090: 2541 17be bbf2 36bb e3b6 2ebe e73b f23c
000000a0: a6a8 ae3e ad03 ec3c 29d3 403c a151 c6be
000000b0: 2d8b 203f 60fa 09be 298a dbbe a524 9f3d
000000c0: 6ab1 88be adaf 87be 1983 c6bd dc26 153d
000000d0: b653 a33d 1e0f 87be b094 b23e c152 9abe
000000e0: 766c 523e 9899 753e 9970 b83d d4e2 0ebe
000000f0: 05fd 02be 0d67 c13e c561 d6bd 6bdd 18be
00000100: 804c 323e 581d d7be 548d b03e cdd6 cfbd
00000110: 1096 96be df63 34be 222a a53d baf2 b83e
00000120: 7727 4a3d 58a1 363e 7ed6 8bbe c48d 1bbd
00000130: 1472 263e 8bf9 5dbe 2f5b 23be cdda cdbd
00000140: 8d7a 69bd 860d e4be d80e 90be 17d6 7a3e
00000150: ee7d 2ebe b2e5 653d 73fb c2bd 1e8e eb3e
00000160: 2159 083d 0a01 a23e 18b9 9b3e 4892 c03e
00000170: a529 f4bd 1d67 a5bd 6142 de3d 2029 0bbf
00000180: 19dc 6fbd 35f4 d4be a42f 9abe f71b 2ebe
00000190: 7029 ce3d bd57 e63d e132 dc3e 3de9 873e
000001a0: e016 f8be 2e40 143d 1eed c7be 88d5 47be
000001b0: c4de f53e d9b6 4dbd a301 9ebe a825 e33d
000001c0: fdcb ad3e 8eda a3be ad62 063e 74a1 fcbd
000001d0: 370f 8d3e 6031 91be fb13 e0bd ca37 6ebe
000001e0: d879 283e afc8 6cbe 6bcc a03d f269 833e
000001f0: 60ba 513e ca49 8bbd 6d59 9fbe 43d5 ab3d
00000200: 0279 b33d 7db1 d5bc dce4 993e b86e 473e
00000210: 57c9 d9be 1177 48be e719 dbbe ece8 993e
00000220: aeec 7fbe 0541 813c ef1a a6bd ccef f7bd
00000230: e377 fa3d b697 78be 5fff 8dbe 2f0a 4b3e
00000240: cb43 a0be 3697 023f 2557 3ebe 6e2d b23e
00000250: 3063 9fbb 3c5f c83e 6521 96bd b8d0 803e
00000260: e7dc b93e 6981 acbd 6552 87be 520b c0be
00000270: e269 5ebd b730 60be af9b 143e 3559 13be
00000280: a43a eabd 372e 213e 6968 073f f8b1 d1be
00000290: 3409 8b3e 9631 943d 30ad 6abe 1037 263e
000002a0: f0f0 803c 17f0 dfbd 897f c13c 44c1 293e
000002b0: 0989 bebc e6af 903c 7a2a 91be df1f 5bbe
000002c0: 1c59 75be 8e49 6bbd 7c95 443c ba57 40bc
000002d0: 7d4e 2bbe d82c 78be 61f7 253e 318a 0dbe
000002e0: 33e6 2cbd 6f22 d4be cdd7 7c3e 23f5 a13e
000002f0: ad53 86be 3128 e53d 13f2 a0be a003 71be
00000300: f8cf c2be dd3a c13e cf1b 3f3d 5a48 f03c
00000310: 681f 06bd 56f1 593e 3bab a83e a575 913e
00000320: 5e0e d23e 85bf 093d 7474 f1be a2fd 7bbe
00000330: 4001 0b3e 82ce 7dbe 9565 b1be 84fa d6be
00000340: 7d30 39bf e2a2 5cbe 6587 a43d 643d b83e
00000350: de3c 893e 8b06 13be a606 83be b753 ecbe
00000360: 1e9a 1bbd f6a8 b63e 7bad 6cbe 798c ffbe
00000370: 7ffa 483e 5235 323e 2261 d4be af65 84ba
00000380: 0bcc cdbe c244 e63d 2ea4 823d c5b8 d23c
00000390: 9435 0f3e ba85 f9bd a28e c03e a4eb 683e
000003a0: 9250 a6bd 808f c53e df47 97be 681e dcbe
000003b0: 4260 46be 497e 4abe 71c5 acbe 9436 883c
000003c0: a67e c4be 7fb0 8f3d f4a3 1ebf bf62 993d
000003d0: 3e48 3f3e 7d89 b93e f899 cd3e 0834 b3be
000003e0: 3674 8abd d23b 73be 51bc 803e de50 12be
000003f0: 5ce7 c7bd 76f7 433b 8d60 883e 4807 babe

conv_layers.1.att_src f4 [1, 4, 32]
0.06416418 0.032413952 0.5687105 -0.32957777 0.015008198 0.00010257748 -0.10880881 0.021901142
-0.49714833 -0.0719791 0.24270883 -0.16887589 0.37080804 -0.4655269 -0.41282356 0.2372053
0.33389968 -0.4103995 0.109951414 0.47234833 0.043779764 -0.29558697 -0.28218654 -0.047644895
-0.031178048 -0.412873 -0.20971385 -0.42684206 -0.122877285 -0.23954363 0.07957506 0.29024568
-0.15589014 -0.120631926 0.5384115 0.78774023 0.12215078 -0.18627462 0.49935424 0.0389204
0.11014977 0.10119156 0.037783835 0.19293638 0.2221304 0.16038355 0.10562338 0.28794795
0.026557792 0.3256886 0.4025754 -0.055649307 -0.4187925 -0.02117853 0.32936996 0.09188056
-0.37461886 -0.036686424 0.03360887 0.2739578 -0.0862945 -0.48771033 0.075521156 -0.41470218
0.21837318 0.10017921 0.31208712 -0.11675499 -0.5733217 0.26291236 -0.24745156 0.23200636
-0.34631187 -0.23029941 0.20729882 -0.36195084 -0.23193686 -0.53973335 0.27908522 -0.18952326
0.22919077 0.32155633 -0.19681358 0.3447582 0.18141413 -0.18143342 0.019924562 -0.15917295
-0.033515707 -0.089028545 0.03168915 -0.07424326 0.043626696 0.11681842 -0.013282112 0.25685158
0.44924855 0.45568806 -0.6942734 0.27251312 -0.13173448 0.42493537 -0.31361252 0.08113682
-0.35814208 0.018732164 0.3123465 0.3784745 -0.56645256 -0.5262535 -0.41438413 0.5491223
-0.59941953 -0.2139837 -0.11496251 0.50918216 -0.28117034 -0.12111101 0.4526587 -0.0048116995
-0.6289337 -0.577466 0.08132922 0.39612505 0.6762052 0.04353367 -0.2686688 -0.1030234
00000000: 8268 833d 7ec4 043d 0397 113f 6bbe a8be
00000010: f2e4 753c de1e d738 27d7 debd 066a b33c
00000020: 3a8a febe c769 93bd aa88 783e cded 2cbe
00000030: 8dda bd3e 8b59 eebe 9c5d d3be f2e5 723e
00000040: e6f4 aa3e e21f d2be 352e e13d a4d7 f13e
00000050: 6952 333d 2d57 97be c17a 90be 4b27 43bd
00000060: 1b69 ffbc 1764 d3be 3abf 56be 0b8b dabe
00000070: 16a7 fbbd ed4a 75be 40f8 a23d 159b 943e
00000080: aaa1 1fbe df0d f7bd 56d5 093f 58a9 493f
00000090: 302a fa3d c6be 3ebe 5cab ff3e ff6a 1f3d
000000a0: 3496 e13d 853d cf3d 39c3 1a3d 1d91 453e
000000b0: 2776 633e 963b 243e 1251 d83d ea6d 933e
000000c0: ba8f d93c a8c0 a63e 5d1e ce3e 87f0 63bd
000000d0: f86b d6be 997e adbc 2ea3 a83e e02b bc3d
000000e0: 0bce bfbe 8144 16bd 74a9 093d 3244 8c3e
000000f0: 2cbb b0bd 2bb5 f9be d6aa 9a3d d853 d4be
00000100: 389d 5f3e c22a cd3d e2c9 9f3e 3d1d efbd
00000110: 36c5 12bf 739c 863e f163 7dbe 1393 6d3e
00000120: ca4f b1be 9cd3 6bbe 2446 543e 9f51 b9be
00000130: db80 6dbe f72b 0abf 42e4 8e3e 6312 42be
00000140: fcb0 6a3e 08a3 a43e 8089 49be 2684 b03e
00000150: a0c4 393e afc9 39be d638 a33c 3cfe 22be
00000160: c447 09bd 9954 b6bd 7bcc 013d da0c 98bd
00000170: e8b1 323d 7f3e ef3d 379d 59bc 0d82 833e
00000180: e803 e63e f24f e93e e7bb 31bf d786 8b3e
00000190: 67e5 06be 2191 d93e d291 a0be 102b a63d
000001a0: 665e b7be 3274 993c e1eb 9f3e 69c7 c13e
000001b0: 0903 11bf 8db8 06bf 282a d4be 4793 0c3f
000001c0: 8f73 19bf 8b1e 5bbe 7771 ebbd c359 023f
000001d0: 8ff5 8fbe 0d09 f8bd e2c2 e73e 76ab 9dbb
000001e0: cd01 21bf d0d4 13bf ef8f a63d e7d0 ca3e
000001f0: c91b 2d3f 5d50 323d f58e 89be effd d2bd

conv_layers.1.att_dst f4 [1, 4, 32]
-0.5794087 0.6842676 0.5623517 0.2197783 -0.10592225 -0.37441367 -0.13836847 -0.176383
-0.3915032 0.89990985 -0.59095156 -0.58202827 0.16725232 -0.54381615 0.2397667 -0.5362529
1.005368 -0.2666343 0.32829523 -0.30331525 0.06241883 -0.10249331 -0.89302903 0.32104835
-0.5347221 -0.10225943 -0.51422244 -0.24610102 -0.14768322 -0.12305835 -0.08181959 -0.04953639
-0.43686497 0.52747154 0.23178022 0.41399696 -0.11961055 -0.30574417 0.15831053 -0.16841257
-0.24340215 0.39258283 1.1980774 0.47657454 -0.36607948 0.5510749 -0.3871628 -0.5127432
-0.17128992 0.045618776 -0.034161624 -0.075768776 -1.2828242 -0.17691968 0.81296474 0.53686893
-0.050584868 0.18671663 -0.02474575 -0.19142912 -0.11983791 0.22602034 0.26618695 0.5225621
0.20779811 0.17783949 -0.19302256 0.1007875 0.20805995 -0.10830332 0.45534953 0.8987919
0.31729382 0.07862949 -0.7193395 -0.0066549275 -0.5098727 0.94569993 0.1261888 -0.2892315
0.27034774 -0.37740612 -0.18339354 -0.030930573 -0.066037245 0.27622595 0.41424736 -0.26332578
0.57125115 -0.14189595 0.32991782 -0.10588342 -0.38680732 -0.2676057 -0.10617687 -0.7459219
0.9874518 0.27382234 -0.53264946 0.24815032 -0.67678946 -0.36451063 -0.07913221 -0.44110888
-1.0780247 0.028244799 0.8998108 -0.5401121 -0.5363949 0.5498754 -0.8556715 -0.29300967
-0.6140484 0.21957895 -0.5131882 0.326431 0.45097566 -0.058368664 0.036632426 0.11586495
-0.16008306 0.52045614 -0.16048653 -0.002324412 -0.28147486 0.29342577 -0.006897391 0.37149727
00000000: 2154 14bf 292c 2f3f 48f6 0f3f 900d 613e
00000010: c4ed d8bd 26b3 bfbe 77b0 0dbe bf9d 34be
00000020: 1c73 c8be 7e60 663f 9a48 17bf ceff 14bf
00000030: 3144 2b3e 8937 0bbf 6785 753e df47 09bf
00000040: e6af 803f 4a84 88be 5016 a83e 234c 9bbe
00000050: e3aa 7f3d 03e8 d1bd 8d9d 64bf 7360 a43e
00000060: 8ce3 08bf 646d d1bd 15a4 03bf e801 7cbe
00000070: 453a 17be 0406 fcbd 0791 a7bd abe6 4abd
00000080: c4ac dfbe 6008 073f cb57 6d3e 69f7 d33e
00000090: 60f6 f4bd 808a 9cbe 281c 223e 5874 2cbe
000000a0: 6a3e 79be 9e00 c93e 9a5a 993f 9401 f43e
000000b0: c56e bbbe 3f13 0d3f 343a c6be 2343 03bf
000000c0: a066 2fbe c1da 3a3d 0fed 0bbd a92c 9bbd
000000d0: 9533 a4bf 6f2a 35be 751e 503f 3e70 093f
000000e0: 1432 4fbd a532 3f3e 99b7 cabc ff05 44be
000000f0: 946d f5bd e071 673e a849 883e a1c6 053f
00000100: 07c9 543e 8e1b 363e b5a7 45be ad69 ce3d
00000110: ab0d 553e 22ce ddbd 9323 e93e 3a17 663f
00000120: 5674 a23e 8008 a13d a226 38bf 9411 dabb
00000130: 0487 02bf 6419 723f a337 013e 2716 94be
00000140: 056b 8a3e 603b c1be 84cb 3bbe 1d62 fdbc
00000150: 893e 87bd 7d6d 8d3e 3b18 d43e a3d2 86be
00000160: 843d 123f 2c4d 11be fdea a83e 68d9 d8bd
00000170: 9c0b c6be 9d03 89be 4273 d9bd bdf4 3ebf
00000180: a4c9 7c3f 7132 8c3e b75b 08bf 1e1b 7e3e
00000190: 1342 2dbf 23a1 babe 1110 a2bd 06d9 e1be
000001a0: b7fc 89bf a361 e73c 005a 663f c944 0abf
000001b0: 2d51 09bf a2c4 0c3f 4a0d 5bbf 5d05 96be
000001c0: 4732 1dbf 4ed9 603e 4d60 03bf f721 a73e
000001d0: 48e6 e63e fb13 6fbd e20b 163d 9a4a ed3d
000001e0: d0ec 23be 9d3c 053f 9556 24be 2a55 18bb
000001f0: 791d 90be e73b 963e 8203 e2bb e434 be3e

conv_layers.1.bias f4 [128]
0.039236672 0.031524714 -0.08580335 0.018119292 0.061423562 -0.08025519 0.0147175975 -0.0019092612
0.051010538 -0.043951914 0.032776255 0.0052951593 -0.021984411 0.04014983 0.025744576 0.021616917
-0.058379844 0.027148446 -0.072445065 -0.029684123 -0.003559528 -0.16514799 0.07592766 0.06641932
-0.018382924 -0.006877939 0.023876878 -0.0363478 0.074389674 0.017513517 -0.05218275 0.031110788
0.017862076 0.078065746 0.021010837 -0.010007219 -0.102803916 0.09124942 0.09531006 -0.01430185
0.015123866 -0.05877117 0.01740592 0.032447737 0.04857054 0.039762907 0.0110725425 -0.04973079
-0.06568369 -0.052453518 -0.07995047 -0.0040948996 -0.0802379 0.010719697 -0.11835314 0.15023544
-0.062591664 -0.08782238 -0.00029467882 -0.013176459 0.08545963 0.061847556 0.005390934 0.00063392776
0.06829588 -0.07584521 0.00604083 0.07565982 0.08725697 -0.31253994 0.03421786 0.10992303
0.07605574 -0.024208667 -0.01431204 0.07668103 0.07097163 -0.24753486 0.010859371 0.07098216
-0.029952906 0.06775679 0.05678638 -0.026909804 -0.060936477 0.10096406 0.035316873 0.047668714
-0.08069446 0.1038141 0.0128583545 -0.00254364 0.11575178 -0.067797534 -0.08228528 0.15295157
-0.022126267 -0.00797472 0.14550537 -0.00034307386 -0.028603148 0.012817079 -0.013773791 -0.023545958
0.018693266 0.012531063 -0.03521462 -0.15797184 -0.042682864 0.0040850043 -0.0120199425 -0.082003325
-0.16029137 0.008117889 -0.06946586 0.030525094 -0.023756154 0.07161992 -0.0017763933 0.0706546
0.05308207 0.090118036 0.0011786756 -0.0031487974 -0.024828669 -0.03019633 0.010058015 0.014235037
00000000: a2b6 203d 0f20 013d abb9 afbd e96e 943c
00000010: 4697 7b3d d55c a4bd 1422 713c 2d40 faba
00000020: 6df0 503d ec06 34bd 6540 063d 0483 ad3b
00000030: a718 b4bc 2674 243d 4ae6 d23c f615 b13c
00000040: b41f 6fbd 6b66 de3c 145e 94bd 1e2c f3bc
00000050: f846 69bb 8e1c 29be f67f 9b3d da06 883d
00000060: c997 96bc 5660 e1bb 7199 c33c 6ee1 14bd
00000070: 9d59 983d 8278 8f3c 94bd 55bd 0ddc fe3c
00000080: 7d53 923c efe0 9f3d eb1e ac3c 52f5 23bc
00000090: dc8a d2bd fae0 ba3d ec31 c33d 4f52 6abc
000000a0: 17ca 773c 0aba 70bd dc96 8e3c ebe7 043d
000000b0: e7f1 463d 6ede 223d 9c69 353c 83b2 4bbd
000000c0: 2c85 86bd 80d9 56bd 12bd a3bd 822e 86bb
000000d0: c553 a4bd aba1 2f3c 2263 f2bd 52d7 193e
000000e0: 0f30 80bd 38dc b3bd 1f7f 9ab9 13e2 57bc
000000f0: 7505 af3d dd53 7d3d 6fa6 b03b 2c2e 263a
00000100: b6de 8b3d bc54 9bbd 28f2 c53b 89f3 9a3d
00000110: c8b3 b23d 3c05 a0be 0728 0c3d 531f e13d
00000120: 1dc3 9b3d 4151 c6bc 0c7d 6abc f20a 9d3d
00000130: 9359 913d c779 7dbe 81eb 313c 185f 913d
00000140: cc5f f5bc 12c4 8a3d d698 683d f371 dcbc
00000150: 8798 79bd 3fc6 ce3d 6da8 103d 4540 433d
00000160: 2343 a5bd 7d9c d43d d9ab 523c 33b3 26bb
00000170: 450f ed3d 6fd9 8abd 2f85 a8bd 569f 1c3e
00000180: 2542 b5bc 66a8 02bc 5cff 143e 98de b3b9
00000190: 2651 eabc bafe 513c 77ab 61bc 74e3 c0bc
000001a0: 9f22 993c 164f 4d3c 353d 10bd 5fc3 21be
000001b0: 3ad4 2ebd 80db 853b 4bef 44bc 5cf1 a7bd
000001c0: 6c23 24be e500 053c 1e44 8ebd c30f fa3c
000001d0: 449c c2bc 77ad 923d ded5 e8ba 5cb3 903d
000001e0: 966c 593d ce8f b83d ca7d 9a3a 0e5c 4ebb
000001f0: 7e65 cbbc 4b5e f7bc 5fca 243c 133a 693c

conv_layers.1.lin_src.weight f4 [128, 128]
0.21845014 0.24010782 -0.22769377 -0.36621097 -0.22511739 0.2758411 0.3468952 0.026952554
-0.11197549 0.023084871 -0.14983599 0.20255665 0.17164232 -0.35889283 -0.19195889 -0.18165436
-0.18896335 -0.08560607 0.28288364 0.074723035 -0.14188401 -0.043135095 -0.18693365 -0.11438176
0.11217888 -0.070757605 -0.30866417 0.05835723 -0.037080135 -0.56349695 0.06994862 -0.061372794
0.01978644 0.20920336 -0.14844386 0.04766134 0.080708124 -0.046952352 -0.14153737 -0.20203708
0.0012500497 0.20433879 -0.044598803 0.10039462 0.056911804 -0.21032481 -0.23159489 -0.20570266
-0.17558178 0.0784575 -0.07714516 -0.06563682 -0.09074144 0.17725399 0.102478825 0.07515834
0.105185576 -0.01856735 0.15062834 0.03506884 0.18494995 -0.1685505 0.0101592755 0.12223947
0.438576 -0.11765037 0.0037417752 -0.09398123 -0.008144416 -0.13666956 -0.6458475 0.094617724
0.09197633 -0.17732173 -0.055828568 -0.3783554 0.10794143 0.32905552 0.40456167 -0.06104814
-0.40375802 0.08761336 0.06767794 0.3576467 -0.2784417 0.030058164 0.4399475 0.33476338
-0.21382995 -0.024518691 -0.004047861 -0.5270949 0.07851091 -0.27663293 0.22593747 -0.058389083
0.055854924 0.3368179 0.005540639 0.3082463 -0.005528574 0.023680203 -0.29556987 0.12518296
-0.07471943 -0.17826717 0.00039016415 0.045251485 0.2049727 0.07200731 0.5351614 -0.037541438
-0.1955733 -0.049458392 0.38155437 0.109070785 -0.37333694 -0.052203342 -0.3639632 -0.14382878
-0.57126415 0.10690067 -0.26499325 0.07013708 0.21793664 -0.32090294 0.29207408 0.26707026
0.08426026 -0.004919332 -0.008599138 0.39385265 0.3937103 0.15871717 -0.10217326 -0.19830258
-0.06394235 0.039035797 -0.06487252 0.03208537 -0.26474166 0.13510084 0.1163672 0.12675487
0.2002915 0.01803553 -0.08786193 -0.32961515 0.11830784 -0.0788113 -0.04677992 -0.10766305
0.0035509071 -0.14934991 0.49423158 -0.27453554 -0.17608456 0.4551767 0.15057735 0.084835306
-0.075708605 -0.09281212 -0.15080127 0.08071103 0.11615435 0.2627087 -0.16445513 0.3008319
0.14130245 -0.005713793 0.06337792 0.033587977 -0.16470458 0.186228 0.18989207 0.053908587
0.003645815 -0.06581449 -0.097476356 0.06545565 0.12868243 -0.209092 -0.19418336 0.12940966
-0.13282935 0.207369 -0.022468083 -0.08648577 0.026914887 -0.14816236 -0.20404951 -0.10166145
-0.18342434 0.027079063 -0.119979076 0.22403981 -0.010166655 0.13516271 0.1840182 0.1596405
-0.1788903 0.3853255 0.049160197 0.36182415 -0.18530789 -0.16584322 -0.026966682 -0.08670967
-0.038626015 -0.040237047 -0.039267585 -0.07748385 0.11608865 -0.07347434 0.12027098 -0.3027476
-0.07866953 0.0013672443 0.22434895 0.044101562 -0.15197301 -0.14455599 0.013312856 0.06419122
-0.10731099 -0.18001547 -0.24715067 0.121474214 -0.083440125 0.13746002 0.06094253 0.13664825
-0.1616415 0.36354727 0.22215568 0.034886964 -0.49544045 -0.017798465 -0.3638731 -0.2406978
0.5569281 0.19355871 0.094434895 0.27735123 0.23491003 -0.4250778 0.11407447 0.5088437
0.42491728 0.14682825 0.4241083 -0.12661906 -0.058406297 0.38092184 -0.13414834 -0.38138124
00000000: 65b1 5f3e d3de 753e 8e28 69be 0180 bbbe
00000010: 2c85 66be 0b3b 8d3e 3f9c b13e 9acb dc3c
00000020: 6853 e5bd 7c1c bd3c 9b6e 19be 036b 4f3e
00000030: 01c3 2f3e cdc0 b7be df90 44be 9a03 3abe
00000040: 9c7f 41be 3c52 afbd 20d6 903e 6408 993d
00000050: 0b4a 11be 6dae 30bd 896b 3fbe fc40 eabd
00000060: 0abe e53d 5de9 90bd 3b09 9ebe fe07 6f3d
00000070: 57e1 17bd 5641 10bf 3941 8f3d 0a62 7bbd
00000080: 2c17 a23c 6839 563e ab01 18be 8a38 433d
00000090: 4d4a a53d 1c51 40bd 2cef 10be cfe2 4ebe
000000a0: b5d8 a33a 303e 513e 3cad 36bd b29b cd3d
000000b0: 5a1c 693d 635f 57be 3627 6dbe b8a3 52be
000000c0: b6cb 33be 53ae a03d 48fe 9dbd 996c 86bd
000000d0: a6d6 b9bd 1282 353e 6be0 d13d 9eec 993d
000000e0: 896b d73d 8e1a 98bc 513e 1a3e 58a4 0f3d
000000f0: 8563 3d3e 8198 2cbe 1773 263c b058 fa3d
00000100: 098d e03e adf2 f0bd 9238 753b 3b79 c0bd
00000110: 2870 05bc 1bf3 0bbe 4356 25bf f0c6 c13d
00000120: 165e bc3d d493 35be 7fac 64bd cdb7 c1be
00000130: 6510 dd3d f779 a83e b522 cf3e 9d0d 7abd
00000140: 5fb9 cebe a26e b33d bb9a 8a3d 781d b73e
00000150: e98f 8ebe 8a3c f63c cc40 e13e 1b66 ab3e
00000160: 3df6 5abe 6cdb c8bc eba3 84bb b1ef 06bf
00000170: 54ca a03d d5a2 8dbe 275c 673e 6429 6fbd
00000180: 22c8 643d 6573 ac3e 408e b53b 76d2 9d3e
00000190: 0a29 b5bb fcfc c13c ef54 97be f62f 003e
000001a0: 8006 99bd ab8b 36be f28e cc39 9f59 393d
000001b0: 5de4 513e 9278 933d 5600 093f 0dc5 19bd
000001c0: 5e44 48be e294 4abd 185b c33e 8160 df3d
000001d0: 0526 bfbe 2cd3 55bd 6259 babe da47 13be
000001e0: 5e3e 12bf bdee da3d 32ad 87be 08a4 8f3d
000001f0: c82a 5f3e 644d a4be bc8a 953e 6fbd 883e
00000200: a590 ac3d 5932 a1bb 66e3 0cbc 0ea7 c93e
00000210: 6594 c93e c186 223e 3740 d1bd d50f 4bbe
00000220: 35f4 82bd 00e4 1f3d e2db 84bd f36b 033d
00000230: 388c 87be e057 0a3e ed51 ee3d 07cc 013e
00000240: 3719 4d3e 3fbf 933c f5f0 b3bd 51c3 a8be
00000250: 614b f23d d267 a1bd 4d9c 3fbd 727e dcbd
00000260: 56b6 683b 2fef 18be ec0b fd3e ec8f 8cbe
00000270: 834f 34be ec0c e93e f330 1a3e 22be ad3d
00000280: 1d0d 9bbd 4814 bebd a66b 1abe d34b a53d
00000290: 55e2 ed3d c181 863e ed66 28be a406 9a3e
000002a0: 97b1 103e c53a bbbb 48cc 813d 8c93 093d
000002b0: 51a8 28be 8eb2 3e3e 1173 423e 40cf 5c3d
000002c0: a0ee 6e3b bfc9 86bd afa1 c7bd 9d0d 863d
000002d0: 54c5 033e 371c 56be 01d8 46be f783 043e
000002e0: 6b04 08be 8a58 543e fc0e b8bc 741f b1bd
000002f0: 9c7c dc3c e0b7 17be 5bf2 50be e133 d0bd
00000300: 97d3 3bbe e9d4 dd3c 97b7 f5bd b16a 653e
00000310: 0b92 26bc 1868 0a3e 446f 3c3e cd78 233e
00000320: 052f 37be 6249 c53e 345c 493d 0441 b93e
00000330: 5ac1 3dbe ced2 29be 3be9 dcbc d794 b1bd
00000340: 5036 1ebd 9acf 24bd 0cd7 20bd daaf 9ebd
00000350: e3bf ed3d b779 96bd a250 f63d bc01 9bbe
00000360: 7e1d a1bd 1b35 b33a bbbb 653e d7a3 343d
00000370: d09e 1bbe 7c06 14be 2a1e 5a3c b076 833d
00000380: ddc5 dbbd fa55 38be 1115 7dbe 79c7 f83d
00000390: a8e2 aabd 52c2 0c3e e09e 793d 85ed 0b3e
000003a0: 5985 25be de22 ba3e c77c 633e a2e5 0e3d
000003b0: 5faa fdbe 16ce 91bc 934d babe 7c79 76be
000003c0: d792 0e3f 4134 463e 1567 c13d fb00 8e3e
000003d0: 418c 703e cca3 d9be e09f e93d 9543 023f
000003e0: c28e d93e 255a 163e b924 d93e 6da8 01be
000003f0: 713b 6fbd 3008 c33e 2f5e 09be 6744 c3be

conv_layers.1.lin_dst.weight f4 [128, 128]
0.21845014 0.24010782 -0.22769377 -0.36621097 -0.22511739 0.2758411 0.3468952 0.026952554
-0.11197549 0.023084871 -0.14983599 0.20255665 0.17164232 -0.35889283 -0.19195889 -0.18165436
-0.18896335 -0.08560607 0.28288364 0.074723035 -0.14188401 -0.043135095 -0.18693365 -0.11438176
0.11217888 -0.070757605 -0.30866417 0.05835723 -0.037080135 -0.56349695 0.06994862 -0.061372794
0.01978644 0.20920336 -0.14844386 0.04766134 0.080708124 -0.046952352 -0.14153737 -0.20203708
0.0012500497 0.20433879 -0.044598803 0.10039462 0.056911804 -0.21032481 -0.23159489 -0.20570266
-0.17558178 0.0784575 -0.07714516 -0.06563682 -0.09074144 0.17725399 0.102478825 0.07515834
0.105185576 -0.01856735 0.15062834 0.03506884 0.18494995 -0.1685505 0.0101592755 0.12223947
0.438576 -0.11765037 0.0037417752 -0.09398123 -0.008144416 -0.13666956 -0.6458475 0.094617724
0.09197633 -0.17732173 -0.055828568 -0.3783554 0.10794143 0.32905552 0.40456167 -0.06104814
-0.40375802 0.08761336 0.06767794 0.3576467 -0.2784417 0.030058164 0.4399475 0.33476338
-0.21382995 -0.024518691 -0.004047861 -0.5270949 0.07851091 -0.27663293 0.22593747 -0.058389083
0.055854924 0.3368179 0.005540639 0.3082463 -0.005528574 0.023680203 -0.29556987 0.12518296
-0.07471943 -0.17826717 0.00039016415 0.045251485 0.2049727 0.07200731 0.5351614 -0.037541438
-0.1955733 -0.049458392 0.38155437 0.109070785 -0.37333694 -0.052203342 -0.3639632 -0.14382878
-0.57126415 0.10690067 -0.26499325 0.07013708 0.21793664 -0.32090294 0.29207408 0.26707026
0.08426026 -0.004919332 -0.008599138 0.39385265 0.3937103 0.15871717 -0.10217326 -0.19830258
-0.06394235 0.039035797 -0.06487252 0.03208537 -0.26474166 0.13510084 0.1163672 0.12675487
0.2002915 0.01803553 -0.08786193 -0.32961515 0.11830784 -0.0788113 -0.04677992 -0.10766305
0.0035509071 -0.14934991 0.49423158 -0.27453554 -0.17608456 0.4551767 0.15057735 0.084835306
-0.075708605 -0.09281212 -0.15080127 0.08071103 0.11615435 0.2627087 -0.16445513 0.3008319
0.14130245 -0.005713793 0.06337792 0.033587977 -0.16470458 0.186228 0.18989207 0.053908587
0.003645815 -0.06581449 -0.097476356 0.06545565 0.12868243 -0.209092 -0.19418336 0.12940966
-0.13282935 0.207369 -0.022468083 -0.08648577 0.026914887 -0.14816236 -0.20404951 -0.10166145
-0.18342434 0.027079063 -0.119979076 0.22403981 -0.010166655 0.13516271 0.1840182 0.1596405
-0.1788903 0.3853255 0.049160197 0.36182415 -0.18530789 -0.16584322 -0.026966682 -0.08670967
-0.038626015 -0.040237047 -0.039267585 -0.07748385 0.11608865 -0.07347434 0.12027098 -0.3027476
-0.07866953 0.0013672443 0.22434895 0.044101562 -0.15197301 -0.14455599 0.013312856 0.06419122
-0.10731099 -0.18001547 -0.24715067 0.121474214 -0.083440125 0.13746002 0.06094253 0.13664825
-0.1616415 0.36354727 0.22215568 0.034886964 -0.49544045 -0.017798465 -0.3638731 -0.2406978
0.5569281 0.19355871 0.094434895 0.27735123 0.23491003 -0.4250778 0.11407447 0.5088437
0.42491728 0.14682825 0.4241083 -0.12661906 -0.058406297 0.38092184 -0.13414834 -0.38138124
00000000: 65b1 5f3e d3de 753e 8e28 69be 0180 bbbe
00000010: 2c85 66be 0b3b 8d3e 3f9c b13e 9acb dc3c
00000020: 6853 e5bd 7c1c bd3c 9b6e 19be 036b 4f3e
00000030: 01c3 2f3e cdc0 b7be df90 44be 9a03 3abe
00000040: 9c7f 41be 3c52 afbd 20d6 903e 6408 993d
00000050: 0b4a 11be 6dae 30bd 896b 3fbe fc40 eabd
00000060: 0abe e53d 5de9 90bd 3b09 9ebe fe07 6f3d
00000070: 57e1 17bd 5641 10bf 3941 8f3d 0a62 7bbd
00000080: 2c17 a23c 6839 563e ab01 18be 8a38 433d
00000090: 4d4a a53d 1c51 40bd 2cef 10be cfe2 4ebe
000000a0: b5d8 a33a 303e 513e 3cad 36bd b29b cd3d
000000b0: 5a1c 693d 635f 57be 3627 6dbe b8a3 52be
000000c0: b6cb 33be 53ae a03d 48fe 9dbd 996c 86bd
000000d0: a6d6 b9bd 1282 353e 6be0 d13d 9eec 993d
000000e0: 896b d73d 8e1a 98bc 513e 1a3e 58a4 0f3d
000000f0: 8563 3d3e 8198 2cbe 1773 263c b058 fa3d
00000100: 098d e03e adf2 f0bd 9238 753b 3b79 c0bd
00000110: 2870 05bc 1bf3 0bbe 4356 25bf f0c6 c13d
00000120: 165e bc3d d493 35be 7fac 64bd cdb7 c1be
00000130: 6510 dd3d f779 a83e b522 cf3e 9d0d 7abd
00000140: 5fb9 cebe a26e b33d bb9a 8a3d 781d b73e
00000150: e98f 8ebe 8a3c f63c cc40 e13e 1b66 ab3e
00000160: 3df6 5abe 6cdb c8bc eba3 84bb b1ef 06bf
00000170: 54ca a03d d5a2 8dbe 275c 673e 6429 6fbd
00000180: 22c8 643d 6573 ac3e 408e b53b 76d2 9d3e
00000190: 0a29 b5bb fcfc c13c ef54 97be f62f 003e
000001a0: 8006 99bd ab8b 36be f28e cc39 9f59 393d
000001b0: 5de4 513e 9278 933d 5600 093f 0dc5 19bd
000001c0: 5e44 48be e294 4abd 185b c33e 8160 df3d
000001d0: 0526 bfbe 2cd3 55bd 6259 babe da47 13be
000001e0: 5e3e 12bf bdee da3d 32ad 87be 08a4 8f3d
000001f0: c82a 5f3e 644d a4be bc8a 953e 6fbd 883e
00000200: a590 ac3d 5932 a1bb 66e3 0cbc 0ea7 c93e
00000210: 6594 c93e c186 223e 3740 d1bd d50f 4bbe
00000220: 35f4 82bd 00e4 1f3d e2db 84bd f36b 033d
00000230: 388c 87be e057 0a3e ed51 ee3d 07cc 013e
00000240: 3719 4d3e 3fbf 933c f5f0 b3bd 51c3 a8be
00000250: 614b f23d d267 a1bd 4d9c 3fbd 727e dcbd
00000260: 56b6 683b 2fef 18be ec0b fd3e ec8f 8cbe
00000270: 834f 34be ec0c e93e f330 1a3e 22be ad3d
00000280: 1d0d 9bbd 4814 bebd a66b 1abe d34b a53d
00000290: 55e2 ed3d c181 863e ed66 28be a406 9a3e
000002a0: 97b1 103e c53a bbbb 48cc 813d 8c93 093d
000002b0: 51a8 28be 8eb2 3e3e 1173 423e 40cf 5c3d
000002c0: a0ee 6e3b bfc9 86bd afa1 c7bd 9d0d 863d
000002d0: 54c5 033e 371c 56be 01d8 46be f783 043e
000002e0: 6b04 08be 8a58 543e fc0e b8bc 741f b1bd
000002f0: 9c7c dc3c e0b7 17be 5bf2 50be e133 d0bd
00000300: 97d3 3bbe e9d4 dd3c 97b7 f5bd b16a 653e
00000310: 0b92 26bc 1868 0a3e 446f 3c3e cd78 233e
00000320: 052f 37be 6249 c53e 345c 493d 0441 b93e
00000330: 5ac1 3dbe ced2 29be 3be9 dcbc d794 b1bd
00000340: 5036 1ebd 9acf 24bd 0cd7 20bd daaf 9ebd
00000350: e3bf ed3d b779 96bd a250 f63d bc01 9bbe
00000360: 7e1d a1bd 1b35 b33a bbbb 653e d7a3 343d
00000370: d09e 1bbe 7c06 14be 2a1e 5a3c b076 833d
00000380: ddc5 dbbd fa55 38be 1115 7dbe 79c7 f83d
00000390: a8e2 aabd 52c2 0c3e e09e 793d 85ed 0b3e
000003a0: 5985 25be de22 ba3e c77c 633e a2e5 0e3d
000003b0: 5faa fdbe 16ce 91bc 934d babe 7c79 76be
000003c0: d792 0e3f 4134 463e 1567 c13d fb00 8e3e
000003d0: 418c 703e cca3 d9be e09f e93d 9543 023f
000003e0: c28e d93e 255a 163e b924 d93e 6da8 01be
000003f0: 713b 6fbd 3008 c33e 2f5e 09be 6744 c3be

conv_layers.2.att_src f4 [1, 4, 32]
-0.35234028 0.41673768 -0.053849515 0.24565844 -0.14228523 -0.3513981 0.11883259 0.49164993
-0.042428385 0.7827277 -0.066650964 -0.7963512 -0.40913016 -0.043308515 -0.008793354 -0.15787028
0.36433616 -0.52672344 -0.42349806 0.10822811 -0.23766264 0.25430578 0.19666606 -0.20485835
0.034272093 0.28979194 -0.29879048 0.068508714 -0.7331237 0.29740816 0.60400087 -0.3346227
0.42431635 -0.3403801 0.43352485 0.6506099 0.46161643 -0.3241813 -0.3264463 -0.0624227
-0.52838624 0.6216406 -0.07965079 0.070268996 0.42824608 0.6083127 -0.7841015 -0.35673335
-0.35598212 0.48661256 -0.21491699 -0.19857144 -0.64917 -0.07142577 -0.30590457 -0.2719059
-0.29103297 0.36613497 -0.48523873 0.4133267 0.046875197 1.027495 -0.70253325 -0.4795727
0.30267993 -0.13446644 0.4200183 -0.6288677 0.39936545 -0.95235056 0.12815128 -0.08240518
0.24250863 -0.5704226 -0.53233385 -0.45057613 -0.4345799 -0.118425876 -0.18675902 -0.56049836
-0.2102279 0.27789205 -0.74499387 0.05203209 0.14460294 0.15801607 -0.34878555 -0.24405731
0.26036358 -0.35356063 0.30510622 -0.17708898 -0.060680684 0.45595232 -0.49861583 -0.12985688
-0.25413194 0.1986849 0.5965057 -0.046634223 -0.5488748 0.41412643 -0.396725 -0.347373
-0.64642835 0.043988146 0.17096291 -0.50359386 -0.12887259 -0.14990768 -0.27072465 0.41767853
0.2790846 -0.53009975 -0.33064824 0.4475827 0.45708975 0.080777556 -0.4293378 -0.7176508
0.20516923 0.23411149 0.108484484 -0.43379334 -0.40464866 -0.6452053 -0.104488835 0.021101838
00000000: f265 b4be a45e d53e 4f91 5cbd e38d 7b3e
00000010: 38b3 11be 74ea b3be 805e f33d 8ab9 fb3e
00000020: 63c9 2dbd d860 483f 4d80 88bd acdd 4bbf
00000030: 8279 d1be 4564 31bd 0012 10bc bfa8 21be
00000040: 458a ba3e 59d7 06bf bdd4 d8be b3a6 dd3d
00000050: d65d 73be 5e34 823e d462 493e 63c6 51be
00000060: e560 0c3d 9c5f 943e 11fb 98be 4c4e 8c3d
00000070: ffad 3bbf e245 983e cd9f 1a3f ab53 abbe
00000080: fe3f d93e 4d46 aebe f8f6 dd3e 5f8e 263f
00000090: fd58 ec3e 17fb a5be f823 a7be f2ae 7fbd
000000a0: 5244 07bf d723 1f3f f41f a3bd 31e9 8f3d
000000b0: 1243 db3e 62ba 1b3f e0ba 48bf c1a5 b6be
000000c0: 4a43 b6be 4825 f93e 3313 5cbe 5056 4bbe
000000d0: 0130 26bf ad47 92bd 869f 9cbe 4037 8bbe
000000e0: 4602 95be 0b76 bb3e 3671 f8be 8f9f d33e
000000f0: 3500 403d f584 833f 38d9 33bf 8e8a f5be
00000100: ddf8 9a3e 92b1 09be a30c d73e 79fd 20bf
00000110: a179 cc3e 3fcd 73bf 173a 033e 0cc4 a8bd
00000120: 2f54 783e 3707 12bf 0847 08bf eab1 e6be
00000130: 4281 debe 4489 f2bd c23d 3fbe d27c 0fbf
00000140: fc45 57be de47 8e3e ebb7 3ebf 9a1f 553d
00000150: cb12 143e f7ce 213e 0594 b2be 29ea 79be
00000160: 604e 853e e605 b5be e236 9c3e d056 35be
00000170: 4f8c 78bd 9572 e93e 934a ffbe 34f9 04be
00000180: 951d 82be 0e74 4b3e 99b4 183f 8703 3fbd
00000190: 0f83 0cbf 6108 d43e 8a1f cbbe e0da b1be
000001a0: 547c 25bf ea2c 343d e710 2f3e 87eb 00bf
000001b0: 2df7 03be 6681 19be 6c9c 8abe f6d9 d53e
000001c0: 2de4 8e3e 9eb4 07bf ba4a a9be 8f29 e53e
000001d0: ab07 ea3e b46e a53d 2ad2 dbbe f6b7 37bf
000001e0: e217 523e ecba 6f3e 1d2d de3d 291a debe
000001f0: 1c2e cfbe 2d2c 25bf 3efe d5bd c3dd ac3c

conv_layers.2.att_dst f4 [1, 4, 32]
0.08777661 -0.89458865 0.17049402 0.079163335 -0.9602667 -0.7585385 -0.29044887 -0.5334238
-0.2141532 -0.93683046 0.5394497 -0.18107072 -0.64893585 -0.20334166 -0.1054765 0.3351411
0.24057339 0.20740762 0.05905515 -0.20740342 0.05374792 -1.0064415 0.10352459 0.7245556
-0.4262389 -0.7547581 -0.5818097 0.20699106 0.4783925 -0.86562365 -0.37935647 0.09519779
0.21491538 -0.3722689 0.21278255 -0.7086772 -0.028234629 -0.59435153 0.2977701 0.6292879
-0.1648709 -0.44534236 0.4981545 0.18205462 -0.96531916 -0.13976473 0.46766853 -0.487517
0.9907352 -0.39455894 -0.31252968 -0.11525055 0.5012452 -0.10030744 -0.2220787 0.5190388
0.7951369 -0.81444967 0.14896882 0.25163296 -0.5148439 0.22157913 0.62945783 0.24631271
0.46228793 -0.59240216 -0.5768471 -0.5091623 0.13977054 -0.28990546 0.49328706 -0.6268707
-0.4442886 -0.22068374 0.25813794 -0.14760347 0.34534982 -0.030405035 0.2410469 0.58771276
-0.45373213 -0.106891125 -0.0077772825 0.07190885 0.066732 -0.23074032 -0.56351507 0.21275026
-0.33753648 -0.6964949 0.029879682 -0.04029414 -0.8270658 0.6746951 -0.017678866 0.034301117
0.0018396153 0.11240043 0.13280582 0.26354966 -0.19514549 -0.4784682 -0.48225975 -0.2820421
-0.6016172 -1.0454366 -0.06950931 0.4037949 -0.30820635 -0.12683953 0.050922677 0.13514286
-0.19041137 -0.097636975 -0.09316445 0.22494987 -0.041335996 0.20444413 0.21800172 0.41734403
0.22579542 -0.40246236 -0.38172564 -0.37159836 0.69101524 0.012187016 0.19318269 -0.97337604
00000000: 39c4 b33d c303 65bf fc95 2e3e 6320 a23d
00000010: 0ad4 75bf 942f 42bf b7b5 94be 768e 08bf
00000020: fa4a 5bbe 1fd4 6fbf 6019 0a3f 9a6a 39be
00000030: a920 26bf cc38 50be 1004 d8bd 9d97 ab3e
00000040: df58 763e aa62 543e d0e3 713d 9061 54be
00000050: c726 5c3d 13d3 80bf b304 d43d 7a7c 393f
00000060: fc3b dabe d437 41bf 7bf1 14bf 77f5 533e
00000070: ddef f43e 8399 5dbf 033b c2be 0ff7 c23d
00000080: c712 5c3e 079a bebe abe3 593e de6b 35bf
00000090: 4f4c e7bc 6c27 18bf 5375 983e 0319 213f
000000a0: ebd3 28be ea03 e4be 1b0e ff3e 876c 3a3e
000000b0: 281f 77bf 7c1e 0fbe 4072 ef3e d49b f9be
000000c0: d2a0 7d3f a103 cabe e403 a0be 7b08 ecbd
000000d0: 9b51 003f fd6d cdbd 9968 63be badf 043f
000000e0: 188e 4b3f c67f 50bf 488b 183e 09d6 803e
000000f0: cfcc 03bf a4e5 623e 2624 213f 6639 7c3e
00000100: 01b1 ec3e aba7 17bf 40ac 13bf 7658 02bf
00000110: 0220 0f3e 7d6e 94be 1f90 fc3e 997a 20bf
00000120: cc79 e3be ebfa 61be a82a 843e 5d25 17be
00000130: b1d1 b03e fb13 f9bc 00d5 763e 5874 163f
00000140: 944f e8be bce9 dabd 93d8 febb f244 933d
00000150: c9aa 883d 3147 6cbe 8642 10bf 34db 593e
00000160: 95d1 acbe 7d4d 32bf 3cc6 f43c 780b 25bd
00000170: 96ba 53bf d1b8 2c3f 45d3 90bc 547f 0c3d
00000180: 3f1f f13a 3232 e63d 40fe 073e fbef 863e
00000190: 38d4 47be c9f9 f4be c0ea f6be d267 90be
000001a0: 9603 1abf ded0 85bf e65a 8ebd 35be ce3e
000001b0: 39cd 9dbe 39e2 01be 4c94 503d e462 0a3e
000001c0: 33fb 42be e5f5 c7bd 01cd bebd 4259 663e
000001d0: ef4f 29bd cd59 513e d83b 5f3e 1eae d53e
000001e0: ea36 673e 8c0f cebe 8b71 c3be 2442 bebe
000001f0: 60e6 303f 0dac 473c afd1 453e 2c2f 79bf
